models/standard/k-fold saves/test1e_f6_e10_f5_b64.pt (torch, 335209 bytes, 86 tensors)

conv1.weight f4 [8, 2, 5, 5]
000000 16 12 39 bf 65 cb 70 3f 76 26 94 40 b5 e1 c3 3f
       -0.7229322 0.94060355 4.629695 1.5303255
000010 09 e9 5c 3f 93 b6 d0 bf 85 ce be be e3 71 ce 3f
       0.86293083 -1.6305717 -0.37266937 1.6128505
000020 7a e8 06 3f bb bb 3e bf ed 29 1c bf 61 87 80 bf
       0.5269848 -0.74505204 -0.61001474 -1.0041314
000030 79 ec 21 3e 64 1e df be e0 d5 e6 bc ce 0c 98 bf
       0.15812863 -0.43577874 -0.028178155 -1.1878908
000040 c7 07 93 bf ac 88 b3 3e ef 96 49 bf d9 94 84 3e
       -1.1486748 0.3506521 -0.7874593 0.25894812
000050 f1 ac 0a bf 93 cd f9 be 45 0d 82 3e 96 ad 8f bf
       -0.5417014 -0.48789653 0.2540075 -1.1224849
000060 12 11 ac be e1 4d 4a be 2f 55 92 3f 1a f1 83 40
       -0.33606774 -0.19756271 1.1432246 4.1231813
000070 9f d4 fb 3f f8 29 42 3f 9f c7 23 bf 97 30 ed bd
       1.9674262 0.7584529 -0.6397647 -0.115815334
000080 da 77 ad 3f 51 8c dd be cc c7 34 bf 4c 21 b5 be
       1.3552201 -0.43271115 -0.70617366 -0.35376966
000090 5c 5b 85 bf dd 0b 01 3f e8 ee 2a bf c8 e5 87 3e
       -1.0418506 0.50408727 -0.6677079 0.26542497
0000a0 77 7e e0 ba 38 ac 21 bf 97 02 01 be d9 0a 0c bf
       -0.0017127533 -0.6315341 -0.12598644 -0.5470405
0000b0 60 dd c8 3d ef f1 b6 3e cc 98 81 3e 7c 2c c3 3c
       0.09807849 0.35731456 0.25311887 0.023824923
0000c0 7d c4 9d be d2 4a ea 3e ec 9c 1c be 76 53 fb bf
       -0.3081397 0.45760208 -0.15294236 -1.9634845
0000d0 79 da 37 bf 93 93 82 bf dc 5f 1a bf ec 33 ee 3e
       -0.7181774 -1.0201286 -0.6030252 0.46523988
0000e0 87 51 a9 bf e3 02 ac be 70 21 d0 3c 65 97 0c 3f
       -1.3228005 -0.33595952 0.02540657 0.5491851
0000f0 c1 42 35 3f e3 4b 68 bf 52 69 98 be 59 bb 04 3f
       0.70804983 -0.90740794 -0.29767853 0.5184837
000100 e6 ba b0 3c 37 24 7c 3f 46 7e 8d bf d9 63 6c bf
       0.021573495 0.9849276 -1.105416 -0.92339855
000110 bc 6f 7c bc 9d 0b 3b 3c 04 f4 24 40 bb 5e a0 3f
       -0.015407499 0.011416343 2.5773935 1.252891
000120 47 7a 6e 3f e9 db 5d 3f 6c f2 db 3e e6 66 86 be
       0.9315533 0.8666368 0.4295839 -0.2625038
000130 a8 71 b0 bf 72 d9 a3 bf 1f 0e 86 bf fb 0d 27 bf
       -1.3784685 -1.2800734 -1.047306 -0.6525571
000140 00 8e 81 3f 53 c1 44 bf 85 58 3d bf 45 55 2e 3e
       1.012146 -0.7685749 -0.73963195 0.17024715
000150 73 44 09 3d 00 92 8f 3f bd bf 3c bf d1 27 1d bf
       0.033512544 1.1216431 -0.7373007 -0.6138888
000160 be fe 58 be 6e 3a 78 be e9 b1 b8 3f b1 f6 b7 be
       -0.21190926 -0.24241039 1.4429294 -0.35930398
000170 7a 5f b7 be cf 01 9d be 9d 21 f3 3d a6 60 59 40
       -0.3581503 -0.30665442 0.118716456 3.396524
000180 25 fc f6 3f c5 4b 85 3f 9d 6e 73 3f 1b 4f fc 3e
       1.9295698 1.0413748 0.9509066 0.49279103
000190 0b 9f cf 40 a7 6d b2 3e 8d f0 6b 40 a6 f9 72 3f
       6.4881644 0.34849283 3.686557 0.94912183
0001a0 f8 17 ae be 15 e3 fb 3f c4 14 80 bf b6 29 89 3f
       -0.34002662 1.9678675 -1.0006337 1.0715854
0001b0 eb 99 a6 bd 5a 28 14 bf ac 40 7e 3f 84 a0 aa bf
       -0.08134826 -0.5787407 0.9931743 -1.3330235
0001c0 f4 25 55 3f 73 05 0e be 73 51 c8 be 83 8d 0c be
       0.83261037 -0.13869266 -0.3912464 -0.13725857
0001d0 2e f4 d3 bf 48 1e c4 3f d4 75 e1 3e 74 1c 02 3f
       -1.6558893 1.5321741 0.44035208 0.50824666
0001e0 8b 9c bf 3f 0b 1d a2 3e 54 33 45 3f ac 39 c2 3e
       1.4969648 0.31662783 0.77031446 0.37934625
0001f0 a1 7d 82 3e ad 06 29 40 db 1c c9 be 44 3d a9 3f
       0.25486472 2.6410325 -0.39279827 1.3221822
000200 06 06 87 3e 94 8f 0e bf 3b 9a 24 3e 63 d1 a8 bf
       0.26371783 -0.5568783 0.16074459 -1.31889
000210 f2 92 b1 3e 1f 48 ab 3c ed ac 33 be ff fc 76 bd
       0.34682423 0.020908413 -0.17546435 -0.06029987
000220 7d 4f b2 bf 59 02 d2 bd 00 c1 6f be 4b 5a 2e 3e
       -1.3930508 -0.10254354 -0.23413467 0.17026632
000230 9b 5f d9 bf 2c d6 c2 bf 04 c8 1f 3f 83 df c1 3e
       -1.6982301 -1.522161 0.62414575 0.37865838
000240 8c d1 71 3e df bd 44 3e 28 dc e9 bc b6 d4 42 3e
       0.23615092 0.19213055 -0.028547361 0.19026455
000250 3a 99 0b 3e 37 88 39 3e ef 90 81 bf d9 64 c1 bf
       0.1363267 0.18118368 -1.0122355 -1.5108901
000260 15 de 9f bf 20 57 02 3f 85 65 2c bf 8b 9a f8 be
       -1.2489649 0.5091419 -0.67342407 -0.48555407
000270 70 ea 9c be 73 92 8e bd 99 28 9d 3d 8f 53 0a 3f
       -0.30647612 -0.06961527 0.07673759 0.5403375
000280 0c 8e 7d bf 0b 76 9b 3f b0 66 f6 be 6f 2e 2f bf
       -0.9904487 1.2145399 -0.4812522 -0.6843023
000290 43 a1 b6 be b7 a2 ac 3f c8 4f 49 40 1e cc 67 3f
       -0.35669908 1.3487157 3.1454945 0.90545833
0002a0 0a 8b 88 3f e7 31 2a bd 72 c8 a9 be b4 12 4c 3f
       1.0667431 -0.041551497 -0.3316074 0.7971604
0002b0 03 bc 86 be 95 af 62 bf 4f 71 08 bf 96 a1 a3 bf
       -0.26315317 -0.88549167 -0.53297895 -1.2783687
0002c0 f4 a3 bc bf 92 46 ad bf 1a 98 43 3b b1 0d a7 be
       -1.4737535 -1.3537161 0.0029845298 -0.32627633
0002d0 43 df f3 be 18 95 63 bd 85 36 28 be 2f 67 24 3d
       -0.47631273 -0.05556211 -0.16427048 0.040137466
0002e0 e5 a7 6c 3e 97 9b 73 bf 30 13 c8 3f 14 52 38 be
       0.23110922 -0.95159286 1.5630856 -0.1800006
0002f0 dd d3 29 bf c1 36 8f ba 27 91 8b 3f 73 d2 7d 40
       -0.663389 -0.0010926352 1.0903672 3.9659698
000300 3f 8f 9c 3f d7 83 03 3f 10 95 bd 3e 62 e1 9d 3c
       1.2231215 0.51373047 0.37027788 0.01927251
000310 92 fe 8b 3f 8a ad 8b 3e 53 3d 38 bf 3e 97 d7 bd
       1.0937064 0.27280837 -0.71968573 -0.10526894
000320 64 fd 8f 40 92 ee e1 3f 57 07 8c be a9 08 ad be
       4.4996815 1.7650931 -0.2734935 -0.3379567
000330 f0 ed f1 bd f6 b8 3c 40 b3 85 bc 3f 0b 68 18 bf
       -0.11812961 2.9487891 1.4728302 -0.59533757
000340 6b 6e be be 31 72 c4 be ac 25 28 40 18 f4 62 3f
       -0.37193617 -0.3836837 2.6272993 0.8865371
000350 35 c6 33 be 62 c6 0b 3f eb fd 07 3e b9 98 7d 3f
       -0.17556079 0.54599583 0.13280456 0.9906116
000360 eb c0 55 be 6e 11 18 bf fd 14 34 3f db 41 4f bc
       -0.20874374 -0.59401596 0.70344526 -0.0126499785
000370 7a 53 ec 3d 53 eb 6b be 0f 5a ea be b1 0a 72 3f
       0.115393594 -0.23038988 -0.45771834 0.94547564
000380 4f c2 31 be ce 16 b4 3f 64 35 c6 3f a3 39 cf bf
       -0.17359279 1.406946 1.5485044 -1.6189464
000390 84 ad 98 bf 1e d5 af bf a2 6e 87 3f cb 3e 1f 3f
       -1.1927953 -1.3736913 1.0580637 0.6220519
0003a0 7f 64 0c c0 7b 68 b2 bf 97 3d 80 bf 38 bb 99 3f
       -2.1936338 -1.3938135 -1.0018796 1.201026
0003b0 68 c1 8b 3f f6 ac c3 bf f0 69 23 bf db d1 65 bf
       1.0918398 -1.5287158 -0.6383352 -0.8977334
0003c0 53 d4 38 be d2 3f 53 be 51 97 6b bf 4a 89 8b 3e
       -0.18049745 -0.20629814 -0.92027766 0.2725318
0003d0 f0 e3 fa be f2 47 15 bf 61 a7 0f bf 34 9c ec be
       -0.49002028 -0.58312905 -0.56114775 -0.46212924
0003e0 47 58 c8 3d 0b c1 93 be 83 0c b7 bf dc 9e 4a bf
       0.097824626 -0.28858218 -1.4300693 -0.7914865
0003f0 ee 15 2a c0 8d f4 bf bf 50 2d b9 bf 4c 43 2b 3f
       -2.6575885 -1.4996506 -1.4466953 0.6689956

conv1.bias f4 [8]
000000 c0 9e 7e c0 25 b8 29 c0 f6 25 eb bf dc ab a8 bf
       -3.9784393 -2.6518643 -1.837096 -1.3177447
000010 e5 91 60 c0 83 ed 6c be 0c eb 21 3d 6d 93 af c0
       -3.5089047 -0.23137479 0.0395308 -5.4867463

bn1.weight f4 [8]
000000 6d ca a7 3f 66 32 af 3f 51 72 a8 3f d3 48 e1 3f
       1.310865 1.3687255 1.3159887 1.7600349
000010 f8 68 a9 3f 51 d4 ed 3f 0a 6b bf 3f a7 ba af 3f
       1.3235159 1.8580419 1.4954541 1.3728837

bn1.bias f4 [8]
000000 52 ff 39 bf 9e 6d a4 be 98 a5 aa bf 22 22 f6 3e
       -0.7265521 -0.3211488 -1.3331785 0.48072916
000010 b1 b1 f6 bf 7f 58 8d bf 14 be 7f 3f f7 99 88 bf
       -1.9272977 -1.1042632 0.9989941 -1.0671986

bn1.running_mean f4 [8]
000000 8b fa c0 3f 52 f6 7e 3f 4c 6a a4 40 a0 39 6a 3f
       1.507646 0.99594605 5.1379757 0.9149418
000010 14 9a d0 3f 10 06 ad 3f 35 29 27 41 d0 97 1b 40
       1.6297021 1.3517475 10.44756 2.431141

bn1.running_var f4 [8]
000000 dc f6 b0 41 e0 c0 51 41 13 2e 0f 43 50 4f 2e 41
       22.120537 13.109589 143.17998 10.894363
000010 35 83 ad 41 00 62 a5 41 a7 d3 95 42 05 3f 1c 42
       21.689066 20.672852 74.91338 39.061543

conv2.weight f4 [16, 8, 3, 3]
000000 fb 9f 87 be 65 a3 05 c0 3f 62 85 bf e4 e4 03 40
       -0.26489243 -2.0880978 -1.0420607 2.0608454
000010 39 0c 4f bf 29 fd fe be f4 b9 ea 3d c1 95 ca bd
       -0.80878025 -0.4980252 0.11461249 -0.098918445
000020 59 91 70 3f 87 aa 4c bf cf 86 6f be f2 69 47 3f
       0.9397178 -0.79947704 -0.23391269 0.77896035
000030 e7 1b 46 c0 51 3f a4 bf 19 98 24 bf 3b f9 b1 be
       -3.095453 -1.2831823 -0.6429458 -0.3476046
000040 22 55 39 3e 5c 9c 8e be 9c 75 a5 3f 54 90 b1 3e
       0.18098882 -0.27853668 1.2926517 0.34680426
000050 72 10 0f 3f f5 7c 83 3f f4 cb 5e 3f ba 84 05 3f
       0.5588447 1.0272509 0.8702996 0.5215565
000060 8c 3d d7 3f ba e8 6c 3f 9c ee 29 3f 88 c4 da 3e
       1.6815658 0.9254261 0.66379714 0.42728066
000070 4f 55 28 bd 3c a0 43 bf 40 4c 11 c0 3d 8b 2f c0
       -0.04109698 -0.76416373 -2.270279 -2.7428734
000080 72 33 da 3e c1 6e 0c be 6f 09 d9 be 34 ba 5a 3f
       0.42617375 -0.13714124 -0.4239001 0.85440373
000090 b9 d0 5f bf 80 da 88 3d 0a 09 02 3e 16 a1 f1 3e
       -0.8742786 0.066823006 0.1269876 0.4719321
0000a0 c1 1e 9f 3e de 17 e3 3d 82 8e 24 40 f6 cb af 3e
       0.3107815 0.11088537 2.571198 0.34335297
0000b0 71 3d a0 3e 59 0a 02 3f 03 38 20 3e f6 09 30 bf
       0.31296876 0.5079704 0.15646367 -0.687652
0000c0 68 56 55 c0 83 0f 3e c0 d1 70 e2 bf e1 ad 9b 3f
       -3.3333988 -2.9696968 -1.7690679 1.2162439
0000d0 5c 8c ba 3b fb 5e 39 3e a4 7f 4d bf ce 5f de be
       0.0056930017 0.18102638 -0.8027289 -0.43432468
0000e0 c0 74 aa be f3 e7 19 bf 5c 41 f6 be 2b db 25 be
       -0.33292198 -0.6011955 -0.4809674 -0.16196887
0000f0 64 cc f9 bf b8 04 db bf cd 4d d2 3e f8 ea 01 bc
       -1.95155 -1.7110815 0.41074982 -0.007929556
000100 c5 69 85 3e 00 ac a3 bf 5b 2d 56 40 aa a6 76 3f
       0.26057258 -1.2786865 3.3465183 0.9634806
000110 d3 98 29 3e fb 11 89 3f df 72 bb be 4e e3 b1 3e
       0.16562204 1.0708612 -0.36611077 0.34743732
000120 0d 3b 10 3f 1c ec d1 3f 6d 4c b7 3f 92 d0 e0 be
       0.56340104 1.640018 1.4320198 -0.43909127
000130 bb dd ee be 84 50 95 3f a8 9f 88 bf 11 4d 71 3e
       -0.46653542 1.1665196 -1.0673723 0.23564555
000140 22 f6 62 3f 77 d9 58 bf 7d 3b d4 bf e6 b0 8b 3c
       0.8865682 -0.84706825 -1.6580654 0.017052125
000150 4a b5 8d be be 7d 68 bf 45 63 e5 3f c9 7f 1c bf
       -0.27677375 -0.9081687 1.792092 -0.61132485
000160 54 89 68 bf 93 a3 09 3f 89 dd a5 3e a7 e8 c9 3f
       -0.90834546 0.5376522 0.3239558 1.5774125
000170 d3 98 e8 3f 3b 9d 36 3e 65 07 af 3f 06 0d 7c 3f
       1.8171638 0.17833416 1.3674132 0.9845737
000180 3e f0 05 bf 5e 3c 8d 3f 8f 68 bc 3f bc c1 f2 bf
       -0.52319705 1.1034048 1.4719409 -1.8965373
000190 d8 41 73 bc 45 52 83 3f c5 09 55 bf fe 05 23 bf
       -0.014847241 1.0259482 -0.8321803 -0.6368102
0001a0 23 35 81 3f 05 45 7c bf b7 eb 5f 3e 79 b3 b4 3e
       1.0094341 -0.98542815 0.21867262 0.35293177
0001b0 9d 9d 0a c0 5a 5d 62 bf 99 c8 81 3f ef 5e 19 c0
       -2.16587 -0.88423693 1.0139343 -2.3964193
0001c0 40 87 62 bf ba a9 d7 bd 7b a1 03 c0 e1 02 a5 bf
       -0.88487625 -0.1053042 -2.056731 -1.2891504
0001d0 86 57 b7 3e 27 f9 8d 3f fc 09 9a 3e b4 b1 00 40
       0.35808963 1.109166 0.30085742 2.0108461
0001e0 c8 ff 05 c0 5f 28 81 3e f5 1a be 3f be 14 ad bf
       -2.0937366 0.25226113 1.4851977 -1.3521955
0001f0 b4 54 6b 3e 2e d5 94 3f 6f 00 87 bf 93 b7 7e 3f
       0.2298153 1.1627557 -1.0547007 0.9949886
000200 ac c3 03 3f 6c 9f da bf 6f 7b 06 3f 2d 1a ea be
       0.51470447 -1.7079902 0.52532095 -0.45723096
000210 df a9 06 c0 16 9c 25 3f e0 7d d2 3d 24 61 f9 bd
       -2.104118 0.64691293 0.10277915 -0.12176731
000220 57 89 88 3f 37 25 07 40 a1 db a7 be b3 f7 e2 bc
       1.0666913 2.1116464 -0.3278475 -0.027706003
000230 db e2 fa 3f cc 77 2b bf 2f b3 1b bf 25 e0 cc 3f
       1.9600481 -0.6697967 -0.6082029 1.6005903
000240 fc 7e 83 c0 03 99 9d bd e5 8b da 3e b8 64 61 bf
       -4.109251 -0.076952 0.42684856 -0.8804431
000250 2a 58 73 bf 2b da 8a be e6 21 9d bf 76 9e d6 bf
       -0.950564 -0.27119574 -1.227597 -1.6767108
000260 ef c6 4a bf b7 59 86 3f 7e 75 1c c0 80 89 07 3d
       -0.792098 1.0496129 -2.4446712 0.033090115
000270 4f f4 62 3f b3 b2 26 c0 84 e0 a0 bf 69 76 58 be
       0.88654035 -2.604657 -1.2568517 -0.2113892
000280 ad db c8 bf 62 96 f2 3f 7f 36 90 bd 5f 27 9e bf
       -1.569204 1.8952143 -0.07041644 -1.2355765
000290 b5 b1 91 3f a0 27 b5 3d af e3 3c c0 19 99 91 bf
       1.1382357 0.088454485 -2.9513967 -1.1374847
0002a0 43 00 ff 3d b9 e4 02 c0 47 08 4e bf 56 e8 c4 3f
       0.12451222 -2.0452101 -0.8048138 1.5383403
0002b0 39 9f a0 3e 65 98 d4 be 01 eb c1 3e 39 6b 90 bc
       0.31371477 -0.41522518 0.37874606 -0.017629253
0002c0 15 41 a9 be bc 49 6d be fb ce 5d bd ee 91 eb be
       -0.33057466 -0.23172659 -0.05415247 -0.46009773
0002d0 b8 f8 a2 3e d4 a3 60 c0 01 06 e9 3e 3b 0e 15 3f
       0.31830382 -3.5099993 0.45512393 0.5822484
0002e0 88 0f 4c c0 55 d0 f1 bf 9e d5 ed 3e e7 c3 83 c0
       -3.188448 -1.8891703 0.4645204 -4.117664
0002f0 30 bb 0f c0 8f 77 2b 3e 4a 1c 07 c0 12 38 a4 3f
       -2.2458 0.16744827 -2.1111016 1.2829611
000300 64 55 76 3f 80 b9 18 be 38 95 00 bf 29 4c b1 3f
       0.96224046 -0.14914513 -0.5022769 1.3851367
000310 bf 86 35 bf 3c e2 fc bf 09 52 e8 3e 0b 01 08 3d
       -0.7090873 -1.9756541 0.45375088 0.03320412
000320 41 c5 22 3f d0 ed 5d be 66 87 28 bd a9 0f b0 bd
       0.63582236 -0.2167275 -0.04114475 -0.08596737
000330 90 de 0f bf d1 6f b3 be ea b2 23 3f ff 56 ba 3f
       -0.5619898 -0.35046247 0.63944876 1.4557799
000340 72 f6 3f 3d 97 e2 92 be 91 63 c4 3f 6b 8d a1 3e
       0.046865888 -0.286885 1.5342885 0.31553206
000350 f3 b8 71 3d 55 82 a2 3f 46 c0 56 bf d5 48 39 3e
       0.059014272 1.2696024 -0.83887136 0.1809419
000360 55 70 80 c0 f1 84 09 c0 7e 62 b4 bf c3 83 d6 3e
       -4.0137124 -2.148739 -1.4092557 0.418974
000370 31 b2 14 3f 59 71 05 40 87 70 82 bf c6 e8 3c 3f
       0.580844 2.0850432 -1.0190591 0.73792684
000380 fb 03 3a 3e 6c 3c dd 3f ca f6 18 3f 73 91 8f 3e
       0.18165581 1.7284064 0.5975157 0.28040656
000390 9f 2d a2 bf 75 d3 a4 be 25 97 3f 3f cc 5c 0b c0
       -1.2670172 -0.3219258 0.74840003 -2.1775389
0003a0 ce fa 46 3e 4a b0 a8 3f 30 be 20 c0 a0 24 da bf
       0.19431612 1.3178799 -2.5116081 -1.7042427
0003b0 a4 36 a3 be fa b0 40 bf a4 c9 db be 92 8b a1 be
       -0.31877625 -0.75270045 -0.42927277 -0.31551796
0003c0 07 69 75 bf bd 14 c6 be d7 17 1d 3f b5 70 2d 3f
       -0.95863384 -0.38687697 0.613645 0.677501
0003d0 43 5a d8 be 58 d6 55 be af 39 7d 3f b0 ed 96 3f
       -0.42256364 -0.20882547 0.98916143 1.1791286
0003e0 78 9d 43 3f 2b d8 83 bf d5 76 23 bf bb 58 f7 bf
       0.76412153 -1.0300344 -0.638532 -1.9323953
0003f0 d0 9a f2 bf dc 91 85 3d 5d b1 42 bf 99 35 ae be
       -1.8953495 0.06521961 -0.76051885 -0.34025267

conv2.bias f4 [16]
000000 a4 bb 9b be ae 0c 8f be db 05 ca be 88 09 cb bf
       -0.30416596 -0.2793936 -0.39457592 -1.5862284
000010 d1 0e 32 3e e4 ec 73 c0 c4 e4 7a c0 5a ef ea 3f
       0.17388465 -3.8113337 -3.9202127 1.8354294
000020 85 dc 92 3f 7b 08 fa bf b1 9e f7 bf 18 98 1f bf
       1.1473547 -1.9533838 -1.9345304 -0.6234145
000030 75 64 fb 3f dc 7a 17 c0 12 34 72 be c5 4f 3a c0
       1.9640032 -2.3668737 -0.23652676 -2.9111187

bn2.weight f4 [16]
000000 e9 aa 24 40 c2 a2 1b 40 e8 45 ae 3f 9f 64 93 3f
       2.5729315 2.431809 1.3615084 1.1515082
000010 b6 77 4d 3f 97 ea e7 3f 4a 9f bb 3f 9d 08 89 3f
       0.8026079 1.8118466 1.4657986 1.0705754
000020 66 08 48 40 7e 98 7c 3f 46 5c c6 3f f9 64 b8 3f
       3.1255126 0.98670185 1.549691 1.4405814
000030 41 19 00 40 db e8 c9 3f fa 8a 34 3f 19 4e bb 3f
       2.0015414 1.5774187 0.7052456 1.4633209

bn2.bias f4 [16]
000000 27 8f 86 3e a0 13 c5 3e 41 25 66 bf e7 c1 0c be
       0.26281092 0.38491535 -0.89900595 -0.13745843
000010 cd 37 1a bf a3 11 95 3e c3 1f ba 3e 82 52 9d bf
       -0.60241395 0.29115018 0.36352357 -1.2290804
000020 a1 32 42 3d a1 51 b1 3e 2c fe d8 3e 19 4d 88 be
       0.047411565 0.3463259 0.42381418 -0.2662132
000030 cf c4 90 be 8f b6 30 3f c5 7b e6 3e ad fb aa 3e
       -0.28275153 0.6902856 0.45016304 0.33395138

bn2.running_mean f4 [16]
000000 2c 73 e5 3f 8f ec 89 40 11 78 35 42 ae af f7 40
       1.7925773 4.310127 45.367252 7.7401953
000010 a9 0a ed 41 42 97 8d 40 f5 a4 da 3f 79 2f 9b 41
       29.630205 4.424714 1.7081591 19.39818
000020 f6 9f 28 40 1e 03 10 41 87 5b b6 3f 6d 9e 05 40
       2.6347632 9.000761 1.4246682 2.0877945
000030 eb 41 97 40 35 dd bb 3f 10 86 5c 41 c7 6d 19 42
       4.7267966 1.4676882 13.78273 38.357204

bn2.running_var f4 [16]
000000 d0 30 33 42 ce 7c 49 43 22 af c0 43 57 bf 16 43
       44.79767 201.48752 385.36823 150.74742
000010 d8 1b e4 43 2d f3 41 43 d6 cc 00 42 d9 0d bb 42
       456.21753 193.9499 32.200035 93.52705
000020 16 ef 9b 42 17 3d 44 43 97 55 ea 41 bf 78 48 42
       77.966965 196.23863 29.291792 50.117916
000030 73 7e 2b 43 05 c0 e0 41 85 6d b7 42 2f 19 aa 43
       171.49394 28.09376 91.713905 340.19675

conv3.weight f4 [32, 16, 3, 3]
000000 e5 3d e3 3f e4 49 61 bf 0f 6b 94 bf 71 0f 32 bf
       1.7753264 -0.88003373 -1.1595172 -0.6955481
000010 4e fe 90 bf 50 43 3d 3f 4a e6 b4 bf f2 07 18 bf
       -1.1327608 0.73930836 -1.4132779 -0.59387124
000020 b0 d7 9a 3d 5d 2d 25 3f 91 42 02 3f 76 19 80 bd
       0.075606704 0.64522344 0.5088282 -0.06254856
000030 d0 2f 08 3f 84 fd a4 3f 21 49 22 40 31 83 e0 bd
       0.53197956 1.2889867 2.5357134 -0.10962523
000040 0c 26 06 40 2b 87 07 40 e0 36 8f bf 5a cf 09 40
       2.0960722 2.117625 -1.1188622 2.1532807
000050 47 db 68 3f 10 49 91 3f b9 d9 23 40 40 26 52 3f
       0.9095959 1.1350422 2.5601637 0.82089615
000060 63 8a 3a 40 c4 0b 3c 40 bc 59 be 3e f4 fc 39 c0
       2.9146965 2.938218 0.37177837 -2.906064
000070 50 20 1e c0 01 a0 90 3f 03 48 79 bf 9d 6d 69 3f
       -2.4707222 1.1298829 -0.97375506 0.9118288
000080 b0 88 e6 3e 4c 78 2b c0 b4 39 4d be 36 3a 97 bd
       0.4502616 -2.6792173 -0.20041543 -0.0738415
000090 50 b4 e0 3f 0f 88 8e 3e 45 b2 d5 be 41 51 cc 3f
       1.7555027 0.2783818 -0.4173757 1.5962297
0000a0 8c 8d 2b bf c1 9a 38 3e bb 27 25 40 8e 01 76 3f
       -0.6701286 0.18027784 2.58055 0.9609612
0000b0 ee d4 79 bf 06 ec 35 c0 2e db c1 3f 6c b9 6a 3d
       -0.9759053 -2.8425307 1.5145013 0.05730574
0000c0 5a 1e 00 c0 d5 c0 68 bf 9b 55 a9 3f 01 26 26 c0
       -2.0018525 -0.9091924 1.322925 -2.5960696
0000d0 6c 06 32 3f 96 85 f2 3f 5e 97 39 3f 64 fb 88 3f
       0.6954105 1.8947017 0.72496593 1.0701718
0000e0 6d 9f 39 bc 8e 58 c1 be 97 05 7d 3e a8 2f c9 3d
       -0.011329514 -0.37762874 0.24709164 0.09823543
0000f0 9e 6d ab bf 8e 11 cf 3f de af 2e 3f 15 26 3f 3f
       -1.3392828 1.6177232 0.682371 0.74667484
000100 5a ac c7 3f 7b 73 6f 3f 9c 35 34 40 3f 4c 97 3f
       1.5599473 0.93535584 2.815772 1.1820143
000110 12 74 34 3f d8 a8 0b 40 41 6c 91 3f 7d 00 e1 3f
       0.7048961 2.1821804 1.1361161 1.7578274
000120 60 ef 8b 3f f3 46 6d 3f 3b 23 93 bf b4 e5 94 3e
       1.0932426 0.92686385 -1.1495126 0.290815
000130 85 27 f8 be 26 fd 04 3f d4 a5 bf bf bc a7 d8 bf
       -0.4846765 0.51948774 -1.4972482 -1.6926188
000140 19 5f 11 3f ad ff f8 bf ff e0 06 bf 85 a8 95 bf
       0.5678573 -1.9453026 -0.52687067 -1.1692053
000150 98 ba d8 bf d1 c3 e9 3e 4a b3 66 3e 9f 42 3f bf
       -1.6931944 0.4565721 0.22529331 -0.7471103
000160 df a5 9c 3f 6e 86 7a 3f f2 38 ab bf dd 05 df bf
       1.223812 0.97861373 -1.3376753 -1.7423664
000170 fb 45 82 3e 0c e2 45 c0 6f 90 78 bf 13 6b fa bd
       0.25444016 -3.0919218 -0.9709539 -0.12227454
000180 7c 09 13 c0 9c 90 bb 3d 61 8f b4 3e 12 fe 65 3f
       -2.2974539 0.091584414 0.3526564 0.89840806
000190 49 9a 13 c0 7c b6 99 3f f3 71 fa be 66 df 77 3f
       -2.3062918 1.2008815 -0.4891506 0.96825254
0001a0 b5 df 06 be 6e 5c bf bf e3 33 c9 3f 05 56 fe 3e
       -0.13171275 -1.4950082 1.571896 0.49675003
0001b0 e5 ed 30 3e e2 99 46 be 0d 86 02 be d4 f2 5a 3f
       0.1727825 -0.19394639 -0.12746449 0.85526776
0001c0 bf a5 cd 3e 08 02 21 3f b1 c8 c2 3f 0a 2b 3b 3f
       0.40165517 0.62893724 1.5217496 0.7311255
0001d0 ca 23 6f 3e 3b c2 39 40 01 c1 0f 3f 87 a7 bb bf
       0.23353496 2.90248 0.56153876 -1.46605
0001e0 83 7b 9d bd f1 7a 28 3f c0 15 4c 3d 39 2b 32 c0
       -0.076895736 0.65812594 0.04982543 -2.783888
0001f0 38 48 65 3c b2 87 46 be a7 82 55 c0 d2 0c 8c bf
       0.013994269 -0.19387701 -3.3360994 -1.0941412
000200 66 3e ce 3e 45 c6 19 c0 bd 68 8a be 8f 2c 39 3e
       0.4028198 -2.4027264 -0.27033034 0.18083404
000210 41 c9 b8 be 0c 1f 9b 3f a8 62 aa 3f 1f fe 37 bf
       -0.36091045 1.211885 1.3311357 -0.71872133
000220 c4 f7 ae be 33 c9 0f 3f 40 f7 d6 3e b7 84 24 bf
       -0.34173405 0.5616638 0.41985512 -0.64265007
000230 52 51 95 3f 81 32 f7 3f aa 63 3e be 39 e4 84 3f
       1.1665442 1.9312288 -0.18592706 1.0382148
000240 87 0c 60 3f 46 d2 78 be a3 4a f8 3e 12 a0 00 40
       0.87519115 -0.24298963 0.48494443 2.00977
000250 00 7a e6 3f 7d a4 4a 3f 7c 46 23 3f 5b f7 fe 3e
       1.8005981 0.7915724 0.63779426 0.49798092
000260 77 12 c9 3e 1c bc d2 be 01 06 9b 3e d6 e3 6d bf
       0.392719 -0.4115914 0.30278018 -0.92925775
000270 09 e5 1a bf 71 7f 83 bf 24 83 6f bf 17 80 f8 3e
       -0.6050573 -1.0273267 -0.9355948 0.48535225
000280 8e c5 24 c0 bb 78 84 be 18 29 53 bd 53 59 9e bd
       -2.5745578 -0.2587336 -0.051552862 -0.07731881
000290 15 29 92 3f f5 83 9a be 67 73 31 3d ba 49 bd 3e
       1.1418787 -0.301788 0.043322947 0.3697031
0002a0 3a 62 6c bf 14 cb 35 be dc c0 2c 3f 07 75 fc 3e
       -0.9233738 -0.1775325 0.6748178 0.49308035
0002b0 93 58 a1 3e 59 91 56 be 3e 2a 31 3f 1b 26 ad be
       0.3151289 -0.20953883 0.6920508 -0.33818135
0002c0 a6 c6 e2 be 5a ee ab c0 43 f7 0f c0 15 46 45 be
       -0.44292182 -5.3728456 -2.2494667 -0.19265015
0002d0 dc ea 72 be b2 fd 88 3f 2a 95 1d 3e 3e a5 00 c0
       -0.23722404 1.0702422 0.15388933 -2.0100856
0002e0 16 b5 40 be 2c e8 7c bf 7b 7b aa bf bf d3 d0 be
       -0.18819079 -0.98791766 -1.3318933 -0.4078655
0002f0 cd 88 d2 bf 9d d6 db be 2c 15 4d 3e 12 0e 9c 3f
       -1.6447998 -0.42937174 0.20027608 1.2191794
000300 2d a3 14 3f 81 9f 7d 3f 5b b1 53 3f 2b 7d de 3f
       0.58061486 0.9907151 0.826925 1.7381948
000310 b7 f8 aa 3d 61 b5 bb bf 13 7a 6f 3e 6e 29 67 bf
       0.0834822 -1.4664727 0.23386411 -0.9029759
000320 7f 1f 30 bf f5 e7 e2 bf 2a 44 c8 3e 3f 6e 75 bf
       -0.6879806 -1.7727038 0.39114505 -0.9587135
000330 e3 9d 8a 3f e4 90 34 3e 0b 7f c2 bd 93 96 b8 3e
       1.0829433 0.17633396 -0.09496888 0.3605238
000340 9f 84 12 3f e5 e0 1c 3f fa 1b 5d 3e e5 48 87 be
       0.57233614 0.6128066 0.21592703 -0.26422802
000350 84 0f 93 3e f4 ca c0 3e bf 4a aa 3f 3b 72 7e 3f
       0.28722775 0.3765484 1.3304061 0.9939305
000360 d9 b2 e1 3e ec ca 46 3e db 6a de 3e 4e 0d 67 3e
       0.44081762 0.19413346 0.434409 0.22563669
000370 9c 99 61 bf aa 86 61 3e ee 41 6a c0 7a ad a6 bf
       -0.88125014 0.22024027 -3.660274 -1.3021691
000380 58 0a c4 bf 04 7e db be c7 18 c9 3f ff 54 a3 3f
       -1.5315657 -0.4286958 1.5710686 1.2760314
000390 a5 89 3a c0 4a 41 c3 be 82 56 51 be 0c ca 24 bf
       -2.9146512 -0.3813575 -0.20443156 -0.643708
0003a0 a0 8c 4e 3d 34 c9 fc be dd 09 89 bc ca 48 97 3e
       0.05042708 -0.49372256 -0.016728336 0.2954772
0003b0 91 e9 91 3f 0d 5f 07 c0 52 b3 4e c0 7b ec 28 c0
       1.1399404 -2.1151764 -3.2296948 -2.6394336
0003c0 38 a3 d2 3d 06 6a 4f 3f 6b a4 4c bf 4d 02 49 3f
       0.10285038 0.81021154 -0.7993838 0.78519136
0003d0 3b 82 84 3f 13 92 5d bf 21 4f da bc fc ee e9 3d
       1.0352243 -0.86551017 -0.02664906 0.11422536
0003e0 15 61 31 40 36 d7 a2 3e 55 e1 1f c0 67 93 9e 3e
       2.7715504 0.31804818 -2.4981282 0.30971834
0003f0 2c 06 b3 3f e0 cb f6 bc fa 9d 3d 3e d5 81 34 3f
       1.3986259 -0.030126512 0.18517295 0.7051061

conv3.bias f4 [32]
000000 a4 f1 e8 bf 94 7a f4 bf 80 31 e6 bf 72 11 3f 3f
       -1.8198743 -1.9099908 -1.7983856 0.74635994
000010 cf 65 af bf e2 1e fb bf 1d 8f f9 bf d2 f4 fa be
       -1.3702945 -1.96188 -1.94968 -0.49014908
000020 ea 85 2b c0 d0 08 2c bf 18 b8 ea be d2 20 0c bf
       -2.6800485 -0.67200947 -0.45843577 -0.5473758
000030 27 a6 94 bf 69 8e ac bf 8e bc 02 bf ce 9e 32 c0
       -1.1613206 -1.348096 -0.5106896 -2.7909427
000040 d4 60 00 bf 91 35 32 c0 b3 48 64 3f a0 cb 1e be
       -0.5014775 -2.7845194 0.8917343 -0.15507364
000050 e7 42 2b c0 e0 70 ce 3c fe 6e 0f c0 23 25 82 bf
       -2.6759584 0.025200307 -2.2411494 -1.0167583
000060 fc 1b 49 bf b1 f5 04 c0 d0 4c d0 3d fe 41 aa bf
       -0.78558326 -2.0774958 0.10170901 -1.3301389
000070 69 fa 31 c0 ec 69 97 bf 6a 2f 9e bf 10 a5 11 c0
       -2.7809088 -1.18292 -1.235822 -2.2756996

bn3.weight f4 [32]
000000 9d ba 0c 40 31 14 96 3f 49 6f bd 3f 33 17 d0 3f
       2.19889 1.1724912 1.4799587 1.625708
000010 19 6b 9d 3f 84 b8 d7 3f e0 79 ef 3f 25 bd e1 3f
       1.2298309 1.6853185 1.8709068 1.7635847
000020 cb 79 cc 3f 96 25 93 3f 35 4e 07 40 9a f5 ab 3f
       1.5974668 1.1495845 2.1141484 1.3434327
000030 89 c7 09 40 00 bb db 3f 81 9a 02 40 a6 46 b1 3f
       2.1528037 1.7166443 2.0406802 1.3849685
000040 5e 14 e7 3f 49 53 ca 3f 1c 58 f5 3f 2d 66 04 40
       1.805309 1.5806667 1.9167514 2.0687363
000050 52 38 b5 3f 0e 7d 07 40 f6 f1 03 40 e3 6a dc 3f
       1.4157813 2.1170077 2.0616431 1.7220119
000060 36 e2 cd 3f 35 6d 9c 3f 3b 5e bc 3f 19 b1 c9 3f
       1.6084659 1.2220827 1.4716257 1.5757171
000070 df 79 b9 3f 30 f6 e5 3f 9e 49 a6 3f 06 33 ba 3f
       1.4490317 1.7965755 1.2991216 1.4546821

bn3.bias f4 [32]
000000 e4 70 9f bf c3 3d a0 be 0b ed 11 bf 27 fe ff be
       -1.2456326 -0.3129712 -0.57002324 -0.4999859
000010 45 e6 16 bf b1 4b 9a 3f c2 e1 bc 3e 90 25 9f 3f
       -0.58945113 1.2054349 0.3689099 1.2433338
000020 45 da 06 3f ee 75 c0 3f 30 48 7a 3f 22 db 38 3f
       0.526768 1.5035989 0.977664 0.7220937
000030 80 c8 87 3f 41 e9 8c bf 27 59 30 3f 0a a3 80 3f
       1.0608063 -1.1008683 0.68886036 1.0049756
000040 f0 83 d0 3e 9f f6 81 3d d6 85 45 3f c6 5a 8a 3f
       0.4072566 0.06345867 0.7715734 1.0808952
000050 9a b7 09 c0 46 0e 2b 3f 93 ee 24 bd 58 9a 27 3e
       -2.1518312 0.66818655 -0.040266585 0.16367471
000060 5a d9 66 3d 46 7a 2d 3e fa 67 8a be cc 0a 35 bf
       0.056359626 0.16941175 -0.27032453 -0.707196
000070 72 29 30 3e fc 35 e2 bf 3c 41 3a 3f 13 14 40 be
       0.1720331 -1.7672725 0.7275579 -0.18757658

bn3.running_mean f4 [32]
000000 a3 34 92 3f 7d fd 54 3f 78 ea ec 3f 4c f0 ec 40
       1.1422313 0.8319929 1.8509054 7.404333
000010 22 0b 75 40 f6 a0 a7 40 25 b7 09 40 0d a8 a6 40
       3.8288045 5.2383986 2.1518033 5.208014
000020 d6 31 71 40 92 e3 8b 40 81 5b 6a 40 00 0a fb 40
       3.7686667 4.3715296 3.661835 7.8449707
000030 35 0c 33 40 3f ae a1 40 2f c4 22 40 02 e1 0c 3f
       2.79762 5.0525203 2.543224 0.55030835
000040 cc 7f 44 40 c5 63 97 40 f8 b2 44 41 8c 8d 01 40
       3.0703 4.730929 12.293694 2.0242643
000050 c5 55 c5 3f bc 54 b6 40 cc 1f 10 3f f5 ca ec 40
       1.54168 5.6978436 0.5629852 7.399775
000060 40 87 90 40 e2 7a ce 3f 0a 3e 0e 40 df 1f 25 41
       4.51651 1.6131251 2.2225366 10.320281
000070 b2 a6 1a 40 a4 ae a5 40 cb 54 a8 40 84 83 1f 40
       2.4164243 5.1775684 5.2603507 2.492402

bn3.running_var f4 [32]
000000 a4 5e a0 42 8d fe 02 42 73 4d 9e 42 3d ed 16 43
       80.184845 32.748585 79.15127 150.92671
000010 f7 c6 de 42 4a d4 5c 43 81 36 d7 42 bf c1 8b 42
       111.3886 220.82925 107.60645 69.87841
000020 be 9b 57 43 75 f3 88 42 2f 59 36 43 ed aa 66 42
       215.60837 68.4755 182.34837 57.66692
000030 d6 50 4e 43 28 3b 80 43 d3 36 55 43 83 bd 0b 42
       206.31577 256.46216 213.21416 34.93507
000040 ed a6 c2 42 28 84 c2 43 ca 8f 00 43 b9 c9 c7 42
       97.32603 389.03247 128.56168 99.89399
000050 bb fc 22 42 00 75 5f 43 ae 27 d7 41 46 b7 6f 43
       40.746807 223.45703 26.894375 239.71591
000060 20 01 33 43 01 f9 27 42 e4 62 92 42 2a ac da 42
       179.0044 41.993168 73.193146 109.33626
000070 c2 1e 0a 43 75 e1 f6 42 2a c3 a5 42 ae 01 99 42
       138.12015 123.440346 82.88118 76.50328

conv4.weight f4 [64, 32, 3, 3]
000000 d5 9b c5 3f 67 bc ce 3d 4c 80 3f bf 1b f6 b0 3f
       1.5438181 0.10094529 -0.7480514 1.3825105
000010 e0 8e 27 bd 25 4d d4 bf 9c 4a d2 3e 79 d8 63 c0
       -0.04090774 -1.6586043 0.41072547 -3.5600874
000020 7e c1 a5 bf 52 40 96 be d4 6f 33 3f 5d 97 94 bf
       -1.2949674 -0.29345948 0.7009251 -1.1608692
000030 9b 90 6b 3e ec 93 8e 3e a5 d8 b0 bd ef ca 1c 3f
       0.23004381 0.2784723 -0.08635072 0.6124715
000040 3a ae b1 be 92 ef 44 3f 40 f0 ba bc c6 76 31 40
       -0.34703237 0.76928055 -0.022819638 2.7728744
000050 b4 34 2b 3f 3c a1 3f bf 81 48 db 3e 96 0e 23 bf
       0.66877294 -0.748554 0.42828754 -0.6369413
000060 f0 39 08 bf d7 43 ba bd f4 f9 45 bd 50 bd 0e c0
       -0.53213406 -0.09094971 -0.048334077 -2.2303047
000070 ad 01 d7 bf e6 4d b8 3f 2e d4 85 3f d8 e1 4d be
       -1.6797386 1.4398773 1.0455377 -0.20105684
000080 d4 28 c0 bf a1 12 46 3f b9 d9 0d 3f cf 32 28 c0
       -1.501246 0.77372175 0.55410343 -2.628101
000090 99 d0 f5 bd 22 78 11 bf 18 ff 3d bf 6a 39 00 be
       -0.120026775 -0.56823933 -0.7421737 -0.12521902
0000a0 2d ca 7a bf be 0a 1e c0 11 aa 99 3e d6 93 9d 3f
       -0.97964746 -2.4694057 0.30012563 1.2310741
0000b0 9b 60 f0 bf 7f ba 76 be 18 8a ed be 06 c6 97 3f
       -1.8779482 -0.2409458 -0.4639442 1.1857307
0000c0 f7 a4 91 bd c7 12 00 bf ef 28 ae 3f 1e bf 6d 3f
       -0.07111543 -0.5002865 1.3606242 0.92869747
0000d0 bd 56 9c bf b0 7d 01 bc 20 d3 f0 bf 64 16 14 3f
       -1.221397 -0.007903501 -1.881443 0.57846665
0000e0 3f fb 95 be 61 cc 1f 3f 9d 24 b8 3f a3 ad c8 3e
       -0.29293248 0.6242123 1.4386173 0.39194974
0000f0 52 41 17 3e 68 a3 6e bf 60 ec 5b 3f 11 00 58 bf
       0.14771011 -0.9321809 0.85907555 -0.843751
000100 86 46 22 c0 be cf 5b bf 87 4b 05 c0 0f cb a9 3f
       -2.5355544 -0.85863864 -2.0827348 1.3265094
000110 62 f4 bd 3f 3a 71 ad bd 91 5b 23 be e0 52 8e bf
       1.4840205 -0.08468862 -0.15952899 -1.1119041
000120 48 fa 46 bf 42 f6 30 3f 93 5c c1 3d 8c d9 5d be
       -0.7772565 0.6912576 0.09441485 -0.21665019
000130 5a 39 a8 3e be 2f 21 3f bf 48 ee bd b9 f9 db be
       0.32856256 0.62963474 -0.11634969 -0.4296396
000140 87 5e 09 40 3e 71 5c bf 30 05 87 bf e7 a3 ca be
       2.1463945 -0.86110294 -1.0548458 -0.39578173
000150 b2 15 6f 3f ae 44 d8 3f 04 47 c3 3e 2c c2 c6 bf
       0.9339248 1.6895959 0.38140118 -1.5528007
000160 2c f7 45 bf 9e e7 e9 3f ec 77 87 bf 56 3d 4f c0
       -0.7733028 1.8273809 -1.0583472 -3.2381186
000170 01 87 01 c0 c5 8a 15 40 ee 55 30 be 95 da 2c bf
       -2.023865 2.3365948 -0.1722028 -0.6752103
000180 2c 00 45 3f a3 1e 2e c0 cb 98 74 be 38 36 ae bf
       0.7695339 -2.72062 -0.23886411 -1.3610296
000190 08 0f 9a be 0a fc 4c 3f d2 c5 b0 3f 3e 3e 39 be
       -0.30089593 0.8007208 1.381037 -0.1809015
0001a0 a2 77 32 bf fd 19 1e be d8 27 98 3f dc 26 91 3e
       -0.69713795 -0.15439601 1.1887159 0.2834996
0001b0 1e d7 33 3f 13 e5 80 be 4b c9 7e bf 40 58 ff be
       0.7025012 -0.2517477 -0.995259 -0.49872017
0001c0 ab 42 bd be a3 25 50 bf 89 01 ce 3e 68 83 83 bf
       -0.36964926 -0.8130743 0.40235546 -1.0274477
0001d0 36 26 91 bf 20 8e ed bd 11 b1 8f 3f 0b 64 92 3f
       -1.1339786 -0.11599374 1.1225911 1.1436781
0001e0 35 74 26 3f 05 7b 04 bc de 68 ab 3e 17 b8 2a bf
       0.6502107 -0.008085971 0.33478445 -0.6668715
0001f0 70 2c 48 be 42 2d ab bf bd 2f 37 bf 14 18 46 bf
       -0.19548202 -1.3373187 -0.7155722 -0.7738049
000200 65 ca 93 3d 2e 1c 27 3f 2f 22 8e 3f 2c 01 47 c0
       0.07216338 0.65277374 1.1104182 -3.1094465
000210 58 11 b0 3d e4 32 b9 bf f2 30 31 c0 66 32 e8 be
       0.08597058 -1.4468656 -2.7686124 -0.4535095
000220 a8 b2 13 bf d7 09 d2 bf 4f c6 a0 be d1 d1 27 c0
       -0.5769448 -1.6409253 -0.31401297 -2.6221812
000230 c8 17 8b be f4 38 fb 3d f7 9a b1 bf 4f 76 e4 be
       -0.2716658 0.12266722 -1.3875417 -0.44621512
000240 6b 63 2f be 35 b1 85 3f 3c bb 2c be 8d 07 7b bf
       -0.17127769 1.0444704 -0.16868299 -0.98058397
000250 84 56 fb 3e 36 20 5f be 61 8d f9 3e c5 c9 d3 3f
       0.49089444 -0.21789631 0.48740676 1.654595
000260 cf a4 8f bf e6 ce d8 3e 24 f1 d1 3f bd 5e fb be
       -1.122217 0.4234535 1.6401715 -0.49095717
000270 95 e7 6f bf b5 3b ac 3f 6f 1f b5 c0 be 39 ed bf
       -0.9371274 1.3455721 -5.660087 -1.8533247
000280 e8 0f d1 bf 4e 4a e9 bf ad fd bb 3f 56 e1 f2 3f
       -1.6332979 -1.8225801 1.4686791 1.8975017
000290 c8 0b 2f 3f d9 84 f3 bf 57 bb 1f bf 39 3e 03 be
       0.6837735 -1.9024917 -0.6239523 -0.12816705
0002a0 7a 34 f6 bf d6 73 73 bf 09 99 dc 3e 84 f5 bc 3d
       -1.9234765 -0.95098627 0.43085507 0.09226516
0002b0 f7 63 07 3f af 0f a6 3f 6e 36 df be 74 be 08 be
       0.5288691 1.2973536 -0.43596214 -0.13353902
0002c0 77 d9 b1 bf e1 8e 4c 3f ef d6 94 3e 74 da 44 c0
       -1.389449 0.79905516 0.2907023 -3.0758333
0002d0 2e 85 db 3e 54 c4 89 be 15 2b 50 3f 3d 94 e7 3e
       0.42875046 -0.269076 0.8131574 0.45230284
0002e0 f8 ed 93 3f 7a 94 19 40 fa 2b b3 3f a7 77 cd 3f
       1.1556997 2.3996873 1.3997796 1.605214
0002f0 c3 2e ad 3f 0e dc 8b be 92 73 00 3f 1f d8 5b be
       1.3529896 -0.27316326 0.50176346 -0.21469162
000300 4c 5f 1d be da f0 5c be 92 5f 1c 40 8c 17 a2 3e
       -0.15368384 -0.21576253 2.4433331 0.3165859
000310 74 19 b4 bf c1 a9 98 3f 9e 4a 0e c0 6c 1d b6 3e
       -1.4070268 1.1926805 -2.2233043 0.35569322
000320 7b 64 a8 3e 71 a2 da 3f 32 3f c7 3f 0d 4b 21 c0
       0.3288916 1.7080823 1.5566161 -2.5202057
000330 6c d3 3b 3e 03 2c b6 be f6 32 f8 bf b2 78 97 bf
       0.1834237 -0.35580453 -1.9390552 -1.1833708
000340 d8 a5 ec 3d 5a 25 b0 3f df fa 85 bf 68 70 c0 bd
       0.1155507 1.3761399 -1.0467185 -0.0939644
000350 a6 41 c9 3f 82 49 ae 3e f7 a8 ee 3e 6e 0a 33 bf
       1.5723159 0.34040457 0.46613285 -0.6993779
000360 b8 da 9d 3f f7 33 53 bf 8f 43 4e bf cc 8e 41 3f
       1.2332373 -0.8250117 -0.80571836 0.75608516
000370 80 b0 e0 b8 3b 61 d1 3e 0a 00 86 3f 05 99 2b bd
       -0.00010714028 0.40894493 1.0468762 -0.041893978
000380 a7 ae c8 bf 94 f8 8a 3f fb 07 f4 bf aa 52 91 c0
       -1.56783 1.085711 -1.9064935 -4.541341
000390 9c 45 94 bf bf f3 04 c0 e9 cd 8e 3f aa 02 0a be
       -1.1583743 -2.077377 1.1156589 -0.13477579
0003a0 5b 2b 3d 3e d6 67 a6 bf a2 83 9c bf 86 ed 68 3f
       0.1847357 -1.3000438 -1.2227671 0.9098743
0003b0 f3 d3 12 3f be 37 1e 3f fc 09 4d 3f 05 c5 5b bf
       0.5735466 0.61803806 0.8009336 -0.858475
0003c0 bd c1 e2 bf 56 af 79 3f 37 34 c3 3e 38 37 a1 bf
       -1.7715374 0.97533166 0.38125774 -1.2594976
0003d0 3e f8 1a 3f b7 81 52 bf 15 f4 40 3f de 49 c5 3f
       0.6053504 -0.8222918 0.7537244 1.5413167
0003e0 f9 75 f1 3e 62 a1 88 c0 dc e0 15 be 48 fb b1 3f
       0.47160318 -4.2697 -0.14636558 1.390481
0003f0 ac 90 14 bf ff fb 44 bf 0a 45 da be 51 46 bd be
       -0.5803325 -0.76947016 -0.42630798 -0.3696771

conv4.bias f4 [64]
000000 a2 77 a1 be 51 84 44 c0 d9 3b e8 bc 56 4c 39 be
       -0.31536585 -3.070576 -0.02834885 -0.18095526
000010 f1 e1 88 bf 08 90 07 c0 a2 c5 cf be 7d 0b d5 be
       -1.0693952 -2.118166 -0.4058047 -0.41610327
000020 d9 7c 00 bf e4 29 6d bf 24 d9 c7 bf db 7c ae bf
       -0.501905 -0.92642045 -1.5613141 -1.3631853
000030 68 f6 b1 3d 7e c7 84 be 85 eb b6 bf 85 5d 8e bf
       0.086895764 -0.2593345 -1.4290625 -1.112229
000040 9e 27 8e bf 4f de ad bf 55 db 45 3e 8e fe 8c bf
       -1.110584 -1.3583468 0.1932195 -1.1015184
000050 e4 29 ff 3e 50 8e 4b 3e d4 36 24 c0 9c c6 9c bf
       0.49836648 0.19878507 -2.5658464 -1.2248111
000060 c6 0d 2f bf 26 4c 01 be 0b 5d 07 bf 18 56 a5 bf
       -0.6838039 -0.12626705 -0.5287635 -1.2916899
000070 28 44 b7 bf 6e ce 35 bf b8 e1 3c bf 46 15 d3 be
       -1.4317675 -0.7101811 -0.7378192 -0.41227168
000080 9a 55 fc 3c 00 67 c1 be d6 03 93 bf a0 92 4a bf
       0.030802537 -0.37773895 -1.1485546 -0.7912998
000090 10 0a ff be 47 ee b6 3d df e1 cc be 5d ca 14 bf
       -0.49812365 0.089321665 -0.40016076 -0.5812128
0000a0 e4 67 16 bf 95 89 04 c0 ea 96 63 bf 0e 7e 8d 3f
       -0.58752275 -2.0708973 -0.8890215 1.1054094
0000b0 af 90 63 bf 9b 63 9c bf 3b 8e 9c bf da 4b ae 3e
       -0.88892645 -1.2217897 -1.2230905 0.34042245
0000c0 73 d3 e4 be bc 3f 9f 3e 16 b6 ca bf cb 47 40 bf
       -0.44692573 0.31103313 -1.5836818 -0.7510955
0000d0 d9 f7 23 bf 17 3d e9 bf 52 63 ce bf bb 7e 1a bf
       -0.6405006 -1.8221768 -1.612406 -0.60349625
0000e0 60 d6 d6 3e eb 5a 25 bf 7e df b9 bf 97 4b ab bf
       0.4196043 -0.64591855 -1.4521329 -1.3382443
0000f0 ad f4 84 bf e0 c3 16 c0 c6 ed 0f c0 92 9a 91 bf
       -1.0387169 -2.3557053 -2.2488875 -1.1375296

bn4.weight f4 [64]
000000 0d 99 86 40 cc c8 8d 40 45 c0 be 3f f0 02 92 40
       4.206183 4.4307613 1.4902426 4.5628586
000010 06 45 87 40 8e aa 55 40 2e a1 9b 40 30 d4 51 40
       4.2271757 3.3385348 4.8634253 3.278576
000020 8b 38 57 40 2f 76 7b 40 cc 40 82 40 87 f1 61 40
       3.362826 3.9290884 4.07041 3.5303667
000030 fb 5d ae 3f f2 5b 82 40 78 94 7f 40 b8 26 44 40
       1.362243 4.073724 3.9934368 3.0648632
000040 5b 81 50 40 8e b1 97 40 9c 0e 95 40 88 9e 33 40
       3.2578952 4.740424 4.6580334 2.806551
000050 1e 10 8f 40 99 3d bb 3f 72 d5 98 40 16 86 73 40
       4.4707174 1.4628173 4.7760553 3.805059
000060 90 07 a4 40 85 eb 4a 40 67 a1 9c 40 a5 ae 8d 40
       5.125923 3.170625 4.8947024 4.427569
000070 3c c7 81 40 94 28 4e 3f aa 9e 2e 3e 75 37 a9 3f
       4.0555706 0.8053067 0.17052713 1.3220049
000080 eb f9 89 40 47 44 03 40 95 d4 64 40 ed d7 76 40
       4.3117576 2.0510423 3.575475 3.856929
000090 3b 7e bf 40 2c 28 6d 40 e2 13 6b 40 bd 0f 98 40
       5.984159 3.705577 3.6730886 4.751921
0000a0 e9 13 89 40 af ea 60 40 3c 33 70 3f ce 7c a6 40
       4.2836804 3.514324 0.9382818 5.202735
0000b0 55 b5 a0 40 0a 92 8d 40 10 28 81 40 41 a9 b8 40
       5.0221353 4.424077 4.0361404 5.770661
0000c0 1c 3e 85 40 4b 4b 9b 40 bc fe 4a 40 e2 cb 6f 40
       4.1638317 4.852941 3.1717978 3.746819
0000d0 d3 48 3b 3f 8c 54 82 40 c3 22 82 40 20 7c 23 40
       0.73157996 4.0728207 4.0667434 2.554451
0000e0 25 db a2 40 99 b4 81 40 cb 31 4c 40 e4 c6 8c 40
       5.089251 4.0532956 3.1905391 4.3992786
0000f0 71 1f 87 40 40 0f 8c 40 80 2d 81 40 07 ff 82 40
       4.222588 4.3768616 4.036804 4.0936313

bn4.bias f4 [64]
000000 1a 75 be 3e 8c 58 76 3e 87 a3 e3 3c 1c 97 26 3e
       0.37198716 0.24057215 0.027787937 0.16268581
000010 54 63 fc 3b 6d b6 a3 3e fc 26 d6 3e fa 8e 3b bd
       0.0077022705 0.31975117 0.41826618 -0.04579065
000020 a6 89 84 3e 6f a8 bf 3b d1 e0 1a 3d 69 fb 8f 3e
       0.25886267 0.0058489363 0.037812058 0.28121498
000030 45 d6 cf 3d d6 0c 87 3e 6e 36 35 3e ea 14 12 3e
       0.101482905 0.2637698 0.17696545 0.1426579
000040 b3 6b 18 3d 0c b7 f4 bc 5d 00 ff 3c 3d 9f 29 3e
       0.037212085 -0.02987244 0.031128103 0.16564651
000050 c4 95 12 3c 19 03 5a bc a1 52 b7 3e 55 7b e4 3d
       0.00894684 -0.013306403 0.35805228 0.11156336
000060 1f 13 04 3e 7c 7c 4e 3d 84 2a 3b 3e fc 3e 3c 3e
       0.12897919 0.050411686 0.18277937 0.18383402
000070 8a 43 a8 3e 5b 9b 58 3d 86 db 33 3b ed 6e 02 3e
       0.32864028 0.052882534 0.0027444079 0.12737627
000080 b4 dd 38 3e 2a 7c dd 3d e0 6b e4 3d 81 a2 e8 3c
       0.18053323 0.10814698 0.11153388 0.0283978
000090 d7 04 8e 3e a8 33 b3 3d b4 90 b9 3d d7 e9 e9 3d
       0.27738068 0.08750087 0.09060803 0.114215545
0000a0 6a a2 51 3e 60 b1 85 bb f2 8e 78 3e ca c2 41 3e
       0.20472112 -0.0040799826 0.2427328 0.18921962
0000b0 36 61 75 3e 9b 01 1c 3e 48 60 a4 3e 23 2f 86 3e
       0.23962864 0.15234987 0.32104707 0.26207837
0000c0 f4 ba f1 3d 1d be 8d bd 1e f8 9c 3d 1d f4 2c 3e
       0.118032366 -0.06921027 0.07664512 0.16889997
0000d0 42 c3 e1 3c 39 ce 4c 3e f5 8a 9d 3e 41 09 93 3c
       0.027558926 0.20000543 0.30770078 0.017948749
0000e0 e7 17 a9 3e 5f 81 db bb 99 92 4d 3e 07 f2 28 3e
       0.3302605 -0.006698772 0.20075454 0.16498576
0000f0 76 9c d4 3d 9e 10 c8 3e b7 12 bb 3d 85 30 1b 3d
       0.10381405 0.39075178 0.09134429 0.03788807

bn4.running_mean f4 [64]
000000 8b a1 c5 3f 1c 1a 39 3f 17 10 6f 42 c8 37 59 3f
       1.5439924 0.72305465 59.765713 0.8485074
000010 bf 77 f4 3e 34 ed a7 3f f4 7d 22 40 06 d2 81 3f
       0.4774761 1.3119264 2.5389376 1.0142219
000020 33 bd 1a 3f ee 58 c0 3e 92 ca 2a 3f e3 dc 59 3f
       0.60444945 0.37567848 0.6671535 0.8510267
000030 02 79 e9 41 8c 26 73 3f 79 12 34 3f ab bd a7 3f
       29.184086 0.9498069 0.7034069 1.3104757
000040 20 2b b4 3e c8 45 b4 3e ab d1 41 3f 57 ac 15 3f
       0.35189152 0.3520949 0.7571055 0.58466095
000050 91 41 15 3f 85 6d 9a 42 dd b1 bf 3f c7 6e 98 3f
       0.5830317 77.213905 1.4976155 1.1908807
000060 8f 1b a9 3e 86 ee 1a 3f ec 30 87 3f a6 59 e4 3e
       0.33028838 0.6052021 1.0561805 0.44599646
000070 dc 22 24 3f c0 fb 17 40 81 58 86 3e 6c 2d 6f 40
       0.6411569 2.3747406 0.26239398 3.7371473
000080 c6 2d 2d 3f 32 e8 66 40 00 c9 b6 3e 0a d3 15 3f
       0.6764797 3.607922 0.35700226 0.58525145
000090 e0 f5 44 3f 2d 58 84 3f d9 a6 5b 3e c1 b7 a7 3e
       0.76937675 1.0339409 0.21450366 0.3275738
0000a0 a1 3f 1e 3f 92 17 9f 3f 92 52 b6 40 27 ee 5a 3f
       0.6181584 1.2429068 5.6975794 0.8551964
0000b0 ec 69 11 3f 32 0f 2f 3f a2 0c ab 3e 27 d9 ac 3f
       0.5680225 0.6838256 0.33408076 1.350377
0000c0 53 50 49 3f 11 bd 87 3e 3b 67 88 3e d6 6b cb 3f
       0.7863819 0.26511434 0.2664126 1.5892284
0000d0 37 2e 20 41 a6 52 f8 3e 1f 67 5a 3f 9b f8 31 40
       10.011283 0.48500556 0.853136 2.7807987
0000e0 60 67 3e 3f f9 33 f3 3e 45 63 01 40 3a 03 23 3e
       0.7437649 0.4750059 2.021684 0.159192
0000f0 f4 8d 07 3f 32 90 c8 3f d1 cc 3b 3f 9a 79 55 3f
       0.5295098 1.5669005 0.733594 0.83388674

bn4.running_var f4 [64]
000000 26 7a d3 42 5a 89 46 42 d2 d6 16 45 13 aa 1e 42
       105.73857 49.634132 2413.4263 39.66609
000010 a6 4b bb 41 bb a7 a1 42 4f 4b 4c 43 d2 b7 86 42
       23.411938 80.8276 204.29417 67.359024
000020 50 aa dc 41 8c f9 78 41 60 b8 1b 42 cc fd 2c 42
       27.58316 15.560925 38.930054 43.24785
000030 9f 04 7e 44 1b ca 72 42 52 4e 21 42 64 99 e2 42
       1016.0722 60.69737 40.326485 113.29959
000040 98 dd 82 41 d7 50 68 41 25 07 2e 42 00 b6 de 41
       16.3582 14.519736 43.506977 27.838867
000050 16 78 df 41 d8 fc 03 45 70 fa be 42 e2 8f c4 42
       27.933636 2111.8027 95.489136 98.28102
000060 ba 65 54 41 25 fb ca 41 ef 83 8d 42 81 46 a2 41
       13.274836 25.37263 70.75768 20.284426
000070 9d ae f8 41 86 f7 61 42 34 0c 81 41 9a ed 6e 43
       31.08526 56.491722 16.130959 238.92813
000080 33 bf 20 42 3c 92 18 43 f1 17 b5 41 b6 f3 e4 41
       40.186718 152.57123 22.63669 28.619
000090 75 9a 58 42 b1 47 5a 42 c2 96 e7 40 8d 7f 5f 41
       54.150837 54.57001 7.237153 13.96864
0000a0 46 d3 f0 41 e1 33 cf 42 e0 b7 34 43 36 41 26 42
       30.10316 103.601326 180.71826 41.563683
0000b0 3a b0 ee 41 3b f7 04 42 d9 c3 54 41 b7 b4 9f 42
       29.836048 33.241436 13.297814 79.85296
0000c0 85 94 10 42 21 db 4f 41 6c e1 49 41 bd c3 12 43
       36.14504 12.990998 12.617535 146.7646
0000d0 69 1a d0 43 65 1d d8 41 0d 52 2a 42 8d e0 58 43
       416.20633 27.014353 42.580128 216.87715
0000e0 ed cd 34 42 c9 aa a0 41 ae 27 00 43 cc 32 0c 41
       45.2011 20.083391 128.155 8.762402
0000f0 48 c0 03 42 e1 7f ce 42 8e bd 0e 42 fc ce 30 42
       32.937775 103.24976 35.685112 44.202133

lin.weight f4 [10, 64]
000000 3f 7c f9 3e e2 2f 7c bf e2 0a 91 3e 02 99 fb 3e
       0.48727605 -0.98510563 0.28328615 0.49140173
000010 3a 00 c0 bf 2d cc 56 3f df db 17 bf fa b3 8a 3d
       -1.5000069 0.839053 -0.5931987 0.06772609
000020 fb d1 75 bf 61 0a af be d7 c1 c8 bf 9b 75 54 3e
       -0.9602353 -0.34187606 -1.5684155 0.20747988
000030 9e 7a 75 3f 0c 74 52 c0 56 89 05 c0 52 32 5f 3f
       0.95890224 -3.288333 -2.0865073 0.8718616
000040 a0 02 db 3e c7 ad cc bd 95 16 14 40 73 e2 16 bf
       0.4277544 -0.09994083 2.3138783 -0.58939284
000050 da 47 ef 3d 73 7b e1 3f e6 ed 27 c0 00 aa 75 bf
       0.116836265 1.7615799 -2.6238952 -0.95962524
000060 79 b5 16 bf 66 24 9a 3e 0c ce 74 3f 5b 3e be bd
       -0.58870655 0.30105895 0.956269 -0.09289237
000070 68 41 91 bf 59 cc 2a 3f f0 2e f5 bc aa 08 2c 3f
       -1.1348085 0.6671806 -0.029929608 0.6720072
000080 f2 2a d2 bd 36 23 87 3f 0f be 68 3e 48 4a da be
       -0.102620974 1.055762 0.22728752 -0.42634797
000090 e3 28 17 40 7f f3 2a be c3 4c 7e bd 99 7e 58 bf
       2.3618705 -0.16694449 -0.062084924 -0.8456817
0000a0 38 01 a7 3d 9c da e7 3f 15 c3 88 be 4b c2 9c 3f
       0.08154529 1.8113589 -0.26711336 1.2246794
0000b0 30 64 0c c0 dc 79 0c c0 d1 5c 57 bf af 17 6e 3f
       -2.193615 -2.1949377 -0.84126 0.9300489
0000c0 55 5d 19 c0 60 b3 40 bf d8 48 3c 3f 7d 50 d1 3f
       -2.3963215 -0.75273705 0.7354865 1.6352688
0000d0 ae b1 81 bf 9f 27 3a 3e d5 b5 a4 bf 89 9a 4e 3f
       -1.0132349 0.18179177 -1.2867991 0.8070455
0000e0 e6 11 e8 3f 67 72 cb 3f 22 90 f9 be da ca 06 c0
       1.8130462 1.5894288 -0.48742777 -2.106131
0000f0 cb 65 97 bd 3d 36 1c 3f 96 ad d1 bc 73 83 97 bf
       -0.07392462 0.6102026 -0.025595468 -1.183699
000100 86 95 15 bf 33 43 a3 3f 91 43 fd 3d 4e b1 d8 3f
       -0.5843128 1.2754883 0.12366403 1.6929109
000110 ea cf 69 3f 1a e5 56 bf 2c c5 96 3f 40 c5 a6 be
       0.91332877 -0.8394333 1.1778922 -0.32572365
000120 c5 ae f2 3e a4 ec 38 bf cf 67 8e be e1 a6 0b bf
       0.47398964 -0.72236085 -0.27813575 -0.5455151
000130 5d 2d b7 3e 09 f4 84 3f 7d d0 0f bf b6 13 a9 be
       0.35776797 1.0386974 -0.561775 -0.3302285
000140 f7 58 1e bf 5c d9 35 bf 58 d8 99 bb 60 92 86 bf
       -0.618545 -0.7103479 -0.0046949796 -1.051342
000150 1c 34 b3 bf c7 44 d3 bd c9 3f 99 3f a5 8e 91 3c
       -1.4000278 -0.103158526 1.1972591 0.017768214
000160 75 e2 f7 bf e8 47 c6 3e 11 fb 4f bf ba 64 8b be
       -1.9365984 0.38726735 -0.8124247 -0.27225286
000170 82 1b b9 3f 32 76 6b be 7e f6 3f bc b6 60 64 3b
       1.446152 -0.22994307 -0.011716483 0.0034847683
000180 73 2b 01 40 5d 32 4c 3f 36 17 d0 3f a1 54 fb 3d
       2.018277 0.7976435 1.6257083 0.12272001
000190 90 54 d4 3d 01 a9 00 3f e8 95 57 bf 3e 74 bc be
       0.103676915 0.5025788 -0.84213114 -0.36807436
0001a0 2e 6e b8 bf 75 f4 b9 bf 38 92 8a bd 1e 54 d3 bf
       -1.4408624 -1.4527727 -0.0676617 -1.6510046
0001b0 d5 cc 20 3f d2 41 aa bf c5 b6 a0 3f 76 75 3f 3f
       0.6281255 -1.3301337 1.2555777 0.74788606
0001c0 3f c8 7c be 04 79 d8 bf bf 5a a1 3f 9b 62 01 3e
       -0.24685763 -1.6911931 1.2605819 0.12635271
0001d0 e1 d3 8b 3d 0f 5e 0c ba c9 c9 8c 3f 06 3d d6 3e
       0.06827522 -0.0005354592 1.099908 0.41843432
0001e0 88 90 82 bf 26 1e b1 be 09 49 2d c0 b8 ba 71 3f
       -1.0200357 -0.34593314 -2.7075827 0.94425535
0001f0 51 9a 0c c0 a5 de 96 bc 28 53 fa bf ea 78 12 3f
       -2.1969187 -0.018416712 -1.9556627 0.5721575
000200 c2 78 97 be 10 1c d5 3f d2 5d de be 12 66 74 bf
       -0.29584318 1.6649189 -0.43430954 -0.95468247
000210 ae 8c 44 3f f1 69 d3 3d d1 35 1b 3f 99 74 31 3e
       0.7677716 0.10322941 0.6062899 0.17329635
000220 c0 39 b0 3f 76 77 fd bd a0 2a 0a bd ec 0f d9 3e
       1.3767624 -0.12376301 -0.033732057 0.4239496
000230 59 5d 87 be 46 2f 81 3d e6 46 d1 3f 40 62 84 3f
       -0.26438406 0.06307845 1.6349761 1.0342484
000240 58 6d 4c bf 6c d6 fe bf 27 25 24 bf 89 da 05 3f
       -0.79854345 -1.9909186 -0.6411919 0.52286583
000250 28 83 c3 3f 22 d4 3d be 2a 9d 4b bf 96 2f be be
       1.5274401 -0.18537953 -0.7953669 -0.3714568
000260 92 2b 64 bf 91 1a 0c 3e 9f 5a 7e 3f 93 9b ae 3d
       -0.89128983 0.1368201 0.99357027 0.08525767
000270 56 6a 45 3f 9e e4 bd 3d 19 c2 84 3d 17 42 a0 bf
       0.7711538 0.09272121 0.06482334 -1.2520169
000280 1d 96 a9 be 0a 2a 25 bf 61 f2 8a bf 16 30 84 3f
       -0.3312234 -0.6451727 -1.0855218 1.0327175
000290 6e f9 61 bf f9 e3 d4 bf de 86 89 bf 17 13 b4 3f
       -0.88271224 -1.6632072 -1.0744283 1.4068326
0002a0 c3 16 e1 3e 1e 83 c9 be 9f c3 4b 3e b9 82 af bf
       0.43962678 -0.39357847 0.19898842 -1.3711768
0002b0 4a b3 cd bf b8 59 99 3f 0f 3f 69 3f 4b 25 21 c0
       -1.607034 1.1980505 0.91111845 -2.5179012
0002c0 33 ea 87 bf 2f 00 42 3e 2c a8 af bf 0d 4d 90 3f
       -1.0618347 0.18945383 -1.3723197 1.1273514
0002d0 c1 12 54 3f 57 ce 47 bf 30 cf 1f 3e 27 6b da be
       0.82841116 -0.78049225 0.1560638 -0.42659876
0002e0 5b d2 c7 3f a5 11 cc bf d8 4e 19 3f a9 db 1a bf
       1.561107 -1.5942885 0.5988593 -0.60491425
0002f0 16 a5 99 3f bb d9 b3 bf ae 09 4c 3f ee 9d 90 bd
       1.2003505 -1.4050821 0.7970227 -0.07061373
000300 e9 44 4c bf 78 48 81 bd f6 d9 7b 3e 46 39 74 3d
       -0.7979265 -0.063126504 0.24594864 0.059624933
000310 23 57 04 3e d7 f2 88 bf 8f 84 f7 3e 77 22 b7 3f
       0.12923865 -1.0699109 0.48343322 1.4307393
000320 98 37 8e 3d 91 b6 ec bd e8 a1 8b bf 29 84 1a be
       0.069441974 -0.11558259 -1.0908785 -0.15089478
000330 41 36 0f be f1 72 e2 be 32 b9 d7 3e fc 67 e6 bd
       -0.1398554 -0.44228318 0.4213348 -0.11250302
000340 21 e4 4f 3f 94 b2 d2 3f 31 5f ca be ef 0b b7 3f
       0.8120747 1.6460748 -0.3952575 1.4300517
000350 23 97 05 c0 fd 8f 61 be 55 df c8 3f 0b ff 39 c0
       -2.0873497 -0.22027583 1.5693156 -2.9061916
000360 03 e4 fc bf df b0 90 bf 95 11 b5 bf a0 45 0d bf
       -1.9757084 -1.1303977 -1.4145991 -0.55184364
000370 9a 9e a6 bf 8d a0 55 3e 0d c7 00 bd b9 fc e0 3e
       -1.3017151 0.20862027 -0.03143983 0.43942812
000380 41 8b 68 3e c0 02 5a be 8b 40 12 bf e9 71 85 3e
       0.22709371 -0.21290112 -0.57129735 0.2606347
000390 4d 7e b8 bf 5c 1e d4 3f 28 b1 93 be e6 96 a2 3f
       -1.4413544 1.6571765 -0.28846097 1.27023
0003a0 a8 d4 22 c0 8d a1 ef bf a6 01 9e 3e b2 2c d2 bb
       -2.5442295 -1.8721176 0.30860633 -0.0064140195
0003b0 82 7c 40 3f ac 62 6e 3f d2 4a e7 bd e1 2e b0 3f
       0.75189984 0.9311931 -0.11293568 1.3764306
0003c0 41 13 11 bf 8d 02 44 3f f1 4d 59 be 18 17 91 3e
       -0.56670004 0.7656639 -0.21221139 0.28337932
0003d0 71 47 76 3e 42 aa 02 40 5b 54 7f bf 99 93 90 bf
       0.2405069 2.0416417 -0.9973809 -1.1295043
0003e0 4b d3 0b 3e 78 2e 89 3f 58 25 be bf 56 57 b8 3e
       0.1365482 1.0717306 -1.4855146 0.36004132
0003f0 7a c8 f3 bf 4a 18 83 3f 0f 89 e1 bf 61 b1 fb 3f
       -1.9045556 1.0241787 -1.7619952 1.9663507

lin.bias f4 [10]
000000 5c 83 e5 bd 42 e4 04 3f 91 5f e6 3e f4 a9 f4 3d
       -0.112066954 0.51910794 0.44994786 0.119464785
000010 fd bb 95 be 50 17 12 bf 08 05 63 be 68 20 20 3f
       -0.29244986 -0.5706682 -0.22169888 0.6254945
000020 79 c6 b0 bf 1e 1a 6c c0
       -1.3810569 -3.689094
