models/standard/k-fold saves/test1e_f4_e10_f3_b64.pt (torch, 335209 bytes, 86 tensors)

conv1.weight f4 [8, 2, 5, 5]
00000000: 89a3 3dbf b613 6f3f e87d 9340 ba04 c43f
00000010: d05d 5a3f 4371 d3bf 43fe c6be 98e7 cb3f
00000020: 5444 083f 0804 42bf f64e 21bf 25e7 82bf
00000030: e436 0b3e 879f dfbe d49a 2bbd 9aa5 9abf
00000040: 81a1 95bf f32f a63e 24a8 4cbf e6f6 7b3e
00000050: 9332 0abf a667 fabe 4829 813e e057 8ebf
00000060: 1fab aabe 3b2d 5abe d9eb 913f d668 8340
00000070: 8730 fb3f 4a27 3e3f 10d6 28bf 6504 04be
00000080: afea aa3f b3a0 dcbe 290d 39bf 4d35 c0be
00000090: 20c8 87bf 04f8 f43e fcd1 2bbf 6ebb 7d3e
000000a0: 7468 b7bc 9561 26bf 63dd 1abe 9454 0fbf
000000b0: 62e8 9d3d 4ed7 b73e 308a 823e bc80 a03c
000000c0: 31b8 9abe fb56 e73e b33f 24be 72cf fcbf
000000d0: 3f62 3bbf d293 84bf 235c 1cbf 5777 ee3e
000000e0: 14c3 a9bf c734 afbe 467a 893c 82c6 0d3f
000000f0: a2af 323f 7a8d 6bbf d4f0 9fbe 731f 003f
00000100: d955 793c 9d45 783f 8fdc 8fbf 2abb 70bf
00000110: ae49 01bd fce9 923b 6c83 2440 c51e 9e3f
00000120: 5eca 693f 2855 593f ef6c d83e b887 8cbe
00000130: 0463 b2bf c558 a6bf a955 88bf 4d8c 29bf
00000140: b010 813f f21b 46bf b04a 40bf 320c 233e
00000150: abec 0a3d 6a02 8e3f 9763 40bf 066e 21bf
00000160: fed4 6bbe 1f7b 80be b4c2 b63f 7582 c2be
00000170: a028 c2be 26f8 a4be ba9a e33d 60c2 5840
00000180: 692f f43f 6f9f 823f 6533 6f3f 128d f73e
00000190: fee2 cf40 96e2 c93e 52c4 6c40 9f9f 773f
000001a0: 6eb8 b0be d674 fc3f 12ba 78bf 7a89 8a3f
000001b0: c7f3 7ebd 84e3 14bf 9ca0 7b3f 390c a9bf
000001c0: 41b6 553f e7fb 09be 777c cdbe a82e 21be
000001d0: b78f d5bf b50a c23f 5e82 db3e 3108 fb3e
000001e0: 97c4 be3f 0747 a43e 810d 443f 4627 c33e
000001f0: 494e 763e ffb3 2a40 ed16 adbe 2a32 ae3f
00000200: a141 963e 8717 0ebf 1b9c 353e 469b a3bf
00000210: 9191 bf3e cbde 503d 845c 2abe 8e6a 80bd
00000220: f227 afbf 61f4 b9bd 744a 61be a5eb 2e3e
00000230: cd24 dabf c955 c2bf d691 1e3f 5e27 c33e
00000240: c685 683e 35c2 4c3e 30ff 12bc c7ee 493e
00000250: 4d1d 1a3e 7ce7 343e 571d 81bf 0128 c1bf
00000260: d3bc 9ebf f0ee 003f 9274 2bbf 5c52 f9be
00000270: 466d 9ebe 3d15 89bd b71e 833d d0cc 093f
00000280: eabf 7ebf 91ad 9a3f 18d4 f6be f27d 34bf
00000290: 48b5 bcbe a11f ad3f 3f54 4940 4589 683f
000002a0: 55e3 863f 65c3 41bd 7f61 a6be b29d 4b3f
000002b0: cdf0 88be dea3 66bf 9052 09bf b1f5 a3bf
000002c0: 3bdd bcbf 3a6b acbf 25a3 99bb c83a a7be
000002d0: ecf7 f6be 0f7e 7bbd 446f 29be e3d7 d23c
000002e0: b1da 643e f7b4 75bf 4c02 c73f 5b68 3cbe
000002f0: 4ddc 2fbf 7417 96bc e0c1 8b3f 7bda 7d40
00000300: 466e 9c3f 215d 003f 3ba3 b83e c2b3 d93c
00000310: 42de 8b3f 23e5 893e c72b 3cbf e50f e3bd
00000320: 7aed 8f40 da9b e03f b8ae 91be b421 adbe
00000330: 59da efbd 0ca7 3c40 e9fd bb3f 54f0 1bbf
00000340: 1bae c0be fe03 c3be 7fbc 2840 3856 633f
00000350: 821d 39be 5275 0c3f ff29 0f3e 2e02 803f
00000360: dda2 57be 68e3 18bf 7669 353f 2574 35ba
00000370: dcdf 143e 0b1c 5bbe ea5a e5be b979 773f
00000380: 0907 1dbe eb52 b33f 743c c43f 490e d1bf
00000390: b14a 99bf ccf2 afbf 0ac1 863f 8781 1e3f
000003a0: 0e55 0dc0 e25e b3bf 2b02 80bf 8686 9a3f
000003b0: f8fa 8b3f 9097 c4bf 4a99 23bf 187c 64bf
000003c0: f307 2fbe 5d39 50be 6f84 6cbf bd8b 8e3e
000003d0: 15a9 f5be 9e3c 0ebf 5614 0bbf 03d0 e7be
000003e0: 77b6 f33d dd9c 88be 6be8 b7bf 5369 4dbf
000003f0: 9b05 2ac0 8543 c0bf 3443 b8bf 7ac3 293f
-0.7407766 0.9338945 4.6091194 1.5313942 0.85299397 -1.651894 -0.3886586 1.5930052
0.5322926 -0.757874 -0.6301111 -1.022679 0.13595158 -0.43676397 -0.041895702 -1.2081788
-1.1689912 0.32458457 -0.7994406 0.24605903 -0.5398342 -0.48907202 0.25226808 -1.1120567
-0.3333368 -0.21306317 1.14001 4.1065474 1.9624184 0.742787 -0.65951633 -0.12892301
1.335287 -0.43091354 -0.72285706 -0.37540665 -1.0607948 0.4784547 -0.67117286 0.2477853
-0.022388674 -0.6499265 -0.15123515 -0.5598843 0.07710339 0.35906452 0.25496054 0.019592635
-0.30218652 0.45183548 -0.16039924 -1.9750807 -0.73196787 -1.0357611 -0.6107809 0.46575424
-1.3262658 -0.34219953 0.016781937 0.55381024 0.69799244 -0.9201275 -0.31238425 0.5004799
0.015218222 0.9698122 -1.1239184 -0.9403559 -0.031564407 0.0044834595 2.5705214 1.235314
0.9132441 0.84895563 0.4227061 -0.27447295 -1.3936467 -1.299584 -1.0651141 -0.66229707
1.0083218 -0.7738639 -0.75113964 0.15922621 0.03391711 1.1094487 -0.7515196 -0.6305851
-0.23030469 -0.25093934 1.4278169 -0.37990156 -0.3792162 -0.32220572 0.11113496 3.3868637
1.9076968 1.0204905 0.93437797 0.48349816 6.496459 0.39430684 3.6994824 0.9672794
-0.3451571 1.9723155 -0.9715892 1.0823205 -0.062244203 -0.5815966 0.98291945 -1.3206855
0.8348122 -0.13475 -0.40134022 -0.15740454 -1.6684483 1.5159518 0.428729 0.49029687
1.4903744 0.3208544 0.76583105 0.381159 0.24053301 2.667236 -0.33806553 1.3609059
0.29346946 -0.5550465 0.17735331 -1.2781761 0.37415746 0.050993722 -0.16636854 -0.06270324
-1.3684065 -0.09079815 -0.22001058 0.17082079 -1.7042481 -1.518243 0.6194128 0.38115972
0.2270728 0.19995959 -0.008971974 0.19719993 0.1505024 0.1766643 -1.0087079 -1.5090333
-1.2401375 0.5036459 -0.6697475 -0.48695648 -0.30942744 -0.06693504 0.06402343 0.53828144
-0.9951159 1.2084218 -0.4820869 -0.7050468 -0.36857057 1.3525277 3.145767 0.90834457
1.0538126 -0.047305483 -0.3249626 0.795375 -0.26746216 -0.9009379 -0.53641605 -1.2809354
-1.4755014 -1.3470223 -0.004688638 -0.32662034 -0.48236024 -0.061399516 -0.1654635 0.025737708
0.22349049 -0.95979255 1.5547576 -0.18399183 -0.6869553 -0.01832173 1.0918541 3.96646
1.2221153 0.50142103 0.36062035 0.026574973 1.0927203 0.2693263 -0.735043 -0.11087016
4.497739 1.7547562 -0.28453612 -0.33814776 -0.117115684 2.9476957 1.4686862 -0.60913587
-0.37632832 -0.38088983 2.636505 0.88803434 -0.18077663 0.54866517 0.13980864 1.0000665
-0.21058221 -0.59721994 0.70864046 -0.0006921909 0.1453852 -0.21397416 -0.44795924 0.9667011
-0.15334715 1.400968 1.5330949 -1.6332484 -1.1975919 -1.3745971 1.0527661 0.61916393
-2.2083163 -1.4013331 -1.0000662 1.2072303 1.0935965 -1.5358753 -0.63905776 -0.8925185
-0.17092876 -0.20334382 -0.9238958 0.27840987 -0.47980562 -0.55561244 -0.54327905 -0.45275888
0.11900037 -0.26682177 -1.4367803 -0.80238837 -2.6565921 -1.5020605 -1.4395509 0.663139

conv1.bias f4 [8]
00000000: b653 7fc0 accb 29c0 4a19 eabf 5543 a7bf
00000010: 7dfd 5ec0 9aa6 79be fa03 553d 32a4 afc0
-3.9894843 -2.6530561 -1.8288968 -1.3067423 -3.4842217 -0.2437996 0.052005745 -5.4887934

bn1.weight f4 [8]
00000000: 736f a63f 819f af3f c60d a93f 1b65 e33f
00000010: 038e ad3f 0dbc eb3f 4666 bf3f f0da b13f
1.3002762 1.3720552 1.3207328 1.776523 1.3558964 1.8416764 1.4953086 1.389494

bn1.bias f4 [8]
00000000: 1382 3fbf 3234 b2be 3276 a7bf a7d8 fd3e
00000010: e52e f4bf 5406 8cbf 8b8c 7f3f 19a2 84bf
-0.7480785 -0.34805447 -1.3082945 0.49579355 -1.9076811 -1.0939431 0.99823827 -1.0361968

bn1.running_mean f4 [8]
00000000: c079 ac3f 3bee 603f 77b5 aa40 c25e 603f
00000010: 21e2 d53f 0641 ac3f b94b 2341 aa56 0640
1.3474655 0.8786351 5.3346515 0.8764459 1.6709634 1.3457344 10.205987 2.0990396

bn1.running_var f4 [8]
00000000: 8b4d 9841 faf6 3a41 61d9 1443 67aa 2541
00000010: d9da ab41 9f45 a441 33ca 9142 1cb5 eb41
19.037863 11.685297 148.84914 10.354102 21.48186 20.533995 72.89492 29.463432

conv2.weight f4 [16, 8, 3, 3]
00000000: 5070 7bbe 3aae 05c0 b171 85bf 59ed 0340
00000010: 5121 50bf 5552 01bf e0ca e93d 0f7d cabd
00000020: 1373 723f 28bc 52bf 67b7 7dbe b0ed 403f
00000030: 7565 47c0 b547 a4bf beec 1fbf d4c3 c3be
00000040: a352 1d3e f870 8ebe d512 a93f be7d bb3e
00000050: c1c6 133f 3902 843f f596 5e3f 3159 053f
00000060: 6be2 d73f 1d1e 6b3f 06ec 293f c895 ce3e
00000070: 9e87 4abd 395b 46bf 0c1b 12c0 d2bf 2ec0
00000080: 9f13 e23e 5c8f 48be b3ee e7be 3e09 563f
00000090: e5cd 66bf a930 983d b5ec e83d 2370 e33e
000000a0: f4e8 a03e 6f30 bb3d f6b1 2240 0b52 aa3e
000000b0: ed2d 923e 66be f23e 9a77 013e 3c2c 37bf
000000c0: 285c 55c0 d261 3ec0 cc9e e2bf 5a4e 9a3f
000000d0: 4794 3d3c acb0 4d3e 4682 54bf 2472 eabe
000000e0: 5060 a9be 3f72 20bf cf0d 02bf bdbf 28be
000000f0: 3782 fcbf a0f4 dcbf 93d7 da3e 3b47 cc3b
00000100: 2a88 8c3e c4a1 a1bf 4fa9 5540 95ad 753f
00000110: 23c1 1e3e 1b8f 873f 2f81 bbbe 93a2 aa3e
00000120: 26a6 163f fdf2 d13f a71a b83f d428 dabe
00000130: b5bd ebbe 87c0 943f 2263 87bf c001 683e
00000140: b93d 5d3f 7775 63bf 9d1c d9bf 61f2 26bc
00000150: d926 9fbe c5b3 6fbf 6c67 e13f 883b 1fbf
00000160: 7237 6bbf 9c43 033f 962c a13e 20d2 c83f
00000170: c2f8 e63f 41d2 163e 6a20 ac3f e66f 763f
00000180: 2952 08bf f1b2 8b3f a126 ba3f 1dfe f6bf
00000190: 627d 42bd 9c1e 7d3f b669 5cbf c765 2abf
000001a0: f2af 7b3f cc21 85bf 589e 2c3e 4a94 943e
000001b0: 6c2b 0cc0 7fc7 62bf fc67 833f ef88 1ac0
000001c0: f20c 63bf 5d4f b2bd 3e61 05c0 54e9 a6bf
000001d0: 272a b83e 2ab0 883f b482 8a3e 52a2 fe3f
000001e0: 43b7 05c0 b805 6d3e 65f8 b93f 9db2 b6bf
000001f0: 6100 293e 0912 8d3f 67b4 85bf 461c 7d3f
00000200: a53e 053f 1dc7 d9bf fab7 053f 20d9 e7be
00000210: a5c5 03c0 a57b 2f3f 8cf2 143e 5a74 f8bd
00000220: ca15 883f 6780 0640 11c6 aebe 0203 1cbd
00000230: c222 fa3f 5b43 2fbf 872f 1fbf 9ee1 c93f
00000240: 63b6 83c0 a921 d9bd 5341 cc3e 5f27 63bf
00000250: 3b36 7abf fe76 94be ae69 9bbf c196 d4bf
00000260: bf10 48bf 286a 893f 037a 1cc0 eaca 853d
00000270: 19ce 5f3f 2318 29c0 a959 9ebf c192 5abe
00000280: 49a1 cebf b9a0 ed3f 4332 9abd 9eec a5bf
00000290: 07d1 893f 5da9 bf3d c53e 40c0 b54d 98bf
000002a0: 2a24 c63d b852 08c0 2b47 5ebf 4782 bd3f
000002b0: 7766 a53e f796 cfbe eb8c 973e f260 16bd
000002c0: c0cf aebe e339 8bbe 8336 3ebd 7425 f7be
000002d0: e1da 903e 0ebe 61c0 c30c eb3e 37dc 0d3f
000002e0: c10f 4ec0 7136 f0bf 6a2e d53e 31cb 85c0
000002f0: 90ef 0ec0 4ef3 3c3e adc4 06c0 1656 a53f
00000300: fb03 6a3f 04fe 3fbe 6de1 08bf 7a56 af3f
00000310: 70dd 38bf dc66 fabf e6c8 f23e 8b09 1b3d
00000320: b042 253f d958 46be fbf0 08bd d57c 98bd
00000330: b71b 0dbf 0942 b8be bffd 203f 213d b13f
00000340: 5955 973c cc17 a9be 5d96 bc3f 6fb3 943e
00000350: 6b76 013d 72bc 973f bfbc 5ebf b54b 0d3e
00000360: 7a9b 80c0 449f 0bc0 6fda b8bf bf4c cd3e
00000370: b0e5 0f3f e0fa 0240 9a3e 80bf 5ec2 3d3f
00000380: ae3b 353e b409 db3f 5d9b 113f 2eec 643e
00000390: 4bed a2bf 34c7 a3be 1d98 3b3f 780f 0dc0
000003a0: 075d 423e 7547 a33f 1cf4 1fc0 58fa d9bf
000003b0: 0e2c a4be 0f49 41bf ee33 e2be 3e96 a9be
000003c0: e3ce 75bf 24e7 cbbe 096d 1a3f 8fb8 263f
000003d0: 50cf e9be 7e37 73be 7a10 7d3f 85f1 973f
000003e0: 8b84 403f e4c1 85bf c607 26bf a53d f7bf
000003f0: 03dc f2bf fb5f b23d 3798 49bf 624d abbe
-0.24554563 -2.088759 -1.0425321 2.0613616 -0.81300837 -0.50516254 0.114156485 -0.09887134
0.9470684 -0.82318354 -0.24776994 0.7536268 -3.1155674 -1.2834383 -0.62470615 -0.38235343
0.15363555 -0.27820563 1.3208872 0.3661937 0.5772515 1.0313178 0.8694909 0.5208922
1.6865972 0.91842824 0.6637577 0.4034865 -0.04944574 -0.77482945 -2.2829008 -2.7304578
0.44155595 -0.19585937 -0.452993 0.8360785 -0.9015792 0.07431156 0.11373273 0.4442149
0.3142773 0.09140097 2.5421119 0.3326572 0.28550664 0.47410887 0.1264328 -0.7155187
-3.3337498 -2.9747205 -1.7704711 1.2055161 0.011570997 0.20086926 -0.8301128 -0.45790207
-0.33081293 -0.62674326 -0.5080232 -0.16479392 -1.9727238 -1.7262154 0.42742595 0.0062340773
0.27447635 -1.2627492 3.3384588 0.9596799 0.15503363 1.0590547 -0.36621997 0.3332716
0.5884727 1.6402279 1.4383134 -0.42609274 -0.46043172 1.1621255 -1.0577128 0.22656918
0.86422306 -0.8885111 -1.6961857 -0.010189624 -0.31084326 -0.9363368 1.7609687 -0.6220021
-0.9188148 0.5127504 0.3147933 1.5689125 1.8044665 0.14728643 1.3447392 0.96264493
-0.53250366 1.0913984 1.4543039 -1.9296299 -0.047482856 0.9887483 -0.860988 -0.6656155
0.98315346 -1.0400939 0.16857278 0.29019386 -2.1901503 -0.88585657 1.0266109 -2.4146078
-0.8869163 -0.087065436 -2.0840602 -1.3039956 0.3596966 1.0678761 0.27052844 1.9893286
-2.0893104 0.23146713 1.4528929 -1.4273258 0.16504051 1.1021129 -1.044568 0.98871267
0.5204871 -1.701389 0.5223385 -0.4528284 -2.0589383 0.6854804 0.1454565 -0.12131567
1.063165 2.101587 -0.34135488 -0.038088806 1.9541857 -0.6846215 -0.62181896 1.5771978
-4.116014 -0.10602123 0.39893588 -0.8873195 -0.97739 -0.28997034 -1.2141626 -1.6608506
-0.7815055 1.0735521 -2.444947 0.065328434 0.87423855 -2.6420982 -1.2371112 -0.21345045
-1.614297 1.8564674 -0.07529118 -1.2962835 1.0766915 0.09358475 -3.0038311 -1.1898714
0.096748665 -2.1300488 -0.86827344 1.4805382 0.32304737 -0.40544865 0.295997 -0.036713548
-0.34142876 -0.27192602 -0.046438705 -0.48270762 0.2829199 -3.527225 0.45908174 0.55414146
-3.2197115 -1.8766614 0.41636974 -4.1810536 -2.2333717 0.18452188 -2.1057541 1.2916896
0.91412324 -0.18749243 -0.5346897 1.3698266 -0.72212887 -1.956264 0.47418898 0.037850898
0.6455488 -0.1936983 -0.033432942 -0.07445685 -0.55120414 -0.3598788 0.62887186 1.384678
0.018473314 -0.33025968 1.4733387 0.29043147 0.031607073 1.1854384 -0.87006754 0.13798411
-4.018979 -2.1815958 -1.4441661 0.40097615 0.5620985 2.0465622 -1.0019104 0.74124706
0.17698547 1.7112336 0.5687769 0.2235572 -1.2728666 -0.31987917 0.7327898 -2.2040691
0.189808 1.2756182 -2.4992743 -1.7029524 -0.3206486 -0.75502104 -0.44180244 -0.33122438
-0.9601881 -0.39824784 0.60322624 0.65125364 -0.4566598 -0.23751637 0.98853266 1.1870581
0.75202245 -1.0449796 -0.6485561 -1.9315687 -1.8973392 0.08709713 -0.78747886 -0.33457476

conv2.bias f4 [16]
00000000: 7537 8bbe b0d5 93be 322a c1be e661 cabf
00000010: 719d 4e3e 8a61 70c0 5ea7 75c0 9531 ed3f
00000020: 87a9 923f 2472 fabf a51e f5bf ab8e 19bf
00000030: 0a72 ff3f 85e1 1bc0 e064 40be b807 3bc0
-0.27190748 -0.28873968 -0.37727505 -1.5811126 0.20177247 -3.7559533 -3.8383403 1.8530756
1.1457986 -1.9566083 -1.9149977 -0.5998332 1.9956677 -2.4356396 -0.18788481 -2.922346

bn2.weight f4 [16]
00000000: 968f 2440 1300 1c40 784c ae3f 7a23 8c3f
00000010: 2e87 493f b1bf e43f 8964 b73f 8bbc 8a3f
00000020: 64de 4940 e174 7d3f 6d2e cb3f c3ff b53f
00000030: 791d 0040 967d d03f 60ca 353f d331 bb3f
2.5712638 2.4375045 1.3617086 1.0948327 0.7872189 1.7871 1.4327556 1.0838789
3.1541986 0.9900647 1.5873543 1.4218677 2.0017989 1.6288326 0.71011925 1.462458

bn2.bias f4 [16]
00000000: e59d 7e3e 5739 ac3e 60c1 63bf dc3e 1cbe
00000010: 864b 15bf 0fb2 a83e 1ca1 bf3e 32d7 9bbf
00000020: b988 523c 1e64 bb3e b312 da3e 0406 7dbe
00000030: cc85 9abe 2b4e 293f 721c e23e 2742 ab3e
0.2486492 0.33637497 -0.8896694 -0.15258354 -0.58318365 0.32948348 0.37427604 -1.2175047
0.01284998 0.3659982 0.4259239 -0.24709326 -0.30180204 0.661349 0.44162327 0.33448908

bn2.running_mean f4 [16]
00000000: dd00 1140 88da 8240 f3dc 3b42 768a fc40
00000010: afe3 f241 0210 8740 30f3 e93f ad91 9b41
00000020: a7f0 3f40 c363 0a41 ded9 e53f df60 2840
00000030: d957 8940 e068 c93f 6c52 6441 bdf3 1142
2.2656777 4.089176 46.96577 7.891902 30.361174 4.220704 1.827734 19.44613
2.9990633 8.649356 1.7957113 2.6309125 4.2919736 1.573513 14.270123 36.488026

bn2.running_var f4 [16]
00000000: b208 7242 a3f6 3643 8eae d343 53c5 1643
00000010: c4a8 e643 64ad 2f43 1681 0942 58f4 bc42
00000020: fbe4 bb42 ac4f 4443 7607 2142 699c 8042
00000030: ddd8 0843 5148 f641 8948 b842 dbec 9e43
60.50849 182.96342 423.3637 150.7708 461.31848 175.6773 34.37606 94.477234
93.94723 196.31122 40.257286 64.30549 136.84712 30.78531 92.14167 317.85043

conv3.weight f4 [32, 16, 3, 3]
00000000: 6a23 dd3f 4d5d 64bf 7627 97bf 031f 2fbf
00000010: d7bd 8ebf a534 393f a79b b6bf c5ca 1fbf
00000020: d78f d33d dd73 253f c2b3 eb3e a298 e9bc
00000030: 01c5 063f ce3c a43f 596a 2440 c797 f3bd
00000040: a85d 0440 925b 0940 3e4f 92bf 9559 0c40
00000050: fba8 763f cad2 913f 8a94 2340 a343 5a3f
00000060: 6721 3a40 2cba 3b40 dce0 ce3e ac66 38c0
00000070: d96b 1dc0 3b23 913f f215 6cbf 4618 833f
00000080: 3c28 103f 669d 2bc0 79b5 39be f533 22bd
00000090: 1e56 db3f a4b3 8a3e aa05 f2be 85f4 c73f
000000a0: 75c6 30bf b26d c73d 214d 2340 61b7 6b3f
000000b0: f2f0 86bf 2b95 38c0 7da1 b83f e249 debb
000000c0: 1353 03c0 9946 82bf 26a5 a03f e5b3 29c0
000000d0: 0a79 263f aa20 eb3f bbf9 313f 2409 863f
000000e0: 3aa4 b53a 56a5 d2be 1a89 513e 9c25 c63d
000000f0: 1062 abbf a908 c63f 4463 323f fdaa 333f
00000100: f5b8 c83f 1635 6f3f ab88 3240 1f0c 953f
00000110: ba6b 2f3f 6a26 0a40 c30f 8f3f acdc de3f
00000120: 4eb2 8a3f 4f35 6c3f c975 96bf 48d4 8b3e
00000130: 123e 02bf 1f54 123f 1dc6 c3bf 9fe7 debf
00000140: 3157 143f e5cb 01c0 9837 e9be 38c8 91bf
00000150: d9f0 ddbf caa0 f03e 1abe 203e 6f0f 48bf
00000160: adba a03f 490d 6d3f e1d7 a5bf b1c8 e9bf
00000170: 14ea 863e 96ce 44c0 352e 83bf ae61 0ebe
00000180: 0451 10c0 e657 d03d 6bf7 bb3e 789e 5f3f
00000190: 8b23 15c0 1133 943f 0e14 0fbf 8ee7 793f
000001a0: f9fd 03be 86e4 bebf 807a c93f 177c e03e
000001b0: c20e 073e df75 08be 5bbc 0ebe 66f7 4d3f
000001c0: 89ed c03e d72c 2c3f d679 ba3f b208 383f
000001d0: c74a 833e 15f0 3a40 6e9a 0e3f bdb9 bdbf
000001e0: 4837 86bd d99d 293f 815a d93d e9e1 2fc0
000001f0: 43a8 4ebc 4d4d 57be 6716 58c0 d5a8 85bf
00000200: c320 dc3e 76df 19c0 7a4b 3cbe 1b4f 6a3e
00000210: bd0d b7be 112e 9e3f e201 a83f 1239 37bf
00000220: 7ca9 99be 1c02 153f 2bec df3e 6ca1 18bf
00000230: f6e9 943f a5a0 f93f fa41 2fbe 98c6 843f
00000240: 1a9d 5b3f 176b 80be 9af0 003f f949 0040
00000250: 626f e83f 80b6 5a3f 0556 223f 423a f83e
00000260: 8116 d63e 2160 bebe 66d3 a93e e2d3 67bf
00000270: 501d 0cbf 6cb1 80bf 78f6 63bf 3902 0b3f
00000280: adbb 24c0 d3cd 81be 1bda 4cbd 710d 66bd
00000290: d738 8f3f dc5d 9dbe 2011 853d 544a b43e
000002a0: aaee 6abf 60ac 31be 4bfc 293f e209 e03e
000002b0: 50b3 903e 1051 72be 22ba 303f 187a b0be
000002c0: 9b48 e0be e8c3 acc0 e077 11c0 9543 52be
000002d0: 4ff5 7cbe 88c9 843f db82 b93d ca95 00c0
000002e0: be30 64be cbab 86bf 7a71 a9bf 3ea0 e0be
000002f0: 8717 d9bf e53a e6be 915b 3f3e 1be4 9f3f
00000300: db99 103f de5c 743f e504 553f 14ab de3f
00000310: e023 a23d 8892 babf 802c 593e 7f26 66bf
00000320: d7eb 28bf 363a debf 2f54 d43e 5e23 6bbf
00000330: caf0 833f c0a6 173e 1309 bdbd 15f6 bd3e
00000340: 4b2c 153f 174b 1b3f 3b77 653e 56fc 80be
00000350: b7f4 933e a4ab c53e fb2d ab3f ca5f 7d3f
00000360: 4f2d e63e 6c93 4e3e 00c8 f53e e1ee 653e
00000370: 0e3a 5abf c847 883e 64d9 6bc0 e95d a7bf
00000380: ad26 bebf f6e7 c9be 4942 cb3f acac a33f
00000390: bca8 37c0 1496 cbbe 39e4 5cbe ea9c 14bf
000003a0: 73c0 a83d 89f5 f7be d83c 23bd 6363 a13e
000003b0: 4ac6 943f 6570 07c0 096c 4fc0 58bf 28c0
000003c0: 175d ca3d 5295 503f 7191 49bf 13db 4d3f
000003d0: 486c 893f 278e 51bf 407f b7bd 480f e33d
000003e0: c9c8 2e40 06be aa3e 870c 20c0 2b22 993e
000003f0: f0e1 b43f 0d01 4cbd 0bbe 213e bd36 393f
1.7276433 -0.89204866 -1.1808918 -0.68406695 -1.1151685 0.72345954 -1.4266251 -0.62418777
0.1033017 0.6462992 0.46035582 -0.028515164 0.52644354 1.2831056 2.568991 -0.118941836
2.0682163 2.146214 -1.1430433 2.1929677 0.96351594 1.1392453 2.555941 0.85259455
2.9082887 2.933238 0.4040593 -2.8812666 -2.4597075 1.1338876 -0.92220986 1.0241783
0.5631139 -2.6814818 -0.18135633 -0.03960033 1.7135656 0.2709018 -0.47269946 1.5621496
-0.6905282 0.097377196 2.5515826 0.9207669 -1.0542281 -2.8841045 1.4424282 -0.00678371
-2.0519454 -1.0177795 1.2550399 -2.651605 0.6502844 1.8369343 0.69521683 1.047154
0.0013858147 -0.41141766 0.20462456 0.09675142 -1.3389301 1.5471393 0.6968272 0.7018278
1.5681444 0.9344038 2.7895916 1.1644324 0.6852375 2.1585946 1.1176685 1.7411094
1.0835664 0.9226884 -1.1754695 0.27310395 -0.5087596 0.5715961 -1.5294834 -1.7414435
0.57945544 -2.0280697 -0.45550227 -1.1389227 -1.7339126 0.46997672 0.15697518 -0.7814855
1.2556969 0.92598397 -1.2956506 -1.8264371 0.26350462 -3.075109 -1.0248476 -0.1390445
-2.2549448 0.10173015 0.36712202 0.8735118 -2.3302944 1.1578084 -0.55889976 0.9761895
-0.12889852 -1.491349 1.5740509 0.43844673 0.13189223 -0.13326214 -0.1393904 0.80455625
0.37681225 0.6725592 1.4568431 0.7188827 0.25642988 2.9209034 0.5570439 -1.4822308
-0.06553513 0.6625648 0.106129654 -2.7481635 -0.012613359 -0.21025582 -3.3763673 -1.0442148
0.42993745 -2.404264 -0.18388167 0.22881739 -0.3575267 1.2357808 1.3125575 -0.7157146
-0.3001212 0.58206344 0.4373487 -0.5962131 1.1633899 1.950215 -0.17115012 1.0373106
0.8578659 -0.25081703 0.5036713 2.004515 1.8158991 0.8543472 0.63412505 0.48481947
0.41814044 -0.37182716 0.33169097 -0.9055768 -0.5473223 -1.0054145 -0.89047956 0.54300267
-2.5739548 -0.25352344 -0.05001269 -0.056165162 1.1189221 -0.30735672 0.06497407 0.35212958
-0.9177042 -0.17350912 0.66400594 0.4375754 0.28261805 -0.23663735 0.69034016 -0.3446815
-0.43805394 -5.3989143 -2.2729416 -0.20533593 -0.24702953 1.0374002 0.09058162 -2.0091424
-0.22284219 -1.0521177 -1.3237755 -0.43872255 -1.6960305 -0.44966808 0.18687274 1.2491487
0.56484765 0.95454204 0.83210593 1.7395959 0.07916999 -1.4575968 0.21208382 -0.8990249
-0.65984863 -1.7361515 0.41470477 -0.9185084 1.0307858 0.14809704 -0.092302464 0.37101808
0.5827071 0.60661453 0.22408764 -0.25192517 0.2889764 0.38607514 1.3373407 0.9897429
0.44956443 0.20173424 0.4800415 0.22454406 -0.85244834 0.26617265 -3.6851435 -1.3075534
-1.4855553 -0.39434785 1.5879604 1.278707 -2.8696737 -0.39762938 -0.21571435 -0.5805193
0.08239832 -0.48429516 -0.039852947 0.3152114 1.1623013 -2.116235 -3.240969 -2.6366787
0.09881037 0.81477845 -0.7873755 0.80412406 1.073617 -0.8185753 -0.08959818 0.11086899
2.731005 0.333481 -2.5007646 0.2990888 1.4131451 -0.04980569 0.15795152 0.7234915

conv3.bias f4 [32]
00000000: a703 e5bf a4db f2bf 6788 e3bf 1989 3a3f
00000010: f026 aabf 4065 febf a84e f6bf 86c2 febe
00000020: ed8d 2bc0 2176 2abf 2d14 f2be ba4c 12bf
00000030: 4529 93bf bb87 abbf 3af6 07bf de27 34c0
00000040: d901 09bf 7d60 34c0 715f 633f 9a75 21be
00000050: 7482 29c0 1c7f 993c e72d 0fc0 cda2 83bf
00000060: 7ab7 4abf fc25 03c0 c17d 993d 039e a3bf
00000070: 2829 31c0 04a3 8fbf 4089 9cbf 55f0 12c0
-1.789174 -1.8973279 -1.7776002 0.72865444 -1.3293133 -1.9874649 -1.9242754 -0.49757785
-2.6805375 -0.665865 -0.47281018 -0.57148325 -1.149697 -1.3400797 -0.53110087 -2.8149333
-0.53518444 -2.8183892 0.8881751 -0.15767518 -2.6485872 0.018737368 -2.2371767 -1.0284058
-0.79186213 -2.0491934 0.07494689 -1.2782596 -2.768137 -1.1221623 -1.2229385 -2.2959187

bn3.weight f4 [32]
00000000: 9106 0b40 8dd6 8e3f 6eb3 c03f ec8b d03f
00000010: 76c9 9b3f 67cc d13f 3577 fa3f 387a e23f
00000020: 1390 d03f 778a 983f 3171 0740 d8cf af3f
00000030: eb54 0c40 82fa dd3f 28cd 0040 5191 b53f
00000040: bc55 e43f 6dd5 ca3f e157 f43f 38d4 0740
00000050: 1259 b13f 9741 0940 f9c9 0240 11e7 dd3f
00000060: 0654 ca3f d234 9b3f e746 bc3f b758 c43f
00000070: 5107 ba3f a0e3 e03f 7ee3 a63f f561 c03f
2.1722758 1.1159226 1.5054758 1.6292701 1.2170856 1.6390504 1.9567629 1.7693548
1.6293968 1.1917256 2.1162837 1.3735304 2.192683 1.7342074 2.0125217 1.4184972
1.7838664 1.5846382 1.9089319 2.1223278 1.3855307 2.1446283 2.0435774 1.7336141
1.5806892 1.2125494 1.4709138 1.5339574 1.4533483 1.7569466 1.3038175 1.5029894

bn3.bias f4 [32]
00000000: 640d 9ebf ec6b a5be b4b9 07bf b2a3 fdbe
00000010: d32d 1bbf 2749 973f 6206 c83e ea7c 9e3f
00000020: ef85 043f 0ab5 bd3f 722f 803f aeff 363f
00000030: d7c9 833f f93a 89bf 2e11 2b3f fed0 803f
00000040: 342b d13e 7434 913d f172 483f cdaf 8c3f
00000050: f557 09c0 0b44 263f f73c 27bd e28a 1e3e
00000060: e711 8d3d 29ee 483e bca2 98be c4c9 3abf
00000070: b831 1e3e be87 debf 4cfd 3d3f e1f6 31be
-1.2347836 -0.323089 -0.53017735 -0.49538952 -0.606168 1.1819199 0.3906737 1.2381871
0.51766866 1.4820874 1.0014479 0.71483886 1.0295972 -1.0721122 0.6682309 1.0063779
0.40853274 0.07090083 0.78300387 1.099115 -2.1459935 0.64947575 -0.040829625 0.15482667
0.0688818 0.19622101 -0.29811656 -0.7296412 0.15448654 -1.7385175 0.74214625 -0.17379333

bn3.running_mean f4 [32]
00000000: 4a29 873f ef77 543f 2067 df3f 1157 eb40
00000010: 5a37 6640 09d4 a140 d539 0540 9226 a540
00000020: 8c9d 8640 d0af 8f40 9a9a 7540 7a6a fd40
00000030: b484 3e40 cefa 9940 4537 1f40 e065 083f
00000040: d4d4 2d40 e9a0 8b40 ca7b 5641 1edc f93f
00000050: 717c f13f 0d2b a940 d942 233f 190d e540
00000060: 7806 8d40 f5ac de3f 5863 ed3f c0de 4341
00000070: cb7b f83f 3008 c640 dadb ac40 4dbb 1b40
1.0559475 0.82995504 1.7453346 7.354378 3.5971284 5.057133 2.0816548 5.1609583
4.206732 4.4902115 3.8375611 7.9192476 2.9768496 4.811866 2.4877484 0.5328045
2.716115 4.3633924 13.405222 1.95203 1.8866102 5.286505 0.63773876 7.157849
4.4070396 1.7396532 1.8545942 12.241882 1.9412779 6.1884995 5.4018373 2.433307

bn3.running_var f4 [32]
00000000: 0f43 8c42 90e9 ec41 c3e1 8142 5018 2943
00000010: 4709 a642 073f 5943 43ca b842 106a 8742
00000020: ab67 6c43 6190 8d42 a653 4543 bed2 5942
00000030: 21ec 5143 465e 6743 3416 4443 e6d7 e141
00000040: 50ab 9442 0423 aa43 0261 1143 168a b642
00000050: 033e 4b42 332c 4f43 dcd9 f641 e010 6343
00000060: 6317 1d43 bb97 2142 f169 5842 c57a fa42
00000070: 6770 bc42 32a4 0243 1ef0 b342 6233 8e42
70.130974 29.614044 64.94094 169.09497 83.01812 217.2462 92.39504 67.70715
236.40495 70.78199 197.32675 54.455803 209.92238 231.36826 196.08673 28.23042
74.334595 340.27356 145.37894 91.2697 50.81056 207.17265 30.856377 227.06592
157.09135 40.398174 54.10346 125.239784 94.219536 130.64139 89.96898 71.10036

conv4.weight f4 [64, 32, 3, 3]
00000000: 6089 c23f 88a8 013e 09fb 43bf c0b8 ae3f
00000010: 46ed 44bd bfe3 d5bf ad7f cc3e fde7 60c0
00000020: ecb7 a7bf a823 9fbe 1192 323f c1ea 97bf
00000030: 6b30 6b3e b424 913e 5926 aebd a43b 143f
00000040: 576d b4be c918 3a3f 73a2 8fbd 9ec9 2f40
00000050: 98b8 1f3f 3872 48bf e372 d83e 3b21 29bf
00000060: 9c86 09bf 2c59 ccbd 426a 76bd 771c 0fc0
00000070: 3465 e2bf 5f5e b83f de28 873f 6005 61be
00000080: f8cd c2bf 540f 4a3f 6fb4 ff3e 028c 26c0
00000090: 9ef0 f3bd fca8 0fbf e0a8 3abf 6fc0 00be
000000a0: 9b2e 80bf 7a34 20c0 60d1 973e 323f 9a3f
000000b0: 6ebc f7bf 8eca 81be bb7c fdbe c7e4 973f
000000c0: 064f c5bd f55e 00bf 343e ad3f c502 6f3f
000000d0: 6f50 9bbf a8e2 4ebb 2038 eebf 9e77 203f
000000e0: 3b60 8bbe 4c65 243f 1a35 bb3f f44a df3e
000000f0: 42d8 133e e7ed 67bf b0cb 5d3f 2821 5ebf
00000100: 1d83 20c0 65f3 54bf 5c48 07c0 458b aa3f
00000110: 51c1 bb3f f9e0 cbbd b266 2fbe 6346 8fbf
00000120: 834b 43bf b8bf 2c3f 12c1 063e b197 5abe
00000130: 7df4 b03e a241 293f 9e6f cdbd 528d d8be
00000140: f8c5 0a40 ff78 51bf a74e 85bf 7ff4 babe
00000150: 6bce 683f 28fc d83f d6ff d63e 53a0 c0bf
00000160: edd7 46bf a3e0 ea3f 562c 8abf a1a5 4dc0
00000170: 88e4 00c0 fe56 1540 9748 2ebe 8e78 27bf
00000180: 4cf9 3c3f e5e7 30c0 4563 88be 9a53 afbf
00000190: 5576 85be bb81 4f3f 17bb b03f 9a21 59be
000001a0: 4784 38bf b06b 20be 59ed 993f 9bf7 953e
000001b0: cc97 3c3f e10c 64be e536 75bf 948c f6be
000001c0: 0499 b2be b399 4ebf e619 d23e ca2b 7dbf
000001d0: 9b56 91bf 7ed1 07be 00aa 8c3f 5e08 963f
000001e0: 7338 243f 7024 e8bc e3e9 883e 9902 25bf
000001f0: 4c1c 7ebe 93d8 afbf 5a4f 41bf e702 4bbf
00000200: 5b21 393d 8611 213f ebfa 8d3f 826c 47c0
00000210: 3eb5 043e 9155 b6bf 5fa8 31c0 92dc f9be
00000220: 17c6 19bf de3e d7bf a229 c6be 683a 29c0
00000230: 0e73 80be dffd 153e 442b b0bf 2e95 fbbe
00000240: 8414 28be 3710 7f3f e365 1ebe c4c5 7abf
00000250: 2973 fa3e 3186 5abe 3613 003f 287b d23f
00000260: 8dbd 8ebf 3045 e03e d047 ce3f 9723 f7be
00000270: e2b3 71bf 29a5 ad3f fa98 b4c0 23a8 edbf
00000280: f8f6 d3bf 484d e4bf 6a87 ba3f bc52 ed3f
00000290: 4feb 293f 0ffd f4bf 0efc 2cbf 7bec 0ebe
000002a0: 28f8 f6bf 5512 7bbf aa26 de3e 2bea ba3d
000002b0: 7568 ed3e cbcc a53f 269c e5be c4e7 24be
000002c0: a9ea b1bf 55c0 4c3f afb9 943e 799f 43c0
000002d0: defd db3e f571 93be 512d 433f 0baf e43e
000002e0: f567 963f f3ff 1740 d177 b63f 5bfb d03f
000002f0: 066c a83f f5f9 9fbe 3d87 ee3e 9344 68be
00000300: abb5 33be 5321 7cbe ceb1 1c40 a5b0 aa3e
00000310: a0aa afbf 7782 9b3f b160 0fc0 8a7a af3e
00000320: e68d a23e 58b1 d93f f137 ce3f 6b6b 20c0
00000330: f9c7 403e a58c aabe 027b fbbf 78f8 93bf
00000340: daf6 f53d 3590 b53f ebab 86bf 2a16 cabd
00000350: 532c cc3f ca8a bd3e 358a 013f ea19 27bf
00000360: 68dc 9a3f 1d1f 56bf 11f3 4bbf b9fd 3e3f
00000370: 0a89 b83c d2ab d63e fbbc 863f 4ceb 6cbd
00000380: e275 c8bf 7845 8b3f babf f6bf f95e 92c0
00000390: a151 91bf 14ca 04c0 8ec0 893f 99da ebbd
000003a0: c616 373e 71fd a6bf a6ba 9abf 2453 5b3f
000003b0: bcd4 0c3f 66fb 1b3f adf7 4b3f e8ac 4dbf
000003c0: 83c9 e3bf 5d25 703f 7c0e bd3e f130 a9bf
000003d0: 65ac 143f a19f 4fbf b583 3d3f 901e c43f
000003e0: 6a3f fb3e 2682 88c0 0e62 1dbe cfa1 af3f
000003f0: 3334 18bf a483 4bbf ceae dabe 0a97 bebe
1.5198174 0.12661946 -0.76554924 1.3650131 -0.048077844 -1.6710128 0.3994116 -3.5141594
-1.3103004 -0.3108189 0.6975413 -1.1868516 0.22967689 0.28348315 -0.08503408 0.57903504
-0.3523967 0.7269407 -0.070134066 2.7466807 0.6239104 -0.78299284 0.42275152 -0.6606633
-0.5372102 -0.09977946 -0.06015993 -2.2361124 -1.7687135 1.44038 1.0559347 -0.21974707
-1.5219107 0.7892964 0.49942347 -2.6022954 -0.119111285 -0.56117225 -0.7291393 -0.12573408
-1.0014223 -2.503203 0.29651928 1.2050536 -1.9354379 -0.2534985 -0.49509224 1.1866692
-0.09634213 -0.5014489 1.3534608 0.933636 -1.2133921 -0.0031568203 -1.8610878 0.6268252
-0.27221856 0.64217067 1.462558 0.43611872 0.14437965 -0.90597385 0.8663893 -0.8676934
-2.5080025 -0.8318389 -2.1137915 1.3323752 1.466837 -0.099550195 -0.17129019 -1.1193355
-0.76287097 0.6748004 0.13159588 -0.21346928 0.3456153 0.6611577 -0.10031055 -0.4229532
2.168333 -0.8182525 -1.0414628 -0.3651466 0.9093997 1.6951952 0.41992062 -1.5048927
-0.77673227 1.8349804 -1.079478 -3.2132342 -2.0139484 2.3334346 -0.17019878 -0.65418327
0.73817897 -2.7641537 -0.26638237 -1.3697388 -0.26066843 0.8105733 1.3807095 -0.21204224
-0.7207684 -0.1566608 1.2025558 0.2929047 0.73669124 -0.22270538 -0.9578689 -0.48154128
-0.34882367 -0.80703276 0.41035384 -0.9889494 -1.1354555 -0.13263509 1.098938 1.1721303
0.64148635 -0.028337687 0.2674094 -0.6445709 -0.24815482 -1.3737968 -0.75511706 -0.79301304
0.045197826 0.62917364 1.1092199 -3.1159978 0.12959763 -1.4244863 -2.7759016 -0.48801094
-0.60067886 -1.681606 -0.38703638 -2.6441898 -0.2508778 0.14647625 -1.3763204 -0.49137253
-0.16414076 0.99634117 -0.15468554 -0.97958016 0.48915985 -0.21340252 0.50029314 1.6443834
-1.1151596 0.43802786 1.6115665 -0.4826934 -0.94415104 1.3566028 -5.643674 -1.8566936
-1.6559744 -1.7836084 1.4572575 1.8540874 0.6637468 -1.9139727 -0.67572105 -0.13957398
-1.9294481 -0.9807485 0.43388873 0.09126695 0.46368757 1.2953123 -0.44845694 -0.16104037
-1.3899738 0.79980975 0.29047915 -3.0566084 0.42967123 -0.2879788 0.7624102 0.44664797
1.1750475 2.374997 1.4255315 1.6326708 1.3157966 -0.3124539 0.46587554 -0.22682409
-0.1754977 -0.24622087 2.4483523 0.33337894 -1.3723946 1.214919 -2.2402766 0.34273177
0.31748885 1.7007246 1.6110822 -2.5065563 0.18826284 -0.33310428 -1.9646914 -1.1560202
0.12009974 1.4184633 -1.0521215 -0.09867509 1.5951027 0.3701995 0.5060151 -0.65273917
1.2098513 -0.83641225 -0.79667765 0.746059 0.022526283 0.41927963 1.0526422 -0.057841584
-1.5660975 1.0880575 -1.927726 -4.5740933 -1.1353036 -2.0748339 1.0761888 -0.115163036
0.17879781 -1.3046094 -1.208821 0.8567374 0.55012107 0.6093048 0.796748 -0.8034196
-1.7795871 0.9380701 0.36925113 -1.3218061 0.58075553 -0.8110295 0.74029094 1.5321827
0.4907182 -4.2658873 -0.15369436 1.3721255 -0.5945465 -0.7949774 -0.4271149 -0.3722461

conv4.bias f4 [64]
00000000: c563 9abe a469 43c0 f2d1 d73b bff4 42be
00000010: eb94 8bbf 8dca 05c0 7254 dfbe 59f4 cebe
00000020: 36c9 ffbe d612 71bf 1fa3 c0bf dd17 b1bf
00000030: ec30 673d 85f2 81be b149 b5bf ea75 8ebf
00000040: 1184 90bf ae7b b0bf b0e0 503e 93b0 8ebf
00000050: 6e3c ee3e 22b7 403e 7bc9 22c0 06ac 97bf
00000060: ad1f 32bf 3de3 a6bd fc45 11bf 79da aabf
00000070: 7b88 bbbf 8ac8 36bf 2f54 49bf 8228 cdbe
00000080: 7642 253c a8e6 bcbe c4b0 93bf 5efd 44bf
00000090: d419 fbbe 3d27 de3d 7f77 d5be dfe3 0dbf
000000a0: a8ee 15bf a885 05c0 c4b1 5fbf 6fdf 8c3f
000000b0: b526 65bf cb5a a0bf d7f2 9cbf e217 be3e
000000c0: 616f e9be e06f a83e da2f ccbf a295 45bf
000000d0: 3e3d 1ebf f523 eabf ad51 cfbf cf83 22bf
000000e0: 1f45 da3e fff9 2dbf fb99 b4bf 369c a5bf
000000f0: 35ae 85bf c6db 15c0 9c98 12c0 675e 91bf
-0.30154243 -3.0533228 0.0065863067 -0.19038676 -1.0904821 -2.0904877 -0.43619114 -0.40420797
-0.499582 -0.94169366 -1.5049781 -1.3835407 0.05644314 -0.2538034 -1.4163114 -1.1129735
-1.1290303 -1.3787744 0.20398211 -1.1147636 0.4653048 0.1881986 -2.5435474 -1.1849372
-0.69579583 -0.08148811 -0.5674741 -1.3347923 -1.4651026 -0.7139975 -0.7864408 -0.40069968
0.010086646 -0.36894727 -1.153832 -0.7694911 -0.49043143 0.10847328 -0.4169273 -0.5542583
-0.58567286 -2.0862827 -0.87380624 1.1005687 -0.8951219 -1.2527708 -1.2261609 0.37127596
-0.45592788 0.32897854 -1.5952103 -0.77181447 -0.618122 -1.8292223 -1.61968 -0.63482374
0.4263086 -0.6795959 -1.4109491 -1.2938297 -1.0443789 -2.341539 -2.2905645 -1.1356934

bn4.weight f4 [64]
00000000: 2e46 8740 b1f7 8d40 11ed bd3f 9fdf 9140
00000010: 4830 8840 6a54 5440 9164 9c40 19b7 5140
00000020: 95be 5740 92b1 7c40 b5f6 8240 228c 6140
00000030: fbfa ab3f 95fc 8340 079e 8040 1e02 4440
00000040: 0e41 5040 169a 9740 1391 9540 9d81 3240
00000050: b89a 8f40 6906 bb3f 9f04 9840 321a 7640
00000060: 8df9 a440 18fb 4b40 5893 9c40 6d03 8e40
00000070: addb 8140 e1eb 513f 6eca 033e 90bf a73f
00000080: 1015 8a40 1844 0340 3be2 6440 ca73 7740
00000090: 9838 bf40 c33a 6e40 30fd 6b40 d967 9840
000000a0: fbc3 8840 1a9a 6140 03b6 743f a1f7 a640
000000b0: 225a a140 659b 8d40 3561 8040 f198 b840
000000c0: 791f 8540 bef1 9a40 778e 4d40 1b11 7140
000000d0: 5f3b 3d3f 5b1a 8340 9de1 8340 9abc 2340
000000e0: b405 a240 8e70 8140 7cae 4c40 524c 8e40
000000f0: 7e12 8740 465d 8b40 425a 8140 949a 8340
4.227317 4.436486 1.4837972 4.5585475 4.2558937 3.3176522 4.887276 3.2768004
3.3710072 3.948338 4.0926156 3.524178 1.3435968 4.124583 4.0192904 3.0626292
3.2539706 4.7375593 4.6739593 2.789161 4.4876366 1.4611331 4.750564 3.8453488
5.1554627 3.1872005 4.8929863 4.437918 4.058066 0.8200055 0.1287019 1.3105335
4.315071 2.051031 3.576308 3.8664422 5.9756584 3.7223365 3.6873283 4.7626767
4.2739234 3.5250306 0.9559023 5.217728 5.0422525 4.425219 4.011866 5.7686696
4.160092 4.8420095 3.2118204 3.766669 0.7391872 4.096967 4.1212907 2.5583863
5.063196 4.0449896 3.1981497 4.4468164 4.2210073 4.355136 4.042268 4.1126194

bn4.bias f4 [64]
00000000: 0cda c03e 654a 7f3e 95a1 123d 0d8a 293e
00000010: 77d1 883b 937a a63e 9116 d43e ca4a 59bd
00000020: f324 863e bbe0 a63a f9ba 123d 1976 913e
00000030: 6ca6 d43d 9e1a 8b3e 4aff 353e f0ba 143e
00000040: a40c d43c f7d3 fbbc fcd6 113d a9dc 233e
00000050: 1130 383b 7d5c 96bc 23f4 bd3e f43a e93d
00000060: 8b5f 003e a92b 623d 28ff 3c3e 1bd7 3e3e
00000070: fcdb ac3e 1862 663d 9ad6 29bc 0715 053e
00000080: deea 3c3e 8868 d33d 89cc ef3d 3442 cf3c
00000090: e89c 903e ffdb b43d 3c14 bd3d 1082 d33d
000000a0: 8e67 553e 2626 3fbc d74f 813e 11dc 403e
000000b0: e945 793e 8fc8 163e 7981 a63e 4bc0 873e
000000c0: 6e42 f63d 8e2e 9fbd d9e7 983d 7337 2f3e
000000d0: f06d 183d ad79 4a3e fd94 a13e b4a1 803c
000000e0: ba39 ab3e be5d 6cbc 5847 4f3e be18 343e
000000f0: d84c c33d f69a ca3e 7cbb a83d b7f3 113d
0.37666357 0.24930723 0.035798628 0.16556568 0.004175361 0.32515392 0.41423467 -0.05304984
0.26200065 0.001273177 0.035822842 0.28410414 0.10383305 0.27168745 0.17773166 0.14524436
0.025884934 -0.030740721 0.035605416 0.16002144 0.0028104822 -0.018354649 0.37100324 0.113881975
0.12536447 0.05521742 0.1845671 0.18636744 0.33761585 0.056245893 -0.010366106 0.12996303
0.1844897 0.10322672 0.11708934 0.025300123 0.2824471 0.088310234 0.09232375 0.10327542
0.20840284 -0.01166681 0.25256225 0.18833949 0.24343075 0.14724945 0.32520655 0.26513895
0.12024389 -0.077725515 0.074660964 0.17110996 0.03721422 0.19772978 0.31558982 0.015702106
0.3344248 -0.014426647 0.20242059 0.17587563 0.09536141 0.3957135 0.08238885 0.035632815

bn4.running_mean f4 [64]
00000000: ce9e c03f ee28 2f3f b52c 6f42 caa1 483f
00000010: dc63 fe3e aca0 bf3f 2f49 1c40 b8a6 7d3f
00000020: df11 283f 01ff c03e b8ca 543f 97f2 6d3f
00000030: 91d3 df41 60e2 843f 8aac 3f3f e741 ad3f
00000040: 7418 a83e 5ff7 b63e fc66 4d3f 87f5 0c3f
00000050: 64a6 163f 7df2 9442 f6c8 d43f c515 9f3f
00000060: ee38 b43e f597 3a3f ad4d 743f 5f93 843e
00000070: 5bfc 0c3f ece2 dd3f 9247 9b3e 9b7e 7640
00000080: b54e 243f 30db 7840 db12 b53e 649a 363f
00000090: b9b9 4a3f 4438 923f 9c37 4b3e 64ee e33e
000000a0: 415d 2d3f fe0b 903f abec cb40 6d51 4c3f
000000b0: 1b6d 053f ba5c 323f 1250 b13e a2e3 af3f
000000c0: 170e 4c3f 4e3e 8a3e 9d98 863e e956 bc3f
000000d0: abd1 2541 8895 e33e 0df7 403f 1fb9 3c40
000000e0: a7bf 563f 4dcc 0b3f 585a 2840 b2bf 3c3e
000000f0: 0008 003f a72f cc3f 53f8 443f 2444 6b3f
1.5048463 0.6842183 59.79366 0.7837187 0.49685562 1.4970908 2.4419668 0.9908252
0.6565227 0.37694553 0.83121824 0.9294829 27.978304 1.0381584 0.7487265 1.3535737
0.32831156 0.35735604 0.80235267 0.55062145 0.5884764 74.47361 1.6623828 1.2428519
0.35199684 0.7288812 0.95431024 0.25893685 0.55072564 1.7334876 0.3032804 3.8514774
0.641826 3.8883781 0.35365948 0.7132933 0.7918964 1.1423421 0.19845432 0.44517815
0.6772042 1.125366 6.37264 0.79811746 0.52119607 0.6967274 0.346314 1.3741343
0.79709 0.2700066 0.2628831 1.4714023 10.363688 0.4445002 0.7537697 2.948799
0.8388619 0.54608613 2.6305141 0.18432501 0.5001221 1.5952042 0.7694141 0.9190085

bn4.running_var f4 [64]
00000000: 3bdb cf42 02f5 3142 dd12 1a45 7d6a 0d42
00000010: b345 cc41 120e b742 06c4 3a43 75a1 7e42
00000020: d17b ee41 aafc 7141 5e52 5342 b05c 3e42
00000030: b66b 7644 da92 7d42 94cf 3142 795d e942
00000040: 0999 6e41 74c3 7241 585d 3b42 b136 d841
00000050: 167e e341 fbe1 0245 bf69 e042 a67c be42
00000060: 10d5 6941 7e2e 0042 ea13 8542 9d4f 2e41
00000070: 859f ca41 ff57 1f42 8b74 a241 1d80 6843
00000080: 14c8 1542 82df 2943 5d33 ab41 7b52 0942
00000090: de15 6442 9f7c 6942 995b e340 9665 a541
000000a0: 3c29 0e42 3c98 b642 b066 3e43 16c0 1842
000000b0: 641b c441 606c 0542 0a55 5c41 1e18 9842
000000c0: 19c2 1442 6188 5341 ffcb 4241 c4a5 0343
000000d0: c438 cf43 8d8d c141 baff 1242 952c 6c43
000000e0: 9de4 4f42 c128 c241 05bb 2d43 054a 2441
000000f0: 4c27 f041 2ad9 d442 65b9 1842 c375 4642
103.928185 44.489265 2465.179 35.353992 25.534033 91.52748 186.76572 63.657673
29.810457 15.124186 52.830437 47.590515 985.683 63.39341 44.452713 116.68256
14.912362 15.172718 46.841156 27.026705 28.436565 2094.1238 112.206535 95.243454
14.614517 32.045403 66.538895 10.894437 25.32789 39.835934 20.306906 232.50044
37.44539 169.87308 21.40008 34.330547 57.021355 58.3717 7.1049314 20.674603
35.540268 91.29733 190.40112 38.187584 24.513374 33.355835 13.7707615 76.047104
37.18955 13.220796 12.174804 131.64752 414.44348 24.194117 36.749733 236.17415
51.973255 24.2699 173.73055 10.268071 30.019188 106.42415 38.18105 49.615

lin.weight f4 [10, 64]
00000000: f0b9 f23e 6ea2 72bf 0743 893e 9aae f83e
00000010: af4d c3bf 4828 563f 46a6 1ebf 938c 853d
00000020: 8072 73bf 7623 abbe a2f4 cabf ecfb 353e
00000030: 813c 803f 85c4 53c0 c49f 04c0 3068 663f
00000040: d683 f63e 3d78 ddbd 843b 1440 2919 1dbf
00000050: 97ec ef3d b9d5 e23f 3398 27c0 635d 73bf
00000060: c386 21bf ac7b 923e fb6b 7a3f 7af4 b0bd
00000070: f889 8cbf bc94 2c3f 26a4 59bc f4c1 303f
00000080: 9007 c7bd a682 893f 7d74 873e 901d d6be
00000090: 2880 1640 dbb1 30be b7be d6bc 1435 5ebf
000000a0: 9b78 863d 1d5f e83f 07d2 a5be 4d0d 9f3f
000000b0: 22e3 0cc0 2c7e 0bc0 424e 4fbf 50a5 743f
000000c0: 88dc 17c0 fe3f 3fbf 99a1 3f3f 88a0 d33f
000000d0: df4e 84bf 4fa3 393e 1d63 a5bf c696 493f
000000e0: 31ab e43f b7f7 ce3f 639e 02bf 7b7e 06c0
000000f0: fd6f 8cbd 08c8 243f 5dda cc3c 32d7 94bf
00000100: e3de 21bf c3b5 a23f 783e f63d 23cb d93f
00000110: 0ced 6f3f 1042 5dbf a601 983f ff05 b1be
00000120: 7f2e e03e 4f56 3ebf 526d 99be 08b6 0dbf
00000130: 8d0f bb3e aa16 863f 5be1 19bf 37f3 b5be
00000140: 6e6c 21bf f183 33bf 4e62 06bd 1b46 88bf
00000150: 5e80 b3bf bc84 bebd 4005 983f 3ba1 04bc
00000160: c13a fcbf 3a05 b93e 9183 4dbf 1965 92be
00000170: ecbe b93f bdf4 59be fd00 d8bc a829 efbc
00000180: 9d57 0040 1f77 443f 4912 d03f 6b2c 033e
00000190: 63e5 ae3d 03f0 053f 6337 50bf 1ed8 b8be
000001a0: 3260 bbbf 9fe2 b7bf be61 6dbd 4382 d4bf
000001b0: 98ea 203f 97b0 acbf 77c8 a43f 9870 3f3f
000001c0: 16b0 79be d5f6 d5bf d87b a23f 9dd1 d83d
000001d0: 5572 993d 71eb 44bc 1b44 8c3f 0b92 e63e
000001e0: 650d 87bf 2143 adbe 584e 2cc0 bb21 763f
000001f0: 3f3e 0cc0 7a12 afbc 0bf4 f8bf f4a2 073f
00000200: 0e22 99be 4d01 d63f 6bc9 d6be 923a 6dbf
00000210: aa99 4b3f c705 e93d 579b 1e3f efcf 0e3e
00000220: 1a42 b43f 12cb f5bd a9d9 6f3b 506f e13e
00000230: 83bd 89be 8770 523d 4d81 d43f 6f6c 893f
00000240: 0aed 47bf bf29 fdbf 0462 1bbf bf48 023f
00000250: 1498 c63f 8857 53be 8b3a 45bf f649 c8be
00000260: ec76 5ebf e407 263e bf7a 7f3f 9872 df3d
00000270: 35dc 4d3f 0686 7b3d 07bb fa3c 0579 9ebf
00000280: 761c 98be dcb5 21bf f983 8dbf 8e85 843f
00000290: 0868 5abf 233c d5bf a907 8fbf f8a3 b83f
000002a0: cf58 ed3e a214 cdbe 8847 5f3e e334 acbf
000002b0: 76b7 d2bf b5d6 973f 6177 673f 3a3a 20c0
000002c0: 08d6 87bf 75cd 443e cff0 acbf 24d2 913f
000002d0: 5b59 513f 5edd 4cbf 0140 3c3e 2d87 c2be
000002e0: e786 c53f 957a cabf 1ec7 203f c2cd 23bf
000002f0: aac8 9b3f e100 b2bf 4898 4e3f ae4d 8ebd
00000300: 8988 45bf 0f3e a0bd 48a1 7f3e 5275 b53c
00000310: cbdd f03d e2de 88bf 4288 fa3e 972d bb3f
00000320: 328f 813d 168b d3bd b087 8ebf 6d5c 26be
00000330: d3b2 2fbe 63a5 f1be 7543 df3e 22b4 05be
00000340: 4adc 573f ce5e d53f d2f4 bebe fc90 b33f
00000350: 2134 05c0 578f 5bbe 97b0 cb3f 78f1 3bc0
00000360: 484a fdbf c693 94bf ec6e bcbf dae2 0dbf
00000370: 37d8 a8bf 1948 5c3e e98a 4fbd a82b e23e
00000380: d237 6d3e f7e7 66be b436 1abf 7050 753e
00000390: 7542 b8bf 7105 d53f 1956 a4be e51b 9f3f
000003a0: 25ee 20c0 9815 efbf f957 ae3e 5186 11bd
000003b0: d1a3 3a3f 36e2 6f3f bc95 e9bd 0676 a93f
000003c0: 3c6d 16bf da33 3d3f 1a6b 4dbe 9d01 7c3e
000003d0: 198c 7b3e c769 0440 b55b 85bf 1f22 98bf
000003e0: 6808 3b3e 4549 8a3f e090 c0bf b691 c23e
000003f0: 5a45 f2bf a279 803f 2a9a e1bf 85d9 0040
0.47407484 -0.947791 0.2680895 0.4857071 -1.5258082 0.83655214 -0.61972463 0.06520953
-0.9509659 -0.33425492 -1.5855906 0.17771882 1.0018464 -3.3088696 -2.0722513 0.9000273
0.48147458 -0.10813949 2.3161325 -0.61366516 0.11715048 1.7721473 -2.6186645 -0.9506437
-0.63096255 0.2860998 0.97821015 -0.0864038 -1.0979605 0.6741445 -0.013283765 0.6904595
-0.09718239 1.0742996 0.2645606 -0.4181943 2.351572 -0.17255346 -0.026213987 -0.8679974
0.065659724 1.8154026 -0.323868 1.2425934 -2.201363 -2.179576 -0.80978787 0.95564747
-2.3728352 -0.7470702 0.74855953 1.6533365 -1.033657 0.18128704 -1.2920872 0.78745687
1.7864743 1.6169347 -0.5102293 -2.1014698 -0.068572976 0.64367723 0.025006467 -1.1628172
-0.63230723 1.2711719 0.12023634 1.7015117 0.9372108 -0.8642893 1.1875503 -0.34574887
0.43785474 -0.74350446 -0.29966217 -0.5535588 0.36535302 1.0475667 -0.6010949 -0.3553712
-0.63056076 -0.701232 -0.032808594 -1.0646394 -1.402355 -0.09302661 1.1876602 -0.008095081
-1.970543 0.361368 -0.8027888 -0.28592756 1.451139 -0.21284766 -0.026367659 -0.029194668
2.0053475 0.76744264 1.625558 0.12809913 0.08539846 0.52319354 -0.81334513 -0.36102384
-1.4638731 -1.4366034 -0.057954542 -1.6602253 0.6285796 -1.3491391 1.2873677 0.7478118
-0.24383578 -1.6715952 1.2694044 0.105868556 0.0749251 -0.012019024 1.0958284 0.45033297
-1.0550963 -0.33840278 -2.6922817 0.9614522 -2.1912992 -0.021371115 -1.9449476 0.5298302
-0.29908794 1.6719147 -0.41950545 -0.92667496 0.7953135 0.11378055 0.6195578 0.13946508
1.4082673 -0.12001623 0.0036598241 0.44030237 -0.26902398 0.051376846 1.660196 1.0736216
-0.7809607 -1.9778365 -0.60696435 0.5089225 1.551516 -0.2063886 -0.77042454 -0.39118928
-0.8690021 0.16213948 0.9979667 0.10910529 0.80414134 0.06140711 0.03060676 -1.2380682
-0.29709214 -0.6316812 -1.10559 1.0353258 -0.8531499 -1.6658977 -1.1174213 1.4425039
0.46356818 -0.40054804 0.21804631 -1.345364 -1.6462238 1.1862398 0.9041653 -2.5035539
-1.0612192 0.19219 -1.3510989 1.1392255 0.8177697 -0.8002528 0.1838379 -0.37993756
1.5431794 -1.5818659 0.6280383 -0.63985837 1.2170613 -1.3906518 0.8070111 -0.0694841
-0.7716146 -0.07824337 0.24963868 0.02215067 0.11761054 -1.0693018 0.4893208 1.4623288
0.063261405 -0.10329263 -1.1135159 -0.16246195 -0.1715806 -0.47196493 0.43606153 -0.13056996
0.8432051 1.6669557 -0.37296158 1.4028621 -2.0813067 -0.21441399 1.5913266 -2.936613
-1.9788294 -1.1607597 -1.4721351 -0.55424273 -1.3190984 0.21511878 -0.050669584 0.44173932
0.23165825 -0.22549425 -0.6023972 0.23956466 -1.4395281 1.6642286 -0.32096937 1.2430388
-2.5145352 -1.8678465 0.34051493 -0.035528485 0.72906214 0.93704545 -0.11405513 1.3239143
-0.5876043 0.73907244 -0.20060387 0.2460999 0.24565162 2.0689561 -1.0418612 -1.1885413
0.18264925 1.080361 -1.5044212 0.38001794 -1.8927414 1.0037119 -1.7625172 2.0132763

lin.bias f4 [10]
00000000: 0458 f0bd 8257 063f 3b75 e73e b008 ec3d
00000010: e63d 96be c9b1 12bf 93d8 5fbe 5787 203f
00000020: bf0a b0bf 6810 6fc0
-0.11735538 0.52477276 0.45206627 0.115250945 -0.293441 -0.5730253 -0.2185996 0.6270651
-1.375328 -3.7353764

conv.0.weight f4 [8, 2, 5, 5]
00000000: 89a3 3dbf b613 6f3f e87d 9340 ba04 c43f
00000010: d05d 5a3f 4371 d3bf 43fe c6be 98e7 cb3f
00000020: 5444 083f 0804 42bf f64e 21bf 25e7 82bf
00000030: e436 0b3e 879f dfbe d49a 2bbd 9aa5 9abf
00000040: 81a1 95bf f32f a63e 24a8 4cbf e6f6 7b3e
00000050: 9332 0abf a667 fabe 4829 813e e057 8ebf
00000060: 1fab aabe 3b2d 5abe d9eb 913f d668 8340
00000070: 8730 fb3f 4a27 3e3f 10d6 28bf 6504 04be
00000080: afea aa3f b3a0 dcbe 290d 39bf 4d35 c0be
00000090: 20c8 87bf 04f8 f43e fcd1 2bbf 6ebb 7d3e
000000a0: 7468 b7bc 9561 26bf 63dd 1abe 9454 0fbf
000000b0: 62e8 9d3d 4ed7 b73e 308a 823e bc80 a03c
000000c0: 31b8 9abe fb56 e73e b33f 24be 72cf fcbf
000000d0: 3f62 3bbf d293 84bf 235c 1cbf 5777 ee3e
000000e0: 14c3 a9bf c734 afbe 467a 893c 82c6 0d3f
000000f0: a2af 323f 7a8d 6bbf d4f0 9fbe 731f 003f
00000100: d955 793c 9d45 783f 8fdc 8fbf 2abb 70bf
00000110: ae49 01bd fce9 923b 6c83 2440 c51e 9e3f
00000120: 5eca 693f 2855 593f ef6c d83e b887 8cbe
00000130: 0463 b2bf c558 a6bf a955 88bf 4d8c 29bf
00000140: b010 813f f21b 46bf b04a 40bf 320c 233e
00000150: abec 0a3d 6a02 8e3f 9763 40bf 066e 21bf
00000160: fed4 6bbe 1f7b 80be b4c2 b63f 7582 c2be
00000170: a028 c2be 26f8 a4be ba9a e33d 60c2 5840
00000180: 692f f43f 6f9f 823f 6533 6f3f 128d f73e
00000190: fee2 cf40 96e2 c93e 52c4 6c40 9f9f 773f
000001a0: 6eb8 b0be d674 fc3f 12ba 78bf 7a89 8a3f
000001b0: c7f3 7ebd 84e3 14bf 9ca0 7b3f 390c a9bf
000001c0: 41b6 553f e7fb 09be 777c cdbe a82e 21be
000001d0: b78f d5bf b50a c23f 5e82 db3e 3108 fb3e
000001e0: 97c4 be3f 0747 a43e 810d 443f 4627 c33e
000001f0: 494e 763e ffb3 2a40 ed16 adbe 2a32 ae3f
00000200: a141 963e 8717 0ebf 1b9c 353e 469b a3bf
00000210: 9191 bf3e cbde 503d 845c 2abe 8e6a 80bd
00000220: f227 afbf 61f4 b9bd 744a 61be a5eb 2e3e
00000230: cd24 dabf c955 c2bf d691 1e3f 5e27 c33e
00000240: c685 683e 35c2 4c3e 30ff 12bc c7ee 493e
00000250: 4d1d 1a3e 7ce7 343e 571d 81bf 0128 c1bf
00000260: d3bc 9ebf f0ee 003f 9274 2bbf 5c52 f9be
00000270: 466d 9ebe 3d15 89bd b71e 833d d0cc 093f
00000280: eabf 7ebf 91ad 9a3f 18d4 f6be f27d 34bf
00000290: 48b5 bcbe a11f ad3f 3f54 4940 4589 683f
000002a0: 55e3 863f 65c3 41bd 7f61 a6be b29d 4b3f
000002b0: cdf0 88be dea3 66bf 9052 09bf b1f5 a3bf
000002c0: 3bdd bcbf 3a6b acbf 25a3 99bb c83a a7be
000002d0: ecf7 f6be 0f7e 7bbd 446f 29be e3d7 d23c
000002e0: b1da 643e f7b4 75bf 4c02 c73f 5b68 3cbe
000002f0: 4ddc 2fbf 7417 96bc e0c1 8b3f 7bda 7d40
00000300: 466e 9c3f 215d 003f 3ba3 b83e c2b3 d93c
00000310: 42de 8b3f 23e5 893e c72b 3cbf e50f e3bd
00000320: 7aed 8f40 da9b e03f b8ae 91be b421 adbe
00000330: 59da efbd 0ca7 3c40 e9fd bb3f 54f0 1bbf
00000340: 1bae c0be fe03 c3be 7fbc 2840 3856 633f
00000350: 821d 39be 5275 0c3f ff29 0f3e 2e02 803f
00000360: dda2 57be 68e3 18bf 7669 353f 2574 35ba
00000370: dcdf 143e 0b1c 5bbe ea5a e5be b979 773f
00000380: 0907 1dbe eb52 b33f 743c c43f 490e d1bf
00000390: b14a 99bf ccf2 afbf 0ac1 863f 8781 1e3f
000003a0: 0e55 0dc0 e25e b3bf 2b02 80bf 8686 9a3f
000003b0: f8fa 8b3f 9097 c4bf 4a99 23bf 187c 64bf
000003c0: f307 2fbe 5d39 50be 6f84 6cbf bd8b 8e3e
000003d0: 15a9 f5be 9e3c 0ebf 5614 0bbf 03d0 e7be
000003e0: 77b6 f33d dd9c 88be 6be8 b7bf 5369 4dbf
000003f0: 9b05 2ac0 8543 c0bf 3443 b8bf 7ac3 293f
-0.7407766 0.9338945 4.6091194 1.5313942 0.85299397 -1.651894 -0.3886586 1.5930052
0.5322926 -0.757874 -0.6301111 -1.022679 0.13595158 -0.43676397 -0.041895702 -1.2081788
-1.1689912 0.32458457 -0.7994406 0.24605903 -0.5398342 -0.48907202 0.25226808 -1.1120567
-0.3333368 -0.21306317 1.14001 4.1065474 1.9624184 0.742787 -0.65951633 -0.12892301
1.335287 -0.43091354 -0.72285706 -0.37540665 -1.0607948 0.4784547 -0.67117286 0.2477853
-0.022388674 -0.6499265 -0.15123515 -0.5598843 0.07710339 0.35906452 0.25496054 0.019592635
-0.30218652 0.45183548 -0.16039924 -1.9750807 -0.73196787 -1.0357611 -0.6107809 0.46575424
-1.3262658 -0.34219953 0.016781937 0.55381024 0.69799244 -0.9201275 -0.31238425 0.5004799
0.015218222 0.9698122 -1.1239184 -0.9403559 -0.031564407 0.0044834595 2.5705214 1.235314
0.9132441 0.84895563 0.4227061 -0.27447295 -1.3936467 -1.299584 -1.0651141 -0.66229707
1.0083218 -0.7738639 -0.75113964 0.15922621 0.03391711 1.1094487 -0.7515196 -0.6305851
-0.23030469 -0.25093934 1.4278169 -0.37990156 -0.3792162 -0.32220572 0.11113496 3.3868637
1.9076968 1.0204905 0.93437797 0.48349816 6.496459 0.39430684 3.6994824 0.9672794
-0.3451571 1.9723155 -0.9715892 1.0823205 -0.062244203 -0.5815966 0.98291945 -1.3206855
0.8348122 -0.13475 -0.40134022 -0.15740454 -1.6684483 1.5159518 0.428729 0.49029687
1.4903744 0.3208544 0.76583105 0.381159 0.24053301 2.667236 -0.33806553 1.3609059
0.29346946 -0.5550465 0.17735331 -1.2781761 0.37415746 0.050993722 -0.16636854 -0.06270324
-1.3684065 -0.09079815 -0.22001058 0.17082079 -1.7042481 -1.518243 0.6194128 0.38115972
0.2270728 0.19995959 -0.008971974 0.19719993 0.1505024 0.1766643 -1.0087079 -1.5090333
-1.2401375 0.5036459 -0.6697475 -0.48695648 -0.30942744 -0.06693504 0.06402343 0.53828144
-0.9951159 1.2084218 -0.4820869 -0.7050468 -0.36857057 1.3525277 3.145767 0.90834457
1.0538126 -0.047305483 -0.3249626 0.795375 -0.26746216 -0.9009379 -0.53641605 -1.2809354
-1.4755014 -1.3470223 -0.004688638 -0.32662034 -0.48236024 -0.061399516 -0.1654635 0.025737708
0.22349049 -0.95979255 1.5547576 -0.18399183 -0.6869553 -0.01832173 1.0918541 3.96646
1.2221153 0.50142103 0.36062035 0.026574973 1.0927203 0.2693263 -0.735043 -0.11087016
4.497739 1.7547562 -0.28453612 -0.33814776 -0.117115684 2.9476957 1.4686862 -0.60913587
-0.37632832 -0.38088983 2.636505 0.88803434 -0.18077663 0.54866517 0.13980864 1.0000665
-0.21058221 -0.59721994 0.70864046 -0.0006921909 0.1453852 -0.21397416 -0.44795924 0.9667011
-0.15334715 1.400968 1.5330949 -1.6332484 -1.1975919 -1.3745971 1.0527661 0.61916393
-2.2083163 -1.4013331 -1.0000662 1.2072303 1.0935965 -1.5358753 -0.63905776 -0.8925185
-0.17092876 -0.20334382 -0.9238958 0.27840987 -0.47980562 -0.55561244 -0.54327905 -0.45275888
0.11900037 -0.26682177 -1.4367803 -0.80238837 -2.6565921 -1.5020605 -1.4395509 0.663139
