models/standard/k-fold saves/test1e_f10_e10_f9_b64.pt (torch, 335209 bytes, 86 tensors)

conv1.weight f4 [8, 2, 5, 5]
000000 54 9d 3d bf a9 9d 6a 3f 66 65 93 40 64 65 c2 3f
       -0.7406819 0.9164682 4.6061277 1.5187192
000010 25 03 59 3f 5f 10 d3 bf 91 58 cb be 07 16 cb 3f
       0.84770423 -1.6489371 -0.39716008 1.5866097
000020 33 df 05 3f 66 f2 41 bf fc 9c 21 bf 7b ad 83 bf
       0.522937 -0.75760496 -0.63130164 -1.0287317
000030 ba 25 07 3e ed 3e e3 be 99 a8 2f bd 75 0d 9b bf
       0.13197985 -0.44383946 -0.042885397 -1.2113482
000040 c4 f9 96 bf 78 1f a3 3e b0 fc 4e bf 4b 89 6d 3e
       -1.1794972 0.31859946 -0.8085432 0.23196904
000050 06 17 0f bf 47 61 03 bf eb dc 6f 3e 20 67 91 bf
       -0.55894506 -0.5132031 0.23424117 -1.1359596
000060 32 51 b5 be 56 58 57 be 55 f7 8f 3f 22 53 83 40
       -0.3541351 -0.21029791 1.1247355 4.103898
000070 91 2c fb 3f a2 ab 3e 3f df 24 28 bf 3f 97 07 be
       1.9622976 0.7448064 -0.6568126 -0.1324129
000080 14 5f aa 3f a6 a6 dc be da 8e 36 bf 46 77 be be
       1.3310266 -0.43095893 -0.71311724 -0.37200373
000090 65 e1 87 bf ec 79 f5 3e 36 20 2c bf 8e 22 83 3e
       -1.061566 0.47944582 -0.6723665 0.256123
0000a0 b4 62 a7 bc bb 92 27 bf 1b 95 1c be 85 58 10 bf
       -0.020432808 -0.6545827 -0.15291254 -0.5638507
0000b0 c8 5e 95 3d a8 0b b2 3e e2 6e 72 3e 8b 32 08 3c
       0.07293469 0.34774518 0.23675111 0.008312832
0000c0 16 89 a2 be 1d 50 e2 3e 81 8f 1f be ce 43 fc bf
       -0.31745213 0.44201747 -0.15582086 -1.9708192
0000d0 2e fb 3b bf f9 b9 84 bf 5f 3e 1b bf 66 9f f4 3e
       -0.73430145 -1.0369254 -0.60642046 0.4777786
0000e0 e8 64 a8 bf 6f f7 ac be 7d 0a b2 3c 3a c4 0f 3f
       -1.3155794 -0.33782527 0.021733517 0.5615879
0000f0 0e db 34 3f 80 77 69 bf be f8 a0 be 60 a8 00 3f
       0.7064675 -0.9119797 -0.31439775 0.5025692
000100 70 a2 99 3c c0 2b 79 3f 33 9a 8f bf 32 81 72 bf
       0.018754214 0.9733238 -1.1218933 -0.94728386
000110 20 67 26 bd 83 7e cf ba a2 8c 24 40 ba f3 9e 3f
       -0.04062569 -0.001583055 2.5710835 1.241813
000120 a9 87 69 3f ac f6 59 3f bd 24 db 3e 4c 75 88 be
       0.91222626 0.85142016 0.42801467 -0.2665199
000130 5f 56 b1 bf 28 62 a6 bf d6 36 88 bf 27 c4 27 bf
       -1.3854483 -1.2998705 -1.0641735 -0.6553368
000140 8b 15 83 3f f1 b7 42 bf 9a 67 3e bf f0 05 2a 3e
       1.0240949 -0.7606192 -0.74376833 0.16603827
000150 f6 2a 33 3d 75 45 8f 3f 2e 1a 3d bf a8 d9 21 bf
       0.043742143 1.1193072 -0.7386807 -0.6322274
000160 1b a5 69 be fb 3b 7b be 40 46 b7 3f 9f 4b c0 be
       -0.22816889 -0.245346 1.4318314 -0.37557694
000170 81 4b c5 be e3 54 aa be ee d2 d9 3d df cd 58 40
       -0.38534167 -0.33267888 0.10635935 3.3875654
000180 d2 47 f5 3f c5 40 82 3f ed 9c 6e 3f a7 f4 f9 3e
       1.9162543 1.0176016 0.932082 0.48819467
000190 68 f3 cf 40 9c f2 bf 3e c1 77 6b 40 ed cb 7b 3f
       6.4984627 0.37489784 3.6791842 0.9835804
0001a0 53 8e a9 be fd 61 fc 3f 21 9e 7b bf 24 df 87 3f
       -0.33116397 1.9717404 -0.9828816 1.0614972
0001b0 d9 ae 63 bd 76 cc 12 bf b3 87 73 3f b7 ec ad bf
       -0.05558667 -0.5734323 0.95128936 -1.3587865
0001c0 bd 4d 4a 3f f4 a3 15 be 49 7d d3 be 0b ea 2b be
       0.7902487 -0.14613324 -0.41306522 -0.16788499
0001d0 ce 64 d7 bf e0 b4 bf 3f 61 0b dd 3e f8 7a fb 3e
       -1.6827638 1.4977074 0.43172744 0.49117255
0001e0 3a a6 bb 3f 4e 2f 91 3e 9d 18 3c 3f b6 42 bc 3e
       1.4660103 0.28356403 0.73475057 0.36769646
0001f0 c7 57 70 3e c2 cc 28 40 95 53 c4 be 0f 37 a6 3f
       0.23470984 2.6374974 -0.38345018 1.2985553
000200 28 4d 93 3e 85 0c 0e bf 25 cf 1c 3e 1e b5 a7 bf
       0.28769803 -0.55487853 0.15313394 -1.3102148
000210 0c fd aa 3e f3 a6 2b 3d a0 4d 2d be c7 c1 de bd
       0.33396184 0.041907262 -0.16924143 -0.10876804
000220 08 72 b6 bf af 8e 17 be 9e 80 78 be ea 4e 1a 3e
       -1.425355 -0.14800523 -0.24267814 0.15069166
000230 21 f5 dc bf c9 02 c6 bf e0 da 17 3f 38 90 bd 3e
       -1.7262307 -1.54696 0.5931835 0.37024093
000240 ec 0b 64 3e 5e 51 28 3e 1d 7e 6b bd ca c2 1f 3e
       0.22270173 0.16437289 -0.057493318 0.1560165
000250 07 9b 01 3e ed 22 26 3e 04 a9 81 bf 0e bf c0 bf
       0.12656794 0.1622426 -1.0129704 -1.5058305
000260 28 5e 9f bf 1b 59 03 3f 51 e1 2b bf 1b 12 f6 be
       -1.2450609 0.5130784 -0.6714068 -0.48060688
000270 3e ff 99 be 04 62 86 bd ec dd 9e 3d 62 90 0a 3f
       -0.30077547 -0.06561664 0.07757172 0.5412656
000280 0e 89 7d bf 9e e7 9b 3f 3c 36 f6 be 1b b7 30 bf
       -0.99037254 1.2180059 -0.48088253 -0.69029397
000290 ad a7 bb be 06 90 ac 3f 18 96 49 40 52 ec 67 3f
       -0.36651364 1.3481452 3.149786 0.9059497
0002a0 dc a8 87 3f 26 f0 48 bd 8b 67 a8 be 5d 14 4e 3f
       1.0598407 -0.04905715 -0.32891497 0.8049982
0002b0 93 ad 85 be 3b e6 62 bf a6 ce 08 bf ce 18 a4 bf
       -0.2610899 -0.88632554 -0.5344032 -1.282007
0002c0 1c 3c bc bf 36 3a ad bf 6a 2d a6 3b 5d 6e a9 be
       -1.4705844 -1.353339 0.0050713317 -0.33092013
0002d0 a1 77 f3 be 7b 78 60 bd da b4 28 be f1 3e 22 3d
       -0.47552207 -0.0548024 -0.1647524 0.039610807
0002e0 5a fa 66 3e 69 1d 73 bf 84 65 c8 3f 26 0c 39 be
       0.22556439 -0.9496675 1.565598 -0.1807104
0002f0 b5 dd 2a bf 8f 99 3f bc 86 0d 8c 3f 42 07 7e 40
       -0.6674455 -0.011694326 1.0941627 3.969193
000300 23 78 9c 3f fc 9f 02 3f c9 9d b9 3e e2 54 b5 3c
       1.2224163 0.51025367 0.36253193 0.022135202
000310 73 a3 8c 3f 8d 95 8a 3e f1 e5 38 bf ef b6 df bd
       1.0987381 0.27067223 -0.7222586 -0.10923564
000320 b8 a6 8f 40 a0 f0 e0 3f 9e 86 92 be 19 6d b2 be
       4.4891014 1.7573433 -0.2861833 -0.3484886
000330 fc f8 0e be d4 64 3c 40 81 34 bc 3f d1 a0 19 bf
       -0.13962168 2.943654 1.4703523 -0.6001101
000340 30 04 c1 be 63 73 cc be 4e 6b 27 40 b3 cf 60 3f
       -0.37698507 -0.39931783 2.6159244 0.87816924
000350 6d 11 40 be 06 ae 08 3f 72 08 df 3d 7e 7d 7c 3f
       -0.18756647 0.5339054 0.10890283 0.98628986
000360 7c 4e 5a be d9 d9 1a bf b9 1e 32 3f df 20 da bc
       -0.21319002 -0.6048866 0.6957813 -0.026627002
000370 3c f7 0f 3e a7 e9 5d be fb 06 e5 be 65 8d 75 3f
       0.14059156 -0.21671163 -0.44731888 0.95918876
000380 bd 40 31 be a7 dd b1 3f 60 fa c3 3f 4b 8a d1 bf
       -0.17309852 1.3895768 1.5310783 -1.6370329
000390 ae 56 9a bf 4d 2a b3 bf b7 23 86 3f 43 78 1d 3f
       -1.2057703 -1.3997284 1.0479649 0.6151163
0003a0 2b 02 0d c0 62 6d b3 bf 21 72 82 bf 12 bc 97 3f
       -2.2032573 -1.4017756 -1.0191079 1.185427
0003b0 47 28 8a 3f 7d c0 c5 bf f6 79 26 bf e3 31 6b bf
       1.0793542 -1.5449368 -0.6502985 -0.91872996
0003c0 60 10 3b be 2e fe 5a be eb 2b 6e bf 07 75 87 3e
       -0.18267965 -0.21386024 -0.93035764 0.26456472
0003d0 b6 b6 00 bf 48 db 0f bf a5 48 0c bf ac af e7 be
       -0.50278795 -0.5619397 -0.54798347 -0.45251215
0003e0 c4 de e0 3d 2c 61 93 be 0b f9 b6 bf 51 38 49 bf
       0.10979989 -0.28785074 -1.4294752 -0.78601557
0003f0 8b f8 29 c0 52 a8 bf bf ad 02 b9 bf 32 48 2c 3f
       -2.6557949 -1.4973242 -1.4453942 0.6729766

conv1.bias f4 [8]
000000 4a aa 7f c0 33 df 28 c0 29 29 ef bf f7 40 a5 bf
       -3.9947686 -2.638623 -1.8684436 -1.2910451
000010 a6 c6 5f c0 07 e2 70 be 24 93 51 ba ce 47 b0 c0
       -3.4964995 -0.23523723 -0.0007994643 -5.508765

bn1.weight f4 [8]
000000 9c 86 a6 3f f5 13 af 3f 00 2b a5 3f 2e cf e2 3f
       1.300983 1.3677965 1.2903748 1.7719476
000010 f1 6a aa 3f 9b 07 ed 3f 6d f1 bd 3f 11 5c b6 3f
       1.3313886 1.8517946 1.4839302 1.4246846

bn1.bias f4 [8]
000000 65 01 3f bf ed a5 ad be fd 32 ab bf 88 db f7 3e
       -0.746115 -0.33915654 -1.3374935 0.48409677
000010 04 fc f6 bf b7 cc 8b bf 38 df 80 3f 51 93 82 bf
       -1.9295659 -1.0921849 1.0068121 -1.0201207

bn1.running_mean f4 [8]
000000 ab 3e a0 3f 96 d7 68 3f 61 30 9b 40 6f f2 6b 3f
       1.2519125 0.9095396 4.8496556 0.921668
000010 e9 26 c2 3f 2f be b9 3f 26 f7 1c 41 bf 6a 11 40
       1.5168124 1.4511164 9.810339 2.2721403

bn1.running_var f4 [8]
000000 c7 41 95 41 8a c9 47 41 60 14 07 43 52 2e 34 41
       18.657118 12.486704 135.07959 11.261309
000010 b6 24 a0 41 3a b3 b5 41 74 45 86 42 5e 15 11 42
       20.017925 22.712513 67.13565 36.270866

conv2.weight f4 [16, 8, 3, 3]
000000 ee 55 99 be 28 d4 05 c0 7b 89 89 bf 8b 15 03 40
       -0.29948372 -2.091074 -1.0745081 2.0481899
000010 8d ac 4e bf 5e e2 01 bf 1b a4 ae 3d 7c aa ee bd
       -0.8073204 -0.50736034 0.085273944 -0.11653611
000020 af 86 72 3f 12 20 46 bf b9 81 5f be 54 54 4f 3f
       0.9473676 -0.77392685 -0.21826829 0.8098805
000030 c9 42 48 c0 76 16 a3 bf 86 25 20 bf f4 2d ad be
       -3.1290762 -1.274123 -0.62557256 -0.33824122
000040 e5 fc 4e 3e 9f 81 6d be 6e 82 a6 3f 26 54 af 3e
       0.20213659 -0.23193978 1.3008554 0.34243888
000050 1c de 10 3f 13 48 85 3f 16 8f 5e 3f a7 55 06 3f
       0.5658891 1.041262 0.8693708 0.52474445
000060 b4 14 da 3f de 8c 6d 3f 13 a5 2c 3f 98 f6 e6 3e
       1.7037568 0.9279307 0.67439383 0.4511001
000070 92 78 88 bc 18 90 40 bf e4 3a 12 c0 50 44 2e c0
       -0.016659055 -0.7521987 -2.2848444 -2.7229195
000080 77 a4 d6 3e dd ba 20 be c5 90 d0 be 17 09 5c 3f
       0.41922352 -0.15696283 -0.4073545 0.8595137
000090 53 d7 60 bf f9 26 93 3d de fd 1e 3e 47 67 f6 3e
       -0.8782856 0.07185168 0.1552653 0.4812567
0000a0 7e 83 aa 3e 94 a6 0a 3e f6 1d 24 40 fa 5e b9 3e
       0.33303446 0.13540107 2.5643287 0.36205274
0000b0 d1 7d a1 3e 7b 57 06 3f 9f d4 2c 3e 6e c1 2c bf
       0.31541303 0.52477235 0.16877984 -0.6748265
0000c0 32 c9 53 c0 e4 42 3e c0 26 48 e1 bf 11 2b 99 3f
       -3.309155 -2.9728327 -1.7600143 1.1966268
0000d0 9b e9 3d ba 54 25 2a 3e 89 a3 49 bf 9b 2e de be
       -0.0007244588 0.16615802 -0.7876516 -0.43394932
0000e0 5a b9 a7 be 8f 7b 16 bf 56 6a f7 be 65 4d 26 be
       -0.327586 -0.58782285 -0.48323315 -0.16240461
0000f0 12 c8 f8 bf 59 99 dc bf 32 1b d7 3e d4 e3 7f bb
       -1.9436057 -1.7234298 0.42012936 -0.0039045708
000100 2f 39 8e 3e 30 74 a4 bf b0 a7 55 40 aa 27 76 3f
       0.27778003 -1.2847958 3.3383598 0.9615427
000110 e2 28 14 3e bc d3 89 3f 6d fa b1 be fc ed af 3e
       0.1446872 1.0767741 -0.34761372 0.34361255
000120 bc f6 0f 3f b0 94 d1 3f db c2 b7 3f 7d 05 eb be
       0.5623586 1.6373501 1.435634 -0.45902625
000130 aa b0 f2 be e5 1d 93 3f 29 d8 86 bf 66 76 78 3e
       -0.4740041 1.1493498 -1.0534717 0.24263915
000140 99 ec 61 3f 03 7f 55 bf 3b eb d2 bf 92 4e e2 3c
       0.88251644 -0.8339693 -1.6478037 0.027625356
000150 58 a1 92 be 8e 2b 6c bf 54 8a e3 3f 32 20 24 bf
       -0.2863872 -0.9225396 1.7776589 -0.64111626
000160 f7 ab 73 bf 68 8f 02 3f d8 2a a3 3e 83 5f c8 3f
       -0.9518427 0.5100007 0.31868625 1.5654148
000170 f7 b3 e5 3f 26 83 23 3e 9e d2 ac 3f 78 b5 76 3f
       1.7945546 0.15967998 1.3501775 0.9637065
000180 7f 9c 04 bf 82 7e 8d 3f 94 51 ba 3f 5a a5 f5 bf
       -0.51801294 1.1054232 1.4556146 -1.9191086
000190 d5 37 24 bd f5 95 81 3f 13 93 59 bf 43 9b 2a bf
       -0.040092308 1.0123888 -0.8499004 -0.6664316
0001a0 75 2b 7d 3f 73 a1 84 bf dd d5 1e 3e 8e 2b a6 3e
       0.98894435 -1.036177 0.1551127 0.32455105
0001b0 84 e3 0a c0 4c 72 67 bf d0 48 82 3f 46 96 19 c0
       -2.1701365 -0.9040878 1.0178471 -2.399797
0001c0 50 57 64 bf 43 26 be bd e3 fc 02 c0 d5 e5 a5 bf
       -0.8919573 -0.092846416 -2.046685 -1.2960764
0001d0 29 4c bb 3e c0 d4 8c 3f 5b e5 97 3e aa 4f 01 40
       0.36581543 1.1002426 0.29667172 2.0204873
0001e0 a1 78 05 c0 98 37 73 3e 5a b9 bb 3f 8c 5e b3 bf
       -2.0854876 0.23751676 1.466594 -1.4013228
0001f0 2d 57 46 3e fd 96 91 3f b2 e3 82 bf fd 20 7f 3f
       0.19369192 1.1374203 -1.0225737 0.9965971
000200 7b 6d 01 3f ac 99 d6 bf 37 00 0a 3f fe b2 e9 be
       0.5055768 -1.6765647 0.5390658 -0.45644373
000210 6d 0e 04 c0 0f ce 28 3f 55 d8 e4 3d 09 5a e6 bd
       -2.0633805 0.6593942 0.111740746 -0.112476416
000220 36 20 88 3f 0e fe 07 40 19 8a 9d be be ff 99 bc
       1.063483 2.1248813 -0.30769423 -0.018798705
000230 05 7f fe 3f 12 10 26 bf 42 95 19 bf 31 d8 cf 3f
       1.9882513 -0.6486827 -0.59993374 1.6237851
000240 21 17 84 c0 64 da 8a bd c8 bb cf 3e 57 0e 5f bf
       -4.1278234 -0.06779936 0.40572953 -0.87131256
000250 4d 21 70 bf 32 d7 94 be 8e 4f 9f bf f5 84 d2 bf
       -0.9380081 -0.2907043 -1.2446153 -1.6446825
000260 35 27 51 bf 92 d0 82 3f 80 b0 20 c0 5f aa b8 3b
       -0.8170045 1.0219901 -2.5107727 0.005635544
000270 01 82 5f 3f 8e d3 27 c0 47 6b 9e bf 92 d2 57 be
       0.87307745 -2.6222873 -1.2376488 -0.2107642
000280 8f 0f cb bf 92 c9 f2 3f 44 c4 84 bd bc e6 9e bf
       -1.5864123 1.8967764 -0.06482747 -1.2414165
000290 a4 a8 90 3f ba 4f e2 3d cb 9c 3b c0 96 24 91 bf
       1.1301465 0.11050363 -2.931445 -1.133929
0002a0 0c 8b d7 3d 64 9e 04 c0 b5 98 52 bf 01 47 bc 3f
       0.10524568 -2.0721674 -0.8226426 1.4709169
0002b0 e0 ad 8e 3e 96 03 e8 be 2c c0 a7 3e c8 ea 32 bd
       0.2786703 -0.45315236 0.32763803 -0.043680936
0002c0 5a 6d b5 be 82 34 6b be e0 c8 f7 bc 67 ca df be
       -0.3543499 -0.22969249 -0.030247152 -0.43709108
0002d0 ea 9d 98 3e 2b 45 63 c0 13 be f2 3e 5d 63 0f 3f
       0.2980798 -3.5510967 0.4741064 0.5601099
0002e0 13 cb 4e c0 cc 8f ee bf a1 0a dd 3e b3 65 85 c0
       -3.2311447 -1.8637633 0.43172172 -4.1686645
0002f0 54 5f 0d c0 e5 b8 22 3e 94 c8 07 c0 cb 5c a3 3f
       -2.2089434 0.15890844 -2.1216173 1.2762693
000300 f1 43 65 3f 94 b0 66 be 41 e7 11 bf 4e 89 b5 3f
       0.89556795 -0.22528297 -0.5699349 1.4182527
000310 72 4f 29 bf cc 09 f6 bf 74 e2 ee 3e aa 3a 41 3d
       -0.6613685 -1.922174 0.46657145 0.047175087
000320 fd 6c 27 3f e0 21 4f be 72 24 b3 bc 82 bd 88 bd
       0.6540068 -0.20227766 -0.021867964 -0.06676771
000330 3a 75 0e bf 70 c8 b1 be 90 f6 23 3f da 89 b9 3f
       -0.55647624 -0.34723234 0.640481 1.4495194
000340 bc 76 64 3d fe 2f 8b be d0 96 c5 3f ce 51 b0 3e
       0.055777296 -0.27185053 1.5436649 0.34437412
000350 d8 dd c2 3d 64 6e a1 3f 0c c3 51 bf bf 0d 46 3e
       0.095149696 1.2611814 -0.8193824 0.19341181
000360 e3 97 81 c0 20 d0 0b c0 05 9c b9 bf 05 5e cd 3e
       -4.049791 -2.184578 -1.4500738 0.40110794
000370 b7 1f 11 3f dd d2 02 40 cb 6a 82 bf 10 5c 3c 3f
       0.5668902 2.04412 -1.0188841 0.73577976
000380 e2 bc 37 3e 4a bb d7 3f af 97 0e 3f d3 e1 67 3e
       0.17943147 1.6854031 0.557002 0.22644739
000390 81 a9 a2 bf ab 64 a1 be 7c 51 3a 3f 85 e3 0b c0
       -1.2707978 -0.31522116 0.72780585 -2.1857617
0003a0 1b 55 42 3e 0b 2b a3 3f da 06 20 c0 9e a1 d9 bf
       0.18977778 1.2747511 -2.5004182 -1.7002447
0003b0 07 e6 a3 be 48 b5 41 bf 12 de e1 be 7f 20 ac be
       -0.32011434 -0.7566724 -0.4411474 -0.33618543
0003c0 b9 d9 76 bf 8a 33 ca be c1 fd 19 3f 50 50 21 3f
       -0.9642597 -0.39492446 0.6015282 0.6301317
0003d0 2d 0e f3 be 43 9d 61 be ec 83 81 3f ef b9 9a 3f
       -0.47471753 -0.22032647 1.0118384 1.2087992
0003e0 b9 a4 4b 3f 1e 3e 87 bf 31 1c 2a bf 4d 07 f5 bf
       0.7954822 -1.0565832 -0.66449267 -1.9142853
0003f0 33 7e f4 bf fb 81 68 3d 46 46 4a bf 0b 52 b8 be
       -1.9101013 0.056764584 -0.7901348 -0.36000094

conv2.bias f4 [16]
000000 47 b8 a1 be 3b 97 90 be 6d 30 ba be 71 3f c4 bf
       -0.31585905 -0.2824038 -0.3636507 -1.5331861
000010 57 9a 49 3e bf 3b 73 c0 eb c4 77 c0 bb 1e ea 3f
       0.19687782 -3.8005216 -3.871394 1.8290628
000020 bf a4 95 3f 7e 78 f9 bf 82 3c f1 bf 09 8f 1f bf
       1.1690902 -1.9489896 -1.884659 -0.6232763
000030 69 99 fd 3f cd ef 19 c0 2c fd 4f be 46 18 38 c0
       1.9812442 -2.4052613 -0.20311421 -2.8764815

bn2.weight f4 [16]
000000 da 9b 26 40 83 86 1a 40 c8 42 ad 3f cd d7 8c 3f
       2.6032624 2.41446 1.3536005 1.1003357
000010 3c 80 4a 3f 1f c7 e5 3f 10 6e ba 3f 6b 94 89 3f
       0.7910192 1.7951392 1.4564838 1.0748419
000020 64 62 49 40 e9 28 76 3f 5e 64 c5 3f 80 81 b7 3f
       3.1466303 0.96156174 1.5421255 1.4336395
000030 a0 79 fe 3f a3 18 d0 3f b2 36 3b 3f 2b af c0 3f
       1.9880867 1.6257519 0.73130333 1.5053457

bn2.bias f4 [16]
000000 98 b0 84 3e 39 fb ad 3e 33 c0 69 bf 1b 3a 25 be
       0.2591598 0.3398073 -0.913089 -0.16135447
000010 54 da 0a bf be 29 9b 3e 40 11 bc 3e e2 4c 9c bf
       -0.5423939 0.30305284 0.3673191 -1.2210963
000020 2c 08 1e 3d e4 25 c2 3e 8a 34 dd 3e 05 d7 8c be
       0.038582012 0.37919533 0.43204147 -0.27507797
000030 65 3c 9e be e8 2f 26 3f bd 35 c9 3e 27 9d a3 3e
       -0.30905452 0.6491685 0.39298812 0.31955835

bn2.running_mean f4 [16]
000000 45 48 eb 3f 91 e8 86 40 bc c9 37 42 ef d2 02 41
       1.838143 4.2158895 45.947006 8.176497
000010 51 bd eb 41 be 03 86 40 85 36 e7 3f cd 03 9c 41
       29.46744 4.187957 1.8063513 19.501856
000020 0f e8 1f 40 1f 87 19 41 e1 13 fe 3f e2 46 0d 40
       2.4985387 9.595489 1.9849817 2.2074513
000030 24 f1 88 40 46 7f b6 3f 2c 1a 65 41 4a 9c 0f 42
       4.279436 1.4257591 14.31889 35.902626

bn2.running_var f4 [16]
000000 b3 b0 3d 42 be b8 4a 43 ba de bb 43 26 b6 19 43
       47.422558 202.72165 375.74005 153.71152
000010 74 cf dd 43 d8 51 36 43 56 07 11 42 40 aa b9 42
       443.62073 182.3197 36.257164 92.83252
000020 86 8c 94 42 2a f2 56 43 a0 f7 3b 42 de 42 4f 42
       74.27446 214.94595 46.99182 51.8153
000030 38 41 13 43 b8 21 dc 41 5b 36 b5 42 5d ae 8c 43
       147.25476 27.516464 90.60616 281.3622

conv3.weight f4 [32, 16, 3, 3]
000000 5a 01 e0 3f e0 c6 5e bf e4 2a 97 bf f9 b8 30 bf
       1.7500412 -0.8702221 -1.1809964 -0.69032246
000010 df bd 93 bf 07 62 40 3f 74 cf b5 bf db af 19 bf
       -1.1542319 0.7514958 -1.4203935 -0.6003396
000020 c7 a1 da 3d f3 74 2e 3f 86 4e f3 3e 16 01 8d bd
       0.10675388 0.681472 0.47520846 -0.06884973
000030 4e a8 0d 3f 32 46 a1 3f 80 5a 21 40 6d fc a1 bd
       0.5533494 1.2599547 2.5211487 -0.079094745
000040 d6 8d 03 40 50 d6 07 40 3a 49 94 bf 27 56 0b 40
       2.055532 2.1224556 -1.1584847 2.1771333
000050 40 4c 6f 3f 43 a7 8b 3f 32 d8 23 40 32 1c 5d 3f
       0.93475723 1.0910419 2.5600705 0.8637115
000060 e4 16 38 40 cf fe 3c 40 b0 a9 d9 3e 32 47 38 c0
       2.8763971 2.9530523 0.42512274 -2.8793454
000070 a3 26 20 c0 22 13 8d 3f 68 42 71 bf a0 e4 80 3f
       -2.5023582 1.1021464 -0.9424195 1.0069771
000080 ad 9d 10 3f 02 53 27 c0 cf 0d 36 be 70 8a 24 bd
       0.56490594 -2.6144414 -0.17778705 -0.040171087
000090 46 34 da 3f 8b 61 82 3e 41 99 e4 be 20 f9 c7 3f
       1.7047203 0.25465044 -0.44648173 1.5622902
0000a0 94 00 2e bf 3e b6 03 3e 9e 0e 23 40 b7 90 72 3f
       -0.6796963 0.12862489 2.5477672 0.9475207
0000b0 6a 43 83 bf 5e 04 36 c0 17 0d be 3f bc bc 33 3c
       -1.0254948 -2.8440166 1.4847745 0.010970291
0000c0 64 0e 00 c0 18 8a 6d bf 5c d4 a3 3f 7a 21 28 c0
       -2.0008783 -0.9278884 1.2799182 -2.6270432
0000d0 20 82 32 3f fd 3e ef 3f f2 5e 3a 3f 6a 82 8a 3f
       0.69729805 1.8691097 0.72801125 1.0821049
0000e0 7e 5f 59 3c 15 48 b9 be ff 95 65 3e d4 1d c0 3d
       0.013267396 -0.36187807 0.224205 0.09380689
0000f0 a7 5d a4 bf 19 7b c8 3f 74 a9 28 3f 47 54 34 3f
       -1.284108 1.5662566 0.65883565 0.704411
000100 71 68 c9 3f 5b e7 71 3f bc a9 30 40 db 95 97 3f
       1.5734998 0.94493645 2.7603598 1.1842607
000110 95 92 34 3f 6f 04 09 40 50 89 92 3f b3 6d e1 3f
       0.70536166 2.1408956 1.1448154 1.7611603
000120 d8 8d 90 3f 01 b9 76 3f f1 c8 92 bf ed 9e 90 3e
       1.1293287 0.96376044 -1.1467572 0.2824625
000130 6b b2 05 bf d2 26 02 3f aa 2e c4 bf 96 ae dc bf
       -0.5222537 0.50840485 -1.5326741 -1.7240779
000140 86 4a 1d 3f 8c 38 fe bf d5 2e ed be 8b b4 8f bf
       0.6144184 -1.9861007 -0.46324793 -1.1226972
000150 a3 53 e0 bf 62 14 05 3f 45 ff 44 3e 18 07 4d bf
       -1.7525524 0.51984227 0.19238003 -0.8008895
000160 dd ee a4 3f 16 b9 77 3f c3 80 a8 bf 67 dc e0 bf
       1.2885395 0.96766794 -1.3164295 -1.7567261
000170 f6 3f 87 3e 6d 01 44 c0 6f 64 72 bf 3b 86 ef bd
       0.26415986 -3.062587 -0.946845 -0.11695524
000180 ec c0 0f c0 90 b0 22 3e 5f 89 a0 3e 7d 5e 65 3f
       -2.24615 0.15887666 0.31354806 0.895973
000190 12 f4 13 c0 2c ce 9c 3f 78 2d ff be 8b cd 80 3f
       -2.3117719 1.2250419 -0.49839377 1.0062727
0001a0 b0 5f e7 bd 44 7d bf bf 1b 05 ce 3f 85 bd fa 3e
       -0.11297548 -1.4960103 1.6095308 0.48972717
0001b0 a4 be 38 3e 42 0c 99 bd f0 cc 24 be 07 d6 59 3f
       0.18041474 -0.07473041 -0.16093802 0.85092205
0001c0 20 3f e2 3e da cc 1b 3f 27 14 bf 3f 52 31 49 3f
       0.44188786 0.60859454 1.4928025 0.7859088
0001d0 be bf 46 3e 13 71 3d 40 cc c3 12 3f a0 63 b8 bf
       0.19409081 2.9600265 0.5733001 -1.4405403
0001e0 3f 17 3e bd c7 2d 1f 3f 1b c3 03 3d b1 a9 2e c0
       -0.046408888 0.62179226 0.03216849 -2.7291071
0001f0 d7 32 52 b9 54 82 34 be b0 98 57 c0 8c 4f 86 bf
       -0.000200461 -0.17627841 -3.3686943 -1.0493026
000200 71 ee d0 3e 7f bf 1a c0 40 33 3e be ea 83 5c 3e
       0.40806916 -2.417938 -0.18574238 0.21534696
000210 6d 25 be be 86 64 a0 3f 74 2d a9 3f 48 71 34 bf
       -0.3713793 1.2530677 1.3216996 -0.70485353
000220 28 78 a4 be 00 27 10 3f 75 63 d4 3e e3 ba 1f bf
       -0.32122922 0.5630951 0.4148213 -0.6239454
000230 32 10 98 3f 18 26 f9 3f 84 7c 1c be ae 9f 89 3f
       1.1879942 1.946475 -0.15281874 1.0751855
000240 ab dc 5c 3f 9c 94 82 be 3c b9 fe 3e e8 a4 01 40
       0.8627421 -0.25504005 0.49750698 2.02569
000250 a6 1a e9 3f 10 3d 5e 3f a8 40 23 3f c2 c3 f2 3e
       1.8211257 0.86811924 0.6377053 0.47414976
000260 67 ef cd 3e 55 b9 d9 be a8 e8 9b 3e 4a 47 6f bf
       0.40221712 -0.4252421 0.3045094 -0.93468153
000270 32 f7 1d bf 29 88 81 bf 8d 36 65 bf 26 47 ea 3e
       -0.61705315 -1.0119678 -0.8953636 0.45757407
000280 ca d4 23 c0 95 b1 78 be 46 8e 02 bd 92 e0 83 bd
       -2.5598626 -0.24286492 -0.031873964 -0.06439318
000290 25 4d 8f 3f a1 72 89 be e1 05 a0 3d 93 4a ba 3e
       1.1195418 -0.26845267 0.07813621 0.3638502
0002a0 be 79 64 bf 68 e9 10 be ed 2d 2c 3f 22 68 fd 3e
       -0.89248264 -0.14151537 0.6725758 0.4949351
0002b0 ef ca ad 3e cd c0 1e be ac b9 2a 3f fe aa a9 be
       0.3394389 -0.15503235 0.6668956 -0.3313827
0002c0 9a 9f d0 be 18 34 ae c0 53 20 11 c0 d0 f6 56 be
       -0.40746766 -5.443859 -2.267598 -0.20992589
0002d0 6a 25 8d be 82 fc 85 3f b4 8a ba 3d f3 e0 fe bf
       -0.27567607 1.0467684 0.09108487 -1.9912399
0002e0 8a 36 32 be bf f2 82 bf 3c 62 a8 bf 35 93 cb be
       -0.17403618 -1.023033 -1.3154979 -0.39760748
0002f0 ea 6f d7 bf 30 6c d2 be ed 18 42 3e e1 e5 9e 3f
       -1.6831028 -0.41098166 0.18954821 1.2413903
000300 de 00 15 3f 6b 55 6d 3f 31 1d 50 3f b6 d7 dd 3f
       0.5820445 0.9270846 0.8129454 1.7331455
000310 8b e9 b3 3c 0f df bb bf 27 42 53 3e fd 5f 6a bf
       0.021961948 -1.4677447 0.20630704 -0.91552716
000320 e4 0a 27 bf 60 ba df bf f6 96 ce 3e de e7 65 bf
       -0.6525099 -1.7478752 0.4034955 -0.89806926
000330 b8 b5 89 3f d0 ec 1f 3e 5f ba bb bd 42 b6 bb 3e
       1.0758581 0.1561768 -0.09166407 0.3666249
000340 41 7f 17 3f ce b4 1f 3f ea c1 68 3e 26 fa 70 be
       0.5917855 0.6238526 0.22730222 -0.23532924
000350 d5 11 a0 3e 5a a3 c6 3e 95 b1 ad 3f 64 b8 81 3f
       0.31263605 0.38796502 1.3569819 1.0134397
000360 7a 0a da 3e 1e 06 44 3e 84 b8 ec 3e 16 cd 53 3e
       0.42586118 0.19142959 0.46234524 0.20683703
000370 cc bf 62 bf 62 66 69 3e 59 8b 6a c0 ee 03 a8 bf
       -0.8857391 0.22792962 -3.664755 -1.3126199
000380 85 14 bf bf 7e 83 fb be 24 cd bf 3f 2e 82 98 3f
       -1.4928137 -0.49123758 1.4984479 1.1914728
000390 c3 2c 38 c0 5d 85 dc be b7 bb 8c be 1d 8b 26 bf
       -2.877732 -0.43070498 -0.27486965 -0.6505602
0003a0 2c 86 b4 3b c6 e2 10 bf 6e 14 23 bd ed 74 8c 3e
       0.0055091586 -0.5659603 -0.039814405 0.27432957
0003b0 ea 6f 95 3f 55 bb 06 c0 03 65 50 c0 7e d7 27 c0
       1.1674778 -2.1051838 -3.2561653 -2.6225276
0003c0 57 13 90 3d 75 5f 40 3f 62 c3 55 bf 8e a7 54 3f
       0.07034939 0.75145656 -0.83501256 0.8306817
0003d0 5b 4b 8b 3f 04 8a 4f bf 6c 51 de bd 18 07 96 3d
       1.0882372 -0.8106997 -0.10855374 0.07325572
0003e0 19 57 2f 40 2c a2 9e 3e 11 ac 21 c0 97 d2 9a 3e
       2.739691 0.30983102 -2.526127 0.30238792
0003f0 9a 98 b3 3f 6c 95 20 bd 5b 71 30 3e 59 72 27 3f
       1.4030945 -0.039205 0.17230742 0.65408856

conv3.bias f4 [32]
000000 b1 54 e8 bf 28 7d f3 bf f5 24 e3 bf e4 b5 3b 3f
       -1.8150846 -1.902257 -1.7745653 0.7332442
000010 ff fd a9 bf 0f 19 fc bf 72 6d f7 bf 06 5a 09 bf
       -1.3280638 -1.9695147 -1.9330275 -0.5365299
000020 38 4b 2e c0 e4 74 2a bf ff e5 e0 be a9 82 17 bf
       -2.723341 -0.6658461 -0.43925473 -0.59183747
000030 20 61 95 bf 25 79 aa bf f0 a8 10 bf ae 3a 32 c0
       -1.1670265 -1.331822 -0.5650778 -2.7848315
000040 e2 97 00 bf c0 c8 33 c0 8f 42 58 3f c1 54 f6 bd
       -0.50231755 -2.8091278 0.8447656 -0.12027884
000050 9a 77 26 c0 38 f1 16 bc e4 94 0c c0 97 2e 7c bf
       -2.60105 -0.0092127845 -2.1965876 -0.9850859
000060 48 2c 4a bf 2e 7b 05 c0 3f 04 d4 3d 7f 9f a6 bf
       -0.7897382 -2.0856433 0.103523724 -1.3017424
000070 43 d7 2f c0 59 cc 8c bf c5 79 9c bf e3 ce 12 c0
       -2.7475135 -1.0999862 -1.2224661 -2.2938774

bn3.weight f4 [32]
000000 df eb 0e 40 0c 28 97 3f 0e b5 c4 3f 43 7e ce 3f
       2.2331464 1.1809096 1.5367754 1.6132282
000010 83 0f a1 3f cb d0 d5 3f 23 d5 f2 3f 88 92 e4 3f
       1.2582859 1.6704344 1.8971294 1.7857218
000020 e9 7f d0 3f d5 a1 95 3f 69 70 06 40 87 2a ae 3f
       1.6289035 1.1690012 2.100611 1.3606728
000030 92 9e 0c 40 c5 5c de 3f 8e ec 00 40 21 8e b5 3f
       2.1971784 1.7372061 2.0144382 1.4183999
000040 c2 f2 e1 3f 3b ca d0 3f da 70 f2 3f ef e7 04 40
       1.7652209 1.6311716 1.894069 2.076656
000050 54 58 b2 3f 5f b0 09 40 f5 a0 02 40 7f 39 de 3f
       1.3933206 2.1513898 2.041074 1.7361296
000060 b6 08 c7 3f df 56 9d 3f 63 90 be 3f 02 36 c8 3f
       1.5549533 1.2292136 1.4887813 1.5641482
000070 ed d7 bd 3f d3 e8 e3 3f 30 cf a1 3f 7e 17 bf 3f
       1.483152 1.7805427 1.2641354 1.4929044

bn3.bias f4 [32]
000000 94 8a 9c bf a8 12 a5 be 4f 02 06 bf a6 37 05 bf
       -1.2229791 -0.32240796 -0.5234727 -0.5203804
000010 06 9e 12 bf 40 a3 94 3f c7 0d b9 3e 98 59 9c 3f
       -0.57272375 1.161232 0.36143324 1.2214842
000020 92 30 f2 3e bc b3 bb 3f 57 be 72 3f 4a 44 3f 3f
       0.4730268 1.4664226 0.94821686 0.74713576
000030 b8 20 7f 3f 11 f0 81 bf 0a 2c 26 3f 2d 21 7c 3f
       0.996593 -1.0151387 0.6491095 0.9848812
000040 58 8d ca 3e ab ff 67 3c 00 86 4a 3f cc f5 83 3f
       0.39560962 0.014160077 0.7911072 1.0309386
000050 75 75 07 c0 25 45 25 3f 89 15 65 bd dc 50 de 3d
       -2.116544 0.6455863 -0.05592874 0.108552665
000060 46 6f 8c bb 5c 09 54 3e e1 10 90 be 14 6b 2f bf
       -0.0042857258 0.20706695 -0.28137878 -0.68522763
000070 84 fd 17 3e 8d 84 dd bf 54 cd 34 3f 94 71 60 be
       0.14842802 -1.7306076 0.70625806 -0.21918327

bn3.running_mean f4 [32]
000000 3e 3e 87 3f f9 f0 35 3f 2a 3a f6 3f cf 5f f1 40
       1.056587 0.7107082 1.92365 7.5429454
000010 6c 64 7c 40 89 98 9b 40 75 b2 01 40 34 fe 90 40
       3.9436293 4.86237 2.0265172 4.5310307
000020 75 47 76 40 60 c3 8c 40 2b 0c 7e 40 8c 1d 01 41
       3.8481114 4.3988495 3.9694927 8.069714
000030 4b ec 17 40 ad a1 9c 40 09 c6 f6 3f 6f 36 11 3f
       2.3737972 4.894736 1.9279186 0.56723684
000040 8d 16 33 40 17 3b 8c 40 a0 d1 43 41 54 89 10 40
       2.7982514 4.382213 12.238678 2.2583818
000050 ba 9a 08 40 3b 01 a6 40 92 9d 50 3f e3 ca 01 41
       2.1344438 5.18765 0.81490433 8.112033
000060 75 2e 76 40 5a 76 c5 3f 7e 4c f7 3f 6c 68 34 41
       3.8465855 1.5426743 1.9320219 11.275494
000070 59 24 0b 40 17 57 cd 40 fe c4 b3 40 a7 55 25 40
       2.1740935 6.416881 5.617797 2.5833528

bn3.running_var f4 [32]
000000 c7 63 8e 42 19 32 d5 41 fb c3 a4 42 c2 d4 31 43
       71.19488 26.649462 82.382774 177.83109
000010 b3 72 d7 42 6d 4d 47 43 8d 0b c2 42 31 a5 73 42
       107.72402 199.30244 97.02256 60.91132
000020 94 ce 64 43 f6 14 81 42 bd 29 50 43 57 bd 61 42
       228.80695 64.54094 208.16304 56.434902
000030 ad 3c 24 43 44 8a 7b 43 23 8d 18 43 2d 86 11 42
       164.23701 251.5401 152.55132 36.38103
000040 3f df 97 42 34 0c ae 43 65 b4 fc 42 64 a4 dc 42
       75.93603 348.09534 126.35233 110.321075
000050 f0 26 6f 42 d9 0d 42 43 06 d4 26 42 9a cf 82 43
       59.788025 194.0541 41.707054 261.6219
000060 35 eb 09 43 b6 44 1d 42 f7 eb 6c 42 26 97 f3 42
       137.91878 39.3171 59.230434 121.79521
000070 37 61 ee 42 fe 3c 16 43 56 41 a4 42 de 0a a4 42
       119.18987 150.23825 82.12761 82.021225

conv4.weight f4 [64, 32, 3, 3]
000000 dc 1d c8 3f 3a 92 b3 3d 70 a3 3c bf 27 98 b5 3f
       1.5634112 0.08768125 -0.73686886 1.4187058
000010 0b 26 6b bc 44 4d d2 bf 1f bd d4 3e e0 36 63 c0
       -0.014352332 -1.642983 0.41550538 -3.5502243
000020 e8 e2 a4 bf 76 bc c5 be 95 ba 24 3f 91 46 97 bf
       -1.2881746 -0.38620347 0.643472 -1.181841
000030 5b f8 5a 3e f9 39 83 3e ff 37 c2 bd 91 9e 0a 3f
       0.21383803 0.25630167 -0.09483337 0.54148203
000040 66 4f b9 be c0 e5 43 3f 90 0f e6 bc 4a 1d 30 40
       -0.3619339 0.76522446 -0.028083593 2.7517877
000050 4f a6 24 3f 0b 48 3a bf 8a 5a e9 3e a2 9a 28 bf
       0.64316267 -0.7276618 0.45576888 -0.6586095
000060 60 0a 0e bf ae f9 c3 bd bb e1 db bd f7 39 10 c0
       -0.5548458 -0.09569107 -0.10736414 -2.253538
000070 e6 69 d8 bf cb 7e bc 3f dd a3 84 3f ea 1b 58 be
       -1.6907318 1.4726194 1.0362507 -0.21104398
000080 10 e3 c2 bf e3 be 4c 3f 08 17 16 3f 4e 09 28 c0
       -1.5225544 0.7997877 0.5862889 -2.625568
000090 48 56 18 be 60 ac 20 bf 75 ea 40 bf 3e a7 07 be
       -0.14876664 -0.62763023 -0.75357753 -0.13247392
0000a0 39 8b 82 bf c0 48 1d c0 bc 58 9b 3e b6 c7 96 3f
       -1.0198737 -2.4575653 0.30341136 1.1779697
0000b0 14 07 f4 bf e5 43 7d be 50 0c f4 be e2 1d 97 3f
       -1.906466 -0.24732931 -0.47665644 1.1805995
0000c0 87 cd 80 bd 36 44 e7 be dc 47 b2 3f 80 70 6d 3f
       -0.06289201 -0.45169228 1.392818 0.92749786
0000d0 c5 58 9c bf ef 1a 22 bc 0a 94 eb bf 97 d6 16 3f
       -1.221459 -0.009894117 -1.8404553 0.5892119
0000e0 4f 44 a2 be af 17 21 3f 88 06 b7 3f f8 f5 cf 3e
       -0.3169274 0.62926763 1.4298868 0.40617347
0000f0 58 8a 1d 3e 43 76 6c bf a6 1a 58 3f 18 d5 59 bf
       0.15384805 -0.92367953 0.8441566 -0.8509078
000100 94 21 22 c0 76 aa 55 bf 62 a4 05 c0 93 2d ad 3f
       -2.5332994 -0.8346323 -2.0881581 1.3529533
000110 df 4c bf 3f 15 9f 47 bd b4 3a 36 be aa 20 8b bf
       1.4945334 -0.048735697 -0.17795831 -1.0869343
000120 78 b1 3f bf c6 f6 2f 3f 56 39 01 3e fa a0 47 be
       -0.7488017 0.6873592 0.12619528 -0.19495001
000130 c7 99 a9 3e 71 76 23 3f 53 ff f7 bd 76 e3 e8 be
       0.33125135 0.638526 -0.12109246 -0.4548604
000140 7a 3d 09 40 83 02 58 bf 99 f0 86 bf d4 53 bf be
       2.1443772 -0.8437883 -1.0542175 -0.37368643
000150 45 ae 66 3f 48 93 da 3f 13 69 d5 3e 78 ac c8 bf
       0.90109664 1.7076197 0.41681728 -1.5677633
000160 ee 58 4b bf 11 e3 ea 3f 34 62 88 bf a0 18 50 c0
       -0.7943257 1.8350545 -1.0654969 -3.251503
000170 9b fc 00 c0 4a 55 13 40 8b 7a 35 be 7f 52 2d bf
       -2.0154178 2.3020806 -0.17722528 -0.67704004
000180 03 2f 41 3f 4b f2 2e c0 2e 35 6e be 74 23 b6 bf
       0.7546236 -2.7335384 -0.23262474 -1.422957
000190 6e c6 b7 be be 74 48 3f 9a 47 ac 3f 64 8b 7e be
       -0.35893577 0.78303134 1.3459351 -0.24857861
0001a0 c3 11 31 bf cf 80 60 be a8 05 91 3f 51 9c 82 3e
       -0.6916773 -0.21924137 1.1329851 0.25509885
0001b0 9e f7 46 3f fb 32 31 be 1c fa 7d bf 06 14 f3 be
       0.77721584 -0.17304604 -0.9920976 -0.47476214
0001c0 5d f2 ab be 58 7e 50 bf de f7 d6 3e 93 5d 7f bf
       -0.33583346 -0.81442785 0.41985983 -0.9975216
0001d0 1e 49 91 bf d8 6c 0a be 73 80 8f 3f f7 17 93 3f
       -1.1350439 -0.13518083 1.1211075 1.1491688
0001e0 98 11 2a 3f f0 69 a6 bb cb 68 9e 3e d3 7e 2c bf
       0.66433096 -0.0050785467 0.30939326 -0.6738102
0001f0 2a 4b 54 be ec d9 ac bf d9 6c 3e bf e8 0a 4c bf
       -0.20731798 -1.3504004 -0.7438484 -0.7970414
000200 c8 b5 5e 3d 0e fb 32 3f a9 f6 93 3f 2d 73 44 c0
       0.05437258 0.6991433 1.155965 -3.0695298
000210 25 02 a6 3d af 90 b7 bf 50 51 31 c0 3d 7f fb be
       0.08105878 -1.4341029 -2.770588 -0.49120513
000220 7c ca 14 bf 8c e6 d4 bf 67 25 a9 be 23 ef 28 c0
       -0.58121467 -1.6632857 -0.33036348 -2.6395957
000230 b6 8f 8f be d8 42 ef 3d a3 99 b2 bf 75 15 00 bf
       -0.2803933 0.11682671 -1.3953136 -0.5003274
000240 02 f3 5d be 03 55 82 3f 3f c5 55 be 91 10 6e bf
       -0.21674731 1.0182194 -0.20876025 -0.9299403
000250 71 a3 f4 3e ef eb 35 be 39 33 e1 3e 2e 7d d1 3f
       0.47780946 -0.17765783 0.43984392 1.6366327
000260 d2 a2 92 bf f8 d8 d4 3e f4 23 d0 3f ff 43 03 bf
       -1.1455939 0.41571784 1.6260972 -0.5127563
000270 1d db 75 bf ad c6 ac 3f 26 84 b5 c0 e3 33 ef bf
       -0.96037465 1.3498131 -5.6723814 -1.868771
000280 95 68 d1 bf cc fb e6 bf 17 8f c0 3f a9 57 f4 3f
       -1.6360041 -1.8045592 1.5043668 1.9089252
000290 59 ee 3a 3f 07 b0 ee bf 18 52 1c bf 9f b3 a4 bd
       0.7301994 -1.8647469 -0.61062765 -0.080420725
0002a0 41 6e f2 bf ea 24 6e bf f0 a4 e4 3e c5 0d c2 3d
       -1.8939897 -0.93025076 0.44657087 0.094752826
0002b0 b4 c5 01 3f 04 59 9f 3f b0 0f e3 be 59 72 e3 bd
       0.50692296 1.244904 -0.44347906 -0.111057945
0002c0 13 d6 b1 bf f1 e9 4d 3f 34 26 8a 3e 4f 22 46 c0
       -1.3893455 0.8043509 0.26982272 -3.095844
0002d0 60 71 df 3e bf 12 98 be ba f4 46 3f 6e 22 f0 3e
       0.43641186 -0.29701802 0.77717173 0.46901268
0002e0 99 52 95 3f d1 df 19 40 1b 26 b6 3f 63 59 cf 3f
       1.1665832 2.4042857 1.4230379 1.6199154
0002f0 ac 82 af 3f ed 92 b3 be f5 31 e1 3e 23 24 75 be
       1.3711753 -0.35073033 0.43983427 -0.23939566
000300 bd 67 1a be 62 db 46 be 6f 14 1c 40 b8 7b 88 3e
       -0.15078636 -0.19419625 2.4387472 0.2665689
000310 57 ef b8 bf 18 56 9a 3f 90 9a 09 c0 66 c6 ba 3e
       -1.4448041 1.2057524 -2.1500587 0.3647949
000320 ff bb a6 3e fa c6 e1 3f 62 82 cc 3f 12 3b 1f c0
       0.32565305 1.7638848 1.597729 -2.4879804
000330 ff af 39 3e 73 10 b7 be 13 c0 f4 bf 9e 06 9c bf
       0.18133543 -0.35754737 -1.9121116 -1.218952
000340 f7 65 a6 3d 7b 92 ae 3f 6e 60 87 bf f2 c1 c9 bd
       0.08124917 1.3638452 -1.0576303 -0.09851445
000350 c1 d2 c7 3f 55 72 96 3e 8c f1 e6 3e 31 72 37 bf
       1.5611192 0.29384103 0.4510616 -0.7165862
000360 3e 4b 9a 3f 99 75 55 bf 0a d6 4c bf 32 07 43 3f
       1.2054212 -0.83382565 -0.800141 0.76182854
000370 6a 89 02 bd 04 58 df 3e b4 46 87 3f 3a c4 40 bd
       -0.03186933 0.43621838 1.0568452 -0.047062136
000380 68 36 cb bf 8c 6d 8d 3f 58 73 f2 bf d7 6a 91 c0
       -1.5875978 1.1049056 -1.894145 -4.544292
000390 e8 60 94 bf 59 4c 05 c0 26 2a 92 3f 93 30 bb bd
       -1.1592073 -2.082785 1.1419113 -0.09140124
0003a0 d9 e7 18 3e 62 ab a2 bf 95 2b a1 bf b4 71 68 3f
       0.14932193 -1.2708552 -1.2591425 0.907985
0003b0 b9 4b 14 3f 06 86 1a 3f a5 11 4c 3f ed de 59 bf
       0.57928044 0.60360754 0.79714423 -0.8510578
0003c0 a1 d9 e0 bf 3c 55 7a 3f 8b 40 bd 3e b5 4a a6 bf
       -1.7566415 0.9778631 0.36963305 -1.2991549
0003d0 1e a4 12 3f ba c5 4a bf 5e 07 29 3f c8 48 c0 3f
       0.5728167 -0.79207957 0.66026866 1.5022211
0003e0 66 c5 ec 3e a3 45 88 c0 2d b8 16 be 22 31 b7 3f
       0.46244353 -4.2585006 -0.14718695 1.4311869
0003f0 7a 65 10 bf e5 04 49 bf d7 30 e4 be 11 0a d0 be
       -0.5640484 -0.78523093 -0.44568512 -0.4063268

conv4.bias f4 [64]
000000 61 e8 a5 be 7f 08 44 c0 c7 b7 46 bd 4c b0 4c be
       -0.32403854 -3.0630186 -0.048515107 -0.19989127
000010 8f 14 86 bf c8 25 09 c0 13 fc d1 be fb 85 cb be
       -1.0475024 -2.142931 -0.4101263 -0.39750656
000020 69 5d 00 bf ec 2a 70 bf 99 2a c3 bf b7 22 b0 bf
       -0.5014253 -0.93815494 -1.5247375 -1.3760594
000030 76 d4 b3 3d 92 d5 7f be 1e 26 b6 bf c4 43 8f bf
       0.08780758 -0.24983814 -1.4230382 -1.1192555
000040 81 3a 8d bf c3 2e aa bf 82 a7 86 3e 73 81 8f bf
       -1.1033479 -1.329552 0.26299673 -1.121138
000050 ac ce e5 3e 59 2a 34 3e 87 b9 22 c0 f3 2d 9a bf
       0.4488424 0.1759428 -2.5425737 -1.2045273
000060 10 67 23 bf 0e e0 ca bd 98 64 fd be f1 50 a6 bf
       -0.63829136 -0.09906016 -0.4949081 -1.2993451
000070 52 1d b5 bf 8e 8d 37 bf 2f 0f 4a bf c3 a7 d5 be
       -1.4149573 -0.7170037 -0.7892942 -0.41729555
000080 7c 32 b4 bc 7f 0a c7 be 60 86 95 bf 2d cf 47 bf
       -0.02199673 -0.38875195 -1.1681633 -0.780505
000090 fb 53 db be e3 fb e4 3d 85 11 d9 be c2 b3 07 bf
       -0.4283751 0.11180856 -0.4239618 -0.53008664
0000a0 a6 96 05 bf b0 50 03 c0 11 c6 5b bf 34 e3 8d 3f
       -0.52182996 -2.0517998 -0.858491 1.1084962
0000b0 d7 8e 6a bf c8 6c 9d bf 28 2c a1 bf 32 e3 b8 3e
       -0.91624206 -1.2298822 -1.25916 0.36110836
0000c0 8a 38 d6 be fd e7 a7 3e 0d ae c4 bf 04 bd 47 bf
       -0.4184001 0.3279418 -1.5365616 -0.7802279
0000d0 36 99 21 bf 7c 37 e8 bf 5f a4 d1 bf b9 32 1c bf
       -0.63124406 -1.8141932 -1.6378287 -0.61014897
0000e0 93 3a e0 3e 2b 16 27 bf e0 5f b9 bf 9f f2 af bf
       0.4379469 -0.652682 -1.4482384 -1.3745917
0000f0 b0 98 83 bf c2 61 15 c0 15 49 10 c0 5b 82 95 bf
       -1.0280972 -2.3340917 -2.2544606 -1.1680406

bn4.weight f4 [64]
000000 94 4f 86 40 0c 0c 8e 40 e9 18 c0 3f 0b 78 93 40
       4.197214 4.4389706 1.5007602 4.6084037
000010 35 a3 87 40 bd ec 56 40 cd b5 9a 40 7e 5a 53 40
       4.2386727 3.3581994 4.8346925 3.3023982
000020 c2 30 59 40 5a cb 7d 40 7f b2 83 40 d8 a0 61 40
       3.393601 3.9655366 4.115539 3.5254421
000030 b5 5c ad 3f 21 48 83 40 ec e4 80 40 1a 76 42 40
       1.3543917 4.102555 4.0279446 3.0384583
000040 0b 67 4f 40 db f4 97 40 bd 90 96 40 90 b1 32 40
       3.2406642 4.7486396 4.7051682 2.7920876
000050 d3 2f 8f 40 41 dc ba 3f 4e 1c 98 40 be 8b 76 40
       4.474588 1.4598466 4.753455 3.8522792
000060 8b 2e a4 40 a4 f2 4a 40 d1 47 9d 40 8e 5c 8d 40
       5.1306815 3.1710596 4.9150167 4.417548
000070 37 81 83 40 7e 78 4c 3f de c2 e7 3d e4 f2 a6 3f
       4.1095233 0.79871356 0.11316465 1.3042874
000080 70 48 8b 40 ef 85 02 40 b9 20 66 40 2f cd 74 40
       4.3525925 2.0394247 3.5957472 3.8250234
000090 58 28 bf 40 c8 fc 6d 40 8a f5 6b 40 29 d0 96 40
       5.973675 3.7185535 3.6868615 4.71291
0000a0 8c b2 88 40 e8 ff 62 40 ca 78 6f 3f 5f 79 a7 40
       4.2717953 3.5468693 0.93543684 5.233566
0000b0 ce fe a0 40 ae 24 8e 40 d1 08 81 40 08 aa b8 40
       5.031104 4.4419775 4.032326 5.770756
0000c0 8a 7d 84 40 be e0 9b 40 bc d2 49 40 17 34 6f 40
       4.1403246 4.8711843 3.1534872 3.7375543
0000d0 6d b2 44 3f 6b ba 82 40 ae 2e 83 40 a6 06 25 40
       0.76834756 4.085256 4.099448 2.5785308
0000e0 a9 6d a3 40 a2 03 81 40 f6 04 4b 40 ff 49 8d 40
       5.1071362 4.0316935 3.1721778 4.4152827
0000f0 3f 70 86 40 c7 28 8b 40 89 f5 80 40 e3 25 84 40
       4.201202 4.3487277 4.0299726 4.129625

bn4.bias f4 [64]
000000 13 df c0 3e 3d 8b 6b 3e 99 09 14 3d 49 1a 21 3e
       0.37670192 0.23002334 0.036141966 0.15732683
000010 9a 49 e3 3b f4 28 a6 3e cf 08 d5 3e dd b0 4c bd
       0.006936264 0.3245312 0.41608283 -0.049973357
000020 19 60 83 3e 44 75 05 3c c2 12 2c 3d ea d1 8f 3e
       0.25659254 0.008145634 0.042010076 0.2808984
000030 0a de de 3d 9f 3c 84 3e 42 2c 28 3e 62 06 14 3e
       0.10882194 0.258275 0.16423133 0.1445556
000040 1b 63 20 3d 72 9d d0 bc 05 36 06 3d 5b 1e 29 3e
       0.039157014 -0.0254657 0.03276636 0.16515486
000050 0f 3b 45 3c 71 63 6b 3b 67 5c b1 3e aa f0 ec 3d
       0.012038006 0.0035917426 0.3464081 0.115693405
000060 8e 23 0a 3e e3 eb 3b 3d dc 59 34 3e 40 1c 42 3e
       0.13490126 0.045879256 0.17612404 0.18956089
000070 7c 5b a5 3e d2 f3 3b 3d 37 0f 13 3c 1a 74 06 3e
       0.3229636 0.045886822 0.0089757955 0.13130227
000080 7e db 34 3e 78 20 f0 3d 23 50 e7 3d 63 04 9c 3c
       0.17661855 0.11724943 0.11294582 0.01904506
000090 ef c5 8f 3e 67 d2 af 3d 0d 41 c3 3d a3 2b e2 3d
       0.280807 0.08585053 0.09533892 0.11043479
0000a0 bd 15 53 3e b9 d6 8d 3b f6 8a 78 3e 4a 95 49 3e
       0.20613761 0.0043285755 0.2427176 0.19685856
0000b0 d2 0f 75 3e 2f 36 18 3e 55 54 a0 3e 34 09 8a 3e
       0.23931816 0.1486442 0.3131434 0.26960146
0000c0 94 41 f5 3d 77 c8 89 bd e9 cc a4 3d 94 4e 25 3e
       0.11975399 -0.06727689 0.08046896 0.16143256
0000d0 2b ff 9f 3c 31 25 4d 3e bc 37 9c 3e d2 2c 83 3c
       0.019530853 0.20033719 0.30511272 0.016012583
0000e0 ce 44 a6 3e 0c f9 aa ba 10 2f 4d 3e 3f bb 1f 3e
       0.3247437 -0.0013044192 0.20037484 0.15598772
0000f0 4d 7c e0 3d 88 eb c9 3e d7 08 c7 3d f1 d6 0b 3d
       0.109612085 0.3943751 0.09718483 0.03414053

bn4.running_mean f4 [64]
000000 d6 af b5 3f 45 17 38 3f ad 46 6c 42 08 55 58 3f
       1.4194286 0.71910506 59.06902 0.8450475
000010 f3 75 10 3f f0 de a9 3f 37 1a 26 40 a4 0a 8d 3f
       0.56429976 1.327116 2.59535 1.1018872
000020 0e b0 32 3f 65 32 dd 3e 59 96 59 3f bb cf 7a 3f
       0.6979989 0.4320251 0.8499504 0.9797322
000030 30 a5 e7 41 72 35 88 3f 1a 77 4d 3f 42 86 a6 3f
       28.955658 1.064131 0.8025986 1.3009722
000040 0d d3 e3 3e 4e c4 b4 3e 5c fc 5e 3f 3c 19 20 3f
       0.44496956 0.3530602 0.8710382 0.62538505
000050 f0 d6 13 3f f5 a8 95 42 6a ff fb 3f 7b 4c a5 3f
       0.57749844 74.829994 1.9687321 1.2913965
000060 25 2a d3 3e ee 52 38 3f 9f 46 93 3f 8d 55 fb 3e
       0.4124309 0.7200154 1.1505927 0.49088708
000070 39 9c 31 3f ba b2 17 40 a1 cb 97 3e 70 fa 81 40
       0.69379 2.3702836 0.29647544 4.061821
000080 3f 45 26 3f e3 d3 7c 40 5f b7 c8 3e 5a 8a 3e 3f
       0.6494941 3.9504325 0.392024 0.7442986
000090 fa 3f 7b 3f 1a 91 91 3f 7e 53 40 3e 27 e6 f9 3e
       0.98144495 1.1372406 0.1878185 0.48808405
0000a0 0c 34 59 3f f8 24 a3 3f 23 14 f4 40 18 35 52 3f
       0.8484504 1.2745657 7.627458 0.82112265
0000b0 09 4f f4 3e d6 9d 2b 3f 75 ab bb 3e 94 b7 ad 3f
       0.4771655 0.67037714 0.3665425 1.3571649
0000c0 ba 4c 83 3f 5c 0c 95 3e 40 e5 d4 3e 50 27 e0 3f
       1.025779 0.29110992 0.41581154 1.7511997
0000d0 bd 05 21 41 39 5d 09 3f 95 ef 47 3f a4 8a 3a 40
       10.063901 0.5365787 0.7809995 2.914712
0000e0 b8 c2 61 3f bd 75 18 3f f7 07 15 40 54 7d 39 3e
       0.8818774 0.59554654 2.3286111 0.18114215
0000f0 90 ad 26 3f 56 ec ed 3f f0 12 5f 3f 72 56 5f 3f
       0.65108585 1.8587749 0.8713827 0.8724128

bn4.running_var f4 [64]
000000 02 95 bb 42 69 8f 3b 42 8e da 19 45 50 f2 20 42
       93.79103 46.89005 2461.6597 40.236633
000010 80 66 ed 41 96 8b a8 42 bd 18 4e 43 99 cb 8e 42
       29.675049 84.27263 206.09663 71.39765
000020 06 32 02 42 fd d4 92 41 38 66 59 42 29 cd 51 42
       32.54885 18.353998 54.349823 52.45035
000030 17 c7 7e 44 e1 06 8a 42 2b 77 4e 42 b3 95 dc 42
       1019.1108 69.013435 51.616375 110.29238
000040 84 f7 b3 41 3e 3e 63 41 3f b8 3d 42 d1 5a f9 41
       22.495857 14.202696 47.429928 31.169344
000050 39 e4 e1 41 a9 06 ff 44 2a e1 0a 43 e3 9c c0 42
       28.236437 2040.2081 138.87955 96.30642
000060 65 d2 92 41 c7 3f f8 41 2b aa a9 42 99 0d b4 41
       18.352732 31.031141 84.83236 22.50664
000070 3f eb 07 42 b0 da 57 42 c5 00 92 41 04 c4 85 43
       33.979733 53.963562 18.250376 267.53137
000080 f6 d0 18 42 88 99 2b 43 e2 73 bd 41 1a 48 14 42
       38.204063 171.59973 23.681583 37.07041
000090 12 e3 91 42 46 4f 76 42 09 95 c3 40 4c 63 bb 41
       72.9435 61.577415 6.111943 23.423485
0000a0 04 88 32 42 06 1f d8 42 73 3f 69 43 5c 00 20 42
       44.632828 108.06059 233.24785 40.00035
0000b0 36 01 af 41 e6 19 05 42 c0 47 72 41 63 f0 97 42
       21.875591 33.27529 15.142517 75.969505
0000c0 30 26 4a 42 15 be 59 41 c8 82 af 41 98 54 30 43
       50.537292 13.608907 21.938858 176.33044
0000d0 ef ee c6 43 63 12 03 42 b7 0d 1e 42 23 49 67 43
       397.86667 32.767956 39.513393 231.28569
0000e0 64 62 59 42 2f 46 df 41 88 18 16 43 14 e9 2d 41
       54.346085 27.90927 150.09583 10.869404
0000f0 ca b6 20 42 9a 21 04 43 b1 a9 2e 42 7e c6 39 42
       40.178505 132.13126 43.665714 46.44384

lin.weight f4 [10, 64]
000000 1a 1a 02 3f b9 24 75 bf e2 9c 86 3e 2f 7d 07 3f
       0.5082108 -0.9575916 0.26291567 0.5292539
000010 95 6c be bf 54 79 55 3f 97 ec 13 bf 4b 9e bc 3d
       -1.4876887 0.8338826 -0.5778288 0.092098795
000020 3d f4 6c bf eb bb b7 be 2e 46 c8 bf 72 10 58 3e
       -0.9256018 -0.35885558 -1.5646417 0.21100023
000030 7e 6b 76 3f a5 c0 52 c0 b3 db 04 c0 32 70 68 3f
       0.9625777 -3.293008 -2.0759094 0.90796196
000040 5e 26 f4 3e 69 2d 9a bd a4 9e 15 40 34 88 1c bf
       0.47685522 -0.075281925 2.3378077 -0.6114533
000050 7d dc 0f 3e 83 85 e1 3f 1b 70 27 c0 1b bb 73 bf
       0.14048953 1.761887 -2.6162174 -0.95207375
000060 0f df 19 bf b0 01 a2 3e 0a a4 78 3f 4a f2 2d bd
       -0.60105985 0.31641912 0.97125304 -0.042467393
000070 23 0c 90 bf 99 f0 24 3f 9b 75 89 bd 7e dc 2f 3f
       -1.1253704 0.6442962 -0.067118846 0.6869582
000080 be 5a b7 bd 49 fc 87 3f 75 61 9d 3e a8 e9 d8 be
       -0.089528546 1.0623866 0.30738416 -0.42365766
000090 8f 2b 16 40 88 0e 2a be 32 2b ff 3b 39 d5 5d bf
       2.3464086 -0.16607106 0.0077871317 -0.86653477
0000a0 1b 4a be 3d 1d 32 ee 3f db 65 81 be b1 d8 9d 3f
       0.09291478 1.8609043 -0.25273022 1.2331754
0000b0 48 38 0d c0 cc 5f 0a c0 44 06 4a bf a8 17 72 3f
       -2.2065601 -2.162097 -0.7891581 0.94567347
0000c0 78 17 15 c0 11 fb 43 bf 68 70 3d 3f d6 1f d1 3f
       -2.3295574 -0.7655497 0.73999643 1.633784
0000d0 d5 8a 84 bf 24 ea 4d 3e 35 ec a9 bf 9a 5f 4e 3f
       -1.0354868 0.20108849 -1.327521 0.80614626
0000e0 62 f6 e8 3f 9c f6 cb 3f af 66 f3 be 0b fe 05 c0
       1.820019 1.5934634 -0.4753928 -2.0936306
0000f0 03 36 4b bd 22 fc 29 3f c5 e2 ff 3c cb 39 97 bf
       -0.049612056 0.6640035 0.031236062 -1.1814512
000100 ba da 21 bf 7d 2a a5 3f 84 e2 05 3e 8f e7 db 3f
       -0.63224375 1.2903591 0.1307469 1.7180041
000110 84 27 66 3f 58 5b 64 bf 87 bd 93 3f 42 ba b6 be
       0.89904046 -0.8920188 1.1542214 -0.35688978
000120 0f 6d f7 3e c3 e4 44 bf a9 fd 80 be 3d f0 0d bf
       0.48325393 -0.7691156 -0.25193527 -0.554447
000130 3c 90 b9 3e 57 2e 86 3f da 86 17 bf df 4a bf be
       0.36242855 1.0482892 -0.5919014 -0.3736181
000140 e5 90 21 bf 49 69 41 bf 92 1c db 3b 1d 44 89 bf
       -0.63111717 -0.7555128 0.0066867555 -1.0723912
000150 3c 8b b2 bf 9c 7c f4 bd d2 b0 96 3f 2c 57 1a 3d
       -1.3948741 -0.1193783 1.1772711 0.03768079
000160 76 a5 f9 bf 26 a7 af 3e 35 28 55 bf 5a f3 86 be
       -1.950362 0.34307212 -0.83264476 -0.26357538
000170 b9 27 c0 3f 2a c9 83 be 07 3b 8c bd 90 70 57 bc
       1.5012122 -0.25739413 -0.06847196 -0.013149396
000180 2e 90 02 40 01 57 48 3f 2f ce cf 3f 44 5e a6 3d
       2.04005 0.7825776 1.6234797 0.081234485
000190 8e 69 a9 3d 03 d7 e8 3e e2 da 5e bf 37 f2 c9 be
       0.08272086 0.4547654 -0.8705274 -0.39442608
0001a0 7c 93 b6 bf 93 67 bb bf ba 37 56 bd 61 b9 d2 bf
       -1.4263759 -1.4640983 -0.05229924 -1.6462823
0001b0 30 20 1f 3f e9 1d ad bf 3e a2 9e 3f b4 0a 3f 3f
       0.6215849 -1.3524753 1.2393262 0.74625707
0001c0 2b ce 34 be b4 98 db bf 9b f1 9e 3f 07 7b e6 3d
       -0.17656772 -1.7155976 1.2417482 0.11253934
0001d0 7f a3 dc 3d f2 ad 19 bd 9c d3 8c 3f 95 f4 d1 3e
       0.10773372 -0.037519403 1.1002078 0.41006914
0001e0 b2 3c 83 bf e2 7a a1 be 2b e2 2c c0 86 5a 6c 3f
       -1.0252898 -0.31539065 -2.7013042 0.9232563
0001f0 63 b2 0a c0 63 47 17 bd 0a 83 fa bf 66 e9 1b 3f
       -2.1671379 -0.036933314 -1.957124 0.6090301
000200 a1 bd 83 be ce b6 d3 3f 15 22 d7 be f9 4a 7a bf
       -0.25730613 1.6540163 -0.4201819 -0.9777065
000210 cc c1 4f 3f 79 73 0f 3e b0 a6 18 3f 22 d0 16 3e
       0.81155086 0.14008893 0.59629345 0.14727834
000220 22 b9 b2 3f cd 9c 0c be f3 73 64 bd 0a 43 dd 3e
       1.3962748 -0.1373169 -0.05577464 0.4321521
000230 9c 2c 72 be db dc 52 3d 54 1e d1 3f e8 38 86 3f
       -0.2364983 0.051480155 1.633738 1.0486116
000240 92 fc 42 bf 7c 6d fa bf 4b fa 20 bf 76 8e 0c 3f
       -0.7616664 -1.9564662 -0.62881917 0.5490488
000250 f0 69 c1 3f 5b 0c 4c be aa 53 55 bf 11 d0 be be
       1.5110455 -0.19926588 -0.83330786 -0.37268117
000260 49 4f 5f bf 13 95 18 3e 59 8a 80 3f ff 33 c8 3d
       -0.87230355 0.14900617 1.004222 0.097755425
000270 8d 98 4d 3f 9a 1a 27 3d 25 b1 02 3d 99 2c 9a bf
       0.803109 0.040796854 0.03190722 -1.204486
000280 25 9a 96 be 66 7e 21 bf b2 95 8e bf 4b e2 7d 3f
       -0.29414478 -0.63083494 -1.1139433 0.9917342
000290 cb 8f 5d bf a6 cb d3 bf 8c 54 8a bf 47 6c b1 3f
       -0.86547536 -1.6546524 -1.0807052 1.3861169
0002a0 f9 41 f4 3e f5 3f ce be 7e e9 3d 3e ef dd b3 bf
       0.47706583 -0.4028317 0.18546101 -1.4052104
0002b0 5b df d1 bf 60 15 9d 3f 7d 94 68 3f 48 ae 21 c0
       -1.6396288 1.2272148 0.90851575 -2.5262623
0002c0 cf 42 88 bf 37 18 26 3e 68 c0 ab bf 2c 90 8f 3f
       -1.0645388 0.16220175 -1.3418093 1.1215873
0002d0 7a 8e 59 3f f4 a7 47 bf f5 c3 35 3e 2f 9d cd be
       0.84983027 -0.7799065 0.17750533 -0.40158984
0002e0 db 76 c9 3f 61 95 c8 bf 54 ee 20 3f 9d 56 1f bf
       1.5739397 -1.5670587 0.6286366 -0.62241536
0002f0 ae b0 9b 3f 0e 75 b2 bf 35 31 51 3f f5 01 6b bd
       1.2163293 -1.3941972 0.8171571 -0.057374913
000300 ba e9 48 bf 36 cf f6 bd b9 93 69 3e a5 b0 f9 3c
       -0.7848164 -0.12051241 0.22810258 0.030479738
000310 21 e3 b2 3d 69 49 83 bf e1 47 fe 3e c5 87 ba 3f
       0.08734728 -1.0256778 0.49664214 1.4572684
000320 a0 4d 5d 3d 57 ca ab bd fe 13 92 bf 67 0f 31 be
       0.054029107 -0.08388203 -1.1412351 -0.17291032
000330 1a a5 fe bd ce 4b e2 be c3 84 e8 3e 29 9a 03 be
       -0.124338344 -0.4419846 0.4541379 -0.12851776
000340 dd 0a 4b 3f f7 79 d8 3f ba e9 be be 1c b5 b4 3f
       0.7931345 1.6912221 -0.37287694 1.411777
000350 4e fa 05 c0 bb 7a 59 be 33 7c c9 3f 69 23 3e c0
       -2.0934024 -0.21238224 1.5741028 -2.9709113
000360 b0 48 fd bf d4 46 8f bf 14 f4 b6 bf 40 d0 18 bf
       -1.9787807 -1.119349 -1.4293237 -0.59692764
000370 f8 c5 a8 bf ff 07 68 3e 5d ab 03 bd bc da e4 3e
       -1.3185415 0.226593 -0.032145847 0.4469813
000380 fb f7 4c 3e 75 60 70 be 98 8f 14 bf f8 1e 8d 3e
       0.20016472 -0.23474295 -0.58031607 0.2756269
000390 3c 53 b6 bf a8 a1 d8 3f 11 43 82 be a7 74 a3 3f
       -1.4244151 1.6924334 -0.25441793 1.2769974
0003a0 8d 05 24 c0 c6 c7 ee bf f4 e6 99 3e 03 09 10 bd
       -2.5628388 -1.8654716 0.30059016 -0.035164844
0003b0 45 e8 3b 3f 17 52 76 3f 86 e8 ee bd 99 6b ab 3f
       0.7340129 0.9621901 -0.11665444 1.3392211
0003c0 91 c4 25 bf c2 61 49 3f 38 79 4d be 75 af 7b 3e
       -0.6475306 0.7866479 -0.20065773 0.2457865
0003d0 c7 e7 6c 3e 9d c7 03 40 88 c3 81 bf 48 92 93 bf
       0.23135291 2.0590584 -1.0137796 -1.1529016
0003e0 44 02 e7 3d 5c 36 88 3f f3 9e bb bf 5a e0 b8 3e
       0.11279729 1.0641589 -1.4657882 0.36108667
0003f0 ca b5 f5 bf 16 ca 81 3f 2c 1f e2 bf 1c 7c fc 3f
       -1.9196103 1.0139797 -1.7665763 1.9725375

lin.bias f4 [10]
000000 49 aa dc bd 9b e4 03 3f 3c 28 e4 3e ce 22 f0 3d
       -0.10774667 0.515207 0.44561946 0.117253885
000010 23 7c 96 be 63 dd 13 bf 3b d3 62 be db 38 21 3f
       -0.29391584 -0.57759684 -0.2215089 0.6297738
000020 03 71 b0 bf 0f 7d 6a c0
       -1.3784488 -3.663883
