models/standard/k-fold saves/test1e_f2_e10_f1_b64.pt (torch, 335209 bytes, 86 tensors)

conv1.weight f4 [8, 2, 5, 5]
00000000: 6cfc 3cbf 131f 6e3f f6d5 9340 1df4 c43f
00000010: c98e 593f 1d3e d2bf 4849 c5be 713a cd3f
00000020: 632d 0c3f 7c75 40bf 6537 21bf a747 83bf
00000030: f1ce 083e a8c9 debe 725e 34bd 83f9 97bf
00000040: 7e2c 93bf 6f35 af3e bc50 48bf ec5d 833e
00000050: bdf4 0cbf 75ae 00bf fda7 763e e169 90bf
00000060: b352 b2be a12b 59be dbe5 903f 4ca3 8340
00000070: a3f6 fc3f b4cc 3f3f e0b7 26bf 4926 02be
00000080: 035e ac3f 8766 d2be d0fc 34bf 7f06 c0be
00000090: 662f 88bf b88e f53e e8eb 2abf dfdd 813e
000000a0: 7cc0 5fbb ce66 22bf a488 07be c891 0abf
000000b0: 3495 c23d 744f b23e 2e29 753e 2551 173c
000000c0: ed30 a1be c732 e23e e923 29be d69c fcbf
000000d0: 19c2 3abf 60b4 84bf 5191 1cbf 941d ef3e
000000e0: 1eea a8bf 5adc acbe 755c 843c f8b5 0d3f
000000f0: c0ae 333f fd27 68bf 0c21 9abe 269f 013f
00000100: 48d2 b93c 9b78 783f 6270 8ebf e85f 6fbf
00000110: c464 15bd 7194 5d3b 40c3 2440 f7b9 a03f
00000120: 4a21 6d3f 085d 5b3f 0c84 db3e f924 8dbe
00000130: e07d b1bf 155b a5bf 080f 88bf 9d44 29bf
00000140: d559 813f 17c7 43bf ff7c 3dbf 0389 253e
00000150: b110 113d ea5c 8e3f 61f7 3bbf 69a0 1dbf
00000160: f769 65be 7a26 79be f26f b63f 2aca bbbe
00000170: ccbd bdbe d562 a7be 91f4 dd3d 67d5 5840
00000180: e5fb f63f 3e55 843f ce4b 703f c5d2 fa3e
00000190: 208c d040 f1bd c73e 7879 6b40 8d74 7b3f
000001a0: 932f aabe 1028 0040 0135 75bf 73eb 893f
000001b0: 5aab 47bd c448 11bf e625 783f a2a1 acbf
000001c0: 0248 4b3f 7e46 11be 82b1 cfbe 967c 09be
000001d0: 4c8c d4bf 57fd c13f 6aed e33e 8814 013f
000001e0: 11e0 bd3f 22c8 983e 41e9 3c3f 563d be3e
000001f0: d9e6 6e3e 9d8f 2b40 5932 afbe f8e8 aa3f
00000200: 41bc 9a3e 574f 0bbf 28ba 4e3e 7478 a2bf
00000210: 8245 bd3e e3c6 773d 0d80 1cbe 27d2 a3bd
00000220: 32d6 b3bf 2892 05be a44c 6fbe aa71 293e
00000230: 7e1c d8bf 13ed c1bf ed93 1d3f 2962 c73e
00000240: d1fb 733e 5743 3d3e 0a80 24bd ba1f 283e
00000250: f9b0 063e 7181 293e 05ef 80bf 1827 c0bf
00000260: 04b3 9ebf b111 053f 2bd8 28bf 6f33 f7be
00000270: 8d1c 98be e49c 7abd 990a ac3d 99cb 0d3f
00000280: 3fc1 7cbf 0ab0 9c3f 89e7 f2be 8661 2fbf
00000290: 8928 b2be eb85 ac3f 80dd 4940 5c79 693f
000002a0: b7a9 883f d8b3 04bd 269d a6be 0035 503f
000002b0: aff4 80be c8c0 60bf 13ff 04bf b51d a3bf
000002c0: 9635 bbbf edf8 abbf c43b 703c 931f a2be
000002d0: 8473 f2be c245 3bbd 7dd1 1fbe a6f4 443d
000002e0: c734 743e 1123 73bf e662 c93f 17ff 31be
000002f0: 0ec9 29bf f702 7c3b ad99 8b3f df7e 7e40
00000300: cceb 9c3f caad 033f 536a c03e 3ca1 cd3c
00000310: e921 8e3f 9810 903e 0e0a 37bf f6d8 c0bd
00000320: c30c 9040 9dd2 e13f 6f92 8ebe 1d92 aebe
00000330: 35f7 eabd c44c 3e40 ae14 bf3f 6453 16bf
00000340: c55c bbbe f8f4 bdbe c5c8 2740 1d5c 603f
00000350: 8499 40be 571e 0a3f 4f48 073e 56dc 7d3f
00000360: d881 59be 6ad4 19bf 913d 333f e35a 09bc
00000370: ddf7 013e 4141 67be 4080 e9be 903d 743f
00000380: dead 27be 9cec b33f 2d79 c63f 73e0 cfbf
00000390: 26b6 98bf cc9b afbf 19e4 893f 583f 253f
000003a0: 94a6 0bc0 0c54 b1bf 30e8 7cbf 2cd1 983f
000003b0: 5f2e 8b3f 94f8 c4bf e602 25bf 52b3 65bf
000003c0: f65d 37be 2f4f 50be d4a1 6cbf 8004 8b3e
000003d0: 86d6 f8be 7cba 12bf 6a99 0dbf 3d5c eabe
000003e0: 2125 d93d 1e17 8ebe e319 b9bf a495 50bf
000003f0: 1945 2ac0 45e5 c0bf 3b7c b9bf eb0d 283f
-0.73822665 0.93016165 4.6198683 1.5386997 0.849835 -1.6425205 -0.38532472 1.603346
0.54756755 -0.75179267 -0.6297515 -1.0256242 0.13360192 -0.43513227 -0.044035383 -1.187302
-1.1497953 0.34220454 -0.7824819 0.25657594 -0.5506094 -0.502662 0.2408752 -1.1282312
-0.3482872 -0.2120805 1.1320146 4.1136837 1.9762768 0.7492173 -0.6512432 -0.12709917
1.346619 -0.41093847 -0.7069826 -0.37504956 -1.0639465 0.47960448 -0.66766214 0.25364587
-0.003414183 -0.6343812 -0.13235718 -0.54128695 0.095011145 0.34826243 0.2394149 0.009235655
-0.3148264 0.44179365 -0.16517605 -1.9735363 -0.7295242 -1.0367546 -0.61159235 0.46702254
-1.3196447 -0.33761865 0.016157368 0.5535579 0.7018852 -0.9068602 -0.30103338 0.50633466
0.022683278 0.9705903 -1.1128047 -0.93505716 -0.03647305 0.0033810402 2.574417 1.2556752
0.9262892 0.8568883 0.4287418 -0.2756727 -1.3866539 -1.2918421 -1.0629587 -0.6612032
1.010554 -0.7647566 -0.74018854 0.16165547 0.03541631 1.1122105 -0.73424345 -0.6157289
-0.22403704 -0.24331084 1.4252913 -0.36677676 -0.37058866 -0.3269259 0.10837663 3.388025
1.9295622 1.0338514 0.9386567 0.4898893 6.517105 0.390121 3.6792889 0.9822472
-0.3323942 2.0024452 -0.95784 1.0774978 -0.048747398 -0.56751657 0.9693283 -1.3486826
0.7940675 -0.14187047 -0.40565115 -0.13426432 -1.6605315 1.5155438 0.4451707 0.50421953
1.4834005 0.2984019 0.7379342 0.3715617 0.23330249 2.6806405 -0.342181 1.3352346
0.3022175 -0.5441794 0.201882 -1.2693009 0.36967093 0.060492408 -0.15283222 -0.07999068
-1.4049742 -0.13044035 -0.2336908 0.16547266 -1.6883695 -1.5150474 0.6155384 0.38942078
0.23826529 0.1848272 -0.04016117 0.16418353 0.13153447 0.16553284 -1.0072943 -1.501193
-1.2398381 0.5198012 -0.65954846 -0.48281428 -0.29709283 -0.06118478 0.08400459 0.5538879
-0.9873237 1.2241223 -0.47442272 -0.68508184 -0.3479655 1.3478369 3.1541443 0.91200805
1.0676793 -0.032398075 -0.3254177 0.8133087 -0.2518668 -0.8779416 -0.5195171 -1.2743441
-1.4625728 -1.3435341 0.014662687 -0.31664714 -0.47353756 -0.045720823 -0.15607257 0.048084877
0.23848258 -0.9497538 1.5733306 -0.17382465 -0.6632241 0.0038453916 1.0906273 3.9764936
1.225946 0.51437056 0.3758112 0.025101297 1.1104099 0.2813766 -0.7149972 -0.09416382
4.501558 1.7642399 -0.27846095 -0.3409585 -0.11472932 2.9734354 1.4928186 -0.58720994
-0.36594215 -0.3710096 2.621629 0.87640554 -0.18808562 0.53952545 0.13211177 0.9916433
-0.21240938 -0.60089743 0.7001582 -0.0083834855 0.12692209 -0.22583486 -0.4560566 0.95406437
-0.16374919 1.4056582 1.550573 -1.6240371 -1.1930587 -1.371942 1.0772735 0.6454978
-2.1820421 -1.3853774 -0.9879179 1.1938834 1.0873526 -1.538836 -0.6445755 -0.89726746
-0.17906937 -0.20342706 -0.9243443 0.2715187 -0.48601168 -0.573158 -0.55312216 -0.45773497
0.10602785 -0.27752012 -1.4461025 -0.81478333 -2.6604674 -1.5069968 -1.4491037 0.6564624

conv1.bias f4 [8]
00000000: 5a7a 7ec0 69da 28c0 df0a eabf 501a a5bf
00000010: 21e8 5ec0 525f 6fbe 1176 d63c e50c b0c0
-3.9762177 -2.6383307 -1.8284568 -1.2898655 -3.482918 -0.23376206 0.026179345 -5.501574

bn1.weight f4 [8]
00000000: 6c1d a53f 17b8 a93f cd08 a83f c27d e23f
00000010: 44cc a83f 86f6 f13f ed69 bc3f cbd0 b43f
1.2899604 1.3259305 1.3127686 1.7694628 1.3187337 1.8903358 1.4719826 1.4126219

bn1.bias f4 [8]
00000000: 615a 3fbf 4192 b0be c40a aabf cc96 f83e
00000010: a994 f6bf 4a1e 8bbf b871 823f 5b03 85bf
-0.7474728 -0.34486583 -1.3284535 0.4855255 -1.9264117 -1.0868618 1.0190954 -1.0391649

bn1.running_mean f4 [8]
00000000: 6693 b03f 3315 6d3f 7703 a340 f0d2 813f
00000010: 98c7 d43f 3c1e a13f fb87 1f41 cef3 f33f
1.3794982 0.9261047 5.094173 1.0142498 1.6623411 1.2587352 9.970698 1.9058778

bn1.running_var f4 [8]
00000000: 7bb8 a741 9127 4b41 386b 1743 399a 4541
00000010: 215a bb41 63f9 a141 06c3 9242 33ee d941
20.965078 12.69716 151.41882 12.350152 23.419008 20.24677 73.380905 27.241308

conv2.weight f4 [16, 8, 3, 3]
00000000: 3b8c 90be a44a 08c0 bfb9 89bf 0a5f 0340
00000010: 5589 54bf b1a4 02bf 440c bb3d 7b48 0ebe
00000020: e336 683f 8bbe 46bf 428e 70be 38fc 4a3f
00000030: bb01 45c0 7383 a4bf f088 21bf 4354 b0be
00000040: 1b79 3e3e bbe0 82be 7362 a53f 67f6 a63e
00000050: 8755 083f 7b50 843f 3295 5b3f 0f1c 023f
00000060: f566 d83f 6076 6a3f f0d8 263f 28c7 e53e
00000070: 4a39 81bc 1faa 40bf 5d8a 0ec0 8bc3 2cc0
00000080: 3d07 e43e fd30 19be f03d d5be d27c 5b3f
00000090: 5615 5ebf b221 873d 914b cb3d 582a f93e
000000a0: 64c2 a03e a98f b63d 4a3e 2440 617e ab3e
000000b0: f58b 8e3e 3f11 043f ede8 2b3e d34d 2dbf
000000c0: 6ec6 54c0 5a44 3fc0 4abe e3bf 2250 9d3f
000000d0: 0201 d63c a093 4e3e a7a3 55bf fa92 f1be
000000e0: 9d48 b0be 78e2 21bf 03b1 02bf 7783 32be
000000f0: 367a fcbf f0cc debf a1d5 cf3e 3f1c 2b3c
00000100: 26b5 843e 8748 a5bf 943c 5840 9f43 7b3f
00000110: fc6e 293e b20a 8b3f 0fac b5be f1ca ad3e
00000120: 3532 0c3f 5df6 cf3f 83f1 b83f f07d d8be
00000130: 534d e5be abc5 9a3f 1b31 88bf 90ce 603e
00000140: 8e24 643f 391a 50bf 13ba d1bf b89d 063d
00000150: ad77 93be 96c0 6abf c3ad e63f 7856 19bf
00000160: 8df6 64bf d7ef 0c3f ec8d a83e 2758 c93f
00000170: 07f2 e73f a5d6 443e 73f1 af3f fe33 7f3f
00000180: 38e0 01bf 0562 8d3f 35dc bb3f 2db9 f1bf
00000190: 3154 a3bb a7d5 843f 329f 55bf b938 22bf
000001a0: 0c79 833f ff0e 80bf bef8 563e 2819 b33e
000001b0: 11df 08c0 537b 60bf e8ec 823f 826e 17c0
000001c0: 51ee 5fbf 29c1 c6bd 65f8 01c0 e9bd a4bf
000001d0: 649c b93e adb3 903f 433d a43e 8557 0240
000001e0: f455 05c0 8e2e 823e 8d61 be3f d6a5 b0bf
000001f0: 2e10 5e3e d442 943f 3f12 85bf 1747 7d3f
00000200: efae 063f 7f9b dabf f784 023f 2363 efbe
00000210: 8a2a 04c0 7af1 2a3f 3083 053e aafd cebd
00000220: f057 8a3f 7a03 0940 a3ce 9abe bb76 63bc
00000230: f994 fc3f 4e6f 23bf 4a8b 17bf e0ce cf3f
00000240: c80c 83c0 f314 c2bb eef5 eb3e 0556 5fbf
00000250: 5b13 64bf 7ca8 5bbe 2fb6 a0bf b085 d9bf
00000260: 8548 4fbf 90d7 863f b647 20c0 c9d2 c43c
00000270: 6b04 683f 6f28 28c0 1e7e 9cbf 3820 46be
00000280: 7933 cdbf 0382 f73f 37d0 c1bc bcc1 97bf
00000290: 9ac1 953f 7c16 fe3d 3b94 3ac0 cd40 8ebf
000002a0: 4f7b 0b3e f97e 03c0 5cad 58bf 30f4 bf3f
000002b0: a09f b03e 1d47 bcbe 4d79 af3e 07ef a1bc
000002c0: 1283 acbe 5ecb 62be e12d 433c 59ad c0be
000002d0: c1ce 993e 8bd7 61c0 7ece 053f d01f 0d3f
000002e0: 5e43 4fc0 fe59 eebf aed7 de3e a715 85c0
000002f0: 3362 0ec0 f4e9 3d3e a4fa 05c0 8b25 aa3f
00000300: c05e 703f 6a34 48be 0e9c 0bbf d0ce b23f
00000310: 3c35 2abf 785d f6bf 5512 df3e 5266 7dbc
00000320: 5ba2 1a3f 9e9d 5ebe 662d 8ebd 6e23 d2bd
00000330: ae8d 10bf 0963 c3be 6f4b 1e3f daf8 b83f
00000340: b71d af3d 6769 58be 81e8 c23f 6ddc b03e
00000350: 2170 ef3d 8eeb a03f f429 4fbf f827 613e
00000360: 47f9 7fc0 efd5 0ac0 2161 b6bf edc4 d23e
00000370: 3e0d 0f3f b3f4 0240 f369 81bf a81a 3e3f
00000380: f60e 333e 0291 dd3f e425 193f 8ffb 823e
00000390: f61e a0bf cbe3 96be bce8 483f e854 0ac0
000003a0: 2c11 563e d769 a83f b211 21c0 4885 dbbf
000003b0: c461 adbe 1766 43bf 6c97 e4be 3283 afbe
000003c0: 7d43 77bf 6e9e c9be 4221 193f 94cd 253f
000003d0: db35 e3be 0f91 51be 8fef 7f3f 513b 993f
000003e0: fcd6 503f c463 89bf d28c 27bf 9415 f1bf
000003f0: a7ed efbf cf47 843d 188e 43bf a70b abbe
-0.28231987 -2.1295557 -1.075981 2.0526757 -0.8302205 -0.5103255 0.09133199 -0.13894837
0.9070875 -0.77634495 -0.23491767 0.79291105 -3.0782306 -1.2852615 -0.63099575 -0.34439287
0.18600886 -0.2556208 1.2920669 0.32609865 0.53255504 1.0337061 0.8577453 0.50824064
1.690642 0.91586876 0.6517477 0.44878507 -0.015774388 -0.75259584 -2.227195 -2.699435
0.44536772 -0.14960094 -0.41648817 0.85737336 -0.86751306 0.06598224 0.099265225 0.48665118
0.31398308 0.0891412 2.5663018 0.33494857 0.27841154 0.51588815 0.16788073 -0.67696875
-3.3246112 -2.9885468 -1.7792447 1.229008 0.026123527 0.20173502 -0.8345284 -0.47182447
-0.344304 -0.6323619 -0.5105135 -0.17432962 -1.9724796 -1.7406292 0.40592673 0.010443746
0.25919455 -1.2912759 3.3786974 0.98150057 0.16546243 1.0862639 -0.35482833 0.33943895
0.5476411 1.6247059 1.4448704 -0.42283583 -0.44785556 1.2091573 -1.0639986 0.21953797
0.8911828 -0.8129001 -1.638491 0.032865256 -0.28802243 -0.9170011 1.8021778 -0.59897566
-0.89438707 0.55053467 0.32920778 1.5730027 1.8120736 0.19222505 1.374556 0.9968871
-0.50732756 1.1045538 1.4676577 -1.8884636 -0.0049844016 1.0377702 -0.8344604 -0.633678
1.0271316 -1.0004576 0.20993325 0.3498013 -2.138615 -0.8768818 1.0228548 -2.3661199
-0.87473017 -0.09704811 -2.0307858 -1.2870456 0.3625213 1.1304833 0.3207799 2.0365918
-2.0833712 0.25426143 1.487352 -1.3800609 0.2168586 1.1582894 -1.0396193 0.989366
0.5261068 -1.7078704 0.5098414 -0.46755323 -2.0650964 0.66774714 0.13038325 -0.10106976
1.0808086 2.1408372 -0.30235776 -0.013883288 1.9732963 -0.6384171 -0.59196913 1.6235008
-4.09531 -0.0059229075 0.46086067 -0.8724063 -0.89092034 -0.2145099 -1.2555598 -1.6993923
-0.8097003 1.0534534 -2.504377 0.024026291 0.9063174 -2.6274679 -1.2225988 -0.19348228
-1.6031333 1.9336551 -0.023658855 -1.1855998 1.1699708 0.12406632 -2.9152973 -1.1113526
0.13621257 -2.0546248 -0.84639525 1.4996395 0.34496784 -0.36773005 0.34272233 -0.019767297
-0.3369375 -0.22147891 0.011912794 -0.37632254 0.30040553 -3.5287807 0.5226821 0.5512667
-3.2384868 -1.8621213 0.43523926 -4.158893 -2.2247436 0.18546277 -2.093423 1.3292707
0.9389458 -0.19551244 -0.54534996 1.3969364 -0.6648748 -1.9247274 0.43568674 -0.01546629
0.60403985 -0.21739814 -0.06942253 -0.10260664 -0.56466186 -0.38161495 0.6183385 1.4450943
0.085505895 -0.21133958 1.5227205 0.34543172 0.11691309 1.2571886 -0.8092339 0.21987903
-3.9995897 -2.1693075 -1.4248391 0.41165867 0.5587958 2.0461853 -1.0110458 0.74259424
0.17486176 1.7309878 0.5982344 0.2558255 -1.2509449 -0.29470667 0.78480124 -2.1614323
0.20904988 1.31573 -2.516705 -1.7150049 -0.33863652 -0.7632765 -0.44646776 -0.34279782
-0.96587354 -0.39378685 0.5981637 0.6476681 -0.44377026 -0.20465492 0.9997491 1.1971227
0.8157804 -1.0733571 -0.6544925 -1.883471 -1.8744401 0.06459009 -0.7638869 -0.33407328

conv2.bias f4 [16]
00000000: 0c28 8cbe 1702 8bbe 45b5 a3be 632f cdbf
00000010: 8d63 383e 9e98 72c0 ccc7 75c0 84f3 ee3f
00000020: 71ec 903f ed56 f8bf 63bd f4bf 2d0b 1fbf
00000030: e15b fe3f 0086 19c0 9e4a 6cbe 84d9 38c0
-0.27374303 -0.27150032 -0.31974235 -1.6030086 0.18006726 -3.790565 -3.8403196 1.8668065
1.1322156 -1.9401528 -1.9120296 -0.6212643 1.9871789 -2.3988037 -0.23075339 -2.888276

bn2.weight f4 [16]
00000000: 991c 2640 3974 1b40 50f8 ae3f e568 8c3f
00000010: 422f 4a3f dec4 e53f da53 bb3f 3eb0 893f
00000020: 335c 4a40 c4b1 6c3f 32f0 c33f 833a b83f
00000030: ac5e 0140 484f cb3f e92d 383f 355c b93f
2.5954955 2.4289687 1.3669529 1.0969511 0.7897836 1.7950704 1.4634964 1.075691
3.1618774 0.9245875 1.5307677 1.4392856 2.0214033 1.588357 0.71945053 1.4481264

bn2.bias f4 [16]
00000000: d032 843e 3026 cb3e 1eda 6cbf 53cd 3cbe
00000010: 7a54 11bf a303 a03e a857 b93e c93b 9dbf
00000020: 898c a43b cd23 bf3e 5a21 d53e b42f 79be
00000030: a8b6 98be f17f 243f c3eb de3e 712c 9d3e
0.25820017 0.39677572 -0.9252032 -0.184377 -0.56769526 0.31252775 0.3619969 -1.228387
0.005021636 0.37332 0.41627008 -0.24334604 -0.29826856 0.64257723 0.43539247 0.3069797

bn2.running_mean f4 [16]
00000000: b36f f13f b5dc 8440 eccf 3242 713d fb40
00000010: e72f ed41 8379 8a40 f2e2 e63f a095 8e41
00000020: 0209 2340 c9f8 1441 b37b c93f 35c8 1140
00000030: 4c3c 8640 950e b33f 484d 5741 9706 1942
1.8862213 4.151942 44.70305 7.85125 29.64839 4.327333 1.8038008 17.82306
2.5474248 9.310739 1.5740875 2.2778447 4.1948605 1.3988825 13.4563675 38.256435

bn2.running_var f4 [16]
00000000: fba0 4842 6361 4d43 92cf ad43 b42b 1543
00000010: c789 de43 d1e6 4243 4f30 0a42 4323 9a42
00000020: 0074 9d42 95f7 5343 6b30 0a42 c862 5d42
00000030: 2ec2 0d43 77eb d941 03c4 a742 5aa4 a043
50.157207 205.38042 347.62164 149.17072 445.0764 194.90163 34.547176 77.06887
78.72656 211.96712 34.547283 55.346466 141.75851 27.239973 83.882835 321.284

conv3.weight f4 [32, 16, 3, 3]
00000000: 1fb4 da3f 3e5c 6dbf 85a5 95bf 3398 35bf
00000010: 8a69 99bf 3398 3c3f fc2e b8bf dc33 29bf
00000020: c5a3 d43d da54 183f 297a f73e 542a 91bd
00000030: b130 003f f96b a43f a6d7 2140 7c58 f8bd
00000040: 75ae 0440 d755 0840 82ad 8bbf 2a26 0c40
00000050: 7a8e 703f 5fe5 943f 31b0 2340 3aa4 563f
00000060: 03f7 3b40 c529 3d40 35f3 c93e 58c2 36c0
00000070: 20c5 1ec0 980d 923f 2725 65bf a954 813f
00000080: 6b8b 0e3f bc20 2ac0 0c74 38be 6b1b cdbc
00000090: b4d4 e33f 4ef6 943e e96d ebbe 7b19 d03f
000000a0: 7550 2bbf f535 033e 6192 2740 9227 723f
000000b0: 1f67 83bf 9400 39c0 1f25 ba3f 93ff d03c
000000c0: 315b 04c0 a238 7bbf 3e38 a33f c423 2ac0
000000d0: 441e 2c3f ab68 ee3f 03f5 273f 72fe 813f
000000e0: 77bc 5fbc dce4 c0be bf9a 6a3e 5dce fa3d
000000f0: 6c42 a7bf 5947 c63f f676 2d3f 470b 453f
00000100: 9d8f c83f bee7 6f3f 1353 3540 38e3 953f
00000110: 8c60 323f 811e 0d40 2dcc 8f3f 87f6 dd3f
00000120: c418 873f f08d 693f db2a 92bf 6c16 723e
00000130: a2d0 0fbf 89fb 033f e565 c4bf f2a3 debf
00000140: 3120 133f ec6d f8bf 8257 01bf c620 95bf
00000150: 66ff d6bf 39e2 f13e d257 353e eaba 37bf
00000160: 67b3 9d3f 4121 703f 5993 abbf 5b5e e5bf
00000170: c246 823e 569d 45c0 16b8 82bf 8aca 15be
00000180: 288d 12c0 8872 f53d 6ebc a13e d658 713f
00000190: 2500 17c0 55a3 993f 07f0 fdbe 64b0 7b3f
000001a0: c398 dbbd 1d2d bebf e4cd c83f c54b fb3e
000001b0: f4e5 103e d605 3dbe cac4 19be c70f 563f
000001c0: 1ce4 c23e 728e 2b3f c05c be3f b7d4 373f
000001d0: d35b 873e 0e64 3840 e141 0f3f 2398 c2bf
000001e0: d797 eabd 181c 243f 1457 243d e169 32c0
000001f0: 31d4 ee3b 771d 6ebe 523b 54c0 1308 85bf
00000200: 357a ea3e 5742 18c0 feed 4bbe efeb 6f3e
00000210: c3f4 9abe 090e 9e3f c6ba ac3f dad0 2cbf
00000220: 54d0 9bbe 72e9 143f e2b2 f23e 0f17 1abf
00000230: c693 973f 7ab9 fd3f 2e0a 29be 744a 883f
00000240: 1339 663f ed87 75be 717a 003f 0086 0140
00000250: 36cf e63f 7202 593f 95e4 273f 7414 ff3e
00000260: 2abd de3e cafc d3be 83c1 a03e b81e 69bf
00000270: 42e5 18bf 02e3 83bf 1691 68bf 0302 043f
00000280: fec8 23c0 3cc1 77be 8444 d1bc 5170 78bd
00000290: 5ea4 8f3f 2834 83be 390c 9f3d 39b3 bb3e
000002a0: 32bc 5fbf 4484 14be 0f82 283f f7b3 e93e
000002b0: beed 9d3e b9ae 43be b152 2d3f f039 9fbe
000002c0: c00b d3be 0328 adc0 1632 0fc0 2352 2cbe
000002d0: 9061 5cbe 741f 873f 81d3 bb3d 3388 fbbf
000002e0: 5a92 31be a4a1 83bf c942 a2bf 86a7 cabe
000002f0: 60e6 d6bf b85c eabe 92ec 153e d5ca 983f
00000300: 3a88 083f ae64 673f 67c3 4a3f 85cb d43f
00000310: 261a 90bc 474c c0bf 742b 673e 3f13 6bbf
00000320: f4cd 29bf 48ea e1bf 258b c63e 8cfa 74bf
00000330: 21a1 893f 0900 1d3e 1020 cebd e807 c73e
00000340: 25c6 193f bc88 223f 5806 823e e864 53be
00000350: f879 a73e d0d1 d33e 85f7 b03f d5c1 813f
00000360: 6399 d93e d348 3f3e 936c ea3e b9a3 3d3e
00000370: 945c 6dbf 2adf 503e 64e9 6ac0 40af a9bf
00000380: 23ab c4bf 086f edbe cb4f bf3f ef01 9b3f
00000390: 8f49 38c0 3007 e3be d499 8fbe cae6 20bf
000003a0: 48ec bfbb b9eb 0cbf c6ea 41bd b0ec 893e
000003b0: 9eb6 8f3f 69b7 08c0 36d3 4fc0 ce8d 29c0
000003c0: 1745 543d c100 3c3f 11bf 59bf 3ad1 473f
000003d0: 7577 843f b00d 5fbf f37f bfbd 0adc b43d
000003e0: 7e45 3040 ec7d 7e3e f401 24c0 e7ab 893e
000003f0: c47f b13f 586b 8cbd 2273 223e 23f1 2a3f
1.7086219 -0.92718875 -1.1691138 -0.7093536 -1.1985333 0.7366974 -1.4389338 -0.66094756
0.10382799 0.59504473 0.48335388 -0.070881516 0.500743 1.2845451 2.5287871 -0.12126252
2.073148 2.1302392 -1.0912325 2.1898293 0.939674 1.1632499 2.5576289 0.8384434
2.9369514 2.9556744 0.39443365 -2.8556118 -2.4807816 1.1410398 -0.89509815 1.0103961
0.55681485 -2.658248 -0.18013018 -0.025037488 1.7799287 0.29094166 -0.45982292 1.6257776
-0.6691964 0.12813552 2.6183093 0.9459163 -1.0265845 -2.8906603 1.4542578 0.025512492
-2.068066 -0.9813329 1.2751539 -2.658433 0.6723368 1.8625692 0.65608233 1.0155776
-0.013655773 -0.37674606 0.22910593 0.12246392 -1.3067145 1.5490524 0.67759645 0.7697033
1.5668827 0.93712986 2.8331954 1.1709967 0.6967857 2.2049868 1.1234185 1.7340859
1.0554433 0.91232204 -1.1419328 0.23641366 -0.56177723 0.5155569 -1.5343596 -1.7393782
0.57470995 -1.9408545 -0.5052415 -1.1650627 -1.6796691 0.47242907 0.17709282 -0.71769583
1.2320374 0.9380074 -1.3404342 -1.791942 0.2544461 -3.087728 -1.0212429 -0.14628044
-2.2898655 0.11984736 0.31589073 0.9427618 -2.3593838 1.200297 -0.4959719 0.98316026
-0.10722496 -1.4857517 1.5687833 0.49081245 0.1415022 -0.18459257 -0.15016475 0.83617824
0.3806466 0.6701423 1.4872055 0.7180895 0.26437244 2.8811069 0.559599 -1.5202678
-0.114547424 0.6410537 0.040122107 -2.7877123 0.007288479 -0.23253427 -3.3161206 -1.0393089
0.45796362 -2.379049 -0.19915006 0.23429845 -0.30264863 1.2348033 1.3494499 -0.6750618
-0.3043238 0.5816871 0.47402102 -0.60191435 1.1841972 1.9822228 -0.1650779 1.0647721
0.8993084 -0.23977633 0.5018683 2.0238037 1.8031986 0.84769356 0.65583163 0.49820292
0.43503696 -0.414038 0.31397638 -0.910625 -0.5972482 -1.0303652 -0.90846384 0.5156557
-2.5591426 -0.24194807 -0.025545366 -0.06065399 1.1222036 -0.2562573 0.07766003 0.36660174
-0.8739654 -0.1450358 0.65823454 0.45645115 0.30845445 -0.1910962 0.677043 -0.3109889
-0.41219902 -5.4111342 -2.237432 -0.16828208 -0.21521592 1.0556474 0.091712005 -1.965094
-0.17340985 -1.0283704 -1.2676631 -0.39580935 -1.6789055 -0.45773864 0.14641026 1.19369
0.53332865 0.90388 0.7920441 1.6624609 -0.017590594 -1.5023278 0.2257517 -0.9182624
-0.66329885 -1.7649622 0.38778034 -0.95694804 1.0752298 0.15332045 -0.10064709 0.3887322
0.6006797 0.6348989 0.25395465 -0.20643961 0.32710242 0.41371012 1.3825537 1.0137278
0.42499837 0.18680124 0.4578596 0.18519486 -0.9271939 0.2039763 -3.670495 -1.3256607
-1.5364727 -0.46373773 1.4946226 1.2109965 -2.8794897 -0.4434142 -0.2804705 -0.62852156
-0.0058570243 -0.55047184 -0.047343038 0.2693839 1.1227605 -2.1361945 -3.2472663 -2.64928
0.0518237 0.7343865 -0.8505717 0.7805363 1.0348955 -0.8713026 -0.09350576 0.088310316
2.7542415 0.24852723 -2.5626192 0.26888964 1.3867116 -0.06856412 0.15864232 0.66774195

conv3.bias f4 [32]
00000000: 74ec e6bf 4081 f6bf 7f42 e2bf d8e1 3b3f
00000010: 21bc afbf 0d3e ffbf 8ac3 f6bf 62f2 06bf
00000020: 6416 2ec0 bf22 29bf db32 dabe e86f 0fbf
00000030: 59ce 93bf 85a6 b0bf 00f9 06bf d6c3 34c0
00000040: e21c 05bf bead 35c0 99e5 653f 33b4 04be
00000050: b368 2cc0 b5a1 79bc 228d 0fc0 becb 83bf
00000060: eca3 45bf 95ea 01c0 8fbf ed3d bf17 a6bf
00000070: 76a1 2fc0 4490 90bf 8a5f 9cbf 3433 11c0
-1.804091 -1.9258194 -1.7676543 0.73391485 -1.3729287 -1.9940811 -1.9278424 -0.52713597
-2.7201166 -0.66068643 -0.42616925 -0.5603013 -1.1547347 -1.3800818 -0.52723694 -2.8244529
-0.51997197 -2.8387294 0.89803463 -0.12959366 -2.6938903 -0.015236308 -2.242989 -1.0296552
-0.7720325 -2.0299428 0.116088025 -1.2975997 -2.7442298 -1.1294026 -1.2216656 -2.2687502

bn3.weight f4 [32]
00000000: 9704 1040 8e2c 923f 9772 c43f 4ed3 cb3f
00000010: de90 9d3f 7c4a d53f 4439 f03f 108b e63f
00000020: 2fff d13f 00be 933f 0c0a 0540 eacf aa3f
00000030: 0b58 0b40 8449 e03f a035 0340 9eba b83f
00000040: 5c26 e63f 28a4 cb3f 26f5 f53f b6ca 0340
00000050: d33b af3f 3e5a 0a40 d0e1 0140 13fb db3f
00000060: 8749 cd3f 03c6 993f 0a00 c33f 790a c83f
00000070: eb14 bc3f 3621 e43f 9c00 a73f f730 bc3f
2.2502801 1.1419847 1.534747 1.592386 1.2309835 1.6663356 1.8767476 1.8011189
1.6406001 1.1542358 2.0787382 1.33447 2.1772487 1.7522435 2.050148 1.4431951
1.7980456 1.5909472 1.9215438 2.0592475 1.3690132 2.161758 2.0294075 1.7185997
1.6038064 1.2013553 1.5234387 1.5628196 1.4693884 1.7822635 1.3047061 1.4702443

bn3.bias f4 [32]
00000000: 603f 9bbf 56b9 a3be 93b1 0dbf 1055 05bf
00000010: c22d 19bf 57d7 943f ce43 c43e 166a 9c3f
00000020: 3530 023f 81ea bb3f f4b7 793f d31a 313f
00000030: e09a 813f 2e78 89bf 1d5b 233f 8612 773f
00000040: ae11 ca3e 5e6a 263d 4a61 473f 75da 883f
00000050: 34ca 06c0 53bb 263f 51fc a2bd 8935 123e
00000060: e2a1 0f3d 98fa 343e 24bb 91be 583b 3cbf
00000070: 4e5e 033e 50ae e0bf 43f4 373f c2ce 3fbe
-1.2128716 -0.31977338 -0.5534908 -0.5208292 -0.59835446 1.1628217 0.3833298 1.2219875
0.5085481 1.468094 0.97546315 0.69181556 1.0125389 -1.0739801 0.638109 0.9651264
0.39466614 0.040628783 0.77882826 1.0691668 -2.1060915 0.65129584 -0.07958282 0.14278235
0.035066493 0.17673719 -0.2846309 -0.7352805 0.12828943 -1.7553196 0.7185709 -0.18731216

bn3.running_mean f4 [32]
00000000: 1b5b 8a3f 1dc0 283f 330b e93f 8dcd e140
00000010: 4d9b 5640 f21b 9140 4612 0640 170f 8e40
00000020: 6abd 6f40 38f6 8640 8227 7840 fb00 0c41
00000030: 373a 3640 ef1a 8740 6357 2140 a5af ec3e
00000040: ccb9 4940 0aba 8240 3ec5 4e41 778e 0240
00000050: 78fd e43f 7653 9d40 257c 0d3f 5d5d e640
00000060: 2c2f 9740 6925 e13f 6c6f 0140 b17c 3641
00000070: d217 1540 b0bd af40 cb14 af40 8768 2a40
1.0809053 0.6591814 1.8206543 7.0563416 3.3532288 4.5346613 2.0948653 4.439342
3.745936 4.217556 3.8774114 8.750239 2.8473032 4.222038 2.5209587 0.46227756
3.1519651 4.08521 12.923155 2.0399454 1.7889853 4.916438 0.55267555 7.198897
4.7245083 1.7589542 2.0224257 11.405442 2.3295789 5.491905 5.471288 2.6626298

bn3.running_var f4 [32]
00000000: 2c05 9642 a22b b641 f8cf a042 53ae 0543
00000010: 21e0 be42 0935 3e43 1ff0 ca42 a530 6842
00000020: a3a0 6543 efea 7542 eb32 4643 88af 8142
00000030: 4f63 4d43 036d 4f43 1a34 5d43 ff91 e441
00000040: b57d e242 865d a243 7a36 0043 5cbf c242
00000050: 1aba 4b42 4b1f 4c43 14d3 d441 83e7 5543
00000060: d18e 4143 af8c 1542 e182 7342 1d18 d842
00000070: 8940 0243 1057 0343 0652 a242 d234 aa42
75.0101 22.771305 80.40619 133.68095 95.43775 190.20717 101.46899 58.047504
229.62749 61.479427 198.1989 64.842834 205.38792 207.42583 221.20352 28.571287
113.24552 324.73065 128.2128 97.37375 50.93174 204.12224 26.603065 213.90434
193.55788 37.387386 60.87781 108.0471 130.25209 131.34009 81.1602 85.103165

conv4.weight f4 [64, 32, 3, 3]
00000000: 8856 c63f a771 a43d 9cfe 45bf 28f1 b63f
00000010: 5cf8 48bd 6a63 d0bf 05a2 de3e 0b5b 65c0
00000020: f3ce a5bf b741 a7be b86a 2c3f d76b 95bf
00000030: 3d69 8a3e 346a a63e 9d86 2dbd 4f47 1c3f
00000040: 1619 afbe 3c33 493f f077 06bd e363 2f40
00000050: c30f 213f 9b6f 41bf 7271 e33e 25e9 2dbf
00000060: 3d69 11bf e068 a8bd cc4f 76bd 23c9 0dc0
00000070: ee2f d6bf 55c2 bb3f fbd8 853f 145b 5bbe
00000080: 8399 bfbf c15a 4d3f cbea 103f cdc1 24c0
00000090: 0eb9 28be 4adb 19bf 3d10 4abf 4b1c 3bbe
000000a0: 67af 84bf 3b23 21c0 805b 693e 5b4f 943f
000000b0: 8678 f8bf 6f5c 5bbe acd3 f4be be5b 973f
000000c0: a79d c1bd 1644 0dbf 9af9 a93f f040 6f3f
000000d0: 6e01 9cbf 9266 cc3c 39a6 ecbf 85de 1f3f
000000e0: a456 b5be efcb 1a3f 81ad bb3f 0bcc d33e
000000f0: 18d9 f73d 1d24 66bf 1f3a 533f 2951 59bf
00000100: f431 25c0 f2c4 56bf ac65 02c0 cb5c a43f
00000110: 2b2f b93f a958 b9bd c091 86be 5efe 90bf
00000120: b8f3 3ebf 4824 323f 049a 3d3e b3fc 4dbe
00000130: 76a1 bb3e d7a4 313f 0e9a 14be 70d0 e9be
00000140: ce56 0a40 9196 55bf ce63 84bf d5eb c8be
00000150: b22a 673f 844e da3f efde c63e 31ab c3bf
00000160: 3889 46bf cac8 e53f 042a 82bf e628 4dc0
00000170: c754 febf 04f6 1340 5d03 5fbe f50f 2dbf
00000180: 2bb7 483f a48f 2ec0 7f52 4cbe 0aa1 b7bf
00000190: a358 a2be 3425 433f 7321 a83f 0bd1 80be
000001a0: 9864 3ebf bfef 72be 1883 963f 9534 843e
000001b0: 0f17 403f c6e5 3abe de6c 7fbf 955a 01bf
000001c0: 5687 c1be ebb0 53bf b89e d13e b29a 7dbf
000001d0: 8d8c 8dbf ebbf 1ebe dd7e 903f ac06 923f
000001e0: 9ab8 263f d74c 56bc e322 923e 2f3c 35bf
000001f0: 4ae7 60be c9f6 aebf d456 34bf a7bc 42bf
00000200: 4c63 b03d dd96 263f f9ba 913f e7bd 46c0
00000210: 50da ea3d 655d b7bf 6322 31c0 408e d5be
00000220: 6403 15bf 0803 d2bf 62f0 a6be 832f 28c0
00000230: fbed 84be 8a71 f83d 6252 b4bf 7b3c 00bf
00000240: c79c 46be 008b 853f cd7e 22be 51bf 79bf
00000250: 61cc f13e 4512 66be c1e1 ec3e 82a0 cf3f
00000260: ae87 93bf 498f e03e fd67 d13f 89fe 01bf
00000270: 9223 6bbf f3d4 b23f 281b b3c0 adc4 e9bf
00000280: c780 cbbf c1c9 e6bf 1808 bb3f 177b ee3f
00000290: d28c 2b3f bb5b efbf 3de1 1ebf ffdc d8bd
000002a0: c183 f3bf 4e17 80bf 3f8d d63e 8c74 c03d
000002b0: d80a fd3e 3e7e a33f b9f1 f3be 319b 4abe
000002c0: 5bda b4bf 9b99 4c3f aa6a 663e 7609 47c0
000002d0: d5f0 c43e 2a5d 9ebe e6a1 3e3f bb2d e83e
000002e0: 6095 963f b79d 1840 3edf b33f f16e ce3f
000002f0: 62b6 a83f 620e 9dbe 40ed d63e b1ac 44be
00000300: 726a 1abe 45de 86be 978c 1e40 f947 983e
00000310: 0c07 babf ebd4 973f b85d 0dc0 0a80 cb3e
00000320: 498a ac3e 39cb dd3f bcb8 c83f 2a76 22c0
00000330: b186 473e 7922 b1be 7d27 f7bf f0fd 96bf
00000340: 2159 de3d 2cc9 b73f be54 84bf 8c09 bbbd
00000350: a147 cf3f 4b49 ae3e 6756 ed3e 5d28 30bf
00000360: c579 9f3f 781d 4abf f083 3dbf 6b7b 473f
00000370: 4932 113d 2339 de3e 0d66 873f 63f3 15bd
00000380: 1c92 c6bf 0308 913f ed88 eebf a2cd 92c0
00000390: 6883 91bf 2550 02c0 7772 873f e85f bcbd
000003a0: 5a2f 673e 11ea a6bf 2ac2 9dbf 8292 643f
000003b0: acef 193f fd8b 2c3f 1d1e 5a3f 39ce 58bf
000003c0: 5b41 dfbf 1556 733f 9dac b13e 8ad7 a3bf
000003d0: 6699 223f c041 4bbf bd91 3a3f 80ac c43f
000003e0: 2a20 ee3e 9615 89c0 d7f2 0fbe bb8c b33f
000003f0: d4c8 1abf 2574 40bf 5d9c f0be 5b8c c5be
1.5495157 0.0802949 -0.7734163 1.4292345 -0.04906498 -1.6280339 0.43482986 -3.5836818
-1.2953781 -0.32667324 0.6735034 -1.1673535 0.27033415 0.32502902 -0.042364705 0.6104631
-0.34198827 0.785938 -0.032829225 2.7404716 0.62914675 -0.7556092 0.4442249 -0.67933875
-0.56801206 -0.08223128 -0.060134694 -2.2154014 -1.6733377 1.466868 1.0456842 -0.21421462
-1.4968723 0.80216604 0.56608266 -2.5743287 -0.16476843 -0.60100234 -0.7893103 -0.18272512
-1.0366029 -2.5177753 0.2278881 1.1586717 -1.9411781 -0.2142198 -0.47817743 1.1824872
-0.09453898 -0.55182016 1.3279297 0.9345846 -1.2187936 0.024951253 -1.8488227 0.6244891
-0.35417664 0.6046743 1.4662324 0.4136661 0.12101954 -0.89898854 0.8251056 -0.84889466
-2.581174 -0.83894265 -2.0374556 1.2840818 1.446752 -0.09050114 -0.26283073 -1.1327627
-0.74590635 0.6958661 0.18515784 -0.20115928 0.36646622 0.6939215 -0.14511892 -0.45666838
2.1615481 -0.8343287 -1.0342958 -0.39242426 0.9029952 1.7055211 0.3884196 -1.5286618
-0.7755313 1.7951901 -1.0169072 -3.2056212 -1.9869622 2.3118906 -0.21778627 -0.67602473
0.7840449 -2.7275171 -0.19953345 -1.434602 -0.3170825 0.7622864 1.3135208 -0.25159487
-0.74372244 -0.23724268 1.1758757 0.25821367 0.75035185 -0.18251714 -0.99775493 -0.5052884
-0.37798566 -0.8269183 0.40941405 -0.9906417 -1.1058518 -0.15502898 1.1288716 1.1408286
0.6512543 -0.0130798435 0.2854224 -0.7079496 -0.2196323 -1.3669063 -0.7044499 -0.7606911
0.086126894 0.6507395 1.1385185 -3.1053407 0.11467421 -1.4325377 -2.7677238 -0.4171009
-0.582083 -1.6407175 -0.32605273 -2.6279 -0.25962815 0.12131031 -1.4087641 -0.50092286
-0.19395743 1.0433044 -0.15868683 -0.9755755 0.4722624 -0.22467907 0.46265987 1.6220858
-1.1525781 0.43859318 1.635986 -0.50779015 -0.9185115 1.3971237 -5.597065 -1.8263146
-1.5898675 -1.803032 1.4611845 1.8631314 0.6701175 -1.8699869 -0.62062436 -0.10589027
-1.9024583 -1.0007112 0.41904637 0.093972296 0.49422336 1.2772901 -0.47645357 -0.19785763
-1.4129137 0.79921883 0.22501627 -3.1099524 0.3846499 -0.30930454 0.7446579 0.4534739
1.1764336 2.3846262 1.4052503 1.6127607 1.3180659 -0.30675036 0.41977882 -0.19206502
-0.15079668 -0.26341453 2.477331 0.2974241 -1.45334 1.1861852 -2.2088451 0.39746124
0.33699253 1.7327644 1.5681376 -2.5384622 0.19484974 -0.34596613 -1.9308926 -1.1796246
0.10856844 1.4358268 -1.0338361 -0.0913268 1.6193734 0.34040293 0.46354982 -0.6881159
1.2459036 -0.78951216 -0.74029446 0.77922696 0.035448346 0.43402967 1.0578018 -0.036609065
-1.5513339 1.133057 -1.8635536 -4.5876017 -1.1368227 -2.0361416 1.0581807 -0.0919798
0.22576657 -1.3040181 -1.2324879 0.89286053 0.60131335 0.67401105 0.852022 -0.8468967
-1.744182 0.95053226 0.34702006 -1.2800152 0.6351532 -0.793972 0.7287863 1.5365143
0.46508914 -4.283885 -0.1405748 1.4027323 -0.6046269 -0.7517722 -0.46994296 -0.38583645

conv4.bias f4 [64]
00000000: 9631 adbe 7af1 43c0 5ebc 25bd 0e08 57be
00000010: 915d 88bf 8e0b 08c0 27c9 dbbe 53b6 c1be
00000020: 8504 00bf 9d7b 67bf 20cb cabf b705 afbf
00000030: 9c58 a83d 2c8f 88be 78df b1bf 83c7 90bf
00000040: 5d2f 8bbf fba7 aebf 08a9 5b3e cc0e 8ebf
00000050: 55cd 073f 6fa4 163e dcad 22c0 0289 99bf
00000060: d4fc 27bf 3be2 a0bd c7a4 05bf a7f8 aabf
00000070: bf7f b6bf 2943 38bf 0ada 42bf 266d cbbe
00000080: 4f88 d53c a8a4 cebe 982d 91bf dc75 50bf
00000090: 3fd2 f5be 89bd c23d 8665 c0be d223 0abf
000000a0: 39b6 08bf 380f 06c0 a110 64bf f63c 8e3f
000000b0: a22d 6ebf a61a 9cbf 7060 a0bf 80df c33e
000000c0: 46f3 e1be 133f af3e 1cc6 cfbf 2d1e 42bf
000000d0: 7baf 1cbf 9d36 e9bf 13b6 cfbf 8151 1cbf
000000e0: f0d7 e93e 7733 28bf d6cd b6bf 36c4 a9bf
000000f0: f8dd 85bf 7186 16c0 fb75 0dc0 8839 90bf
-0.33826894 -3.0616136 -0.040462844 -0.20999166 -1.0653554 -2.1257052 -0.42926905 -0.37834415
-0.50006896 -0.90422994 -1.5843239 -1.3673619 0.08220026 -0.2667173 -1.3896322 -1.1310886
-1.0873829 -1.3645014 0.21451199 -1.1098266 0.53047687 0.14711164 -2.5418615 -1.1994936
-0.6562016 -0.0785565 -0.52204555 -1.3357133 -1.4257735 -0.7197748 -0.7611395 -0.3973171
0.026065974 -0.40359998 -1.1342039 -0.8142984 -0.48011968 0.09508807 -0.37577456 -0.5396091
-0.5340305 -2.0946789 -0.89087874 1.1112354 -0.9303838 -1.2195632 -1.252943 0.38256454
-0.44130915 0.3422781 -1.6232333 -0.75827295 -0.6120526 -1.8219792 -1.622744 -0.61061865
0.4567256 -0.6570353 -1.4281566 -1.3263004 -1.0458364 -2.3519557 -2.210326 -1.1267557

bn4.weight f4 [64]
00000000: 1dc1 8540 a14d 8e40 ee24 bf3f 3b64 9140
00000010: 3d5e 8840 c89a 5640 25c4 9b40 ddbc 5340
00000020: 5d21 5740 bfaf 7e40 e6f2 8240 8727 6240
00000030: 6a87 ae3f c04c 8340 81ab 8040 df28 4340
00000040: a952 5140 daad 9740 79c9 9540 4079 3340
00000050: 7d24 8f40 7761 bb3f 3871 9840 2311 7440
00000060: 3e4e a540 9b90 4a40 fff7 9b40 aa67 8d40
00000070: 0f77 8340 1608 4f3f 86e6 e03d e85a aa3f
00000080: 1b92 8a40 c745 0240 a2f4 6340 f585 7740
00000090: 5001 bf40 9fc9 6c40 e483 6b40 0203 9840
000000a0: 8aa5 8840 ac07 6140 e839 6e3f ba53 a640
000000b0: b8e2 a040 4b69 8d40 9331 8140 46fe b840
000000c0: bc98 8340 9cdc 9b40 3b48 4b40 e8cf 6f40
000000d0: 9a4b 343f cac7 8240 a177 8240 ec6d 2240
000000e0: c561 a240 7079 8040 9725 4c40 3d70 8d40
000000f0: 8d74 8640 97d7 8b40 e337 8140 98b7 8340
4.1798234 4.446976 1.4933145 4.543485 4.2615037 3.353197 4.8676934 3.3084023
3.3614113 3.9794767 4.0921507 3.5336626 1.3635075 4.103119 4.0209355 3.0493696
3.2706702 4.739972 4.680844 2.8042755 4.473204 1.4639119 4.7638206 3.813546
5.165801 3.165076 4.874023 4.4189043 4.1082835 0.80871713 0.10981469 1.3308992
4.330335 2.0355089 3.5618062 3.867551 5.96891 3.699806 3.679925 4.750367
4.2702074 3.5160933 0.9305711 5.1977205 5.0276756 4.419103 4.0373015 5.781039
4.1123943 4.87068 3.1762836 3.7470646 0.7042786 4.0868883 4.077103 2.537959
5.0744348 4.014824 3.1897943 4.419951 4.2017274 4.370067 4.038072 4.1161613

bn4.bias f4 [64]
00000000: 96f7 c23e dc0c 733e b71d 203d 9e43 223e
00000010: edcf 343b 6035 a83e d4c3 d63e f604 74bd
00000020: 84bc 883e a431 ee3b 6b6c 293d 73dc 913e
00000030: 783e ec3d 25b5 883e 5116 2e3e 4323 113e
00000040: 873e 053d d8af 18bd 006f cd3c d4ec 273e
00000050: ceb9 6d3c a146 51bb 2fc0 b63e 3d55 fb3d
00000060: 062c 0c3e 73cb 323d 3e91 353e fb7d 3a3e
00000070: 6ef0 a83e b6a6 383d 1194 c83a 0d7f 013e
00000080: 3fcd 363e f317 f73d ad4c df3d ba37 963c
00000090: d0e2 8f3e bd01 9d3d 0955 bb3d ab37 e53d
000000a0: c32d 5a3e d02f 743a 7ffe 7f3e 8e42 463e
000000b0: 43f3 793e 1a2f 173e c1e1 a73e 5092 893e
000000c0: 4cd6 fb3d 7183 8dbd 050e 9c3d cb31 243e
000000d0: bdd1 cf3c 9e94 433e 99cf a13e d098 8f3c
000000e0: 0151 a83e 387a 18bc 3638 503e f194 283e
000000f0: 5749 e53d e731 c83e 0d93 c83d 0f9d ea3c
0.38079518 0.23735374 0.03909084 0.15846106 0.0027589754 0.32853222 0.4194628 -0.059575044
0.26706326 0.007269101 0.04136316 0.28488502 0.115353525 0.26700702 0.170007 0.14173608
0.032530334 -0.037277073 0.025077343 0.16398937 0.014509631 -0.0031932967 0.356935 0.12272117
0.13688669 0.043651056 0.17731187 0.1821212 0.32995933 0.045080863 0.0015302916 0.12646122
0.17851733 0.12065115 0.109032966 0.01833712 0.28102732 0.07666347 0.091470785 0.111922584
0.21306519 0.0009314986 0.24999426 0.19361326 0.24409203 0.14764062 0.32789424 0.2686944
0.12296733 -0.06909836 0.076198615 0.1603462 0.025368566 0.19099662 0.31603697 0.017528921
0.328743 -0.009306483 0.20333943 0.16463067 0.11195629 0.39100572 0.09793673 0.028639344

bn4.running_mean f4 [64]
00000000: 88c8 c73f 99d1 353f 8678 6842 b843 4a3f
00000010: 0ec7 f33e 7093 be3f 83f6 1d40 195a 863f
00000020: 32ad 333f f7c8 d63e b1df 2c3f c6dd 763f
00000030: b880 ec41 355a 633f bb77 5f3f 1a64 9e3f
00000040: 2fc8 cb3e 1dde ac3e 99eb 503f c4ac 2a3f
00000050: 3f38 4b3f 107c 9542 7980 d53f 203d b33f
00000060: febc b83e 620c 5d3f 7574 9e3f 8f73 cb3e
00000070: 8fd2 2b3f b3af 1e40 5bf6 743e 15cd 8740
00000080: ef62 433f eb23 6840 7bce e73e 14df 213f
00000090: 7b9c 4b3f 705b 983f 7ca4 833e 65ef c03e
000000a0: f048 583f 2123 a53f d030 ab40 6c97 5d3f
000000b0: 677f f93e 7c6e 433f de64 bd3e ffce da3f
000000c0: c379 543f e6a1 9b3e caa6 9b3e a88a e73f
000000d0: 8115 3741 8ee3 f13e 841e 473f c3f6 3e40
000000e0: e3c7 573f 36b9 0a3f 4805 0d40 1522 1d3e
000000f0: e515 333f 54ed d33f 44e0 593f 00a7 683f
1.5608072 0.71022946 58.1177 0.7900958 0.47612804 1.4888744 2.468171 1.0496246
0.7018615 0.419502 0.67528826 0.9643215 29.56285 0.8880952 0.8729207 1.2374299
0.39801165 0.3376321 0.81609493 0.6666987 0.793827 74.74231 1.6679832 1.4003029
0.3608169 0.8634702 1.237929 0.39736602 0.6711816 2.4794738 0.23922102 4.2437844
0.76322836 3.6271923 0.4527472 0.63231015 0.79535645 1.1902905 0.2571143 0.37682644
0.84486294 1.2901345 5.3497086 0.86559176 0.48730013 0.7634046 0.36991018 1.709442
0.82998294 0.30396956 0.30400687 1.808919 11.44275 0.47243923 0.7778094 2.9838111
0.8428938 0.5418886 2.2034473 0.15345033 0.69955283 1.6556802 0.8510783 0.9087982

bn4.running_var f4 [64]
00000000: 373d de42 b144 4842 4426 1745 33eb 1442
00000010: 56f1 be41 d59d c542 dc9d 4243 96f4 8942
00000020: a2ed 0242 ddc7 9241 fa5d 2842 151a 4e42
00000030: 61bb 7a44 2c92 5b42 b677 5842 4454 ce42
00000040: 7fc2 9c41 c009 6041 bedb 4242 25d4 0942
00000050: 97ea 2042 9e20 f744 6ee6 e342 1961 d742
00000060: 9a7e 7441 c865 1e42 5525 bc42 aac9 8a41
00000070: e175 0442 faeb 6b42 7fce 6641 abb9 8743
00000080: bebc 4042 5f71 1a43 6c27 fd41 fb2b f841
00000090: 033c 5c42 273e 8342 e1a2 1341 6af0 8141
000000a0: bbe5 3a42 8020 d742 b97d 3043 ebbe 2d42
000000b0: d5d6 c541 5eb0 2042 06c3 8041 2fdf d542
000000c0: f9a5 1b42 1d67 7341 7786 7341 81db 3043
000000d0: 7594 ce43 822a e141 f247 1842 aa66 7643
000000e0: baab 4e42 7657 cb41 bf90 0a43 78b8 fc40
000000f0: aea8 4142 a284 e442 ddce 2442 d912 4542
111.11956 50.06708 2418.3916 37.229687 23.86784 98.808266 194.61664 68.97771
32.732063 18.34759 42.091774 51.52547 1002.9278 54.892746 54.116905 103.16458
19.594969 14.00238 48.714592 34.457172 40.22909 1977.0193 113.95006 107.689644
15.280909 39.599396 94.072914 17.348469 33.115116 58.980446 14.425414 271.45053
48.18432 154.44286 31.644249 31.021475 55.058605 65.62139 9.227265 16.24239
46.724346 107.56348 176.4911 43.436443 24.729898 40.172234 16.095226 106.935905
38.912083 15.212674 15.220328 176.85744 413.15982 28.145756 38.07026 246.40103
51.6677 25.417706 138.56541 7.897518 48.414726 114.25905 41.202015 49.268406

lin.weight f4 [10, 64]
00000000: ea9a ed3e 7167 79bf f4ba a43e 971d f13e
00000010: f750 c1bf 5aa0 533f 9a1b 1abf cdb2 aa3d
00000020: 5e49 81bf 3fc3 babe 563b cabf cc16 563e
00000030: 8c6d 773f 43d6 56c0 56a7 05c0 4078 6b3f
00000040: a25b 013f c090 03be b3c2 1340 cd44 21bf
00000050: d97a d73d 5ce3 e23f 1716 28c0 3cd5 77bf
00000060: 741d 1ebf 9aad 863e a260 713f 3757 afbd
00000070: 9560 95bf 54e9 2a3f 2f0c 8bbc 26dc 383f
00000080: 9673 c4bd eda3 843f 96ec 753e b324 e4be
00000090: 9858 1540 2998 53be a53b bfbc 3271 5fbf
000000a0: 8b4f c13d 4b22 eb3f 827b 79be d833 993f
000000b0: cc6e 0bc0 fe1f 0ac0 5c64 51bf c3cd 753f
000000c0: 7864 16c0 9c00 45bf 23d7 463f 6b1e d23f
000000d0: edb8 84bf 8039 3c3e 327f abbf d28d 4c3f
000000e0: 4ff1 e53f 7781 c53f 8eda 02bf d47c 08c0
000000f0: 13ce 96bd 8bb1 1e3f 29d1 0bbd 4f9c 9abf
00000100: 469e 1bbf a143 a33f 1a11 b63d a15c d53f
00000110: f6cf 663f eea2 5cbf 5056 933f 2585 a2be
00000120: 17c0 ee3e c3a5 45bf bffd 83be 26c3 0dbf
00000130: 224d b23e 6814 893f d7fa 15bf cfc5 c4be
00000140: c437 1fbf add1 38bf 3e1d b8ba 7aff 88bf
00000150: 3729 b5bf eb20 e6bd a53e 983f 078c 243d
00000160: 6259 fabf 610a a33e 9627 5bbf 90f8 94be
00000170: ca3c bf3f b5f1 50be 17a8 2fbd b4a5 a03c
00000180: b042 0040 9c22 513f 8503 d13f e461 003e
00000190: f9bd 023e 9058 053f 5a54 54bf c955 b7be
000001a0: 2434 b6bf bd94 b8bf 7531 43bd 6de7 d3bf
000001b0: defd 243f a3d0 aabf cd5d a23f 2487 3e3f
000001c0: bb20 47be 75af dbbf c26e a23f f293 de3d
000001d0: 5bb3 a23d c8c0 cfbb 155c 893f fb45 d33e
000001e0: bd48 89bf 2009 a0be dbf2 2ac0 50e9 733f
000001f0: c6f1 0ac0 eb79 c1bc 357b f9bf 7f82 113f
00000200: 8716 96be 3ef5 d53f 5ac9 d2be 0b14 73bf
00000210: 51e0 4e3f c929 cf3d 1704 183f d8b4 f23d
00000220: 1986 b03f e686 07be 8db0 c3bc 8d83 d33e
00000230: 002b 6bbe 1d2a b13d 497d d53f 036c 863f
00000240: 50b1 48bf 597a fcbf 641d 1dbf dfca 023f
00000250: 4305 c43f ab23 48be ed0d 41bf 4a72 d3be
00000260: c1ba 68bf 80da 0f3e 1fa7 7c3f 09dc aa3d
00000270: 2a4f 4c3f dc5c 913d c8a4 153d 64f5 9bbf
00000280: 81ce b0be 3fb3 1fbf befc 8abf 5c90 833f
00000290: 6f6a 57bf 3383 d3bf dded 87bf 4585 b73f
000002a0: 98af e53e bce2 c3be 2609 4b3e ec88 aebf
000002b0: f089 cebf 1e4c 9a3f 56a4 643f 215b 21c0
000002c0: b967 88bf 140f 3b3e 8118 a8bf 5ece 8f3f
000002d0: 6dd5 503f 35ee 49bf ef54 2d3e be6c d2be
000002e0: 02fc c63f f36b cabf 90b0 1f3f 4086 1ebf
000002f0: 8787 9b3f ddea b2bf 2a6d 533f a805 8fbd
00000300: fc00 49bf b2ca 84bd d7fb 813e 0365 bd3d
00000310: 414d 023e dbb2 86bf 2d13 033f 7c40 b93f
00000320: eecf ab3d 0a1b 5ebd ab1f 8ebf 81ab 64be
00000330: ca51 18be a8f0 efbe 9028 e33e 42c5 afbd
00000340: 9961 533f f7d0 d43f fe59 bbbe eb14 b43f
00000350: fe6d 04c0 6a9b 5cbe f4bd ca3f 326e 39c0
00000360: 1b60 02c0 f6fb 90bf 611f b7bf 7b54 06bf
00000370: 968a a7bf 4416 363e 96f3 3cbd 3a5c b43e
00000380: 03a6 8e3e 3adc 7cbe 7441 18bf 9b9d 843e
00000390: f5e9 bcbf 4f57 d13f 404d 94be bc4f 9e3f
000003a0: 5c20 23c0 9c87 eebf f32b a53e 9644 1a3c
000003b0: de40 363f 7dff 6c3f af33 0ebe 9167 b23f
000003c0: 2bbf 0fbf 9d27 443f fc00 77be 0d0d 843e
000003d0: feca 613e 4b2e 0440 6e44 7abf db59 8fbf
000003e0: 3686 0b3e 9f09 893f 6e4d c2bf 1973 c13e
000003f0: c2ba f5bf 2472 813f ee9d ddbf 4e0f fb3f
0.46407253 -0.97423464 0.32173884 0.47092888 -1.5102834 0.8266655 -0.60198367 0.08334885
-1.0100515 -0.36477086 -1.5799358 0.20907134 0.9665153 -3.3568275 -2.0883384 0.9198036
0.50530446 -0.12848186 2.3087585 -0.62995607 0.10521478 1.7725635 -2.6263483 -0.96809745
-0.6176369 0.26304322 0.94288075 -0.08561557 -1.16701 0.6676228 -0.016973583 0.7221092
-0.09592359 1.0362526 0.24016032 -0.4455925 2.3335323 -0.20663513 -0.02334387 -0.872821
0.09439 1.836984 -0.2436352 1.1968946 -2.1786375 -2.1582026 -0.8179376 0.9601709
-2.3498821 -0.76954055 0.7767202 1.6415533 -1.0368935 0.1838131 -1.3398192 0.799039
1.7964267 1.5430135 -0.5111474 -2.132619 -0.07363524 0.6198966 -0.034135018 -1.2078952
-0.6078838 1.2755014 0.088899806 1.6668893 0.90161073 -0.8618611 1.1510715 -0.31742206
0.46630928 -0.7720606 -0.2577953 -0.553759 0.34824473 1.0709352 -0.58585876 -0.38432166
-0.62194467 -0.7219494 -0.0014046801 -1.0702965 -1.4153203 -0.11236747 1.1894118 0.040172603
-1.9558527 0.31843856 -0.8560728 -0.29095888 1.4940426 -0.20404704 -0.042884912 0.019610263
2.0040703 0.81693435 1.6329199 0.12537342 0.12767781 0.5208826 -0.8294121 -0.35807636
-1.4234662 -1.4420391 -0.047654588 -1.6555 0.6444987 -1.3344921 1.2684876 0.7442496
-0.1944608 -1.716292 1.2690051 0.10868062 0.079443656 -0.00634012 1.0731226 0.41264328
-1.0725323 -0.31256962 -2.6710727 0.9527788 -2.1710067 -0.023617705 -1.9490725 0.56839746
-0.29314062 1.6715467 -0.41169244 -0.9495246 0.8081103 0.10115392 0.5938124 0.118508995
1.3790923 -0.13235053 -0.023887897 0.41311303 -0.22965622 0.086506106 1.6678859 1.0501713
-0.7839556 -1.9724838 -0.6137297 0.51090807 1.5314106 -0.19544856 -0.75411874 -0.41298133
-0.90909964 0.14048195 0.98692507 0.083427496 0.79808295 0.0709779 0.0365341 -1.2184262
-0.3453255 -0.6238288 -1.0858381 1.027843 -0.8414678 -1.6524414 -1.0619465 1.4337546
0.4486053 -0.38258922 0.19827709 -1.3635535 -1.6135845 1.2054479 0.89313257 -2.521187
-1.0656654 0.1826747 -1.3132478 1.1234853 0.8157566 -0.788791 0.16926931 -0.4109859
1.5545657 -1.5814193 0.6237879 -0.619236 1.2150735 -1.3977925 0.82588446 -0.06983501
-0.7851713 -0.064839736 0.2538745 0.09247782 0.12724783 -1.0523332 0.51201135 1.4472804
0.08389269 -0.054225005 -1.1103414 -0.22331049 -0.1487495 -0.46863294 0.44366884 -0.08582546
0.825708 1.6626271 -0.36592096 1.4068884 -2.0692134 -0.21543661 1.5839219 -2.8973508
-2.0371158 -1.1326892 -1.4306451 -0.52472657 -1.3089168 0.17781931 -0.04613074 0.35226613
0.27861032 -0.24693385 -0.59474874 0.25901493 -1.4758898 1.635477 -0.28965187 1.2368083
-2.54885 -1.8635135 0.32260093 0.009415766 0.7119273 0.92577344 -0.13886903 1.3937856
-0.56151074 0.76622945 -0.2412147 0.25791207 0.22050092 2.0653255 -0.97760665 -1.1199297
0.13625416 1.0706061 -1.517988 0.37783125 -1.9197619 1.0112958 -1.7313821 1.9614046

lin.bias f4 [10]
00000000: 0b94 efbd 3211 053f 0720 e83e 9c93 e13d
00000010: 9189 9cbe 328e 12bf af70 5fbe 25b5 213f
00000020: 8a1f b2bf 6166 6bc0
-0.11698159 0.5197936 0.45336935 0.110144824 -0.30573705 -0.5724822 -0.21820329 0.6316703
-1.3915875 -3.6781237

conv.0.weight f4 [8, 2, 5, 5]
00000000: 6cfc 3cbf 131f 6e3f f6d5 9340 1df4 c43f
00000010: c98e 593f 1d3e d2bf 4849 c5be 713a cd3f
00000020: 632d 0c3f 7c75 40bf 6537 21bf a747 83bf
00000030: f1ce 083e a8c9 debe 725e 34bd 83f9 97bf
00000040: 7e2c 93bf 6f35 af3e bc50 48bf ec5d 833e
00000050: bdf4 0cbf 75ae 00bf fda7 763e e169 90bf
00000060: b352 b2be a12b 59be dbe5 903f 4ca3 8340
00000070: a3f6 fc3f b4cc 3f3f e0b7 26bf 4926 02be
00000080: 035e ac3f 8766 d2be d0fc 34bf 7f06 c0be
00000090: 662f 88bf b88e f53e e8eb 2abf dfdd 813e
000000a0: 7cc0 5fbb ce66 22bf a488 07be c891 0abf
000000b0: 3495 c23d 744f b23e 2e29 753e 2551 173c
000000c0: ed30 a1be c732 e23e e923 29be d69c fcbf
000000d0: 19c2 3abf 60b4 84bf 5191 1cbf 941d ef3e
000000e0: 1eea a8bf 5adc acbe 755c 843c f8b5 0d3f
000000f0: c0ae 333f fd27 68bf 0c21 9abe 269f 013f
00000100: 48d2 b93c 9b78 783f 6270 8ebf e85f 6fbf
00000110: c464 15bd 7194 5d3b 40c3 2440 f7b9 a03f
00000120: 4a21 6d3f 085d 5b3f 0c84 db3e f924 8dbe
00000130: e07d b1bf 155b a5bf 080f 88bf 9d44 29bf
00000140: d559 813f 17c7 43bf ff7c 3dbf 0389 253e
00000150: b110 113d ea5c 8e3f 61f7 3bbf 69a0 1dbf
00000160: f769 65be 7a26 79be f26f b63f 2aca bbbe
00000170: ccbd bdbe d562 a7be 91f4 dd3d 67d5 5840
00000180: e5fb f63f 3e55 843f ce4b 703f c5d2 fa3e
00000190: 208c d040 f1bd c73e 7879 6b40 8d74 7b3f
000001a0: 932f aabe 1028 0040 0135 75bf 73eb 893f
000001b0: 5aab 47bd c448 11bf e625 783f a2a1 acbf
000001c0: 0248 4b3f 7e46 11be 82b1 cfbe 967c 09be
000001d0: 4c8c d4bf 57fd c13f 6aed e33e 8814 013f
000001e0: 11e0 bd3f 22c8 983e 41e9 3c3f 563d be3e
000001f0: d9e6 6e3e 9d8f 2b40 5932 afbe f8e8 aa3f
00000200: 41bc 9a3e 574f 0bbf 28ba 4e3e 7478 a2bf
00000210: 8245 bd3e e3c6 773d 0d80 1cbe 27d2 a3bd
00000220: 32d6 b3bf 2892 05be a44c 6fbe aa71 293e
00000230: 7e1c d8bf 13ed c1bf ed93 1d3f 2962 c73e
00000240: d1fb 733e 5743 3d3e 0a80 24bd ba1f 283e
00000250: f9b0 063e 7181 293e 05ef 80bf 1827 c0bf
00000260: 04b3 9ebf b111 053f 2bd8 28bf 6f33 f7be
00000270: 8d1c 98be e49c 7abd 990a ac3d 99cb 0d3f
00000280: 3fc1 7cbf 0ab0 9c3f 89e7 f2be 8661 2fbf
00000290: 8928 b2be eb85 ac3f 80dd 4940 5c79 693f
000002a0: b7a9 883f d8b3 04bd 269d a6be 0035 503f
000002b0: aff4 80be c8c0 60bf 13ff 04bf b51d a3bf
000002c0: 9635 bbbf edf8 abbf c43b 703c 931f a2be
000002d0: 8473 f2be c245 3bbd 7dd1 1fbe a6f4 443d
000002e0: c734 743e 1123 73bf e662 c93f 17ff 31be
000002f0: 0ec9 29bf f702 7c3b ad99 8b3f df7e 7e40
00000300: cceb 9c3f caad 033f 536a c03e 3ca1 cd3c
00000310: e921 8e3f 9810 903e 0e0a 37bf f6d8 c0bd
00000320: c30c 9040 9dd2 e13f 6f92 8ebe 1d92 aebe
00000330: 35f7 eabd c44c 3e40 ae14 bf3f 6453 16bf
00000340: c55c bbbe f8f4 bdbe c5c8 2740 1d5c 603f
00000350: 8499 40be 571e 0a3f 4f48 073e 56dc 7d3f
00000360: d881 59be 6ad4 19bf 913d 333f e35a 09bc
00000370: ddf7 013e 4141 67be 4080 e9be 903d 743f
00000380: dead 27be 9cec b33f 2d79 c63f 73e0 cfbf
00000390: 26b6 98bf cc9b afbf 19e4 893f 583f 253f
000003a0: 94a6 0bc0 0c54 b1bf 30e8 7cbf 2cd1 983f
000003b0: 5f2e 8b3f 94f8 c4bf e602 25bf 52b3 65bf
000003c0: f65d 37be 2f4f 50be d4a1 6cbf 8004 8b3e
000003d0: 86d6 f8be 7cba 12bf 6a99 0dbf 3d5c eabe
000003e0: 2125 d93d 1e17 8ebe e319 b9bf a495 50bf
000003f0: 1945 2ac0 45e5 c0bf 3b7c b9bf eb0d 283f
-0.73822665 0.93016165 4.6198683 1.5386997 0.849835 -1.6425205 -0.38532472 1.603346
0.54756755 -0.75179267 -0.6297515 -1.0256242 0.13360192 -0.43513227 -0.044035383 -1.187302
-1.1497953 0.34220454 -0.7824819 0.25657594 -0.5506094 -0.502662 0.2408752 -1.1282312
-0.3482872 -0.2120805 1.1320146 4.1136837 1.9762768 0.7492173 -0.6512432 -0.12709917
1.346619 -0.41093847 -0.7069826 -0.37504956 -1.0639465 0.47960448 -0.66766214 0.25364587
-0.003414183 -0.6343812 -0.13235718 -0.54128695 0.095011145 0.34826243 0.2394149 0.009235655
-0.3148264 0.44179365 -0.16517605 -1.9735363 -0.7295242 -1.0367546 -0.61159235 0.46702254
-1.3196447 -0.33761865 0.016157368 0.5535579 0.7018852 -0.9068602 -0.30103338 0.50633466
0.022683278 0.9705903 -1.1128047 -0.93505716 -0.03647305 0.0033810402 2.574417 1.2556752
0.9262892 0.8568883 0.4287418 -0.2756727 -1.3866539 -1.2918421 -1.0629587 -0.6612032
1.010554 -0.7647566 -0.74018854 0.16165547 0.03541631 1.1122105 -0.73424345 -0.6157289
-0.22403704 -0.24331084 1.4252913 -0.36677676 -0.37058866 -0.3269259 0.10837663 3.388025
1.9295622 1.0338514 0.9386567 0.4898893 6.517105 0.390121 3.6792889 0.9822472
-0.3323942 2.0024452 -0.95784 1.0774978 -0.048747398 -0.56751657 0.9693283 -1.3486826
0.7940675 -0.14187047 -0.40565115 -0.13426432 -1.6605315 1.5155438 0.4451707 0.50421953
1.4834005 0.2984019 0.7379342 0.3715617 0.23330249 2.6806405 -0.342181 1.3352346
0.3022175 -0.5441794 0.201882 -1.2693009 0.36967093 0.060492408 -0.15283222 -0.07999068
-1.4049742 -0.13044035 -0.2336908 0.16547266 -1.6883695 -1.5150474 0.6155384 0.38942078
0.23826529 0.1848272 -0.04016117 0.16418353 0.13153447 0.16553284 -1.0072943 -1.501193
-1.2398381 0.5198012 -0.65954846 -0.48281428 -0.29709283 -0.06118478 0.08400459 0.5538879
-0.9873237 1.2241223 -0.47442272 -0.68508184 -0.3479655 1.3478369 3.1541443 0.91200805
1.0676793 -0.032398075 -0.3254177 0.8133087 -0.2518668 -0.8779416 -0.5195171 -1.2743441
-1.4625728 -1.3435341 0.014662687 -0.31664714 -0.47353756 -0.045720823 -0.15607257 0.048084877
0.23848258 -0.9497538 1.5733306 -0.17382465 -0.6632241 0.0038453916 1.0906273 3.9764936
1.225946 0.51437056 0.3758112 0.025101297 1.1104099 0.2813766 -0.7149972 -0.09416382
4.501558 1.7642399 -0.27846095 -0.3409585 -0.11472932 2.9734354 1.4928186 -0.58720994
-0.36594215 -0.3710096 2.621629 0.87640554 -0.18808562 0.53952545 0.13211177 0.9916433
-0.21240938 -0.60089743 0.7001582 -0.0083834855 0.12692209 -0.22583486 -0.4560566 0.95406437
-0.16374919 1.4056582 1.550573 -1.6240371 -1.1930587 -1.371942 1.0772735 0.6454978
-2.1820421 -1.3853774 -0.9879179 1.1938834 1.0873526 -1.538836 -0.6445755 -0.89726746
-0.17906937 -0.20342706 -0.9243443 0.2715187 -0.48601168 -0.573158 -0.55312216 -0.45773497
0.10602785 -0.27752012 -1.4461025 -0.81478333 -2.6604674 -1.5069968 -1.4491037 0.6564624
