models/standard/k-fold saves/test1e_f8_e10_f7_b64.pt (torch, 335209 bytes, 86 tensors)

conv1.weight f4 [8, 2, 5, 5]
00000000: 0a7a 41bf c0bf 6a3f dc75 9340 4999 c53f
00000010: 3ccf 5f3f ff6e d3bf c135 c7be 99f6 cc3f
00000020: 3f1b 0d3f 742a 3abf 2b9e 21bf 9173 82bf
00000030: 15e3 123e 4155 d7be ad3b 84bc 05fe 99bf
00000040: 3dc2 94bf eb16 ac3e 9cf4 46bf f4d0 883e
00000050: 8112 0fbf 40c5 02bf 6e0e 743e 5b06 8fbf
00000060: ade6 aabe 0a5c 66be 934d 903f 8088 8340
00000070: f2ec fd3f 564b 463f ea37 28bf 4be9 00be
00000080: 4bd3 ac3f b83f d0be 52f6 2ebf b2b8 bdbe
00000090: 7fa1 86bf 5049 fc3e eb87 26bf 875b 903e
000000a0: c435 5abc cb0c 24bf f6ea 0abe 109c 09bf
000000b0: ce9d d93d 64a1 b03e 89de 733e 2199 2f3c
000000c0: 4fbe 9bbe 37fe eb3e 55d2 30be 1ee1 fcbf
000000d0: cf57 3abf 2a31 84bf d8c7 1bbf 6b38 eb3e
000000e0: 5e70 a9bf 2cbd aabe f09c ca3c 1a29 0e3f
000000f0: 9c55 313f 2b10 6bbf 7431 9bbe 151d 023f
00000100: 78c4 8c3c 603d 773f 63ee 8ebf fba3 6dbf
00000110: ff34 e3bc c50b 883b c476 2440 8bec 9f3f
00000120: 26ac 6e3f 8a78 5c3f 6fa3 da3e 9890 90be
00000130: a713 b2bf 3f5f a5bf f67e 87bf ed8a 28bf
00000140: f95e 803f 914c 45bf c742 3dbf 6700 2d3e
00000150: 93b5 193d 5435 8d3f 205b 3fbf 8e45 1fbf
00000160: e744 65be 85b7 7dbe 1724 b63f 50ac bebe
00000170: 885b babe 8f18 a3be 9cd3 e23d 2ecb 5840
00000180: 5d03 f63f 1659 853f 03a6 713f 4741 fa3e
00000190: b668 cf40 54e4 ba3e b494 6d40 3fdd 7c3f
000001a0: 05d6 9cbe 885e fa3f 63dd 7dbf bb46 8a3f
000001b0: a782 5fbd de70 0dbf b39a 793f 11cd aabf
000001c0: ac66 553f 9e2a f9bd 940e bfbe fbb6 12be
000001d0: 462c d4bf e628 c53f 7913 eb3e 6f47 083f
000001e0: c6ed bc3f 6849 983e 78d7 413f 2ca4 c13e
000001f0: bd9c 833e f42a 2840 300e c6be 7f9d ab3f
00000200: 9a9c 933e 64f2 07bf 9135 0c3e 9118 a8bf
00000210: 14db b43e a091 273d 5825 1ebe f9ab bcbd
00000220: 7c25 b3bf 5655 e0bd 3c9c 6abe d196 3a3e
00000230: f1f5 dabf 32f4 c2bf ab32 213f 4ede c63e
00000240: d863 823e 900a 2c3e 93b0 37bd 45d1 363e
00000250: fd35 063e 198f 383e 85aa 80bf e06b bfbf
00000260: 9061 9ebf f9f2 013f 3cc2 28bf df62 f4be
00000270: a298 94be 4e8d 61bd cb00 9d3d f98c 0e3f
00000280: 80c8 7abf 140d 9d3f ac74 f0be 6ee9 31bf
00000290: 523b b4be 4a8e ad3f 05e0 4940 cd08 693f
000002a0: e239 863f e6bf 2cbd a67b adbe b780 4a3f
000002b0: 26d8 8dbe dd52 6bbf beb5 0cbf 7668 a3bf
000002c0: 2fb5 babf 6cf6 abbf 3606 2a3b 89f8 a0be
000002d0: f44f f2be c18e 27bd 5d22 1cbe 9613 2e3d
000002e0: d28f 793e 8252 72bf 268d c93f 4855 2fbe
000002f0: 5c1b 2cbf f7eb e939 391b 8c3f ef4d 7e40
00000300: 09ce 9c3f 87bf ff3e 2a44 bb3e 6980 013c
00000310: a524 8b3f 7183 833e feac 40bf 69d0 febd
00000320: 6599 9040 8079 e43f fc31 82be 0ffb a5be
00000330: 158a d6bd 5330 3c40 5d71 bc3f e83f 19bf
00000340: 4ab0 c0be 92e8 c5be 9c3c 2840 76d5 633f
00000350: 2d78 2fbe 3552 0d3f 8b5a 0c3e e8e1 7e3f
00000360: 9e16 51be 9233 16bf 242c 353f 13c8 eabb
00000370: 9cc9 0d3e 5569 5cbe 5ce4 e3be 250e 753f
00000380: e59a 29be b9cf b53f d771 c83f 23dd ccbf
00000390: 4805 97bf 2089 aebf 2a1c 853f 9a1f 1f3f
000003a0: c59f 0cc0 8bfe b2bf f402 81bf 01da 983f
000003b0: 059f 8c3f 084c c3bf 9751 22bf abce 65bf
000003c0: 940a 37be 7f97 4cbe 4a73 6abf a0b8 8d3e
000003d0: d7cc f9be f7ac 10bf f348 0bbf 6c00 e6be
000003e0: 09e2 e03d 900d 8fbe 98cd b8bf 4ccd 4cbf
000003f0: c43c 2ac0 35cf c0bf 244e b8bf 8c82 283f
-0.7557684 0.9169884 4.608137 1.5437404 0.8742559 -1.6518248 -0.38908198 1.6012756
0.551197 -0.7272103 -0.6313197 -1.0191518 0.14344437 -0.4205723 -0.016141737 -1.2030646
-1.1621777 0.33611235 -0.77716994 0.2672192 -0.5588761 -0.5108223 0.2383363 -1.1173815
-0.33379117 -0.22496048 1.1273674 4.1104126 1.9837935 0.77458704 -0.6571032 -0.12588994
1.3501981 -0.40673614 -0.68344605 -0.37054974 -1.0518035 0.49274683 -0.65051144 0.2819483
-0.013318483 -0.6408202 -0.13566193 -0.5375376 0.10625802 0.3449813 0.23815359 0.010717661
-0.3041863 0.46092388 -0.17267735 -1.97562 -0.72790235 -1.0327504 -0.6085181 0.4594148
-1.3237417 -0.33347452 0.024733037 0.55531466 0.69271255 -0.91821545 -0.30311167 0.50825626
0.017183527 0.96578026 -1.11665 -0.9282834 -0.027735231 0.0041517937 2.5697489 1.2494062
0.9323143 0.8612143 0.42702815 -0.28235316 -1.3912247 -1.2919692 -1.058562 -0.65836984
1.0028983 -0.77069956 -0.7393002 0.16894685 0.03752668 1.10319 -0.7474842 -0.6221551
-0.22389565 -0.24777038 1.4229764 -0.3724084 -0.36397958 -0.31854674 0.110755175 3.387401
1.9219776 1.0417812 0.9439394 0.48877928 6.481532 0.36502326 3.712201 0.98775095
-0.30632034 1.9560099 -0.99165934 1.0802835 -0.05456796 -0.55250347 0.9750168 -1.3343831
0.8335979 -0.12166332 -0.3731581 -0.14327614 -1.6576011 1.5403106 0.45913294 0.53234
1.4760063 0.29743505 0.75719404 0.37820566 0.2570552 2.6276217 -0.386827 1.3407439
0.28830415 -0.53104234 0.13692309 -1.3132497 0.35323393 0.040910363 -0.15443933 -0.09212489
-1.3995814 -0.109537765 -0.22911161 0.18221594 -1.7106305 -1.5230772 0.6296794 0.3884148
0.254668 0.16800904 -0.04484613 0.17853267 0.13106532 0.18023337 -1.0052038 -1.4954796
-1.2373524 0.5076137 -0.6592138 -0.47731683 -0.290227 -0.0550664 0.07666167 0.5568386
-0.9796219 1.2269616 -0.46964014 -0.6949681 -0.35201508 1.3559048 3.154298 0.91029054
1.0486414 -0.042175196 -0.338834 0.79102653 -0.2770397 -0.91923314 -0.54964817 -1.2766254
-1.4586543 -1.3434577 0.0025943643 -0.31439617 -0.47326624 -0.040907625 -0.15247484 0.042499147
0.2437127 -0.94657147 1.57462 -0.17122376 -0.6722925 0.0004461703 1.0945808 3.9735067
1.2250377 0.4995081 0.36575443 0.0079041505 1.0870558 0.2568622 -0.75263965 -0.12442095
4.518725 1.7849579 -0.2542876 -0.32418105 -0.10475556 2.9404495 1.4722096 -0.5986314
-0.37634498 -0.38654 2.6286993 0.8899759 -0.17135687 0.5520356 0.13706414 0.99563456
-0.20418784 -0.5867244 0.7077048 -0.007164964 0.13846439 -0.21524556 -0.44510162 0.9572471
-0.16562994 1.4204017 1.5659741 -1.6004986 -1.1798487 -1.3635597 1.039922 0.62157595
-2.1972516 -1.398393 -1.0079026 1.194153 1.0986029 -1.5257578 -0.63405746 -0.89768475
-0.17875129 -0.19979666 -0.9158217 0.2767992 -0.48789093 -0.56513923 -0.54408187 -0.44922197
0.10980613 -0.27940035 -1.4437742 -0.8000076 -2.6599588 -1.5063235 -1.4398847 0.658242

conv1.bias f4 [8]
00000000: 8f7e 7ec0 65b4 29c0 eab3 ebbf e0d5 a6bf
00000010: c3aa 5fc0 492e 86be ac59 d33b 0c6e b0c0
-3.9764745 -2.6516354 -1.841428 -1.303402 -3.4947975 -0.26207188 0.0064498987 -5.5134335

bn1.weight f4 [8]
00000000: 2829 a33f 033d ae3f 359d a73f 3c9c e43f
00000010: 1618 a83f 732a f03f f638 bd3f 105b b13f
1.2746935 1.3612369 1.3094851 1.7860179 1.313235 1.8762954 1.4783008 1.3855915

bn1.bias f4 [8]
00000000: 69d7 41bf b15a abbe cffb a9bf b35e 003f
00000010: ca64 f7bf 399e 8bbf ed83 813f 737d 87bf
-0.75719315 -0.3346763 -1.3279971 0.501445 -1.9327633 -1.0907661 1.0118386 -1.0585159

bn1.running_mean f4 [8]
00000000: 88b3 b83f d1a9 693f 1889 a440 7fb0 6d3f
00000010: a4d8 dc3f ca57 9a3f a362 1b41 2f6a fc3f
1.4429789 0.91274744 5.141735 0.92847437 1.7253613 1.2058041 9.711581 1.9719905

bn1.running_var f4 [8]
00000000: 3e32 b141 0c77 4b41 cb3f 1443 868c 3441
00000010: 5611 c241 117c 9b41 e4e9 8742 a57c e041
22.149532 12.716564 148.24919 11.2843075 24.258465 19.43558 67.95682 28.060862

conv2.weight f4 [16, 8, 3, 3]
00000000: 9645 95be fdae 05c0 439f 89bf f834 0340
00000010: f21b 50bf 8633 03bf 9e29 a23d 34e8 02be
00000020: 759d 663f 84b9 49bf 1b60 73be 9ddf 4f3f
00000030: 30e8 45c0 08df a3bf 9eb2 1bbf fd95 b4be
00000040: 5be8 2c3e 851b 81be d489 a63f 8b5f ad3e
00000050: 9ddc 0e3f 8818 843f 5b77 5d3f 7a37 033f
00000060: d9f3 d53f dd09 683f 59e3 263f 558e df3e
00000070: f98e 21bd c372 42bf 8a10 11c0 e277 2fc0
00000080: da6f d83e 901a 0abe d345 cebe 62a7 5e3f
00000090: 6feb 5abf 8938 593d 7504 173e 0085 f83e
000000a0: fce4 953e 2b90 fb3d 095e 2440 b253 a43e
000000b0: 4707 a33e 43c6 013f 0e61 1e3e 971e 30bf
000000c0: d4e5 55c0 26df 3fc0 5a45 e5bf 19ea 9a3f
000000d0: 36f4 78bb 1c6b 303e 995e 51bf 8816 f1be
000000e0: 6b48 b3be 76a7 1cbf 99fd 01bf 890d 39be
000000f0: 7606 fdbf af62 debf 1e33 cb3e a941 98bc
00000100: 744c 7c3e 31ba a6bf b787 5540 7237 703f
00000110: 8bb2 053e fafb 883f 7dab bbbe 7103 ab3e
00000120: fdc5 0a3f 3974 d43f bcea b83f a4c9 ebbe
00000130: 647c eabe 88be 943f 9de5 8abf 1bf7 6c3e
00000140: 7eaa 5d3f 58b1 58bf ca37 d7bf 64fe e9bb
00000150: 9f70 94be 0f5a 6bbf 0692 e43f 017f 1bbf
00000160: ca42 68bf 046d 093f 143c 9c3e 17cd c73f
00000170: 514c e83f 7f49 2a3e 2c9c ad3f 4adb 7c3f
00000180: a4e4 05bf aec0 8c3f 05d2 bc3f 16e6 f4bf
00000190: f8fe cdbc a297 803f 1078 59bf 078a 23bf
000001a0: e40b 803f 1e65 82bf eacd 3b3e 0bb4 a03e
000001b0: a4c7 0ac0 f936 6abf 3c00 833f c634 18c0
000001c0: 7fbc 64bf 2dea aabd e457 02c0 b631 a4bf
000001d0: 46b4 c43e 33da 8d3f 19fe 8e3e 954d ff3f
000001e0: f1b8 06c0 e5ab 6b3e 8d71 bb3f 8e5b b2bf
000001f0: 772c 463e 1fa0 903f 46f4 85bf e61c 793f
00000200: 7333 ff3e c23f d8bf 9900 053f 6835 f0be
00000210: 185d 03c0 f555 2e3f 0d4a 0a3e 4664 efbd
00000220: 014f 893f ec91 0840 230f a3be 1513 52bc
00000230: 6a9f fc3f c62f 2abf d9c0 19bf b09d cd3f
00000240: 6b39 84c0 5c1d a9bd d44f de3e 318d 63bf
00000250: a1f2 74bf 4345 86be 96f0 9cbf 179f d5bf
00000260: 5a63 47bf 0616 893f b9ef 1bc0 7b20 b53d
00000270: d777 623f 0362 28c0 c964 9bbf 6aec 53be
00000280: 4ba0 cdbf 716f f23f 5462 99bd 7fad a2bf
00000290: 7edd 8e3f d561 e83d 3fbc 3cc0 43c8 90bf
000002a0: a80f fa3d ffeb 04c0 5eda 4fbf 2add c33f
000002b0: c572 c53e 3098 b2be 3676 a93e a4d4 353c
000002c0: 2f0d 9cbe 25a4 6ebe 175f 843c 9392 d9be
000002d0: 4927 883e 75e5 64c0 acdb e93e 3a59 093f
000002e0: 6565 4fc0 ecea eebf fa36 d13e b950 85c0
000002f0: a9cb 0dc0 6515 553e 54ba 04c0 0ad8 a73f
00000300: 260c 723f 83e2 27be 825e 05bf 7360 b23f
00000310: 9112 2fbf ce89 f6bf 9439 fb3e c7fe 803d
00000320: a5b3 2c3f f009 41be eb2d a6bc 7f62 73bd
00000330: 1e7e 0abf fca7 adbe a0d2 273f 7359 b43f
00000340: 9999 823d c8ea 89be 871f c03f d75f b53e
00000350: cbee b73d 3bc6 9e3f d037 4abf 44ab 5b3e
00000360: 3fff 80c0 454d 0bc0 2b1a b4bf a7d0 c13e
00000370: ab09 063f 87d6 0240 8465 82bf 1532 3a3f
00000380: 6bfc 413e afb4 df3f 6b72 1f3f 74f1 893e
00000390: e0df a0bf 06c4 9dbe a6fe 3f3f 5859 0cc0
000003a0: dfb9 463e 90eb a33f 331a 21c0 a982 dabf
000003b0: eb00 a7be 454e 45bf 73b1 e6be 2c97 b1be
000003c0: 5fc7 76bf ce82 c8be 96b1 193f fc11 303f
000003d0: d011 d6be ab77 3bbe f975 803f 9553 983f
000003e0: c5c0 483f cefb 85bf 9c56 28bf fa4c f7bf
000003f0: 9557 f5bf ea6a 4e3d eb5b 48bf bb77 b8be
-0.29154652 -2.0888054 -1.0751728 2.050108 -0.8129264 -0.51250494 0.07918094 -0.12783891
0.9008401 -0.787987 -0.2376713 0.8120058 -3.0922966 -1.2802439 -0.60819423 -0.35270682
0.16885512 -0.25216308 1.3010812 0.33861956 0.5580538 1.0319986 0.86510247 0.51256526
1.6715041 0.9064005 0.65190655 0.43663278 -0.03944299 -0.7595636 -2.2666345 -2.741692
0.42272836 -0.13486695 -0.40287647 0.86974156 -0.85515493 0.05303243 0.14747794 0.4853897
0.29276264 0.12283357 2.5682395 0.32095104 0.3184149 0.5069315 0.15466711 -0.68796676
-3.3421526 -2.997995 -1.791179 1.2102691 -0.0037987358 0.17228359 -0.8178497 -0.47087502
-0.35016188 -0.61193025 -0.50777584 -0.1807157 -1.9767597 -1.7373866 0.39687437 -0.018585997
0.2463854 -1.3025571 3.3364084 0.938346 0.1305639 1.0701897 -0.36654273 0.33401063
0.54208356 1.6597968 1.4446635 -0.46052277 -0.45798028 1.1620646 -1.0851322 0.23141138
0.86588275 -0.84645605 -1.68139 -0.0071409214 -0.28992173 -0.91934294 1.7857063 -0.6074067
-0.9072691 0.5368197 0.30514586 1.5609463 1.814829 0.16629599 1.3563285 0.9877211
-0.52302 1.0996301 1.4751593 -1.9132717 -0.025145993 1.0046275 -0.84948826 -0.6388249
1.0003629 -1.0187109 0.18340269 0.31387362 -2.168435 -0.9149013 1.0234447 -2.378221
-0.8935012 -0.08345447 -2.0366144 -1.282767 0.38418788 1.1082214 0.27928236 1.9945551
-2.105038 0.23014791 1.4644028 -1.393419 0.193529 1.1298865 -1.0465171 0.9730972
0.4984394 -1.6894457 0.51954037 -0.46915746 -2.052557 0.6809991 0.1350481 -0.116890475
1.0727235 2.1339064 -0.31847486 -0.012821932 1.9736149 -0.66479146 -0.6005989 1.6063747
-4.132009 -0.08257553 0.4342028 -0.88887316 -0.9568272 -0.26224717 -1.2260921 -1.6689175
-0.77885973 1.0709846 -2.4365065 0.08844086 0.8846411 -2.6309822 -1.2140132 -0.20695654
-1.6064543 1.8940259 -0.07489458 -1.2709197 1.1161344 0.11346785 -2.9489896 -1.1311115
0.122100174 -2.076904 -0.81192577 1.5301869 0.38564125 -0.34881735 0.33098 0.011098061
-0.30478808 -0.23304804 0.016158624 -0.4249464 0.26592472 -3.576505 0.4567541 0.53651774
-3.2405636 -1.8665442 0.40862256 -4.166104 -2.2155554 0.20808943 -2.0738726 1.3112805
0.9454979 -0.16395001 -0.5209733 1.3935684 -0.68387705 -1.9260805 0.49067366 0.06298595
0.67461616 -0.18851447 -0.020285567 -0.059420105 -0.5409869 -0.33917224 0.65555763 1.4089798
0.06376953 -0.26936936 1.5009621 0.35424682 0.08981093 1.2404245 -0.78991413 0.21452051
-4.031158 -2.1765912 -1.4070486 0.37854502 0.523585 2.0443437 -1.018723 0.7273267
0.18943946 1.7477015 0.6228396 0.26942027 -1.2568321 -0.30813617 0.7499794 -2.192953
0.19406842 1.2806263 -2.517224 -1.7071124 -0.32617888 -0.77072555 -0.45057258 -0.34685647
-0.96397966 -0.39162296 0.600366 0.6877744 -0.41810465 -0.18307368 1.0036002 1.1900507
0.7841914 -1.046747 -0.65757155 -1.9320366 -1.9167353 0.05039493 -0.78265256 -0.36028847

conv2.bias f4 [16]
00000000: a25f 8dbe 4721 92be 8402 a4be 775c ccbf
00000010: 9f68 273e e49c 72c0 862e 7ac0 39b8 ee3f
00000020: 94d7 8f3f 2e0a fabf badf f7bf db90 1bbf
00000030: 1b74 fb3f f82f 1ac0 45b6 64be 0482 3ac0
-0.27612025 -0.28541014 -0.3203317 -1.5965718 0.16348504 -3.7908258 -3.9090896 1.864997
1.1237664 -1.9534357 -1.9365151 -0.60767907 1.9644808 -2.4091778 -0.22335155 -2.9141855

bn2.weight f4 [16]
00000000: a2fd 2440 f0d4 1c40 a60a a93f f7c5 923f
00000010: 6a57 513f 7f0b e83f 3095 ba3f 2d74 893f
00000020: f9cf 4940 f363 7b3f 3c4e ca3f fe00 b63f
00000030: 5991 0040 0215 cd3f 56fa 3e3f 65a7 b93f
2.5779805 2.4504967 1.3206375 1.1466664 0.8177401 1.8128508 1.4576778 1.0738579
3.1533186 0.98199385 1.5805125 1.4219053 2.0088713 1.6022036 0.7460073 1.450421

bn2.bias f4 [16]
00000000: 8381 723e 73ee bb3e ce9d 5abf 655e 0ebe
00000010: 053d 13bf 8f9b 8b3e 7973 af3e 27b5 98bf
00000020: f3c1 153d 5178 a73e aab7 b33e 3867 83be
00000030: d1e6 94be 42df 303f 671b d03e 9c8c a13e
0.23682217 0.3670536 -0.8539704 -0.13903196 -0.57514983 0.2726712 0.34267786 -1.1930283
0.036561918 0.32708982 0.35101062 -0.25664687 -0.2908235 0.69090664 0.40645906 0.3155259

bn2.running_mean f4 [16]
00000000: 1d23 fe3f 90db 8040 7a9f 3842 90d2 0241
00000010: 3c87 e341 f0cf 8740 a571 dc3f c858 9641
00000020: af8f 2e40 fa74 0d41 1edc c53f ade5 1940
00000030: 01d0 8940 9a21 ba3f 9987 4f41 4c42 1942
1.9854466 4.026802 46.15574 8.176407 28.441032 4.244133 1.7222182 18.79335
2.7275198 8.841059 1.54578 2.4046433 4.306641 1.4541504 12.970605 38.314743

bn2.running_var f4 [16]
00000000: ae6e 5242 093a 4443 6483 c043 d9ee 1d43
00000010: 5b40 d743 7208 3d43 6b9a 0642 7ac0 ab42
00000020: b080 a942 9e97 4543 4e5b 0842 c2fc 7542
00000030: b6b4 1643 a42f db41 7765 9e42 193d a743
52.608086 196.2267 385.0265 157.933 430.50278 189.03299 33.6508 85.87593
84.75134 197.59225 34.089165 61.496834 150.7059 27.398262 79.19817 334.47733

conv3.weight f4 [32, 16, 3, 3]
00000000: 02c5 df3f ceb6 62bf 565d 94bf 1d5f 2cbf
00000010: 0a74 93bf 8aa4 3a3f 992a b4bf cdec 17bf
00000020: 06a9 d53d d653 2e3f 327e 043f a1dd 02bd
00000030: 1870 0c3f 020d a73f 11b5 2140 9af9 bcbd
00000040: 2c0b 0840 372d 0840 1279 93bf 000d 0940
00000050: 176b 6c3f 03ad 8d3f 15fb 2140 d265 5c3f
00000060: 7ea1 3840 a8f2 3940 98c7 d83e 51fa 37c0
00000070: 2d57 1cc0 baab 933f 8828 6dbf 78b6 7e3f
00000080: 84d8 0b3f ce69 2bc0 31b1 1dbe d6d5 36bd
00000090: 839c dc3f 765b 743e 0805 05bf a859 c83f
000000a0: 1b4f 38bf e496 7b3d 659d 2340 2794 6b3f
000000b0: 3e1a 8cbf 1790 36c0 4061 bd3f e40c 2e3d
000000c0: 218e 02c0 03a3 71bf 8d42 a83f 6209 2ac0
000000d0: 9ddd 223f 444f f13f 78a6 393f c7b1 8c3f
000000e0: 991f 273d a284 c1be c300 6b3e a807 003e
000000f0: 2e45 a7bf 9740 c83f 789f 383f bc01 343f
00000100: 90b5 c43f 15e5 6b3f 5c56 3140 5c7e 933f
00000110: 5334 2f3f c43f 0940 8413 8d3f 312d df3f
00000120: a873 8c3f 727d 753f 3805 8fbf dbc6 963e
00000130: 89ec fbbe a3bd 0f3f c66d bebf 9c1a dcbf
00000140: fd6d 1c3f e94f febf 961b ebbe 1ee1 92bf
00000150: 7ec7 dcbf f80f 093f 1d9d 653e 11eb 3dbf
00000160: b734 a43f 93c2 6c3f d352 a7bf df73 e5bf
00000170: 8d45 853e bdf0 44c0 1e7a 74bf ba8f e3bd
00000180: ab01 10c0 b8fb ef3d 6260 ad3e 56e3 6d3f
00000190: b27c 12c0 44fb 953f b22e 04bf e3c5 7c3f
000001a0: 9802 0cbe 95ad c3bf 4dfb c93f ea8d dd3e
000001b0: 7eac 3f3e 95f9 d6bd 7295 1ebe 09a7 5a3f
000001c0: 4011 e83e 8a92 1c3f 956f bf3f 208d 433f
000001d0: 0cad 6d3e 2e2f 3c40 1b08 183f 84b1 b5bf
000001e0: 599e 2bbd 216e 243f 81f2 913d 3fcf 2dc0
000001f0: d52d 8dbb 5462 4fbe 8730 59c0 ed87 84bf
00000200: 8ac8 cd3e 52b2 1ac0 d77b 47be 0ab8 183e
00000210: ecbb bbbe 1ae9 a33f 63fc a43f 0ed0 3abf
00000220: 40f2 abbe beaa 073f 14dc ce3e 0b4f 1dbf
00000230: ee6b 923f 6f41 f63f 4136 19be b6f4 813f
00000240: e6ad 673f d3d5 55be 3135 073f b4d5 0040
00000250: 3864 e33f bf7c 493f 4912 1c3f c752 003f
00000260: 51dd ce3e d5a7 d4be bb15 9d3e 3e88 6abf
00000270: 7c0f 1dbf 38be 88bf f016 73bf 6f8e 003f
00000280: 04c3 26c0 a9e9 8fbe a92c 96bd 4f1a a5bd
00000290: d7ed 8c3f e2b9 97be 3ad8 6e3d e121 b03e
000002a0: 5f6c 6abf f94f 2ebe e23c 263f d89a d93e
000002b0: 303a 863e 3f5e 79be f038 3d3f 76fa 8bbe
000002c0: 8135 c3be fd46 aec0 d9f5 11c0 4b00 4bbe
000002d0: 5cf0 7fbe cdb1 843f 4c92 da3d 1cf8 01c0
000002e0: 87c8 5cbe fcc6 84bf 80f6 aabf 67b4 d7be
000002f0: 5b2b d6bf 5c4c debe 731c 403e 26f0 9b3f
00000300: 561d 0a3f 7865 713f a150 4e3f 8d7f d73f
00000310: 0b99 013d 465e bfbf 83ac 5f3e 8e7f 5fbf
00000320: 4ea8 1fbf 2785 e3bf c567 be3e 29c2 7dbf
00000330: d0bf 8b3f f858 573e 3249 52bd cf66 ae3e
00000340: 215e 143f c76b 1e3f 512d 4f3e f23d 84be
00000350: 94dd 943e 15d5 c03e b341 ab3f 0eff 7c3f
00000360: 639a df3e c1db 5c3e 24c1 ee3e 60c7 473e
00000370: 3fc5 5ebf 80fd 623e a2ba 6ac0 fce4 a5bf
00000380: 0f76 c4bf d967 ecbe 2a20 c13f 4b9d 9d3f
00000390: d217 3bc0 2189 eabe 3367 80be 31b6 20bf
000003a0: 5d98 b43c abf7 05bf 0979 5fbd c038 893e
000003b0: dae9 8e3f e6c5 09c0 9c8c 4fc0 4444 29c0
000003c0: 239b 7a3d c22c 463f 367a 5bbf 33eb 4d3f
000003d0: bcc9 833f b258 5cbf 75f6 5fbd cacd f03d
000003e0: 6cb7 2f40 8731 9a3e 1d2b 23c0 8f60 8e3e
000003f0: cbf2 ae3f 74ef a6bd 1dcf 103e 3d72 233f
1.7481997 -0.8856019 -1.1590984 -0.6733263 -1.1519787 0.72907317 -1.40755 -0.59345704
0.10432629 0.68096673 0.5175506 -0.031949643 0.5485854 1.3050845 2.5266764 -0.09227295
2.1256819 2.1277597 -1.1521323 2.1414185 0.92350906 1.1068424 2.5309498 0.86092865
2.8848567 2.9054356 0.42339778 -2.874653 -2.4428208 1.1536782 -0.9263997 0.99497175
0.5462725 -2.6783328 -0.15399624 -0.044637524 1.7235264 0.23863015 -0.519608 1.5652361
-0.71995705 0.061423197 2.5564816 0.9202294 -1.0945508 -2.8525445 1.4795303 0.042492762
-2.0399249 -0.9438936 1.314531 -2.6568227 0.63619405 1.8852315 0.72519636 1.0991753
0.04080162 -0.37796503 0.2294951 0.1250292 -1.3067987 1.5644711 0.7211833 0.70315146
1.5367908 0.92146426 2.770896 1.1522937 0.68439215 2.144517 1.1021581 1.7435666
1.0972795 0.9589454 -1.1173468 0.2944859 -0.492039 0.5614874 -1.487725 -1.719562
0.6110533 -1.9868137 -0.45919484 -1.147495 -1.724838 0.5353999 0.22423215 -0.7418681
1.2828587 0.92484397 -1.3072151 -1.7925986 0.26029626 -3.0771935 -0.95498836 -0.11111398
-2.2501018 0.117179334 0.33862597 0.9292501 -2.2888608 1.1717305 -0.5163375 0.9873945
-0.13672864 -1.5287348 1.5779816 0.43272334 0.18718144 -0.10496823 -0.15486696 0.85411125
0.4532566 0.611611 1.4955927 0.76387215 0.23210543 2.9403796 0.5938737 -1.4194798
-0.04189906 0.64230543 0.07126332 -2.7157743 -0.004308442 -0.20252353 -3.3935869 -1.0353981
0.40192062 -2.4171338 -0.19480835 0.14913955 -0.3666681 1.2805512 1.2889522 -0.72973716
-0.3358326 0.52994907 0.4040228 -0.61448735 1.1439188 1.9238719 -0.14962102 1.0152805
0.9049972 -0.20882349 0.5281554 2.0130434 1.7764959 0.7870597 0.609654 0.5012631
0.40403226 -0.41534296 0.30680642 -0.9161414 -0.6135175 -1.068305 -0.94956875 0.50217336
-2.6056528 -0.28107956 -0.07332737 -0.080616586 1.1010083 -0.29634005 0.05831168 0.34400848
-0.9157161 -0.17022695 0.6493665 0.4250095 0.2621627 -0.24352358 0.73915005 -0.27339524
-0.38126758 -5.4461656 -2.2806304 -0.1982433 -0.24994034 1.036676 0.10672435 -2.0307684
-0.2156087 -1.0373225 -1.3356476 -0.42129824 -1.6731981 -0.43417633 0.18760853 1.2182662
0.53951013 0.94295454 0.8059178 1.68358 0.031640094 -1.4950645 0.21843152 -0.8730401
-0.6236619 -1.777501 0.37188545 -0.9912439 1.0917912 0.21030033 -0.051339336 0.34062812
0.5795613 0.61883205 0.2023213 -0.2582851 0.290753 0.3766257 1.3379425 0.9882668
0.43672475 0.21568204 0.4663173 0.1950965 -0.87019724 0.22167015 -3.6676412 -1.2960505
-1.5348529 -0.4617298 1.5087941 1.2313627 -2.9233289 -0.45807746 -0.25078735 -0.62778
0.022045309 -0.52331036 -0.054558787 0.2680111 1.1165116 -2.1527038 -3.242957 -2.6447916
0.061183106 0.77412045 -0.85733354 0.8043701 1.029594 -0.8607284 -0.0546784 0.11758001
2.7455702 0.3011591 -2.5495064 0.27808043 1.3667845 -0.08151141 0.14141507 0.6384619

conv3.bias f4 [32]
00000000: d94d e4bf b30a f0bf 54de dfbf f389 353f
00000010: 8679 acbf 8593 fbbf f456 fabf a19d f4be
00000020: abe5 2fc0 da7e 29bf b306 edbe b83f 10bf
00000030: 5589 91bf 18ed abbf ee51 04bf 09bf 32c0
00000040: 5cea 07bf f011 36c0 ae70 693f 1ec5 e4bd
00000050: 0aac 28c0 80f2 bb3c c00e 0dc0 4222 81bf
00000060: 03d4 40bf 917b 06c0 7167 bd3d 8b9a a7bf
00000070: 3582 31c0 4a18 92bf 7cd0 9bbf 2f3e 12c0
-1.7836257 -1.8753265 -1.7489724 0.7091362 -1.3474586 -1.9654394 -1.9557786 -0.4777651
-2.7483928 -0.66209185 -0.46294174 -0.5634723 -1.1370035 -1.343173 -0.51687515 -2.7929099
-0.5309198 -2.8448448 0.9118756 -0.111704096 -2.6355004 0.022942781 -2.2040253 -1.008858
-0.75323504 -2.101292 0.092482455 -1.3094038 -2.7735722 -1.1413662 -1.2172999 -2.2850454

bn3.weight f4 [32]
00000000: bb4c 0e40 7a97 983f d581 c63f 2292 d53f
00000010: 5a44 9f3f 3ba3 d43f 225d ef3f 1cf7 e33f
00000020: 4e14 d13f 12d3 903f 7aa9 0740 7836 ab3f
00000030: 4d54 0a40 ac90 e53f a985 0040 4493 b13f
00000040: d12a e53f f81c ca3f eba7 f73f afc4 0740
00000050: 9149 b13f 4cda 0640 d044 0240 3721 da3f
00000060: 072a d03f 75da a03f 6896 bf3f a017 c53f
00000070: 57cf bd3f f917 e13f abff a73f 1f4b bc3f
2.2234333 1.1921227 1.5508372 1.6685221 1.2442734 1.6612314 1.8700297 1.7809787
1.6334321 1.1314414 2.119719 1.3375998 2.1613953 1.7934775 2.008158 1.3873067
1.7903692 1.579009 1.934812 2.1213796 1.3850576 2.1070738 2.03545 1.7041386
1.6262826 1.2566668 1.4967775 1.5397835 1.48289 1.7585441 1.3124899 1.4710425

bn3.bias f4 [32]
00000000: 0639 9abf 5888 94be f9af 11bf f796 fdbe
00000010: 7e11 1abf 09e4 913f 2a90 ba3e 1939 9b3f
00000020: 5d30 003f 617a be3f 4157 793f be32 3d3f
00000030: 986b 833f 5f58 87bf d106 213f 9c32 783f
00000040: 397f cc3e 2927 243d 7fc1 473f 5107 853f
00000050: 964d 08c0 e070 233f 4453 8ebd e3a0 f63d
00000060: 334f 233d 8a8b 393e 1fbf 96be 21b2 2ebf
00000070: d4d5 173e c743 ddbf 0231 313f 245c 3bbe
-1.2048652 -0.29010272 -0.5690914 -0.4952924 -0.6018294 1.1397716 0.36438113 1.21268
0.50073797 1.4881097 0.97398764 0.7390555 1.026721 -1.0573844 0.62901026 0.96952224
0.39940813 0.04007641 0.78029627 1.0392858 -2.1297355 0.6384411 -0.069494754 0.120424055
0.039870452 0.18119636 -0.2944269 -0.68240553 0.14827663 -1.7286309 0.69215405 -0.18296868

bn3.running_mean f4 [32]
00000000: 83a0 a23f e75b 563f 927a fc3f d8de e540
00000010: b0a8 8240 780c a240 64fc ea3f f6c0 c640
00000020: 6ef6 6b40 12a5 9a40 100c 7040 5e30 0b41
00000030: 7dcc 5d40 aacc 9a40 1cd9 2040 f6f6 1d3f
00000040: 21a5 4040 0dd4 8340 78be 5c41 9f2f 1140
00000050: f8a2 fd3f 95ff c240 44be 5e3f 5eb1 e840
00000060: 7d19 a140 f523 bf3f b7a2 0240 a92e 2341
00000070: 6573 1340 e43a b240 2fcb b140 caac 2540
1.2705234 0.8373398 1.9724905 7.1834526 4.0830917 5.064022 1.8358274 6.211055
3.6869159 4.83265 3.7507362 8.699308 3.465606 4.8374834 2.5132513 0.6170496
3.0100787 4.119635 13.796501 2.2685316 1.9815359 6.093699 0.8700907 7.2716513
5.0343614 1.4932848 2.0411813 10.198892 2.3039181 5.569689 5.5560527 2.5886712

bn3.running_var f4 [32]
00000000: a6f6 b742 59f7 eb41 6665 a142 332f 1843
00000010: 1a1c e642 ad87 4c43 f8a3 aa42 37c6 9e42
00000020: 6ee5 6043 edb8 a042 c7a7 4443 bb57 7d42
00000030: 6cf4 8943 1a84 7543 8cbc 4743 904a fe41
00000040: 9bc8 b442 fb85 ab43 6f1b 1443 dca9 d742
00000050: 6df3 5b42 2a13 4843 318c 3d42 ad95 6343
00000060: fdd1 4b43 07b4 1242 0615 7a42 d779 0143
00000070: 3510 0443 e658 0143 0752 a842 3dad 9a42
91.981735 29.495775 80.698044 152.18437 115.054886 204.52998 85.32025 79.38714
224.89621 80.36118 196.65538 63.335674 275.90955 245.51602 199.73651 31.786407
90.39181 343.04672 148.10716 107.83176 54.98772 200.07486 47.386906 227.58467
203.82027 36.675808 62.52053 129.47594 132.06331 129.34726 84.16021 77.338356

conv4.weight f4 [64, 32, 3, 3]
00000000: 0529 c43f a36d c43d bc35 3cbf 1c4c b33f
00000010: 1798 31bd e53e d3bf 8268 e43e efda 64c0
00000020: a748 a6bf c795 b3be 1039 2d3f fbd4 9bbf
00000030: 1209 5c3e 9dd8 853e 2c5b d3bd 46e7 113f
00000040: 32b8 afbe 47b8 463f 5627 2ebd af41 3040
00000050: 72ae 253f a5e4 40bf 2647 df3e 9b9a 20bf
00000060: 900a 07bf 40b1 bfbd 67bb fabc d2e5 0dc0
00000070: c2bd d7bf 196e bb3f 7135 843f 9461 4bbe
00000080: f54c babf e083 4b3f 234d 153f e307 25c0
00000090: c40d 4fbe 4660 1dbf 7957 48bf 0516 f8bd
000000a0: 65f8 7ebf 59c9 20c0 a024 993e 2e04 993f
000000b0: d756 f3bf df33 8abe 9abd 01bf 0ec3 953f
000000c0: 2540 c4bd bb8e f8be e5b9 ac3f cc44 6a3f
000000d0: 59d7 9abf 2c97 853c ab8d f2bf d82a 133f
000000e0: b278 b1be 8055 223f 2357 b93f 29e8 cd3e
000000f0: f411 e63d 8525 6cbf db8e 533f 42df 63bf
00000100: dee1 26c0 bbe0 57bf ea38 09c0 92b3 ab3f
00000110: 995e bd3f 1b54 aebd 6816 36be a17f 8ebf
00000120: 8e1e 4cbf 813a 303f 1679 d43d 3f64 45be
00000130: 2e69 bc3e fde1 2b3f 1800 0bbe b55b dcbe
00000140: 3389 0a40 0772 55bf aa80 8abf c6f7 b8be
00000150: eaa0 6b3f a8b7 d43f 5915 cf3e 5055 c4bf
00000160: 9195 4bbf ec8f e83f 5138 88bf fb0a 4ec0
00000170: b2d6 fdbf 8f93 1540 a4b6 11be 545a 24bf
00000180: 0e3b 423f 5cf8 2dc0 c940 6ebe 675b b6bf
00000190: f92e b8be 5a5b 443f 349c b03f dd60 44be
000001a0: d3e3 39bf 36ca 4cbe f51e 953f 95e9 8c3e
000001b0: 0fb3 353f 5b0d 69be 0321 83bf 7047 f9be
000001c0: 7e1f adbe 8b4b 51bf 2597 c93e e30b 7dbf
000001d0: 410e 95bf f989 0fbe bf4c 8e3f 72e5 953f
000001e0: d1c1 223f 5d55 04bd a555 ab3e a2fc 30bf
000001f0: c01a 64be c57b acbf b51a 42bf 74d5 4ebf
00000200: 7f46 7a3d ecd2 1e3f 8458 8e3f 3dae 47c0
00000210: 57bc d53d 2c96 b7bf 26ed 2fc0 7d37 f4be
00000220: 6bb3 1dbf 39db cfbf 5a8f a8be a497 28c0
00000230: 40b6 89be 908e 343e 20df b1bf 6a15 f7be
00000240: 37c7 4bbe a37e 843f d7ce 19be 7bd2 80bf
00000250: fabc f53e 015c 6fbe eb2c 033f 57e2 d63f
00000260: 3d19 8abf 2651 cc3e 0f40 d13f a199 f9be
00000270: ad96 7bbf 6108 ab3f f394 b3c0 9c97 e9bf
00000280: b43b d1bf b2c0 ebbf bdfa be3f c6ec f23f
00000290: 1217 2d3f 8776 f2bf ec6d 23bf ac50 1dbe
000002a0: 717e f8bf bc72 73bf 0827 db3e bbda b43d
000002b0: 848f fd3e ac74 a63f c27e e2be 74bd eabd
000002c0: f11c b1bf 548d 513f a61b 923e 05b4 44c0
000002d0: 5336 d93e a937 8fbe 2991 4a3f 36c2 ed3e
000002e0: f92d 983f 5e4b 1a40 ea0f b73f 9ea6 d03f
000002f0: a32f ac3f f63b a6be 22fe e33e c519 64be
00000300: 87d9 2fbe c5d7 75be 10be 1b40 5021 ad3e
00000310: 0422 b1bf c6c5 9f3f 0eb0 0cc0 a98b bb3e
00000320: e3c7 a63e b14b d93f 5d20 c93f 3d21 20c0
00000330: 1c98 4f3e 9ab0 a9be 7ccb f3bf 2944 96bf
00000340: b384 bd3d b4c8 b23f 1080 88bf 02b2 05be
00000350: 2cc6 c63f d491 b93e 9198 fb3e c61c 28bf
00000360: 5788 9c3f 49a4 50bf 8e97 48bf 772d 423f
00000370: 7e42 203c 28c8 f03e 935b 883f 1f52 16bd
00000380: 4293 c7bf 2d2e 8a3f 4c6b fcbf 5d9e 91c0
00000390: 4a5c 90bf aaac 05c0 d305 903f e5f6 e6bd
000003a0: 169c 273e 5361 a8bf 7d34 9bbf 8322 663f
000003b0: e509 223f 9524 1f3f a95d 523f 1453 4cbf
000003c0: 63da e0bf ec26 763f 09b3 c73e 494c a5bf
000003d0: 45a4 1d3f 60b7 4cbf f451 363f 529d c23f
000003e0: fc23 fd3e be8d 89c0 7efd 33be 8b6a b13f
000003f0: ea22 19bf c348 48bf 4ff6 e0be 8820 c9be
1.5325018 0.09591224 -0.7351949 1.4007602 -0.043357935 -1.6503569 0.44610983 -3.5758626
-1.2990922 -0.3507521 0.67665195 -1.2174371 0.21487835 0.26141825 -0.10320124 0.5699352
-0.34320217 0.77624935 -0.042517982 2.754009 0.6471931 -0.75348884 0.4360897 -0.6273591
-0.5275049 -0.0935998 -0.030606939 -2.217152 -1.6854784 1.4642974 1.0328809 -0.19861442
-1.4554735 0.794981 0.58320826 -2.5786064 -0.20220095 -0.61475027 -0.7825847 -0.12113575
-0.9959777 -2.5122893 0.29910755 1.19544 -1.9010876 -0.269927 -0.50679934 1.1700151
-0.09582547 -0.48546395 1.349423 0.91511226 -1.2096969 0.016307436 -1.8949484 0.5748725
-0.34662396 0.6341171 1.4479717 0.40216187 0.11233893 -0.9224475 0.82639855 -0.8901254
-2.6075358 -0.84327286 -2.1440988 1.3414176 1.4794494 -0.085121356 -0.17781985 -1.1132699
-0.7973412 0.6883927 0.10374658 -0.19276522 0.36798996 0.67141706 -0.13574255 -0.43038717
2.164624 -0.83377117 -1.0820515 -0.36126536 0.9204241 1.6618547 0.40445974 -1.5338535
-0.79525095 1.8168921 -1.0642186 -3.2194202 -1.9831145 2.3371313 -0.14229828 -0.6420033
0.7587136 -2.7182837 -0.23266901 -1.4246644 -0.35973337 0.7670189 1.379767 -0.19177575
-0.7261326 -0.19999012 1.1650072 0.2752196 0.70976347 -0.22759001 -1.0244449 -0.48687315
-0.3381309 -0.81755894 0.39373127 -0.9884626 -1.1644975 -0.14017476 1.1117171 1.1710646
0.6357699 -0.03230797 0.3346378 -0.6913549 -0.2227583 -1.3475271 -0.75822 -0.80794454
0.061102387 0.6204059 1.1120763 -3.1200097 0.104363136 -1.4342704 -2.7488494 -0.47698584
-0.61601895 -1.6238776 -0.3292187 -2.6342554 -0.26896858 0.17632508 -1.3896217 -0.48258525
-0.19900213 1.0351146 -0.1502031 -1.0064234 0.4799574 -0.2337494 0.51240414 1.6787823
-1.0788952 0.3990566 1.6347674 -0.48750022 -0.9827679 1.3361932 -5.6119323 -1.8249393
-1.6346345 -1.8418181 1.4920269 1.8978508 0.6761333 -1.8942422 -0.638396 -0.15362805
-1.9413587 -0.95096946 0.42803216 0.08830782 0.49523556 1.3004355 -0.44237334 -0.114619166
-1.3836957 0.81856275 0.2853672 -3.0734875 0.4242426 -0.27972153 0.79127747 0.46437234
1.188903 2.41085 1.4301732 1.6300848 1.3452038 -0.32467622 0.44529825 -0.22275455
-0.17172824 -0.24008091 2.4334755 0.33814478 -1.3838506 1.2482231 -2.1982455 0.3662999
0.32574376 1.6976224 1.5713001 -2.5020287 0.20272869 -0.3314255 -1.9046474 -1.1739551
0.09253826 1.39675 -1.0664082 -0.13056186 1.5529227 0.3624407 0.49139836 -0.65668905
1.2229108 -0.8150068 -0.78356254 0.75850624 0.009781478 0.47027707 1.0652946 -0.03669941
-1.5591815 1.0795342 -1.9720244 -4.5505815 -1.1278164 -2.0886636 1.1251777 -0.1127756
0.16368136 -1.3154701 -1.2125393 0.8989641 0.6329635 0.62165195 0.82174164 -0.7981427
-1.7566646 0.9615314 0.3900378 -1.2913905 0.6157878 -0.7996731 0.712188 1.520426
0.49441516 -4.2985525 -0.17577168 1.3860639 -0.598189 -0.78236026 -0.4393792 -0.39282632

conv4.bias f4 [64]
00000000: 32c7 9dbe 57cf 41c0 54fa c03c 66a6 50be
00000010: f40f 8abf a4f1 08c0 bf88 cdbe 1cd7 cfbe
00000020: 7571 09bf 6548 65bf 5a96 c7bf f35e afbf
00000030: 7f33 a43d 6ded 7fbe 54b4 b3bf d321 90bf
00000040: 29bf 8dbf ba7d aabf 74e9 7f3e 7b40 8ebf
00000050: 763a 063f ce86 403e 39bf 22c0 9c10 9bbf
00000060: c28a 2bbf 473a fdbd 71ff 08bf ef0b a7bf
00000070: a9e5 b6bf b1d3 35bf 9df0 4fbf 7aa7 cfbe
00000080: 88b4 013c ff5e c5be 866a 93bf 4c1d 4fbf
00000090: a080 09bf 4867 e43d e517 b6be e81a 01bf
000000a0: 9a3f 12bf 4228 05c0 aedf 5abf 2c0a 903f
000000b0: 6764 66bf a6fd 9fbf bff4 9dbf 4fc0 bd3e
000000c0: 56b6 dfbe bd77 b23e 461b cabf 73de 3dbf
000000d0: a6e6 24bf 8f11 edbf a676 cfbf 03ab 22bf
000000e0: 8869 e73e c426 27bf 90d5 b8bf 4260 adbf
000000f0: 1f44 85bf 5853 14c0 e69e 0ec0 e924 8ebf
-0.30816036 -3.02828 0.023556866 -0.20375976 -1.0786119 -2.1397486 -0.4014339 -0.40593803
-0.53688747 -0.8956359 -1.5592759 -1.3700851 0.080176346 -0.24992914 -1.4039407 -1.1260322
-1.1073962 -1.3319619 0.24991399 -1.1113428 0.52432954 0.18801424 -2.5429213 -1.2114444
-0.670086 -0.12364631 -0.5351477 -1.3050517 -1.4288837 -0.7102614 -0.8122652 -0.40557462
0.007916577 -0.3854904 -1.1516883 -0.8090408 -0.5371189 0.11152512 -0.35565105 -0.5043168
-0.571283 -2.0805821 -0.8549756 1.1253104 -0.8999695 -1.2499282 -1.2340316 0.37060782
-0.436938 0.34856978 -1.5789573 -0.74167556 -0.6441444 -1.8520983 -1.6208084 -0.63542193
0.451977 -0.65293527 -1.4440174 -1.3545 -1.0411414 -2.317587 -2.2284484 -1.1105014

bn4.weight f4 [64]
00000000: 60dd 8640 86e3 8c40 46b1 bd3f 5c50 9240
00000010: 9e26 8840 fb12 5540 5e73 9c40 2e42 4f40
00000020: 0d16 5740 1b67 7c40 05e4 8240 383e 6240
00000030: fe94 ac3f 94f0 8240 41ce 8040 60e6 4240
00000040: 1317 5040 0e61 9740 81f0 9540 1cac 3440
00000050: 22ec 8e40 335d bd3f 720f 9840 01f0 7440
00000060: 03e0 a440 4e2d 4940 27b8 9c40 3eb0 8c40
00000070: d6dc 8140 705f 4d3f 1641 ad3d e4b6 a93f
00000080: 0801 8b40 34a1 0240 f396 6540 b734 7640
00000090: cdf6 be40 1474 6e40 7e03 6c40 cdd1 9740
000000a0: 3366 8840 215d 6240 2352 6e3f 0375 a740
000000b0: 2d77 a140 f41a 8d40 24b7 8140 921f b940
000000c0: d828 8440 d95b 9b40 d296 4c40 521f 7140
000000d0: c354 3e3f db22 8240 8889 8340 8289 2140
000000e0: 7fa0 a240 f302 8140 9775 4b40 f938 8d40
000000f0: 21f6 8640 4591 8b40 8f01 8140 b0f8 8140
4.2145233 4.402774 1.4819725 4.5723095 4.254714 3.3292835 4.889083 3.2384143
3.3607209 3.943793 4.0903344 3.5350475 1.3482969 4.0918674 4.0251775 3.045311
3.2514083 4.7305975 4.6856084 2.8230047 4.466325 1.4794067 4.7518854 3.8271487
5.152345 3.1433902 4.8974795 4.396514 4.0582075 0.8022375 0.0845968 1.3258939
4.343876 2.041089 3.5873382 3.8469675 5.967627 3.7258348 3.6877131 4.7443604
4.2624755 3.5369341 0.9309408 5.2330337 5.045798 4.40954 4.053606 5.785104
4.129986 4.854962 3.1967053 3.7675366 0.74348086 4.066755 4.1105385 2.5240178
5.082092 4.03161 3.179052 4.4132047 4.217545 4.361483 4.0314403 4.0616074

bn4.bias f4 [64]
00000000: 078f c03e fa51 743e 7dcb 3b3d 3519 223e
00000010: 3aae 353c 7ef7 a53e 2bd3 d33e 1e2d 48bd
00000020: 0369 873e 0012 263c e25d 283d abba 933e
00000030: d7f5 e83d 1e38 863e 4c3d 2a3e 91fc 1b3e
00000040: c209 eb3c 3763 d7bc 707b 1d3d eb23 273e
00000050: e62e dc3b 8945 8c3a 103e b63e 723a e13d
00000060: a8e4 003e e832 453d a38d 343e 2ff9 473e
00000070: 0428 a83e be50 403d 8d49 e83a abef 0b3e
00000080: b740 3b3e 6a22 f43d 132f ee3d 5b19 a83c
00000090: 486f 923e 39e7 aa3d c36d bd3d 749a e73d
000000a0: 3e78 4d3e e2ff 22bc fe29 823e cfea 473e
000000b0: 819f 713e d4a2 123e b42b a23e 5bd4 8b3e
000000c0: dbf5 ed3d eb8c 9dbd 38aa a73d c7ba 2b3e
000000d0: 7470 fb3c 321c 543e f243 9d3e 831d 143c
000000e0: 050b a83e 8d48 febb 37c2 493e a223 283e
000000f0: 0dcd cf3d ee3f ca3e 408e b13d 00e1 243d
0.3760912 0.23859397 0.04584836 0.15829928 0.011088902 0.32415384 0.41372046 -0.048871152
0.26447305 0.0101361275 0.04110516 0.28853354 0.11375015 0.2621469 0.16624945 0.15233065
0.028691176 -0.026292427 0.038447797 0.16322295 0.006719458 0.0010701875 0.35594225 0.10997476
0.12587225 0.04814425 0.17632155 0.1952865 0.3284303 0.046952 0.0017722115 0.13665645
0.18286406 0.119206265 0.116300724 0.020519903 0.28600526 0.083448835 0.09249451 0.113087565
0.200654 -0.0099487025 0.25422662 0.19523166 0.23596002 0.14319927 0.31673968 0.27310452
0.11619159 -0.076928936 0.081867635 0.16770469 0.03069327 0.2071388 0.307159 0.009040239
0.32820907 -0.0077601136 0.19702993 0.16419843 0.10146532 0.395019 0.0866971 0.04025364

bn4.running_mean f4 [64]
00000000: b46b c33f f6fd 433f 577e 7142 d16e 623f
00000010: e37b 0b3f d8ac 9e3f f878 3240 4dde 863f
00000020: f00a 2b3f d364 cc3e bfb3 453f 3243 873f
00000030: 5064 f341 eb7f 963f 7e51 633f 2702 9f3f
00000040: d695 cc3e ddb9 ca3e 52df 5f3f 8f81 403f
00000050: 5cbf 403f cc33 9642 d3e9 e13f 42f1 873f
00000060: 6fc5 be3e 4e31 483f ab7f 8c3f 20f3 d73e
00000070: b3ed 393f 1cc3 2840 4ddc 8c3e 942a 6f40
00000080: e039 233f 6cc7 7840 87cd d43e 531e 283f
00000090: ffc7 3f3f e645 933f 8435 813e 3eb4 ea3e
000000a0: c1f6 513f 8e81 8f3f 6697 0741 5f8c 743f
000000b0: d880 0e3f ecf9 233f bb87 d73e f258 bf3f
000000c0: d549 843f 1a00 a63e cb63 b73e 9793 ee3f
000000d0: 04c3 2741 6cfc dd3e ca98 693f 2cac 4540
000000e0: 9cf0 603f 4f58 1c3f 8862 1240 e756 363e
000000f0: 56f0 313f 07a4 f53f 2c95 613f d7a1 7e3f
1.5267243 0.7655939 60.37338 0.8845034 0.5448591 1.2396498 2.7886333 1.0536591
0.66813564 0.39920673 0.77227396 1.0567381 30.42398 1.1757787 0.8879622 1.2422532
0.39958066 0.39594927 0.87450135 0.7519769 0.7529199 75.101166 1.7649482 1.0620501
0.37260005 0.78200233 1.0976461 0.42177677 0.72628325 2.6369085 0.27511826 3.7369738
0.63760185 3.8871717 0.41563055 0.6567127 0.74914545 1.1505706 0.25236142 0.4584064
0.8201714 1.1211412 8.4744625 0.9552669 0.5566535 0.64053226 0.42095742 1.4949019
1.0335032 0.32421952 0.35818323 1.8638791 10.485111 0.43356645 0.9124876 3.0886335
0.8786714 0.6107225 2.2872639 0.17806588 0.6950735 1.9190682 0.88118243 0.994657

bn4.running_var f4 [64]
00000000: 2ae1 ce42 7db7 3e42 38aa 1645 0cc4 2642
00000010: 1bb9 d041 42b6 9242 0bf8 5d43 4a6a 8a42
00000020: 5a63 f141 5f56 7d41 4b0f 4742 3ee5 6542
00000030: 57f4 8544 436d 9642 e291 5c42 58a2 c542
00000040: cb6f 9141 3be4 8241 2b6f 4542 6045 1c42
00000050: 111b 1842 91c5 0145 efa3 ee42 d940 9f42
00000060: 7987 8141 def4 0a42 5f4f 9742 1413 8f41
00000070: 6e97 1442 758a 7b42 0e64 8f41 7930 6743
00000080: 3578 0d42 01c8 2c43 cc8e c041 58d8 0042
00000090: 1019 5642 30b9 7142 7f44 1441 f69f aa41
000000a0: 3450 2f42 72c0 ad42 ccd5 8643 60b2 3642
000000b0: 955d cb41 5925 ee41 0e58 8b41 3079 b742
000000c0: 07f3 4642 dfe7 7641 5bff 9241 e286 2843
000000d0: 288a e343 90bf d641 cf88 3542 24d2 7a43
000000e0: e561 5042 dace e141 930b 1943 1ab9 1141
000000f0: ce8e 3642 aff1 0343 0e39 2c42 4bbf 4d42
103.43977 47.679188 2410.6387 41.691452 26.090384 73.35597 221.96892 69.207596
30.173512 15.833587 49.764935 57.47387 1071.6356 75.2134 55.142464 98.81708
18.179586 16.36144 49.358562 39.06775 38.026432 2076.348 119.32018 79.626656
16.191149 34.73913 75.65502 17.884315 37.14788 62.885212 17.923855 231.18935
35.36739 172.78127 24.069725 32.211273 53.524475 60.430847 9.266723 21.328106
43.828323 86.87587 269.6703 45.674194 25.420694 29.768236 17.417995 91.736694
49.73733 15.431609 18.374685 168.52689 455.07935 26.843536 45.383602 250.82086
52.0956 28.226002 153.04521 9.107691 45.639458 131.94408 43.055717 51.43681

lin.weight f4 [10, 64]
00000000: d6a1 063f 26d5 72bf cf35 8a3e 8f40 fc3e
00000010: 2713 c0bf d765 5a3f 5bbc 19bf e9ac 923d
00000020: 1ffa 79bf 3ab8 a5be 7626 cabf b989 5e3e
00000030: 3ccd 783f 8e07 53c0 60b1 05c0 89f7 633f
00000040: dd86 fc3e 1137 17be dcae 1540 1e8a 17bf
00000050: 3b44 ea3d 8288 e33f fada 28c0 b66c 68bf
00000060: 76b1 1abf 9817 af3e 6ec6 743f 52eb cfbd
00000070: b9e5 8cbf a4ef 2d3f 5495 96bd 60cc 323f
00000080: b9be d3bd 9aaa 863f cc73 953e 6296 dcbe
00000090: 08ab 1740 16f5 42be c0c6 56bd 31cd 4dbf
000000a0: 1d31 e83d f0d2 e93f 60c1 8abe 4f25 9d3f
000000b0: 124a 0bc0 e33e 0ac0 43ad 54bf fe7a 6f3f
000000c0: c2d2 16c0 44de 42bf 79d9 3d3f 57d5 d53f
000000d0: 9e32 84bf 94b2 543e 1e1a a6bf 3c29 4e3f
000000e0: 652b e53f b07b c83f 5363 fcbe a606 07c0
000000f0: 54a5 94bd 6d3a 213f 4db8 683b 67c3 9cbf
00000100: d6b9 1abf 500d a13f 58a5 023e 1dd7 dc3f
00000110: f808 623f 9ef5 59bf eae9 983f 2d7e 9bbe
00000120: 324a e53e 7b56 41bf 27e3 93be 13e2 0abf
00000130: 89cb ba3e 3d50 883f 34da 19bf c1a6 d1be
00000140: dbe7 23bf 12b7 39bf 25a8 9b3b b961 87bf
00000150: a197 b4bf 54d8 e5bd 0f04 963f ffc2 1e3d
00000160: 03af febf a69a ae3e 358b 50bf 33e5 a3be
00000170: 2771 b93f 4115 67be 85e0 70bd c005 9dbb
00000180: 1b97 0240 6f06 473f f0f1 d03f 323f 0c3e
00000190: b0ab f23d ce31 ed3e bad9 53bf 01a0 bebe
000001a0: 91f6 b5bf dc67 babf 363b 84bd cb64 d1bf
000001b0: d55c 203f d0ca aabf 0aa7 a03f 64ff 433f
000001c0: f928 5cbe 68cc d9bf fb01 a53f d4b9 f83d
000001d0: 3cd9 c43d c15a 553c a77d 8f3f 3c57 d33e
000001e0: 5dfb 81bf 07c3 a1be fc83 2bc0 4242 743f
000001f0: 67f5 09c0 416a 013b 41b3 f8bf 3e2a 1a3f
00000200: 42f1 87be d833 d23f 4fce d3be 279f 77bf
00000210: a50c 543f 5f40 b23d 778f 193f 827e 053e
00000220: 49c4 b13f 7a9e f9bd 53b3 32bd c90c e33e
00000230: 224d 84be 2ef4 be3d 16be d23f e8bc 883f
00000240: 00b7 44bf 667d f9bf a865 21bf 7cd9 013f
00000250: 1ad6 c13f 8543 68be b8e8 4abf 02a0 cebe
00000260: 967c 62bf fc33 023e 857b 743f e82f c83d
00000270: 15c5 4b3f 9f7c a63c 03ab f63b eded 9dbf
00000280: ce7b a1be ac48 28bf d3df 8dbf 54f8 823f
00000290: 2597 62bf 34cd d8bf 1e69 8ebf 085f b93f
000002a0: f48f de3e 9d0c c6be f994 683e b059 b2bf
000002b0: d89b d1bf c52f 9c3f 8de0 693f cd52 20c0
000002c0: 8a01 8abf cf76 423e e746 abbf a9c0 8f3f
000002d0: 1376 543f 406e 50bf c608 363e dea5 ccbe
000002e0: a3df c83f f2e1 cbbf 2b03 1b3f 6b9c 18bf
000002f0: 365b 993f 7652 b3bf 84f2 4e3f d1b5 8cbd
00000300: 1619 49bf ed79 a1bd 56b2 6c3e cb69 a73c
00000310: be11 0a3e 5c6c 88bf 5d8a f33e 1cf0 b33f
00000320: 0937 a03d b2b2 f5bd ab57 8cbf 1cf2 23be
00000330: 4463 0cbe 97d8 e5be 2b23 e83e 1f01 bbbd
00000340: 3af2 573f cd33 d23f 4c29 bebe 38f1 b83f
00000350: 2df6 03c0 e40c 83be e377 ca3f 1d79 3cc0
00000360: 9520 fdbf 6780 8dbf 9504 b7bf 85e3 0ebf
00000370: 8958 a9bf bdc9 513e ee5a e5bc c321 df3e
00000380: 860e 683e 8a41 5fbe fe47 17bf 4cf2 743e
00000390: 49d7 b7bf f684 da3f 121e 9bbe f7db 9e3f
000003a0: 3648 22c0 b91a f0bf 9cb0 983e 2b34 71bd
000003b0: 6828 3b3f 3410 6e3f 3151 93bd a9d1 ad3f
000003c0: 8076 0fbf 6b01 4a3f a816 77be 350e 883e
000003d0: 0e89 673e f013 0240 8b03 7fbf a62a 90bf
000003e0: 3c02 f13d 141c 853f 5f78 c0bf 56bd bc3e
000003f0: 8ad4 f7bf c7ed 7e3f d19e e2bf 7627 f53f
0.5259069 -0.9485649 0.26994178 0.49268004 -1.5005845 0.85311645 -0.6005303 0.07161886
-0.9764728 -0.32367116 -1.5792987 0.21732225 0.9718816 -3.297336 -2.088951 0.89049584
0.49321643 -0.147671 2.3387976 -0.59195125 0.11438795 1.7776034 -2.6383653 -0.9079088
-0.60427034 0.34197688 0.9561528 -0.10152306 -1.1007606 0.6794379 -0.07352701 0.698431
-0.10339112 1.0520813 0.29189909 -0.43083483 2.369814 -0.19038805 -0.052435637 -0.8039122
0.113374926 1.8267498 -0.27100658 1.2277011 -2.176396 -2.1600883 -0.83076876 0.93547046
-2.3566136 -0.761204 0.7415996 1.6705731 -1.0327947 0.20771247 -1.297672 0.8053167
1.7903868 1.5662746 -0.49294528 -2.1097808 -0.07258096 0.62979776 0.0035510242 -1.2247132
-0.60439813 1.2582188 0.12758386 1.7253147 0.88294935 -0.8514041 1.1946385 -0.30369702
0.4478317 -0.75522584 -0.2888424 -0.5425121 0.3648341 1.0649487 -0.60098577 -0.40947536
-0.6402566 -0.7254497 0.004750269 -1.0576698 -1.4108773 -0.11222902 1.1719989 0.03876018
-1.9897159 0.34102362 -0.81462413 -0.32010803 1.4487656 -0.22566701 -0.05880787 -0.004791945
2.0404727 0.7774419 1.6323833 0.13695982 0.11849153 0.4632706 -0.827541 -0.37231448
-1.4215871 -1.4562945 -0.06456606 -1.6358885 0.6264165 -1.3343143 1.2550976 0.7656157
-0.21500005 -1.7015505 1.2891229 0.12144819 0.09611747 0.013022126 1.1210221 0.41277492
-1.0154835 -0.31594107 -2.6799307 0.954136 -2.1556032 0.001974717 -1.9429704 0.60220706
-0.26551253 1.6422071 -0.41368338 -0.9672722 0.82831794 0.08703684 0.59984535 0.1303654
1.3888026 -0.1218843 -0.04362805 0.44345692 -0.25840098 0.09323917 1.646426 1.068265
-0.76841736 -1.9491394 -0.6304574 0.5072248 1.5143464 -0.22682007 -0.7926135 -0.4035645
-0.88471353 0.12715143 0.95500976 0.097747624 0.795976 0.020323096 0.0075277104 -1.2338234
-0.31539768 -0.6573589 -1.1083931 1.0232034 -0.8851188 -1.6937623 -1.1125829 1.4482126
0.43469203 -0.38681498 0.22713079 -1.393362 -1.6375685 1.2202078 0.9135826 -2.5050538
-1.078172 0.18990634 -1.3381013 1.123067 0.82992667 -0.8141823 0.17776784 -0.39970297
1.5693249 -1.5928328 0.6055171 -0.59613675 1.198096 -1.400954 0.808388 -0.06870616
-0.78553903 -0.078845836 0.23114905 0.020436188 0.1348333 -1.0658069 0.475665 1.405765
0.07822997 -0.11996974 -1.0964254 -0.16010326 -0.13709742 -0.44891807 0.4533933 -0.09131073
0.84353983 1.6422058 -0.37140882 1.4448614 -2.0619004 -0.25595772 1.5817837 -2.9448922
-1.9775568 -1.105481 -1.4298273 -0.5581592 -1.3230144 0.20487113 -0.02799746 0.43580446
0.2266179 -0.21802345 -0.59094226 0.23920554 -1.4362575 1.7071826 -0.3029638 1.2410878
-2.5356574 -1.8758155 0.29822242 -0.058887642 0.7310853 0.92993474 -0.071932204 1.3579608
-0.5604019 0.78908414 -0.24129736 0.2657334 0.22610876 2.032467 -0.9961478 -1.1263015
0.11768004 1.0399194 -1.5036734 0.36863202 -1.9361737 0.9958157 -1.7704717 1.9152668

lin.bias f4 [10]
00000000: 7186 dfbd 677a 053f 9565 e63e a021 f73d
00000010: 3eb1 96be d921 17bf bf33 5ebe fd95 203f
00000020: 4241 b0bf dbcb 6bc0
-0.109143145 0.52139896 0.44999376 0.1206696 -0.294321 -0.5903602 -0.21699427 0.62728864
-1.3769915 -3.6843174

conv.0.weight f4 [8, 2, 5, 5]
00000000: 0a7a 41bf c0bf 6a3f dc75 9340 4999 c53f
00000010: 3ccf 5f3f ff6e d3bf c135 c7be 99f6 cc3f
00000020: 3f1b 0d3f 742a 3abf 2b9e 21bf 9173 82bf
00000030: 15e3 123e 4155 d7be ad3b 84bc 05fe 99bf
00000040: 3dc2 94bf eb16 ac3e 9cf4 46bf f4d0 883e
00000050: 8112 0fbf 40c5 02bf 6e0e 743e 5b06 8fbf
00000060: ade6 aabe 0a5c 66be 934d 903f 8088 8340
00000070: f2ec fd3f 564b 463f ea37 28bf 4be9 00be
00000080: 4bd3 ac3f b83f d0be 52f6 2ebf b2b8 bdbe
00000090: 7fa1 86bf 5049 fc3e eb87 26bf 875b 903e
000000a0: c435 5abc cb0c 24bf f6ea 0abe 109c 09bf
000000b0: ce9d d93d 64a1 b03e 89de 733e 2199 2f3c
000000c0: 4fbe 9bbe 37fe eb3e 55d2 30be 1ee1 fcbf
000000d0: cf57 3abf 2a31 84bf d8c7 1bbf 6b38 eb3e
000000e0: 5e70 a9bf 2cbd aabe f09c ca3c 1a29 0e3f
000000f0: 9c55 313f 2b10 6bbf 7431 9bbe 151d 023f
00000100: 78c4 8c3c 603d 773f 63ee 8ebf fba3 6dbf
00000110: ff34 e3bc c50b 883b c476 2440 8bec 9f3f
00000120: 26ac 6e3f 8a78 5c3f 6fa3 da3e 9890 90be
00000130: a713 b2bf 3f5f a5bf f67e 87bf ed8a 28bf
00000140: f95e 803f 914c 45bf c742 3dbf 6700 2d3e
00000150: 93b5 193d 5435 8d3f 205b 3fbf 8e45 1fbf
00000160: e744 65be 85b7 7dbe 1724 b63f 50ac bebe
00000170: 885b babe 8f18 a3be 9cd3 e23d 2ecb 5840
00000180: 5d03 f63f 1659 853f 03a6 713f 4741 fa3e
00000190: b668 cf40 54e4 ba3e b494 6d40 3fdd 7c3f
000001a0: 05d6 9cbe 885e fa3f 63dd 7dbf bb46 8a3f
000001b0: a782 5fbd de70 0dbf b39a 793f 11cd aabf
000001c0: ac66 553f 9e2a f9bd 940e bfbe fbb6 12be
000001d0: 462c d4bf e628 c53f 7913 eb3e 6f47 083f
000001e0: c6ed bc3f 6849 983e 78d7 413f 2ca4 c13e
000001f0: bd9c 833e f42a 2840 300e c6be 7f9d ab3f
00000200: 9a9c 933e 64f2 07bf 9135 0c3e 9118 a8bf
00000210: 14db b43e a091 273d 5825 1ebe f9ab bcbd
00000220: 7c25 b3bf 5655 e0bd 3c9c 6abe d196 3a3e
00000230: f1f5 dabf 32f4 c2bf ab32 213f 4ede c63e
00000240: d863 823e 900a 2c3e 93b0 37bd 45d1 363e
00000250: fd35 063e 198f 383e 85aa 80bf e06b bfbf
00000260: 9061 9ebf f9f2 013f 3cc2 28bf df62 f4be
00000270: a298 94be 4e8d 61bd cb00 9d3d f98c 0e3f
00000280: 80c8 7abf 140d 9d3f ac74 f0be 6ee9 31bf
00000290: 523b b4be 4a8e ad3f 05e0 4940 cd08 693f
000002a0: e239 863f e6bf 2cbd a67b adbe b780 4a3f
000002b0: 26d8 8dbe dd52 6bbf beb5 0cbf 7668 a3bf
000002c0: 2fb5 babf 6cf6 abbf 3606 2a3b 89f8 a0be
000002d0: f44f f2be c18e 27bd 5d22 1cbe 9613 2e3d
000002e0: d28f 793e 8252 72bf 268d c93f 4855 2fbe
000002f0: 5c1b 2cbf f7eb e939 391b 8c3f ef4d 7e40
00000300: 09ce 9c3f 87bf ff3e 2a44 bb3e 6980 013c
00000310: a524 8b3f 7183 833e feac 40bf 69d0 febd
00000320: 6599 9040 8079 e43f fc31 82be 0ffb a5be
00000330: 158a d6bd 5330 3c40 5d71 bc3f e83f 19bf
00000340: 4ab0 c0be 92e8 c5be 9c3c 2840 76d5 633f
00000350: 2d78 2fbe 3552 0d3f 8b5a 0c3e e8e1 7e3f
00000360: 9e16 51be 9233 16bf 242c 353f 13c8 eabb
00000370: 9cc9 0d3e 5569 5cbe 5ce4 e3be 250e 753f
00000380: e59a 29be b9cf b53f d771 c83f 23dd ccbf
00000390: 4805 97bf 2089 aebf 2a1c 853f 9a1f 1f3f
000003a0: c59f 0cc0 8bfe b2bf f402 81bf 01da 983f
000003b0: 059f 8c3f 084c c3bf 9751 22bf abce 65bf
000003c0: 940a 37be 7f97 4cbe 4a73 6abf a0b8 8d3e
000003d0: d7cc f9be f7ac 10bf f348 0bbf 6c00 e6be
000003e0: 09e2 e03d 900d 8fbe 98cd b8bf 4ccd 4cbf
000003f0: c43c 2ac0 35cf c0bf 244e b8bf 8c82 283f
-0.7557684 0.9169884 4.608137 1.5437404 0.8742559 -1.6518248 -0.38908198 1.6012756
0.551197 -0.7272103 -0.6313197 -1.0191518 0.14344437 -0.4205723 -0.016141737 -1.2030646
-1.1621777 0.33611235 -0.77716994 0.2672192 -0.5588761 -0.5108223 0.2383363 -1.1173815
-0.33379117 -0.22496048 1.1273674 4.1104126 1.9837935 0.77458704 -0.6571032 -0.12588994
1.3501981 -0.40673614 -0.68344605 -0.37054974 -1.0518035 0.49274683 -0.65051144 0.2819483
-0.013318483 -0.6408202 -0.13566193 -0.5375376 0.10625802 0.3449813 0.23815359 0.010717661
-0.3041863 0.46092388 -0.17267735 -1.97562 -0.72790235 -1.0327504 -0.6085181 0.4594148
-1.3237417 -0.33347452 0.024733037 0.55531466 0.69271255 -0.91821545 -0.30311167 0.50825626
0.017183527 0.96578026 -1.11665 -0.9282834 -0.027735231 0.0041517937 2.5697489 1.2494062
0.9323143 0.8612143 0.42702815 -0.28235316 -1.3912247 -1.2919692 -1.058562 -0.65836984
1.0028983 -0.77069956 -0.7393002 0.16894685 0.03752668 1.10319 -0.7474842 -0.6221551
-0.22389565 -0.24777038 1.4229764 -0.3724084 -0.36397958 -0.31854674 0.110755175 3.387401
1.9219776 1.0417812 0.9439394 0.48877928 6.481532 0.36502326 3.712201 0.98775095
-0.30632034 1.9560099 -0.99165934 1.0802835 -0.05456796 -0.55250347 0.9750168 -1.3343831
0.8335979 -0.12166332 -0.3731581 -0.14327614 -1.6576011 1.5403106 0.45913294 0.53234
1.4760063 0.29743505 0.75719404 0.37820566 0.2570552 2.6276217 -0.386827 1.3407439
0.28830415 -0.53104234 0.13692309 -1.3132497 0.35323393 0.040910363 -0.15443933 -0.09212489
-1.3995814 -0.109537765 -0.22911161 0.18221594 -1.7106305 -1.5230772 0.6296794 0.3884148
0.254668 0.16800904 -0.04484613 0.17853267 0.13106532 0.18023337 -1.0052038 -1.4954796
-1.2373524 0.5076137 -0.6592138 -0.47731683 -0.290227 -0.0550664 0.07666167 0.5568386
-0.9796219 1.2269616 -0.46964014 -0.6949681 -0.35201508 1.3559048 3.154298 0.91029054
1.0486414 -0.042175196 -0.338834 0.79102653 -0.2770397 -0.91923314 -0.54964817 -1.2766254
-1.4586543 -1.3434577 0.0025943643 -0.31439617 -0.47326624 -0.040907625 -0.15247484 0.042499147
0.2437127 -0.94657147 1.57462 -0.17122376 -0.6722925 0.0004461703 1.0945808 3.9735067
1.2250377 0.4995081 0.36575443 0.0079041505 1.0870558 0.2568622 -0.75263965 -0.12442095
4.518725 1.7849579 -0.2542876 -0.32418105 -0.10475556 2.9404495 1.4722096 -0.5986314
-0.37634498 -0.38654 2.6286993 0.8899759 -0.17135687 0.5520356 0.13706414 0.99563456
-0.20418784 -0.5867244 0.7077048 -0.007164964 0.13846439 -0.21524556 -0.44510162 0.9572471
-0.16562994 1.4204017 1.5659741 -1.6004986 -1.1798487 -1.3635597 1.039922 0.62157595
-2.1972516 -1.398393 -1.0079026 1.194153 1.0986029 -1.5257578 -0.63405746 -0.89768475
-0.17875129 -0.19979666 -0.9158217 0.2767992 -0.48789093 -0.56513923 -0.54408187 -0.44922197
0.10980613 -0.27940035 -1.4437742 -0.8000076 -2.6599588 -1.5063235 -1.4398847 0.658242
