models/standard/k-fold saves/test1e_f1_e10_f0_b64.pt (torch, 335209 bytes, 86 tensors)

conv1.weight f4 [8, 2, 5, 5]
0	0xbf3c49c7	-0.73550075
1	0x3f6edbd6	0.93304193
2	0x4093f37f	4.6234736
3	0x3fc59b15	1.5437952
4	0x3f5f8d76	0.8732523
5	0xbfd18c64	-1.6370969
6	0xbec1a5ae	-0.37821716
7	0x3fcea026	1.6142623
8	0x3f0ca739	0.5494266
9	0xbf3ba0f2	-0.7329246
10	0xbf1e291d	-0.61781484
11	0xbf81ddaf	-1.0145777
12	0x3e1aa9e2	0.15103868
13	0xbed95019	-0.42443922
14	0xbcb354a0	-0.021890938
15	0xbf97ace1	-1.1849633
16	0xbf9334bb	-1.1500467
17	0x3eb36bae	0.3504309
18	0xbf46fe7d	-0.7773207
19	0x3e899463	0.26871023
20	0xbf0d7918	-0.552629
21	0xbf003b72	-0.50090706
22	0x3e7f0e90	0.24907899
23	0xbf8ec855	-1.1154886
24	0xbeab2177	-0.3342397
25	0xbe57b810	-0.21066308
26	0x3f9165fc	1.1359248
27	0x4083e6d7	4.1219287
28	0x3ffd0941	1.9768449
29	0x3f44b6db	0.76841515
30	0xbf25c204	-0.6474917
31	0xbdf4e4d5	-0.11957709
32	0x3fae0be1	1.3597375
33	0xbed49281	-0.41518024
34	0xbf31bbbc	-0.69427085
35	0xbeb9f38f	-0.36318633
36	0xbf8637bc	-1.0485759
37	0x3efdda18	0.49580455
38	0xbf2898dd	-0.6585825
39	0x3e8b5a25	0.27217212
40	0xbabcb08d	-0.0014395878
41	0xbf2139ac	-0.62978625
42	0xbe007f5f	-0.12548588
43	0xbf09fe96	-0.5390409
44	0x3dd2d8ac	0.10295233
45	0x3eb1b868	0.34711003
46	0x3e78f9b2	0.24314001
47	0x3c93ed64	0.018057533
48	0xbe9bf0ba	-0.30457097
49	0x3ee89f89	0.45434216
50	0xbe1d1062	-0.15338281
51	0xbffabe7a	-1.9589379
52	0xbf38ebe5	-0.72234946
53	0xbf842c73	-1.0326065
54	0xbf1c59fe	-0.6107482
55	0x3ef3eca1	0.4764147
56	0xbfa75179	-1.3071738
57	0xbea7c334	-0.32766116
58	0x3cb580c8	0.022156134
59	0x3f0da26b	0.55325955
60	0x3f372f8a	0.71556914
61	0xbf6481de	-0.8926066
62	0xbe9535c6	-0.29142588
63	0x3f0364ff	0.5132598
64	0x3ca95126	0.020668577
65	0x3f7ab659	0.9793449
66	0xbf8d1827	-1.1022996
67	0xbf6d5e76	-0.9272226
68	0xbceee41c	-0.029161505
69	0x3b94f78c	0.0045461114
70	0x40253f4d	2.5819886
71	0x3fa1b157	1.2632245
72	0x3f6ebd83	0.9325792
73	0x3f5c2291	0.85990244
74	0x3edb7501	0.42862704
75	0xbe8882eb	-0.26662382
76	0xbfb031fd	-1.3765255
77	0xbfa4eadb	-1.2884172
78	0xbf87f0f7	-1.0620412
79	0xbf28e413	-0.65973014
80	0x3f82726d	1.019117
81	0xbf4173eb	-0.755675
82	0xbf3c2dbe	-0.735073
83	0x3e2a05c0	0.16603756
84	0x3d15cd40	0.036572695
85	0x3f90120e	1.125551
86	0xbf39ad41	-0.7252999
87	0xbf1c676e	-0.6109532
88	0xbe6068b0	-0.21914935
89	0xbe7a8f1e	-0.24468657
90	0x3fb7ba40	1.4353714
91	0xbeb817c0	-0.3595562
92	0xbebaa13b	-0.36451134
93	0xbea4464e	-0.32084888
94	0x3de2c47c	0.11072633
95	0x40597ab7	3.398115
96	0x3ff78754	1.9338174
97	0x3f84f389	1.0386821
98	0x3f71452c	0.9424617
99	0x3efb222c	0.4904951
100	0x40d0a9f2	6.5207453
101	0x3ecb7ea3	0.39745054
102	0x406b817f	3.6797788
103	0x3f775ef7	0.9662928
104	0xbeafaaff	-0.34310147
105	0x40000e1d	2.0008614
106	0xbf73fa9c	-0.95304275
107	0x3f89c47a	1.0763085
108	0xbd7e0153	-0.06201298
109	0xbf14503f	-0.57934946
110	0x3f7769df	0.9664592
111	0xbfac7195	-1.3472162
112	0x3f4aaf06	0.79173315
113	0xbe1cb876	-0.15304741
114	0xbed451c7	-0.4146864
115	0xbe0cbc8f	-0.13743804
116	0xbfd45af0	-1.6590252
117	0x3fc1e3ec	1.5147681
118	0x3eddc5f2	0.43315083
119	0x3f0045b2	0.50106347
120	0x3fbc870b	1.4728712
121	0x3e953b2d	0.2914671
122	0x3f3ad30e	0.72978294
123	0x3eb664cc	0.35623777
124	0x3e69763d	0.2279901
125	0x402b247a	2.6741014
126	0xbeb342fc	-0.35012043
127	0x3faa7c37	1.3319157
128	0x3e90273c	0.28154933
129	0xbf0dc670	-0.55380917
130	0x3e467672	0.19381121
131	0xbfa3047b	-1.2735742
132	0x3ebad910	0.3649373
133	0x3d323f24	0.043517247
134	0xbe2b2068	-0.16711581
135	0xbdb367d3	-0.08760037
136	0xbfb3f3e4	-1.4058805
137	0xbe0aea3f	-0.1356592
138	0xbe7db8a5	-0.24777468
139	0x3e1caf8d	0.15301342
140	0xbfd96b4e	-1.6985872
141	0xbfc27b2d	-1.519384
142	0x3f1d46c9	0.61436135
143	0x3ec0e4d7	0.3767459
144	0x3e70193d	0.23447128
145	0x3e2f765d	0.17134996
146	0xbd4f6716	-0.05063542
147	0x3e206dbb	0.15666859
148	0x3def32c0	0.11679602
149	0x3e21616d	0.15759821
150	0xbf82c486	-1.0216224
151	0xbfc1a046	-1.5127037
152	0xbf9fbdc6	-1.2479789
153	0x3f01c683	0.5069353
154	0xbf2b9e2b	-0.6703822
155	0xbeffb26c	-0.49940813
156	0xbea2f126	-0.31824607
157	0xbd9ff801	-0.07810975
158	0x3d7f826f	0.06238025
159	0x3f086f15	0.532945
160	0xbf7f2434	-0.99664617
161	0x3f9aa547	1.2081689
162	0xbef6797e	-0.48139566
163	0xbf328e58	-0.6974845
164	0xbebbc6f1	-0.36675218
165	0x3fac1c12	1.3446066
166	0x40490695	3.1410267
167	0x3f66e74a	0.9019667
168	0x3f8661cc	1.0498595
169	0xbd555bc6	-0.052089475
170	0xbeb0a099	-0.34497526
171	0x3f486436	0.7827791
172	0xbe904233	-0.28175506
173	0xbf696c22	-0.9118062
174	0xbf0cccca	-0.54999983
175	0xbfa526dc	-1.2902484
176	0xbfbd37c3	-1.4782642
177	0xbfad55f5	-1.3541857
178	0x38a3e57e	7.815192e-05
179	0xbea63910	-0.3246541
180	0xbefbdc6c	-0.49191606
181	0xbd921759	-0.071333595
182	0xbe32862e	-0.17433998
183	0x3cc8476b	0.024448117
184	0x3e5ff4c0	0.21870708
185	0xbf753eeb	-0.9579913
186	0x3fc70c76	1.5550678
187	0xbe3a5898	-0.18197858
188	0xbf2d24ff	-0.67634577
189	0xbc5ed151	-0.01359971
190	0x3f8b0aac	1.0862632
191	0x407d4aad	3.9576828
192	0x3f9ba83e	1.2160718
193	0x3efe1292	0.49623543
194	0x3eb65e49	0.3561881
195	0x3c0029b7	0.007822446
196	0x3f89fda4	1.078053
197	0x3e819512	0.25309044
198	0xbf3fe430	-0.7495756
199	0xbe00b29f	-0.12568139
200	0x408ff439	4.4985623
201	0x3fe1d0df	1.7641867
202	0xbe8b7cfb	-0.2724379
203	0xbeae61ab	-0.3405889
204	0xbe030ea6	-0.12798557
205	0x403cc375	2.9494298
206	0x3fbcf5d5	1.4762522
207	0xbf182813	-0.5943615
208	0xbebdf897	-0.37103721
209	0xbec64420	-0.3872385
210	0x402869be	2.631454
211	0x3f626c16	0.88446176
212	0xbe2fb806	-0.17160043
213	0x3f0e6df3	0.5563652
214	0x3e078a14	0.13236266
215	0x3f7e9111	0.99440104
216	0xbe5bd6a4	-0.21468598
217	0xbf182376	-0.5942911
218	0x3f344e8b	0.7043235
219	0xbc36b7ef	-0.011152252
220	0x3dff6592	0.12470545
221	0xbe6e8ff0	-0.23297095
222	0xbee83208	-0.4535067
223	0x3f739712	0.9515239
224	0xbe31b765	-0.17355116
225	0x3fb386e3	1.4025539
226	0x3fc5ddb6	1.5458286
227	0xbfcf39cb	-1.6189512
228	0xbf98c19d	-1.1934086
229	0xbfb0dab9	-1.3816749
230	0x3f873b5d	1.0564991
231	0x3f1ff4b1	0.62482744
232	0xc00c5a2d	-2.193004
233	0xbfb1fd0e	-1.3905351
234	0xbf809024	-1.0043988
235	0x3f9a1ce1	1.2040063
236	0x3f8b725e	1.0894277
237	0xbfc34e27	-1.5258225
238	0xbf20b510	-0.6277628
239	0xbf65e92f	-0.89808935
240	0xbe359085	-0.17730911
241	0xbe58b502	-0.21162799
242	0xbf6b8e66	-0.9201416
243	0x3e8d8aaa	0.27644855
244	0xbefa202c	-0.4885267
245	0xbf135c69	-0.5756288
246	0xbf1083a8	-0.5645089
247	0xbeeb0c41	-0.45907786
248	0x3dd6a98b	0.104815565
249	0xbe93626f	-0.28786036
250	0xbfb5fb83	-1.421738
251	0xbf4733e4	-0.77813554
252	0xc02968a3	-2.6470115
253	0xbfbf87c3	-1.4963306
254	0xbfb891a9	-1.4419452
255	0x3f2e8877	0.6817698

conv1.bias f4 [8]
0	0xc07de364	-3.9670038
1	0xc0293960	-2.644127
2	0xbfebd92e	-1.8425653
3	0xbfa9bab3	-1.3260101
4	0xc06055fd	-3.5052483
5	0xbe606d9b	-0.21916811
6	0x3cc17222	0.023613993
7	0xc0b0198d	-5.503119

bn1.weight f4 [8]
0	0x3fa4b201	1.2866822
1	0x3fab66c1	1.3390733
2	0x3fa9108c	1.3208175
3	0x3fe1eadf	1.7649802
4	0x3fa96160	1.3232841
5	0x3fef3c47	1.869027
6	0x3fbc7a52	1.4724829
7	0x3fb24f37	1.3930424

bn1.bias f4 [8]
0	0xbf43f778	-0.7654948
1	0xbeade59d	-0.33964244
2	0xbfaa102d	-1.3286186
3	0x3eff6ad2	0.49886185
4	0xbff8e7fa	-1.9445794
5	0xbf8a9cc3	-1.082909
6	0x3f83f4d5	1.0309092
7	0xbf8602b3	-1.0469574

bn1.running_mean f4 [8]
0	0x3fc00f55	1.5004679
1	0x3f7da1fd	0.990753
2	0x40a0f1bc	5.0295086
3	0x3f456693	0.7710964
4	0x3fd0fc35	1.6326967
5	0x3fb5b843	1.4196857
6	0x411df1ca	9.871531
7	0x4004e5f3	2.076535

bn1.running_var f4 [8]
0	0x41b55525	22.666574
1	0x4152a25a	13.164637
2	0x430fed62	143.92728
3	0x411840b5	9.515798
4	0x41b2ea31	22.364351
5	0x41ab1c8e	21.388943
6	0x428bda6c	69.926605
7	0x41f47b80	30.560303

conv2.weight f4 [16, 8, 3, 3]
0	0xbe91cee9	-0.28478172
1	0xc0069bc2	-2.1032567
2	0xbf88be56	-1.0683086
3	0x400202a9	2.0314124
4	0xbf4febc2	-0.8121911
5	0xbf050551	-0.5196124
6	0x3d97982b	0.074020706
7	0xbdfa65d2	-0.12226452
8	0x3f6e82ec	0.9316852
9	0xbf4ce200	-0.8003235
10	0xbe7d0ab1	-0.2471111
11	0x3f46ac70	0.7760687
12	0xc044936c	-3.071498
13	0xbfa1945b	-1.26234
14	0xbf1c66a2	-0.61094105
15	0xbeaf254a	-0.34208137
16	0x3e35c2a5	0.17750032
17	0xbe7ab41e	-0.24482772
18	0x3fa8bb83	1.3182224
19	0x3eb5d22f	0.3551192
20	0x3f11dfc1	0.56982046
21	0x3f85c24a	1.0449917
22	0x3f5fa614	0.8736279
23	0x3f085ee2	0.5326978
24	0x3fd8f22d	1.6948906
25	0x3f6b88b3	0.9200546
26	0x3f2ca9d1	0.6744662
27	0x3eceea7d	0.40413275
28	0xbd964a12	-0.073383465
29	0xbf4b1959	-0.7933555
30	0xc0118bd9	-2.2741606
31	0xc02f8bbc	-2.7429037
32	0x3ed60804	0.4180299
33	0xbe25bebe	-0.16186044
34	0xbed2ff5d	-0.41210452
35	0x3f59c25a	0.8506218
36	0xbf56b177	-0.8386454
37	0x3dbdbb20	0.09264207
38	0x3e0ff29b	0.1405739
39	0x3f008ab6	0.50211656
40	0x3ea4d658	0.3219478
41	0x3ddbd6db	0.1073434
42	0x4026e48f	2.6077
43	0x3eb927bf	0.36163136
44	0x3e9e2491	0.30887273
45	0x3efb5527	0.49088404
46	0x3e114323	0.14185767
47	0xbf31846f	-0.693427
48	0xc053c6fb	-3.3090198
49	0xc03dc805	-2.9653332
50	0xbfe03020	-1.7514687
51	0x3f9cd681	1.2252961
52	0x3c97cc9f	0.018530188
53	0x3e4149fc	0.18875879
54	0xbf450b0e	-0.76969993
55	0xbed4b97e	-0.4154777
56	0xbea66fc9	-0.3250716
57	0xbf1024c5	-0.56306106
58	0xbee803aa	-0.45315295
59	0xbe2453f5	-0.16047652
60	0xbff55e88	-1.9169474
61	0xbfd7f3e7	-1.6871308
62	0x3ed95971	0.4245105
63	0x3c88623b	0.016648402
64	0x3e8ade1e	0.27122587
65	0xbfa25932	-1.268347
66	0x4056fbff	3.3591306
67	0x3f76668c	0.96250224
68	0x3e19e50f	0.15028785
69	0x3f8a0c5b	1.078502
70	0xbeb6a235	-0.3567063
71	0x3eb11bd0	0.34591532
72	0x3f0fa1d5	0.5610631
73	0x3fd0e737	1.6320561
74	0x3fb8cade	1.443691
75	0xbeda04b9	-0.42581728
76	0xbeed28a8	-0.4632008
77	0x3f9ac88c	1.2092452
78	0xbf89c82a	-1.076421
79	0x3e4b8fed	0.19879122
80	0x3f60855d	0.87703496
81	0xbf5cb8ef	-0.86219686
82	0xbfd87d91	-1.691332
83	0xbc7d1316	-0.015446445
84	0xbe965eb9	-0.29369143
85	0xbf6e6b89	-0.93132836
86	0x3fe20e8f	1.7660693
87	0xbf15b733	-0.58482665
88	0xbf64bbfa	-0.8934933
89	0x3f0caa2c	0.5494716
90	0x3ea2dc78	0.3180883
91	0x3fc849c3	1.564751
92	0x3fe7d45f	1.8111686
93	0x3e2d0abe	0.16898629
94	0x3fac84ce	1.3478029
95	0x3f7ae9ba	0.9801289
96	0xbf07220c	-0.52786326
97	0x3f8b99c5	1.0906302
98	0x3fbb0f56	1.4614055
99	0xbff5fb33	-1.9217285
100	0xbcf5ee1e	-0.03002077
101	0x3f7cbc6e	0.9872502
102	0xbf58ad2e	-0.8463925
103	0xbf21c3da	-0.6318947
104	0x3f7bae27	0.9831261
105	0xbf818e7e	-1.012161
106	0x3e4d01e3	0.20020251
107	0x3e9b31a7	0.3031132
108	0xc00ab016	-2.1669974
109	0xbf67be2a	-0.9052454
110	0x3f8045cc	1.00213
111	0xc019ed8a	-2.4051232
112	0xbf67666a	-0.90390646
113	0xbdedcc8a	-0.11611278
114	0xc004c92c	-2.0747786
115	0xbfa7167d	-1.3053738
116	0x3eb19e02	0.34690863
117	0x3f8c04d5	1.0938975
118	0x3e8e67e1	0.27813628
119	0x400000bf	2.0000455
120	0xc0060e98	-2.0946407
121	0x3e7cd07c	0.24688905
122	0x3fbbf8b6	1.4685276
123	0xbfb3c861	-1.4045526
124	0x3e39cbf0	0.18144202
125	0x3f8f2f72	1.1186354
126	0xbf874793	-1.0568718
127	0x3f80ee26	1.0072677
128	0x3f0b46b1	0.5440474
129	0xbfdc1fb6	-1.7197177
130	0x3f07f709	0.5311132
131	0xbee15a12	-0.4401403
132	0xc0038614	-2.0550585
133	0x3f33f6e1	0.7029858
134	0x3e25a9c5	0.16178043
135	0xbe00c818	-0.1257633
136	0x3f8973a0	1.0738411
137	0x40078e09	2.1180441
138	0xbea95e14	-0.33079588
139	0xbc879435	-0.016550163
140	0x3ffb1a2a	1.961736
141	0xbf2a5066	-0.6652893
142	0xbf172ca1	-0.59052473
143	0x3fcd0094	1.6015801
144	0xc082c2d1	-4.0862813
145	0xbca1490f	-0.019688157
146	0x3efc5263	0.49281606
147	0xbf62f412	-0.8865367
148	0xbf6e8d33	-0.931842
149	0xbe6b1091	-0.22955538
150	0xbf9c0b55	-1.2190958
151	0xbfd2e911	-1.6477376
152	0xbf428e29	-0.7599817
153	0x3f860e7a	1.0473168
154	0xc01dd60b	-2.4661891
155	0x3d12924f	0.035784062
156	0x3f681291	0.9065333
157	0xc0261bb3	-2.5954406
158	0xbf99f6cc	-1.2028441
159	0xbe4213c0	-0.18952847
160	0xbfc561a0	-1.5420418
161	0x3ff9895f	1.9495047
162	0xbd51552c	-0.051106617
163	0xbf9ba054	-1.2158303
164	0x3f964800	1.1740723
165	0x3de1ad7d	0.110194184
166	0xc03c9da3	-2.9471214
167	0xbf8fbeca	-1.1230099
168	0x3e048987	0.12943088
169	0xc00364bd	-2.0530236
170	0xbf4e246d	-0.8052433
171	0x3fc023c8	1.501092
172	0x3eaadd09	0.3337176
173	0xbecba50a	-0.39774352
174	0x3eb6ded0	0.35716867
175	0xbba343fd	-0.00498247
176	0xbe9a4dea	-0.3013757
177	0xbe5938ae	-0.21213028
178	0x3c5b6429	0.013390579
179	0xbecbd375	-0.39809766
180	0x3e8f4042	0.27978712
181	0xc0648f42	-3.5712438
182	0x3ee548bc	0.44782054
183	0x3f09da06	0.538483
184	0xc0509d22	-3.2595906
185	0xbff63a70	-1.9236584
186	0x3ed9b8c3	0.42523775
187	0xc0856acb	-4.1692863
188	0xc00fe4df	-2.2483442
189	0x3e255acb	0.16147916
190	0xc0085640	-2.1302643
191	0x3fa25f2f	1.2685298
192	0x3f72e553	0.9488117
193	0xbe2ea508	-0.17055142
194	0xbf06eaf0	-0.52702236
195	0x3fb58ca2	1.4183543
196	0xbf2c8e94	-0.67405057
197	0xbff66deb	-1.9252294
198	0x3eef9ccb	0.4679931
199	0x3d288483	0.041141998
200	0x3f26769c	0.65024734
201	0xbe4a33e7	-0.19746362
202	0xbc96f5c6	-0.01842774
203	0xbd607326	-0.054797314
204	0xbf09bd22	-0.5380422
205	0xbea56ef3	-0.3231121
206	0x3f2ca3d7	0.674375
207	0x3fb6bfe7	1.4277314
208	0x3d5a2d2f	0.053265747
209	0xbe711024	-0.23541313
210	0x3fc08804	1.5041509
211	0x3ea39839	0.31952074
212	0x3dd68451	0.10474456
213	0x3fa16979	1.2610313
214	0xbf4efb19	-0.80851895
215	0x3e684ecc	0.22686309
216	0xc07f7cb9	-3.9919875
217	0xc00b0461	-2.1721423
218	0xbfb29c9e	-1.3954046
219	0x3ecc9926	0.39960593
220	0x3f091831	0.5355254
221	0x40040ab0	2.0631523
222	0xbf7f9db0	-0.9984999
223	0x3f3ed791	0.7454768
224	0x3e5e3795	0.2170089
225	0x3fd7681d	1.6828648
226	0x3f113ac6	0.56730306
227	0x3e7626d1	0.24038245
228	0xbf9e4eb5	-1.236777
229	0xbe8fef73	-0.28112373
230	0x3f4745cb	0.7784087
231	0xc00ab107	-2.167055
232	0x3e4c53c1	0.19953825
233	0x3fa63f5d	1.2988087
234	0xc01ed131	-2.481518
235	0xbfd68af4	-1.6761155
236	0xbe9d1045	-0.30676475
237	0xbf41650f	-0.7554483
238	0xbee13cde	-0.4399175
239	0xbeac8aa9	-0.3369954
240	0xbf7221d9	-0.945829
241	0xbebfbffc	-0.3745116
242	0x3f20211f	0.6255054
243	0x3f20b2b9	0.6277271
244	0xbef353c3	-0.47524843
245	0xbe563186	-0.20917329
246	0x3f82d4ed	1.022123
247	0x3f9e13d3	1.23498
248	0x3f535d99	0.82564694
249	0xbf843930	-1.0329952
250	0xbf21575e	-0.63023937
251	0xbff3800d	-1.9023453
252	0xbff0b809	-1.8806163
253	0x3da3ebcd	0.0800396
254	0xbf46b550	-0.7762041
255	0xbeb6f4bd	-0.35733595

conv2.bias f4 [16]
0	0xbea96ddd	-0.33091632
1	0xbe8cc2d5	-0.27492395
2	0xbe9979c2	-0.29975706
3	0xbfcc24bf	-1.5948714
4	0x3e4d91a7	0.20075093
5	0xc072820d	-3.7891877
6	0xc078773d	-3.8822777
7	0x3fedc3ef	1.8575419
8	0x3f92062d	1.1408135
9	0xbffcdc48	-1.9754725
10	0xbff1c736	-1.8888919
11	0xbf1b2910	-0.6060953
12	0x3ffebe64	1.9901853
13	0xc0184b4f	-2.3795965
14	0xbe45de1e	-0.19323012
15	0xc03b0cf2	-2.922665

bn2.weight f4 [16]
0	0x40240181	2.5625918
1	0x401c1412	2.438725
2	0x3faccaa5	1.3499342
3	0x3f8b9e88	1.0907755
4	0x3f4b4d6f	0.7941503
5	0x3fe99afb	1.8250421
6	0x3fba48cd	1.4553467
7	0x3f88b8ec	1.0681434
8	0x4049e1d5	3.1544087
9	0x3f7d0da8	0.9884896
10	0x3fc66987	1.5500954
11	0x3fb882c2	1.4414904
12	0x40017a37	2.0230844
13	0x3fcde150	1.6084385
14	0x3f3e20ea	0.7426897
15	0x3fbc0d35	1.469153

bn2.bias f4 [16]
0	0x3e802223	0.25026044
1	0x3ec1d957	0.3786113
2	0xbf5c8d53	-0.86153144
3	0xbe037788	-0.12838566
4	0xbf11bc4c	-0.56927943
5	0x3e9741c6	0.2954237
6	0x3eb343a4	0.35012543
7	0xbf95f393	-1.1714958
8	0x3d846b15	0.06465737
9	0x3eb57026	0.35437125
10	0x3ec99cf7	0.39377567
11	0xbe7fdb15	-0.24985917
12	0xbe84b626	-0.25920218
13	0x3f3082bf	0.689495
14	0x3edd579b	0.432309
15	0x3eb3b5d8	0.35099673

bn2.running_mean f4 [16]
0	0x3fe20a83	1.7659458
1	0x4089a3d5	4.301249
2	0x423967ef	46.351498
3	0x40f343ba	7.6020174
4	0x41ff5299	31.91533
5	0x408ac046	4.335971
6	0x3fda3c79	1.7049705
7	0x4195d526	18.729076
8	0x40133eef	2.3007162
9	0x4107fffb	8.499995
10	0x3fd0979d	1.6296269
11	0x40116c55	2.272237
12	0x408d857b	4.422544
13	0x3fb5924d	1.4185272
14	0x414e8412	12.907244
15	0x4216bc75	37.68404

bn2.running_var f4 [16]
0	0x4233d67b	44.959454
1	0x434d2a15	205.16438
2	0x43c3a463	391.28427
3	0x431a38ff	154.22264
4	0x43f22372	484.27692
5	0x433e0c38	190.04773
6	0x41fa6b71	31.302462
7	0x42ab9cbd	85.80613
8	0x428500c2	66.50148
9	0x433bdd8b	187.8654
10	0x42110af6	36.260704
11	0x42633e6a	56.81095
12	0x43199cb3	153.6121
13	0x41d476bc	26.557976
14	0x429c6905	78.20512
15	0x43a0452a	320.54034

conv3.weight f4 [32, 16, 3, 3]
0	0x3fe0db77	1.7566975
1	0xbf593215	-0.84842044
2	0xbf99013d	-1.1953503
3	0xbf2d12f9	-0.67607075
4	0xbf952d9b	-1.1654543
5	0x3f393629	0.72348267
6	0xbfb41a7a	-1.407058
7	0xbf248f9a	-0.6428162
8	0x3d8581e6	0.06518917
9	0x3f2a0fe9	0.66430527
10	0x3efd9823	0.49530134
11	0xbd8d16f0	-0.068891406
12	0x3f02645f	0.50934404
13	0x3fa4b018	1.286624
14	0x402267da	2.5375886
15	0xbe071d70	-0.13194823
16	0x4004d737	2.0756357
17	0x4008fd92	2.1404767
18	0xbf93e336	-1.1553714
19	0x400a3de5	2.1600277
20	0x3f6b790e	0.9198159
21	0x3f8ffc2f	1.1248835
22	0x40226a24	2.5377283
23	0x3f57174b	0.8401992
24	0x4039c0c0	2.9023895
25	0x403c9df3	2.9471405
26	0x3ecdb5b3	0.40177688
27	0xc038856b	-2.8831432
28	0xc01c2987	-2.4400346
29	0x3f93f3ac	1.1558738
30	0xbf68c056	-0.9091848
31	0x3f80f8b5	1.0075899
32	0x3f0e5fe1	0.5561505
33	0xc02a2938	-2.6587658
34	0xbe46f74c	-0.19430274
35	0xbd91378d	-0.070906736
36	0x3fdbf932	1.7185423
37	0x3e820cde	0.25400442
38	0xbef821d9	-0.48463324
39	0x3fc6ea23	1.5540203
40	0xbf37c779	-0.71788746
41	0x3da200fc	0.07910344
42	0x4022c9c4	2.5435648
43	0x3f6e0e49	0.9299055
44	0xbf87dfdf	-1.0615195
45	0xc037ab1a	-2.8698182
46	0x3fbafd62	1.4608576
47	0x3cc9552d	0.024576748
48	0xc0012727	-2.0180147
49	0xbf7708e8	-0.96497965
50	0x3fa18b1a	1.2620575
51	0xc0270bed	-2.610103
52	0x3f2463c1	0.6421471
53	0x3fedce8d	1.8578659
54	0x3f3e6ab0	0.7438154
55	0x3f88ce09	1.0687877
56	0xbc12266c	-0.008920293
57	0xbec78d2b	-0.3897489
58	0x3e7fa4da	0.2496523
59	0x3db84d67	0.08999138
60	0xbfaa758b	-1.3317121
61	0x3fca2120	1.5791359
62	0x3f345174	0.7043679
63	0x3f36c783	0.7139818
64	0x3fc58ba2	1.5433238
65	0x3f6e4752	0.93077576
66	0x4032b1e8	2.7921085
67	0x3f944646	1.1583946
68	0x3f30e09f	0.69092745
69	0x400a82cf	2.164234
70	0x3f8e7113	1.1128258
71	0x3fe1e597	1.764819
72	0x3f8ef88e	1.1169603
73	0x3f78515b	0.9699914
74	0xbf922083	-1.1416172
75	0x3e98f3d6	0.29873532
76	0xbf00c1e2	-0.5029584
77	0x3f0aa59b	0.54158944
78	0xbfc11a90	-1.5086231
79	0xbfd7c82f	-1.6857966
80	0x3f1ba43a	0.60797465
81	0xbffeba78	-1.9900656
82	0xbef058d3	-0.46942768
83	0xbf8d0f58	-1.1020308
84	0xbfe06601	-1.7531129
85	0x3ef09eaf	0.46996066
86	0x3e4ac6be	0.19802377
87	0xbf460cc3	-0.7736322
88	0x3f9c5a31	1.2215024
89	0x3f7e1aa5	0.99259406
90	0xbfab655f	-1.3390311
91	0xbfe72c0a	-1.8060315
92	0x3e7782b0	0.24170947
93	0xc04401f3	-3.062619
94	0xbf8392b0	-1.027914
95	0xbe1f0b85	-0.15531738
96	0xc011326c	-2.2687025
97	0x3defcdda	0.11709185
98	0x3ea5ce48	0.32383943
99	0x3f5dd0ab	0.8664653
100	0xc015077c	-2.3285818
101	0x3f9cb8a0	1.2243843
102	0xbf01fd7e	-0.50777423
103	0x3f765b12	0.9623271
104	0xbe021bc8	-0.1270591
105	0xbfc0e9d2	-1.5071356
106	0x3fc931e6	1.5718353
107	0x3ee4ae3e	0.44664186
108	0x3e4d729f	0.20063256
109	0xbde07de8	-0.10961515
110	0xbe0c56e5	-0.13705023
111	0x3f5aed18	0.85518026
112	0x3ec2c9f0	0.3804469
113	0x3f24686e	0.6422185
114	0x3fbe934e	1.4888704
115	0x3f41df69	0.7573152
116	0x3e62b058	0.22137582
117	0x403c916b	2.9463756
118	0x3f177fa6	0.5917915
119	0xbfb70dc1	-1.4301072
120	0xbd459812	-0.04824073
121	0x3f279737	0.6546511
122	0x3d379bf2	0.044826455
123	0xc02d0283	-2.7032783
124	0x3d04846d	0.032352854
125	0xbe2d3bef	-0.16917394
126	0xc057968b	-3.3685634
127	0xbf8bc7c7	-1.0920342
128	0x3ec502f9	0.3847883
129	0xc01988fa	-2.3989854
130	0xbe8743de	-0.26418966
131	0x3e357efb	0.1772422
132	0xbebe28dc	-0.37140548
133	0x3f9b53db	1.2134966
134	0x3faaad6e	1.3334177
135	0xbf3dff98	-0.7421813
136	0xbea505a5	-0.3223087
137	0x3f0a451e	0.54011714
138	0x3ecd00e6	0.40039748
139	0xbf1b405a	-0.6064507
140	0x3f9378bf	1.1521224
141	0x3ff500dd	1.9140888
142	0xbe197d99	-0.14989318
143	0x3f842a14	1.0325341
144	0x3f5dd3b1	0.8665114
145	0xbe613ad8	-0.21995103
146	0x3f0a3efa	0.54002345
147	0x4002a748	2.04146
148	0x3fe64317	1.7989224
149	0x3f56eef4	0.83958364
150	0x3f23dc29	0.6400781
151	0x3f003cfe	0.50093067
152	0x3ed344e2	0.4126349
153	0xbec594fe	-0.38590235
154	0x3eabf847	0.33587858
155	0xbf6945bf	-0.9112205
156	0xbf0fdf6e	-0.562003
157	0xbf7efd45	-0.9960521
158	0xbf6c6feb	-0.92358273
159	0x3f01fd00	0.5077667
160	0xc0237416	-2.5539603
161	0xbe82c35d	-0.25539675
162	0xbd981b10	-0.07427037
163	0xbdce4d6f	-0.10073363
164	0x3f898d92	1.0746329
165	0xbea5c8af	-0.32379672
166	0x3cb6ac07	0.022298826
167	0x3e9e12c1	0.30873683
168	0xbf6f3dd6	-0.9345373
169	0xbe4aec71	-0.19816758
170	0x3f1f3e65	0.6220458
171	0x3ed5e5c8	0.41776872
172	0x3e879426	0.26480216
173	0xbe7f433d	-0.24927993
174	0x3f2e5e5d	0.68112737
175	0xbeb4a1f3	-0.35279807
176	0xbee3242b	-0.4436353
177	0xc0acd8b5	-5.4014535
178	0xc011cff7	-2.2783182
179	0xbe5729f3	-0.21012096
180	0xbe930295	-0.28712907
181	0x3f847444	1.0347981
182	0x3de8113f	0.113314144
183	0xc002f708	-2.0463276
184	0xbe6654d9	-0.22493304
185	0xbf843c57	-1.0330914
186	0xbfafbef9	-1.3730155
187	0xbee6d866	-0.45086974
188	0xbfd8ec62	-1.6947138
189	0xbed0d5bd	-0.4078807
190	0x3e5689be	0.20950982
191	0x3f9e2201	1.2354127
192	0x3f198f4c	0.5998428
193	0x3f7d5210	0.9895334
194	0x3f59bcbd	0.85053617
195	0x3fe0390c	1.7517409
196	0x3dc00f34	0.093779
197	0xbfb78dbf	-1.4340132
198	0x3e5510d2	0.20807198
199	0xbf6eaa67	-0.93228763
200	0xbf26c78a	-0.6514822
201	0xbfde6740	-1.7375259
202	0x3ed3a686	0.41337985
203	0xbf6d8dd8	-0.9279456
204	0x3f8910be	1.0708234
205	0x3e1da942	0.15396598
206	0xbdbd4f4b	-0.092436396
207	0x3eaea76f	0.34112117
208	0x3f0c8e79	0.54904896
209	0x3f186a3c	0.595371
210	0x3e40f5ac	0.18843716
211	0xbe991bf9	-0.29904154
212	0x3e7bfc95	0.24608071
213	0x3eb20e38	0.34776473
214	0x3fa60724	1.2970929
215	0x3f756bca	0.958676
216	0x3ef0db2a	0.4704221
217	0x3e6303f3	0.22169475
218	0x3ef52c88	0.47885537
219	0x3e7d05c8	0.24709237
220	0xbf5cba98	-0.8622222
221	0x3e6c9780	0.23104668
222	0xc06a424d	-3.6602967
223	0xbfa58ded	-1.2933937
224	0xbfc0d213	-1.506411
225	0xbed94162	-0.42432696
226	0x3fc0234b	1.501077
227	0x3f9c1df7	1.2196645
228	0xc03b3138	-2.924879
229	0xbee3897f	-0.4444084
230	0xbe86e664	-0.2634765
231	0xbf2d3d1e	-0.6767138
232	0xbc91e9fd	-0.01781177
233	0xbf0e9d03	-0.5570833
234	0x3d2024a9	0.03909746
235	0x3eafad7e	0.34312052
236	0x3f962bcc	1.1732116
237	0xc0079472	-2.1184354
238	0xc04e109d	-3.219764
239	0xc026a5aa	-2.6038613
240	0x3e0dd2d6	0.13849959
241	0x3f5acb60	0.85466576
242	0xbf402415	-0.75055057
243	0x3f4c14fa	0.7971951
244	0x3f88ea46	1.0696495
245	0xbf566c27	-0.8375878
246	0xbd199784	-0.037498012
247	0x3e232c7f	0.15934943
248	0x403257c3	2.7866066
249	0x3eab2f50	0.33434534
250	0xc0202d19	-2.5027525
251	0x3ea0bfbb	0.3139628
252	0x3fb4d164	1.4126401
253	0xbd45f840	-0.048332453
254	0x3e521a27	0.20517789
255	0x3f3626e8	0.71153116

conv3.bias f4 [32]
0	0xbfe4cc25	-1.78748
1	0xbfeed9ba	-1.8660195
2	0xbfe3f0a1	-1.7807809
3	0x3f365925	0.71229774
4	0xbfac4b99	-1.346057
5	0xbffd4404	-1.9786382
6	0xbff613b7	-1.9224766
7	0xbf03eeca	-0.5153624
8	0xc02b1e1a	-2.6737123
9	0xbf2ba410	-0.67047215
10	0xbee709b8	-0.45124602
11	0xbf12f708	-0.5740819
12	0xbf93f385	-1.1558691
13	0xbfac3273	-1.3452896
14	0xbef3efed	-0.47643986
15	0xc0328cc8	-2.7898426
16	0xbf087dd3	-0.5331699
17	0xc033ca1c	-2.8092108
18	0x3f62c1f0	0.88577175
19	0xbdde9f4b	-0.108702265
20	0xc02a0a87	-2.6568925
21	0x3d586664	0.052832022
22	0xc00d7918	-2.210516
23	0xbf849988	-1.0359354
24	0xbf4b7c52	-0.7948657
25	0xc00312d4	-2.0480242
26	0x3d9e9c1e	0.07744621
27	0xbfabfde2	-1.3436854
28	0xc02f5ea7	-2.7401521
29	0xbf9462b4	-1.1592622
30	0xbfa03577	-1.2516316
31	0xc0116e79	-2.2723677

bn3.weight f4 [32]
0	0x400ccc20	2.1999588
1	0x3f965342	1.1744158
2	0x3fc03067	1.5014771
3	0x3fd49e6b	1.6610845
4	0x3f9dedb6	1.2338169
5	0x3fd523a1	1.6651498
6	0x3ff36f88	1.9018412
7	0x3fea7ef4	1.8319993
8	0x3fce9229	1.6138355
9	0x3f92ae91	1.1459523
10	0x40069890	2.1030617
11	0x3fada178	1.3564901
12	0x400b5e5b	2.177634
13	0x3fdecb5a	1.7405808
14	0x4000a2f1	2.0099452
15	0x3fb6614c	1.4248443
16	0x3fe93508	1.8219309
17	0x3fcf3a6c	1.6189704
18	0x3ff384e6	1.9024932
19	0x4004a343	2.0724647
20	0x3faf8b32	1.3714354
21	0x4007ee15	2.1239064
22	0x4005b8d5	2.0894063
23	0x3fd80f26	1.6879623
24	0x3fcdee79	1.6088401
25	0x3f9b051c	1.2110934
26	0x3fbba7ce	1.4660585
27	0x3fcb6410	1.5889912
28	0x3fb960dc	1.4482684
29	0x3fe0ea04	1.7571416
30	0x3fa3306a	1.274915
31	0x3fbcd336	1.4751956

bn3.bias f4 [32]
0	0xbf9ca408	-1.2237558
1	0xbe8b3f1c	-0.27196586
2	0xbf172bd2	-0.5905124
3	0xbeff93f0	-0.49917555
4	0xbf1642a2	-0.58695424
5	0x3f9307e9	1.1486789
6	0x3ec74911	0.38922933
7	0x3f9b12d6	1.2115123
8	0x3f04d9c5	0.5189479
9	0x3fbf2731	1.4933835
10	0x3f78eca7	0.972361
11	0x3f382bae	0.7194165
12	0x3f8420f8	1.0322561
13	0xbf8c0a1d	-1.0940586
14	0x3f266dc2	0.6501123
15	0x3f7a5fa0	0.9780216
16	0x3ede7730	0.43450308
17	0x3d7375e2	0.059438594
18	0x3f4db1f2	0.8034965
19	0x3f861e53	1.0478004
20	0xc008e2a3	-2.1388328
21	0x3f1fe260	0.62454796
22	0xbd192f09	-0.03739837
23	0x3dedc0c5	0.116090335
24	0x3d909772	0.07060136
25	0x3e396ebc	0.18108648
26	0xbe908b43	-0.28231248
27	0xbf34dccb	-0.70649403
28	0x3e2beb61	0.16789009
29	0xbfe24e96	-1.7680233
30	0x3f2df9f8	0.6795955
31	0xbe51c922	-0.20486882

bn3.running_mean f4 [32]
0	0x3f929796	1.145251
1	0x3f8f627d	1.1201931
2	0x3fde8df2	1.7387068
3	0x40dfb9eb	6.991445
4	0x4080ef62	4.0292215
5	0x40994760	4.789963
6	0x40042002	2.0644536
7	0x409ddbb0	4.9330673
8	0x40803e32	4.007592
9	0x408fbe10	4.491951
10	0x406fdc2b	3.747813
11	0x4105d243	8.363833
12	0x4037195f	2.8609235
13	0x408a183f	4.3154597
14	0x403f5a1a	2.9898744
15	0x3f1ae581	0.60506445
16	0x4038f75a	2.8900971
17	0x4099a9ff	4.8020015
18	0x4147bdb8	12.483818
19	0x400aa380	2.1662292
20	0x3fe7c523	1.8107036
21	0x40b8ced2	5.7752466
22	0x3f6249a3	0.8839361
23	0x40dbba96	6.8665266
24	0x40850119	4.156384
25	0x3fea1598	1.828784
26	0x4000c43b	2.011977
27	0x411a0e24	9.628452
28	0x4025ade9	2.5887396
29	0x40b1ad5c	5.552412
30	0x409babfa	4.864743
31	0x4019ef6a	2.4052377

bn3.running_var f4 [32]
0	0x429ed368	79.4129
1	0x4237d40d	45.95708
2	0x428c25e4	70.074005
3	0x431b4e73	155.30644
4	0x42ea21c3	117.06594
5	0x433c8375	188.5135
6	0x42cd0454	102.50845
7	0x42847280	66.22363
8	0x436e51ab	238.31902
9	0x428a1247	69.0357
10	0x4341c1c2	193.75687
11	0x426de8c1	59.4773
12	0x43493955	201.22395
13	0x43548e3c	212.5556
14	0x4376e204	246.88287
15	0x41da9d29	27.326738
16	0x42aa9a73	85.30166
17	0x43c673d8	396.90503
18	0x43038db0	131.55347
19	0x42d87bbc	108.24167
20	0x424e8e6e	51.63909
21	0x434cb405	204.7032
22	0x4235f978	45.49362
23	0x436c3f46	236.24716
24	0x43179fcf	151.62425
25	0x4229a237	42.408413
26	0x4280bb64	64.366
27	0x42e26cbd	113.21238
28	0x43184ce6	152.30038
29	0x4313f868	147.97034
30	0x42a37eed	81.7479
31	0x4290c24e	72.3795

conv4.weight f4 [64, 32, 3, 3]
0	0x3fc86f75	1.5659014
1	0x3d937a43	0.07201054
2	0xbf45f1fc	-0.77322364
3	0x3fb3380d	1.400148
4	0xbd4945e6	-0.049138926
5	0xbfd417e8	-1.6569796
6	0x3ec55abf	0.38545796
7	0xc0643ff7	-3.566404
8	0xbfa6357d	-1.2985073
9	0xbeb4ac7e	-0.3528785
10	0x3f32415b	0.69630975
11	0xbf97eea1	-1.1869699
12	0x3e5e5be5	0.21714742
13	0x3e8dec1b	0.27719197
14	0xbdd73cf5	-0.105096735
15	0x3f1a9cf6	0.60395753
16	0xbe98ea9e	-0.298665
17	0x3f416999	0.75551754
18	0xbd80218e	-0.062564
19	0x4030df66	2.7636352
20	0x3f2845f5	0.65731746
21	0xbf4a4540	-0.7901192
22	0x3ed4a0f3	0.41529045
23	0xbf2522a0	-0.6450596
24	0xbf1231dd	-0.57107335
25	0xbd9ac87d	-0.07557771
26	0xbd8122bf	-0.063054554
27	0xc00d6b60	-2.2096786
28	0xbfd41f70	-1.6572094
29	0x3fbf3342	1.4937518
30	0x3f86ad90	1.0521717
31	0xbe33118e	-0.17487165
32	0xbfc0eda8	-1.5072527
33	0x3f51d3cc	0.819638
34	0x3f1bdb23	0.6088125
35	0xc027f7c9	-2.6244986
36	0xbe21eb25	-0.15812357
37	0xbf1ba9ff	-0.6080627
38	0xbf437ff1	-0.763671
39	0xbe29ecab	-0.16594188
40	0xbf7f9412	-0.9983531
41	0xc01e5479	-2.4739058
42	0x3e8069e1	0.2508078
43	0x3f961699	1.1725646
44	0xbff74111	-1.9316732
45	0xbe747aa7	-0.23874913
46	0xbeef1b73	-0.4670063
47	0x3f96d9d9	1.1785232
48	0xbd88d310	-0.06680882
49	0xbef8a3d7	-0.485625
50	0x3fafa5b4	1.3722444
51	0x3f71f74e	0.9451798
52	0xbf99f99d	-1.2029301
53	0x3ca99d61	0.020704927
54	0xbfecc5e5	-1.8497893
55	0x3f211095	0.6291593
56	0xbe96db19	-0.29464033
57	0x3f268691	0.6504908
58	0x3fbc09d1	1.4690496
59	0x3ede3923	0.43402967
60	0x3e09319e	0.13397834
61	0xbf638f8f	-0.8889093
62	0x3f58fac2	0.84757626
63	0xbf58d337	-0.8469729
64	0xc024abf9	-2.5729964
65	0xbf4f0351	-0.80864435
66	0xc0043a65	-2.0660641
67	0x3faae84e	1.3352144
68	0x3fbc9ddb	1.4735674
69	0xbdcc9981	-0.09990216
70	0xbe3f4e26	-0.18682155
71	0xbf8fbc49	-1.1229335
72	0xbf3c2d50	-0.7350664
73	0x3f2df585	0.6795276
74	0x3df44916	0.119280025
75	0xbe2c3069	-0.16815342
76	0x3eb65050	0.3560815
77	0x3f22e990	0.6363764
78	0xbdba0b49	-0.09084184
79	0xbee25333	-0.442041
80	0x4009e43d	2.1545556
81	0xbf57fc4c	-0.8436935
82	0xbf7e4776	-0.9932779
83	0xbeb64864	-0.35602105
84	0x3f727e52	0.94724
85	0x3fe01431	1.7506162
86	0x3edf3821	0.4359751
87	0xbfc3c45b	-1.5294298
88	0xbf3c1e42	-0.7348367
89	0x3fe981ef	1.8242778
90	0xbf841fdd	-1.0322224
91	0xc04d9cf9	-3.2127059
92	0xc0009749	-2.0092337
93	0x4016c311	2.355656
94	0xbe31c755	-0.17361195
95	0xbf2b4f0c	-0.6691749
96	0x3f482461	0.7818051
97	0xc02f01b1	-2.7344782
98	0xbe8259d9	-0.25459173
99	0xbfb7f9f3	-1.4373153
100	0xbea73926	-0.32660788
101	0x3f41eee3	0.7575514
102	0x3fab01f8	1.3359976
103	0xbe39374f	-0.18087505
104	0xbf37f817	-0.7186293
105	0xbe7b2b3b	-0.2452821
106	0x3f978031	1.1835996
107	0x3e84e4b0	0.25955725
108	0x3f45c87b	0.77259034
109	0xbe259ffd	-0.16174312
110	0xbf7d1bd2	-0.98870575
111	0xbee9bfd6	-0.45654172
112	0xbe9b3036	-0.3031022
113	0xbf544c36	-0.8292879
114	0x3ee4c1fd	0.4467925
115	0xbf780e0d	-0.9689644
116	0xbf91d990	-1.139452
117	0xbe211be5	-0.15733297
118	0x3f945171	1.1587354
119	0x3f9686a4	1.1759839
120	0x3f2552d0	0.64579487
121	0x3d62ef39	0.05540392
122	0x3eaf4449	0.34231785
123	0xbf2d299b	-0.6764161
124	0xbe0c711b	-0.13715021
125	0xbfac19fb	-1.3445429
126	0xbf34efd7	-0.70678467
127	0xbf4bf05b	-0.7966363
128	0x3d18532e	0.0371887
129	0x3f2bfed3	0.67185706
130	0x3f92fefb	1.1484064
131	0xc04638a2	-3.0972066
132	0x3dfa096c	0.12208828
133	0xbfb556f7	-1.4167165
134	0xc0318d7d	-2.7742608
135	0xbee120d4	-0.43970358
136	0xbf1e83f9	-0.61920124
137	0xbfd2e7b2	-1.6476958
138	0xbeab646d	-0.33475056
139	0xc02867da	-2.6313386
140	0xbe8b6c4e	-0.27231067
141	0x3db433a7	0.087989144
142	0xbfb44e99	-1.4086486
143	0xbeeaee63	-0.45885
144	0xbe5239a0	-0.20529795
145	0x3f81b670	1.01338
146	0xbe239890	-0.15976167
147	0xbf770f27	-0.96507496
148	0x3eeee1ad	0.46656552
149	0xbe4c92b4	-0.19977838
150	0x3eebc08a	0.46045333
151	0x3fcff0e7	1.6245393
152	0xbf94bf13	-1.1620811
153	0x3eedf5bf	0.46476552
154	0x3fd321b7	1.6494664
155	0xbef5c772	-0.48003727
156	0xbf6b004e	-0.9179734
157	0x3fb1e6b1	1.3898526
158	0xc0b3574e	-5.6044073
159	0xbfecd2aa	-1.850179
160	0xbfced730	-1.615942
161	0xbfe8d1b6	-1.8188999
162	0x3fbae513	1.4601158
163	0x3fef90b9	1.8716041
164	0x3f260da3	0.6486456
165	0xbff453e8	-1.9088106
166	0xbf1d1da8	-0.61373377
167	0xbdf97286	-0.12180047
168	0xbff53e6d	-1.9159676
169	0xbf7359b6	-0.95058763
170	0x3edaf7cc	0.4276718
171	0x3dfad1c9	0.122470446
172	0x3f0054cb	0.50129384
173	0x3fa751fd	1.3071896
174	0xbedbdfac	-0.42944086
175	0xbe079db7	-0.13243757
176	0xbfb20027	-1.3906296
177	0x3f59302c	0.8483913
178	0x3e868c9b	0.26279148
179	0xc0473e90	-3.1131935
180	0x3ec0c896	0.37653035
181	0xbe904df2	-0.28184468
182	0x3f490af1	0.7853232
183	0x3ee7fa14	0.45307982
184	0x3f98a878	1.1926413
185	0x401b0f12	2.4227948
186	0x3faf087a	1.3674462
187	0x3fd17f50	1.6366978
188	0x3fab6611	1.3390523
189	0xbe97833c	-0.2959231
190	0x3eea4f17	0.45763466
191	0xbe69a367	-0.2281624
192	0xbe17f7b7	-0.1484059
193	0xbe71261e	-0.23549697
194	0x401cb849	2.4487479
195	0x3e905b7a	0.2819479
196	0xbfb65108	-1.4243479
197	0x3f9aa9cc	1.2083068
198	0xc00babad	-2.1823533
199	0x3eb5213f	0.35376927
200	0x3ea1cfc6	0.3160383
201	0x3fde0ba6	1.7347305
202	0x3fcc14bf	1.5943831
203	0xc01ec2c2	-2.480637
204	0x3e5e8535	0.21730502
205	0xbeab344a	-0.3343833
206	0xbff4032a	-1.9063466
207	0xbf96e5b6	-1.1788852
208	0x3dd38cb5	0.10329572
209	0x3faf608a	1.3701336
210	0xbf84e803	-1.0383304
211	0xbdbab4b7	-0.091165
212	0x3fc8f949	1.5701076
213	0x3eb4900e	0.35266155
214	0x3ef8668b	0.48515734
215	0xbf2fc695	-0.6866239
216	0x3fa063c3	1.2530445
217	0xbf4b24ca	-0.7935301
218	0xbf444e4f	-0.7668199
219	0x3f44b819	0.7684341
220	0x3c13dbad	0.009024543
221	0x3ed05a58	0.40693927
222	0x3f8c9595	1.0983149
223	0xbd10fc23	-0.035396706
224	0xbfcba03b	-1.5908273
225	0x3f8b4a80	1.088211
226	0xbff31248	-1.8989954
227	0xc091a940	-4.5519104
228	0xbf908265	-1.1289793
229	0xc001ba5d	-2.0269997
230	0x3f8da71b	1.1066622
231	0xbdb1b268	-0.086766064
232	0x3e57a7a2	0.2106004
233	0xbfa91f63	-1.3212703
234	0xbf9a6c49	-1.2064296
235	0x3f6d5fa1	0.92724043
236	0x3f1db29b	0.61600655
237	0x3f1fb39f	0.62383455
238	0x3f537b08	0.82609606
239	0xbf54a6ed	-0.8306721
240	0xbfe450bf	-1.7837142
241	0x3f7854ab	0.97004193
242	0x3eaede15	0.3415381
243	0xbfa8d1c7	-1.3189019
244	0x3f19bc78	0.60053205
245	0xbf46c760	-0.7764797
246	0x3f2ab3d4	0.66680646
247	0x3fbfd3f9	1.4986564
248	0x3ee8dd06	0.45481128
249	0xc089809d	-4.29695
250	0xbe22c1bc	-0.15894216
251	0x3fb21812	1.3913596
252	0xbf0d5bb9	-0.5521808
253	0xbf3953d4	-0.72393537
254	0xbed4e72d	-0.41582623
255	0xbeb8bfdf	-0.36083886

conv4.bias f4 [64]
0	0xbe9b7d6a	-0.3036912
1	0xc041e121	-3.0293658
2	0xbc16cf8c	-0.0092047565
3	0xbe474726	-0.19460735
4	0xbf8be209	-1.0928355
5	0xc0096421	-2.1467364
6	0xbed480ed	-0.41504613
7	0xbedf1189	-0.43568066
8	0xbf00f7a1	-0.5037785
9	0xbf6930f9	-0.9109035
10	0xbfc7ab2b	-1.5599111
11	0xbfaf9d74	-1.3719926
12	0x3da0cfa3	0.078521036
13	0xbe654ed7	-0.22393356
14	0xbfb0f1e7	-1.3823823
15	0xbf9127b8	-1.1340246
16	0xbf8dcde1	-1.1078454
17	0xbfa8d9ab	-1.3191427
18	0x3e5b264f	0.21401332
19	0xbf925d32	-1.1434691
20	0x3f002cb9	0.5006824
21	0x3e59b621	0.21260883
22	0xc0245a0f	-2.5679967
23	0xbf9aad49	-1.2084132
24	0xbf2c186e	-0.67224777
25	0xbdbe5cde	-0.09295057
26	0xbf01b0f6	-0.50660646
27	0xbfa2f9ea	-1.2732518
28	0xbfbaa926	-1.458287
29	0xbf34f0da	-0.7068001
30	0xbf3f2f0f	-0.7468118
31	0xbed3aa5e	-0.41340917
32	0x3cbd22a9	0.023087816
33	0xbeb8a6d6	-0.36064786
34	0xbf97ae3d	-1.1850048
35	0xbf5251c9	-0.82156044
36	0xbf0b34e5	-0.54377586
37	0x3de4527e	0.11148547
38	0xbecfe9f9	-0.40608194
39	0xbf0e60bb	-0.5561635
40	0xbf0e73cf	-0.5564546
41	0xc0056b1e	-2.084663
42	0xbf56feab	-0.8398234
43	0x3f8f8520	1.1212502
44	0xbf6dabe2	-0.928404
45	0xbf99d8aa	-1.2019246
46	0xbf9d0004	-1.226563
47	0x3ead6877	0.33868763
48	0xbed84343	-0.42238817
49	0x3ebc8649	0.368212
50	0xbfcd0865	-1.6018187
51	0xbf4082bc	-0.75199485
52	0xbf2022b8	-0.62552977
53	0xbfe9c768	-1.8263979
54	0xbfd40c75	-1.6566302
55	0xbf1ee3b2	-0.62066185
56	0x3edfaa38	0.43684554
57	0xbf2dd810	-0.6790781
58	0xbfb7eb4d	-1.4368683
59	0xbfa88984	-1.3166966
60	0xbf896b4f	-1.0735873
61	0xc0151a7b	-2.3297412
62	0xc00e41e8	-2.2227726
63	0xbf92a2ac	-1.1455894

bn4.weight f4 [64]
0	0x40874cdd	4.2281327
1	0x408cf9c1	4.4054875
2	0x3fbd1bb5	1.477408
3	0x40923a34	4.569605
4	0x40879743	4.2372146
5	0x40575df9	3.3651106
6	0x409b76fa	4.8582735
7	0x404fc6ce	3.246509
8	0x4057ace4	3.3699274
9	0x407c227d	3.939605
10	0x408333ec	4.100088
11	0x4060846d	3.5080826
12	0x3fafe37d	1.3741299
13	0x40834819	4.102551
14	0x4080d8cf	4.026466
15	0x4043b642	3.0579991
16	0x404efee4	3.2343073
17	0x4096e158	4.715008
18	0x409560c1	4.668061
19	0x40342e6b	2.8153331
20	0x408f5b6b	4.4799094
21	0x3fbc1f14	1.4696984
22	0x409928f5	4.7862496
23	0x40754ea4	3.8329248
24	0x40a47c6d	5.1401887
25	0x404b6e4d	3.1786072
26	0x409c0b14	4.8763523
27	0x408d27c2	4.4111032
28	0x40826feb	4.076162
29	0x3f4c4e47	0.7980694
30	0x3e033182	0.12811854
31	0x3fa86aaf	1.3157557
32	0x408a9736	4.3309584
33	0x4001980b	2.024905
34	0x406381b7	3.5547922
35	0x4076cefa	3.8563828
36	0x40bf31c0	5.974823
37	0x406ccdce	3.7000613
38	0x406bf524	3.6868372
39	0x40979d8f	4.737983
40	0x4089112d	4.2833467
41	0x40631fc7	3.5488145
42	0x3f6999c5	0.9125026
43	0x40a77b83	5.233827
44	0x40a13b16	5.0384626
45	0x408e2fb1	4.4433217
46	0x4081b23f	4.0530086
47	0x40b90a65	5.782519
48	0x4084dd3e	4.152007
49	0x409ab43f	4.8345027
50	0x404bacc6	3.1824203
51	0x4070028e	3.750156
52	0x3f46072a	0.7735468
53	0x40823945	4.069491
54	0x4082b171	4.0841603
55	0x40242023	2.5644615
56	0x40a1f361	5.0609593
57	0x4080a6ff	4.0203853
58	0x404babce	3.1823611
59	0x408e39c1	4.44455
60	0x4086863d	4.2038865
61	0x408b8a57	4.360637
62	0x408189f3	4.0480895
63	0x4083037d	4.094176

bn4.bias f4 [64]
0	0x3ec0f2bd	0.37685195
1	0x3e775393	0.24152975
2	0x3d195ce4	0.037442103
3	0x3e27b06c	0.16375893
4	0x3bdd6a46	0.0067570535
5	0x3ea6bbfd	0.325653
6	0x3ed69d5a	0.41916925
7	0xbd4e8c1c	-0.050426587
8	0x3e8640e9	0.26221398
9	0x3b12d61a	0.0022405447
10	0x3d0c4dbf	0.034253832
11	0x3e904fd2	0.28185898
12	0x3ddce5b5	0.10786001
13	0x3e83a48c	0.25711477
14	0x3e2d18cc	0.1690399
15	0x3e15f4a3	0.14644103
16	0x3cf23052	0.029564057
17	0xbd0ea88e	-0.034828715
18	0x3d207500	0.03917408
19	0x3e23c4bc	0.15993017
20	0x3c186907	0.009302384
21	0xbafb36b5	-0.0019166084
22	0x3eb5322e	0.35389847
23	0x3de9c061	0.114136465
24	0x3e0380e8	0.12842143
25	0x3d54c77d	0.05194806
26	0x3e3afd5a	0.18260708
27	0x3e3e6df5	0.18596633
28	0x3ea9ed4e	0.33188862
29	0x3d58488b	0.052803557
30	0xba974975	-0.0011542278
31	0x3e03a030	0.12854075
32	0x3e3bb9c0	0.18332577
33	0x3df13493	0.11777606
34	0x3dec0bf5	0.11525718
35	0x3cc6ad7a	0.024252642
36	0x3e9251a6	0.28577918
37	0x3daa624e	0.083195314
38	0x3dbaef34	0.091276556
39	0x3ddf086c	0.10890278
40	0x3e554511	0.20827128
41	0xba61c1e7	-0.00086119625
42	0x3e7d71f1	0.24750496
43	0x3e442148	0.19153321
44	0x3e71e24d	0.23621483
45	0x3e10ea09	0.14151777
46	0x3ea58a77	0.32332203
47	0x3e896121	0.26831916
48	0x3de5636b	0.11200603
49	0xbd972d7b	-0.073817216
50	0x3da92cb5	0.0826048
51	0x3e2f626a	0.17127386
52	0x3cd043a3	0.025422877
53	0x3e486c53	0.19572572
54	0x3e9fbe11	0.31199697
55	0x3ca52228	0.020157889
56	0x3eab7765	0.33489528
57	0xbbe58647	-0.0070045325
58	0x3e4ba0c9	0.19885553
59	0x3e2503cf	0.16114734
60	0x3dd5ed03	0.10445597
61	0x3ec98d4b	0.3936561
62	0x3db93588	0.090434134
63	0x3d05ee01	0.03269768

bn4.running_mean f4 [64]
0	0x3fbdb0a7	1.4819535
1	0x3f486f29	0.78294617
2	0x426f97c0	59.898193
3	0x3f68ee7c	0.909889
4	0x3ef6756f	0.4813647
5	0x3fa0db0e	1.256685
6	0x402acdb7	2.6688058
7	0x3f8712fc	1.0552669
8	0x3f2748d7	0.6534552
9	0x3ee07910	0.43842363
10	0x3f2fa63e	0.6861304
11	0x3f5b7abb	0.85734147
12	0x41edcd63	29.725286
13	0x3f89f4ad	1.0777794
14	0x3f68a716	0.9087995
15	0x3f9f5945	1.2449118
16	0x3ee65294	0.44984877
17	0x3ecf3525	0.40470234
18	0x3f4c8246	0.7988628
19	0x3f2777ee	0.65417373
20	0x3f323ec9	0.6962705
21	0x429b698a	77.70613
22	0x3fd5ac13	1.6693138
23	0x3f9b6583	1.2140354
24	0x3ea575df	0.3231649
25	0x3f2f71e9	0.6853319
26	0x3fa7fda7	1.3124284
27	0x3ef3da12	0.47627312
28	0x3f0f02e2	0.55863774
29	0x401a5d7a	2.4119554
30	0x3eb76315	0.3581778
31	0x405eeeb5	3.4833195
32	0x3f2d713f	0.67750925
33	0x40840108	4.125126
34	0x3ec473c7	0.3836958
35	0x3f11e394	0.5698788
36	0x3f278a83	0.6544573
37	0x3f9aeebd	1.2104107
38	0x3e520d2f	0.20512842
39	0x3ecd7c73	0.4013401
40	0x3f42393f	0.758686
41	0x3f9b3110	1.2124348
42	0x41035b51	8.209794
43	0x3f5511e7	0.8323044
44	0x3ef5958d	0.4796566
45	0x3f2f3c05	0.6845096
46	0x3ebd179d	0.36932078
47	0x3fa6edef	1.3041362
48	0x3f74f26a	0.95682395
49	0x3e97c5ec	0.2964319
50	0x3eac4e6c	0.3365358
51	0x3fe21be0	1.7664757
52	0x41349c97	11.28823
53	0x3f09c886	0.538216
54	0x3f4cd16d	0.8000706
55	0x4021916b	2.5245006
56	0x3f460dc4	0.77364755
57	0x3ecc8126	0.39942282
58	0x4011001d	2.265632
59	0x3e34dca6	0.17662296
60	0x3efda306	0.4953844
61	0x3fef89b9	1.8713905
62	0x3f5ccdc4	0.86251473
63	0x3f5b211c	0.85597396

bn4.running_var f4 [64]
0	0x42cba886	101.82915
1	0x42515d74	52.341263
2	0x451458c6	2373.5483
3	0x423060f4	44.09468
4	0x41c408e5	24.504343
5	0x429875fa	76.23042
6	0x435880bf	216.50291
7	0x428fd56f	71.91686
8	0x41eba0cc	29.453514
9	0x4192ac5f	18.334166
10	0x4228a088	42.15677
11	0x42312ebe	44.295647
12	0x447ce14c	1011.52026
13	0x42854657	66.63738
14	0x425dc64d	55.443653
15	0x42d253f0	105.16394
16	0x41b08f29	22.069902
17	0x4189af30	17.21054
18	0x423eae9b	47.670513
19	0x42058494	33.37947
20	0x42043202	33.048836
21	0x45069b1f	2153.695
22	0x42d768f5	107.704994
23	0x42b7e246	91.94194
24	0x415467b9	13.275323
25	0x41eb94ad	29.447596
26	0x42c9739b	100.72579
27	0x41aa20a5	21.26594
28	0x41cadac3	25.356817
29	0x427e6138	63.59494
30	0x41cfed6e	25.990932
31	0x4354dc80	212.86133
32	0x422a3083	42.547375
33	0x432b0253	171.00908
34	0x41cf379d	25.902155
35	0x41df3d54	27.904945
36	0x422790f1	41.891544
37	0x427eeba6	63.730125
38	0x40e53f67	7.1639895
39	0x4192d32a	18.353107
40	0x421acce6	38.700096
41	0x42cb8db4	101.776764
42	0x43708a11	240.53932
43	0x421e6622	39.59974
44	0x41c2ee4a	24.366352
45	0x42021d11	32.528385
46	0x417c0a29	15.7524805
47	0x4291483b	72.641075
48	0x4238051d	46.004993
49	0x415fe09c	13.992336
50	0x418d0add	17.630304
51	0x4335748b	181.45525
52	0x43dc9481	441.1602
53	0x420dec9f	35.481075
54	0x4225c505	41.4424
55	0x4347d72c	199.84052
56	0x4241f15d	48.485706
57	0x418dab10	17.708527
58	0x430ea6bc	142.6513
59	0x410b1137	8.691703
60	0x41de55b2	27.791843
61	0x43028469	130.51723
62	0x422ec2c6	43.69021
63	0x4230bb03	44.18263

lin.weight f4 [10, 64]
0	0x3ef8e5e4	0.48612893
1	0xbf7483d7	-0.9551367
2	0x3e9b9281	0.3038521
3	0x3f00787e	0.50183856
4	0xbfbea356	-1.4893596
5	0x3f516c63	0.8180601
6	0xbf18a7d8	-0.5963111
7	0x3da6bc9d	0.08141444
8	0xbf808b37	-1.0042485
9	0xbea4fd63	-0.3222457
10	0xbfc9a768	-1.5754213
11	0x3e52a4c8	0.20570672
12	0x3f793424	0.97345185
13	0xc05364c0	-3.3030243
14	0xc0059d00	-2.0877075
15	0x3f6322e8	0.8872514
16	0x3eed3e14	0.46336424
17	0xbdbd7dae	-0.09252487
18	0x4013b87f	2.3081357
19	0xbf20d525	-0.6282523
20	0x3e1ac574	0.15114385
21	0x3fe56b4a	1.7923367
22	0xc029901e	-2.6494212
23	0xbf761c2a	-0.96136725
24	0xbf19c130	-0.60060406
25	0x3e805e27	0.25071833
26	0x3f7711ee	0.96511734
27	0xbc4ea3ae	-0.0126122665
28	0xbf8e1032	-1.1098692
29	0x3f255dce	0.6459626
30	0xbd61b856	-0.055107437
31	0x3f305dfc	0.6889341
32	0xbdce480f	-0.10072338
33	0x3f8583c0	1.0430832
34	0x3e85343b	0.2601641
35	0xbedf7a4d	-0.43647996
36	0x40170563	2.3597038
37	0xbe520bd1	-0.2051232
38	0xbca0fbf8	-0.019651398
39	0xbf5725ee	-0.8404225
40	0x3dbdb5e1	0.09263206
41	0x3fe98bb6	1.8245761
42	0xbe771708	-0.2412988
43	0x3f9f77bc	1.2458415
44	0xc00debd1	-2.217518
45	0xc00bfe5a	-2.1873994
46	0xbf51a752	-0.81895936
47	0x3f76f68b	0.96469945
48	0xc0164bfd	-2.348388
49	0xbf46ba79	-0.77628285
50	0x3f3c506b	0.7356021
51	0x3fcd4151	1.6035558
52	0xbf83959d	-1.0280033
53	0x3e50bf0d	0.2038538
54	0xbfaa608a	-1.3310711
55	0x3f4735e9	0.77816635
56	0x3fe6e075	1.8037249
57	0x3fc93ff1	1.5722638
58	0xbf03e41b	-0.51519936
59	0xc008c410	-2.1369667
60	0xbd5e1368	-0.054217726
61	0x3f1a1e80	0.6020279
62	0xbc8506f8	-0.016238675
63	0xbf99346f	-1.1969126
64	0xbf1d6e8b	-0.614968
65	0x3fa1556a	1.2604191
66	0x3dcab8e2	0.09898545
67	0x3fd9536e	1.6978586
68	0x3f6b5190	0.9192133
69	0xbf5e83e3	-0.86919993
70	0x3f979b51	1.1844274
71	0xbea63b95	-0.32467332
72	0x3ef0ef53	0.4705759
73	0xbf4204aa	-0.75788367
74	0xbe88a5cf	-0.26689002
75	0xbf029849	-0.5101362
76	0x3eb33a6f	0.3500552
77	0x3f861d99	1.0477782
78	0xbf19ea53	-0.60123175
79	0xbeacb101	-0.33728793
80	0xbf1ac744	-0.60460305
81	0xbf3554be	-0.7083243
82	0x3ca413a6	0.0200289
83	0xbf895deb	-1.0731786
84	0xbfb6c579	-1.4279014
85	0xbdff4f2b	-0.12466272
86	0x3f97fbbe	1.1873701
87	0x3cf8ef80	0.03038764
88	0xbffbcbcc	-1.9671569
89	0x3ec1da33	0.37861785
90	0xbf593d33	-0.8485901
91	0xbe95f4be	-0.29288286
92	0x3fbc4e24	1.4711347
93	0xbe6334a8	-0.22188056
94	0xbd058ac7	-0.03260305
95	0x3d1510b5	0.036392886
96	0x4000f3ce	2.0148807
97	0x3f44d8e6	0.7689346
98	0x3fd0be5e	1.6308095
99	0x3e0c30b3	0.13690452
100	0x3df141f2	0.11780156
101	0x3f03e5de	0.51522624
102	0xbf571763	-0.8402006
103	0xbeb4d961	-0.35322097
104	0xbfb8e90b	-1.4446119
105	0xbfb87f99	-1.441394
106	0xbd1478b6	-0.03624793
107	0xbfd384ee	-1.6524942
108	0x3f1e4335	0.618213
109	0xbfaf8de9	-1.3715183
110	0x3fa47bd8	1.2850294
111	0x3f3dbdea	0.7411791
112	0xbe72c601	-0.23708345
113	0xbfd6b7ce	-1.6774843
114	0x3fa19fbe	1.2626874
115	0x3e135848	0.14389145
116	0x3df15a2d	0.11784778
117	0x3add46ea	0.0016882096
118	0x3f896215	1.0733057
119	0x3ed36f79	0.41295984
120	0xbf834d22	-1.0257914
121	0xbe9d9c22	-0.30783182
122	0xc02b1f56	-2.6737876
123	0x3f743969	0.954001
124	0xc00d0837	-2.2036264
125	0xbc8786aa	-0.016543705
126	0xbffbe53f	-1.9679335
127	0x3f19d494	0.60089993
128	0xbe8d3aff	-0.27584073
129	0x3fd2ec3b	1.6478342
130	0xbed06194	-0.40699446
131	0xbf772ca4	-0.9655249
132	0x3f47d1b7	0.78054374
133	0x3ddba46e	0.10724722
134	0x3f1b356c	0.6062839
135	0x3dd30515	0.10303704
136	0x3fb235de	1.3922689
137	0xbde0f72b	-0.109846435
138	0xbd67483d	-0.056465376
139	0x3ee204ba	0.4414423
140	0xbe637668	-0.22213137
141	0x3da5bcb8	0.08092636
142	0x3fd33e5a	1.6503403
143	0x3f84a229	1.0361987
144	0xbf4abc1d	-0.7919329
145	0xbffc5e4b	-1.9716276
146	0xbf226eff	-0.63450617
147	0x3f07eb32	0.53093255
148	0x3fc4702e	1.5346735
149	0xbe3b6746	-0.18301114
150	0xbf4b2918	-0.7935958
151	0xbec91153	-0.3927103
152	0xbf5a7336	-0.8533205
153	0x3e133a86	0.14377794
154	0x3f81454c	1.0099273
155	0x3dd91581	0.10599805
156	0x3f4e76c5	0.8064998
157	0x3d87dc36	0.06633799
158	0x3c942749	0.018085139
159	0xbf9f3199	-1.2437011
160	0xbea79adc	-0.32735336
161	0xbf20a873	-0.62757033
162	0xbf8c51b7	-1.0962437
163	0x3f841143	1.0317768
164	0xbf5d4f81	-0.8644944
165	0xbfd6605a	-1.6748154
166	0xbf8df6fe	-1.1091001
167	0x3fb30638	1.3986273
168	0x3efc8050	0.49316645
169	0xbed464da	-0.41483194
170	0x3e492246	0.1964198
171	0xbfb20487	-1.3907632
172	0xbfcfab5c	-1.622417
173	0x3f98f182	1.1948702
174	0x3f6b1b6e	0.9183873
175	0xc0213d2f	-2.5193594
176	0xbf8a0050	-1.0781345
177	0x3e31df80	0.17370415
178	0xbfb01976	-1.375777
179	0x3f8e6c49	1.1126796
180	0x3f56b9fc	0.8387754
181	0xbf4b8b75	-0.7950967
182	0x3e1f95a2	0.15584424
183	0xbeceb0c7	-0.40369245
184	0x3fc64518	1.5489836
185	0xbfcb2489	-1.5870525
186	0x3f160f95	0.58617526
187	0xbf17bf04	-0.5927584
188	0x3f9aa42f	1.2081355
189	0xbfb27d6f	-1.3944529
190	0x3f4cd4ab	0.80012006
191	0xbd89f86d	-0.067368366
192	0xbf4e4b1a	-0.80583346
193	0xbd4de4f9	-0.050267193
194	0x3e7cb9ad	0.24680205
195	0x3c9179eb	0.01775833
196	0x3dc9cf8e	0.09854041
197	0xbf89a4f5	-1.0753466
198	0x3efd88a6	0.49518317
199	0x3fb2c316	1.3965786
200	0x3d59b1c1	0.053148035
201	0xbdf4dcc6	-0.11956172
202	0xbf8b01c4	-1.0859914
203	0xbe3b87f1	-0.18313576
204	0xbe122ae5	-0.14274175
205	0xbefc53a1	-0.49282554
206	0x3eea1e22	0.45726115
207	0xbe007f3d	-0.12548538
208	0x3f4c7927	0.79872364
209	0x3fd4b194	1.6616693
210	0xbec13aa5	-0.37740055
211	0x3fb80c4d	1.4378754
212	0xc0056e33	-2.084851
213	0xbe4df3ee	-0.20112583
214	0x3fcb9117	1.5903653
215	0xc03b27b5	-2.9242985
216	0xbffcc6e2	-1.9748194
217	0xbf91c0e1	-1.1386987
218	0xbfafe312	-1.3741171
219	0xbf13f431	-0.5779448
220	0xbfac793d	-1.3474499
221	0x3e54bfde	0.20776317
222	0xbd004ca1	-0.03132308
223	0x3ed47d6e	0.41501945
224	0x3e7b5846	0.24545392
225	0xbe4e7d7c	-0.20165056
226	0xbf13ef26	-0.57786787
227	0x3e553def	0.20824407
228	0xbfb98fb7	-1.4496983
229	0x3fd551c1	1.6665574
230	0xbea97b4c	-0.3310188
231	0x3fa1464b	1.2599577
232	0xc0239802	-2.5561528
233	0xbff1ea63	-1.8899654
234	0x3e95d546	0.29264277
235	0xbc5a9b3f	-0.013342678
236	0x3f3f5ce1	0.74751097
237	0x3f7264e7	0.94685215
238	0xbe03c0bd	-0.12866493
239	0x3fb0f6af	1.3825282
240	0xbf1422a1	-0.5786534
241	0x3f453d2f	0.77046484
242	0xbe4fb03e	-0.20282075
243	0x3e901c63	0.28146657
244	0x3e599e84	0.21251875
245	0x4002163e	2.0326076
246	0xbf8058ad	-1.0027062
247	0xbf91c608	-1.1388559
248	0x3dfa69ed	0.12227235
249	0x3f86f5af	1.0543727
250	0xbfbf8894	-1.4963555
251	0x3ec45a2a	0.3835004
252	0xbff04e2b	-1.8773855
253	0x3f7fe06b	0.9995181
254	0xbfe11879	-1.7585593
255	0x3ff840dd	1.9394795

lin.bias f4 [10]
0	0xbdd4a668	-0.10383302
1	0x3f05f8f3	0.5233299
2	0x3ee76277	0.4519231
3	0x3de80a9c	0.113301486
4	0xbe975a88	-0.29561257
5	0xbf137fdb	-0.57616967
6	0xbe6519e9	-0.22373165
7	0x3f20717c	0.62673163
8	0xbfb068eb	-1.3782018
9	0xc06c5d21	-3.6931841
