models/standard/k-fold saves/test1e_f9_e10_f8_b64.pt (torch, 335209 bytes, 86 tensors)

conv1.weight f4 [8, 2, 5, 5]
-0.73788166 0.9257812 4.6143327 1.5494217 0.86977917 -1.6485829 -0.39416346 1.597595
0.54620606 -0.74121046 -0.6193874 -1.0132077 0.14980048 -0.41800305 -0.024628347 -1.1996922
-1.1586215 0.333887 -0.7825827 0.25187844 -0.5527639 -0.50168777 0.24349967 -1.1091695
-0.3416928 -0.21050172 1.1309652 4.1101093 1.983572 0.75893503 -0.6586702 -0.13416988
1.3411038 -0.4147558 -0.70459294 -0.36411476 -1.0500227 0.49162206 -0.65096956 0.2678981
-0.01439234 -0.64351016 -0.14403473 -0.54335916 0.08653945 0.34577325 0.23915096 0.0116957575
-0.29904 0.44799715 -0.16011353 -1.9700633 -0.73117614 -1.034019 -0.60943705 0.46697703
-1.3200713 -0.33936083 0.020368995 0.5527387 0.7047825 -0.906315 -0.30146474 0.51499146
0.027197931 0.9718756 -1.1126962 -0.9308189 -0.023524841 0.010327657 2.572787 1.2531583
0.9297195 0.86590195 0.4357347 -0.27070045 -1.3851098 -1.2937641 -1.0602463 -0.6566003
1.0113167 -0.7662696 -0.7443543 0.16696092 0.036162138 1.1171838 -0.7354559 -0.6178776
-0.2148406 -0.2399925 1.4300255 -0.36950314 -0.3687039 -0.31500593 0.11690377 3.3901706
1.9251366 1.0365092 0.94709945 0.49769306 6.514887 0.36396518 3.6671276 0.9594902
-0.35909215 1.9753766 -1.008345 1.0365514 -0.09371795 -0.60881263 1.002005 -1.3333772
0.81496656 -0.13669181 -0.41086435 -0.13549355 -1.6704305 1.5038221 0.41880658 0.4743163
1.5029863 0.308794 0.7494946 0.36950764 0.22757153 2.6652899 -0.37825778 1.3048807
0.27335408 -0.58090866 0.16605109 -1.3214039 0.3147512 0.013039997 -0.20501131 -0.056101844
-1.390035 -0.12002613 -0.23118761 0.14991927 -1.6942159 -1.530745 0.59778225 0.3601417
0.20002533 0.20223229 -0.029575905 0.17316271 0.13099246 0.15447235 -1.0017854 -1.5006086
-1.2463052 0.5056474 -0.6732792 -0.48951533 -0.3092186 -0.0808893 0.061880182 0.5309695
-0.98380065 1.2201747 -0.48610052 -0.6924363 -0.36927494 1.3577613 3.1503022 0.9031526
1.0564536 -0.050989155 -0.33258763 0.78924286 -0.27926 -0.9047089 -0.5480921 -1.2713257
-1.4657305 -1.3509711 0.0015711092 -0.32743046 -0.48024416 -0.060077574 -0.17418122 0.029163703
0.22114527 -0.94096863 1.5678539 -0.18133426 -0.6695076 -0.011741584 1.1046587 3.9709506
1.2222909 0.5071496 0.36141384 0.01996475 1.087837 0.25852326 -0.73951024 -0.12157388
4.5056334 1.7732787 -0.26126894 -0.33518586 -0.11602042 2.9410143 1.4680179 -0.5992412
-0.3804956 -0.388008 2.6333964 0.89026046 -0.17211996 0.54916346 0.13557065 0.982313
-0.22118826 -0.6041476 0.69057035 -0.021629004 0.13197093 -0.2258281 -0.4543258 0.9481313
-0.1713624 1.4112396 1.5511588 -1.6132671 -1.1894798 -1.3743292 1.0510082 0.6192956
-2.1976147 -1.4019184 -1.0070299 1.2065374 1.099587 -1.5228251 -0.635333 -0.89534295
-0.18929759 -0.21510269 -0.92982495 0.26051453 -0.5018901 -0.5681554 -0.553893 -0.4599441
0.10110994 -0.28804296 -1.43595 -0.79072446 -2.6509128 -1.494992 -1.4418186 0.65898395
00000000: d0e5 3cbf ffff 6c3f 9da8 9340 7353 c63f
00000010: d9a9 5e3f c404 d3bf cbcf c9be fe7d cc3f
00000020: 29d4 0b3f f8bf 3dbf 2c90 1ebf cab0 81bf
00000030: 4c65 193e 7f04 d6be 63c1 c9bc 848f 99bf
00000040: b64d 94bf 3df3 aa3e 5757 48bf 36f6 803e
00000050: ef81 0dbf 9c6e 00bf fa57 793e 44f9 8dbf
00000060: 5cf2 aebe c38d 57be 78c3 903f 0486 8340
00000070: b0e5 fd3f 9149 423f 9c9e 28bf d463 09be
00000080: 4aa9 ab3f df5a d4be 3460 34bf 406d babe
00000090: 2567 86bf e3b5 fb3e f1a5 26bf f129 893e
000000a0: d9cd 6bbc 15bd 24bf d77d 13be 9619 0bbf
000000b0: 983b b13d 3109 b13e fde3 743e 909f 3f3c
000000c0: c51b 99be e25f e53e cdf4 23be 092b fcbf
000000d0: 5c2e 3bbf bc5a 84bf 1104 1cbf 9d17 ef3e
000000e0: 19f8 a8bf b4c0 adbe e1dc a63c 4980 0d3f
000000f0: a06c 343f 4304 68bf 9659 9abe 7bd6 033f
00000100: 32ce de3c d7cc 783f d46c 8ebf 264a 6ebf
00000110: 2bb7 c0bc 5535 293c 8ba8 2440 7e67 a03f
00000120: 1902 6e3f c0ab 5d3f 9e18 df3e 4099 8abe
00000130: 474b b1bf 109a a5bf 27b6 87bf f516 28bf
00000140: d372 813f 3f2a 44bf 018e 3ebf cef7 2a3e
00000150: c01e 143d e1ff 8e3f d646 3cbf 3a2d 1ebf
00000160: 2dff 5bbe 98c0 75be 130b b73f 842f bdbe
00000170: c2c6 bcbe 7548 a1be 3e6b ef3d 8ef8 5840
00000180: e06a f63f 55ac 843f 1c75 723f a0d1 fe3e
00000190: f479 d040 a559 ba3e 38b2 6a40 26a1 753f
000001a0: edda b7be 24d9 fc3f 7311 81bf b7ad 843f
000001b0: 32ef bfbd 25db 1bbf b341 803f 1bac aabf
000001c0: a6a1 503f f0f8 0bbe d05c d2be d2be 0abe
000001d0: abd0 d5bf 3e7d c03f d16d d63e 96d9 f23e
000001e0: db61 c03f 3f1a 9e3e e1de 3f3f 1b30 bd3e
000001f0: 8308 693e 1c94 2a40 01ab c1be 5506 a73f
00000200: 11f5 8b3e 6eb6 14bf 4c09 2a3e c323 a9bf
00000210: 1227 a13e b6a5 553c 7cee 51be 0ccb 65bd
00000220: abec b1bf 42d0 f5bd 72bc 6cbe 7084 193e
00000230: 11dc d8bf 74ef c3bf 4208 193f 7e64 b83e
00000240: 71d3 4c3e fb15 4f3e 2b49 f2bc 9151 313e
00000250: e322 063e 002e 1e3e 813a 80bf f113 c0bf
00000260: ee86 9fbf 1c72 013f 075c 2cbf c1a1 fabe
00000270: e651 9ebe 4aa9 a5bd 1376 7d3d 9eed 073f
00000280: 5cda 7bbf af2e 9c3f 2be2 f8be 8143 31bf
00000290: 9b11 bdbe 1fcb ad3f 8d9e 4940 0235 673f
000002a0: df39 873f 01da 50bd ed48 aabe d20b 4a3f
000002b0: 2bfb 8ebe 019b 67bf c44f 0cbf cdba a2bf
000002c0: 0f9d bbbf 9fec acbf aded cd3a f7a4 a7be
000002d0: 90e2 f5be e713 76bd 905c 32be b8e8 ee3c
000002e0: e873 623e 52e3 70bf 70af c83f b0af 39be
000002f0: da64 2bbf c65f 40bc 7565 8d3f 0e24 7e40
00000300: 0774 9c3f 8ed4 013f 3c0b b93e 1e8d a33c
00000310: 3e3e 8b3f 295d 843e 8b50 3dbf bafb f8bd
00000320: 262e 9040 ccfa e23f 0bc5 85be 7b9d abbe
00000330: 1d9c edbd 9439 3c40 03e8 bb3f df67 19bf
00000340: 52d0 c2be fca8 c6be 9189 2840 1ce8 633f
00000350: 3740 30be fa95 0c3f 08d3 0a3e dd78 7b3f
00000360: 2d7f 62be 6ba9 1abf 38c9 303f 4f2f b1bc
00000370: 6323 073e 7b3f 67be 649d e8be bcb8 723f
00000380: a079 2fbe 80a3 b43f 5f8c c63f 897f cebf
00000390: e040 98bf 05ea afbf 7087 863f 288a 1e3f
000003a0: b8a5 0cc0 1072 b3bf 5be6 80bf d16f 9a3f
000003b0: 44bf 8c3f efeb c2bf 2fa5 22bf 3235 65bf
000003c0: 3ad7 41be e143 5cbe 0209 6ebf 2962 853e
000003d0: df7b 00bf a272 11bf efcb 0dbf cb7d ebbe
000003e0: ba12 cf3d 5e7a 93be 36cd b7bf eb6c 4abf
000003f0: 8ea8 29c0 e65b bfbf 838d b8bf 2cb3 283f

conv1.bias f4 [8]
-3.999395 -2.621168 -1.8246902 -1.2807746 -3.4885502 -0.23388894 0.03675898 -5.4832673
00000000: 16f6 7fc0 37c1 27c0 738f e9bf 6cf0 a3bf
00000010: 6844 5fc0 9580 6fbe 9690 163d ed76 afc0

bn1.weight f4 [8]
1.3124821 1.3279914 1.3145108 1.7825501 1.3451103 1.8574002 1.4722193 1.3932759
00000000: 6aff a73f 9ffb a93f e441 a83f 9a2a e43f
00000010: 932c ac3f 4abf ed3f af71 bc3f dd56 b23f

bn1.bias f4 [8]
-0.73654896 -0.32261276 -1.3245353 0.49440402 -1.9060527 -1.0847212 1.0336518 -1.0526612
00000000: 798e 3cbf 802d a5be 5f8a a9bf 8622 fd3e
00000010: 89f9 f3bf 25d8 8abf b44e 843f 9abd 86bf

bn1.running_mean f4 [8]
1.4247594 0.9553853 4.959886 0.86544305 1.6227889 1.3585802 9.995754 2.1616728
00000000: 845e b63f 2294 743f 63b7 9e40 ad8d 5d3f
00000010: 8cb7 cf3f f5e5 ad3f 9cee 1f41 d958 0a40

bn1.running_var f4 [8]
20.98608 12.792068 136.69304 10.4271555 21.519459 21.071047 69.176926 32.415028
00000000: 7ee3 a741 4fac 4c41 6bb1 0843 a1d5 2641
00000010: da27 ac41 8191 a841 965a 8a42 fda8 0142

conv2.weight f4 [16, 8, 3, 3]
-0.2721254 -2.0998652 -1.0770472 2.0322075 -0.84138465 -0.55105746 0.0907546 -0.14092179
0.90596634 -0.80442953 -0.23592421 0.7889966 -3.10362 -1.262794 -0.62587136 -0.3771179
0.1823674 -0.2689582 1.31305 0.34143296 0.56464624 1.0387871 0.8610316 0.524227
1.6884576 0.91313744 0.6645635 0.4262721 -0.027744295 -0.7827129 -2.2589095 -2.7206876
0.40381223 -0.17533915 -0.4411294 0.8332749 -0.86285245 0.10582096 0.12768297 0.4712373
0.35137752 0.09506602 2.5770326 0.38426644 0.29398182 0.4811269 0.13157558 -0.70674694
-3.3344285 -2.9728642 -1.7721462 1.2191386 0.018680148 0.19018908 -0.8188043 -0.4556569
-0.34222242 -0.61012876 -0.4989219 -0.1780546 -1.9509268 -1.718321 0.4053967 0.016932312
0.2807325 -1.2949684 3.3438065 0.9585054 0.12072343 1.0565991 -0.38351223 0.2981436
0.5503571 1.6819988 1.4388165 -0.4902854 -0.48078817 1.1295472 -1.0860441 0.22307491
0.84811497 -0.84324086 -1.6648457 0.009180853 -0.30077168 -0.9372307 1.7725757 -0.60811275
-0.8967416 0.5485235 0.32166424 1.5730885 1.8181317 0.14830962 1.3319112 0.955908
-0.5281783 1.0951416 1.4539326 -1.921386 -0.034476046 1.0039041 -0.85774064 -0.6437306
0.98329526 -1.0317358 0.16808163 0.3114856 -2.1515605 -0.9088549 1.0422786 -2.402529
-0.9129576 -0.086463906 -2.0749643 -1.3119731 0.37235197 1.0873524 0.2688184 1.9906374
-2.100221 0.22879468 1.4587429 -1.4065096 0.17586839 1.1085682 -1.0411102 1.0068535
0.5283423 -1.7148619 0.5244657 -0.4454228 -2.0675812 0.684701 0.14750434 -0.11707778
1.0709274 2.128504 -0.34610724 -0.038301654 1.9327751 -0.6804578 -0.617532 1.5907096
-4.0789156 -0.028283782 0.4697959 -0.8737643 -0.9666896 -0.28777742 -1.2222295 -1.6821778
-0.8173273 1.0685744 -2.438286 0.06134282 0.9203849 -2.5459228 -1.1742284 -0.21077761
-1.5583117 1.9372746 -0.07119316 -1.2426158 1.1444678 0.10088781 -2.9663792 -1.164369
0.122103214 -2.0584817 -0.82936984 1.5342431 0.3600346 -0.37756008 0.3760591 0.03665993
-0.28450814 -0.24390364 -0.015444414 -0.40036833 0.29783463 -3.5654523 0.47926375 0.5607207
-3.238509 -1.8798531 0.43312347 -4.141028 -2.2089958 0.16051026 -2.1301687 1.2629018
0.9861905 -0.13269939 -0.49264312 1.4378314 -0.630536 -1.902897 0.47864497 0.057874147
0.6619865 -0.18712074 -0.0077984203 -0.048457768 -0.5324887 -0.3256692 0.66647756 1.448923
0.09332691 -0.2468033 1.5245496 0.36002216 0.095483676 1.2718328 -0.7713681 0.22541979
-4.000904 -2.1825356 -1.3789973 0.39863047 0.52801234 2.0824687 -1.0132294 0.7092101
0.19574499 1.7045208 0.5720162 0.24239032 -1.249867 -0.3067281 0.75716865 -2.1621878
0.22265387 1.3185118 -2.493823 -1.6997586 -0.31567916 -0.76668245 -0.45996428 -0.3449587
-0.95286435 -0.39937514 0.59911627 0.6435696 -0.44730034 -0.22884591 1.0208622 1.217441
0.7825695 -1.0614628 -0.6447418 -1.9209939 -1.895781 0.09862403 -0.7720814 -0.3395141
00000000: 0554 8bbe 3164 06c0 afdc 89bf b00f 0240
00000010: fc64 57bf 1a12 0dbf 8cdd b93d cd4d 10be
00000020: 69ed 673f 18ef 4dbf 1e96 71be aefb 493f
00000030: b6a1 46c0 3ca3 a1bf 1b39 20bf 9915 c1be
00000040: 85be 3a3e e4b4 89be 0612 a83f 4dd0 ae3e
00000050: a88c 103f faf6 843f 916c 5c3f be33 063f
00000060: 611f d83f 60c3 693f d520 2a3f 5640 da3e
00000070: 0148 e3bc df5f 48bf f991 10c0 bf1f 2ec0
00000080: 7ac0 ce3e 1b8c 33be b6db e1be 8151 553f
00000090: e6e3 5cbf a9b8 d83d 53bf 023e 0446 f13e
000000a0: c1e7 b33e f9b1 c23d 1aee 2440 92be c43e
000000b0: c984 963e 4456 f63e c0bb 063e 5eed 34bf
000000c0: 4767 55c0 6843 3ec0 b0d5 e2bf bc0c 9c3f
000000d0: 1c07 993c edc0 423e 299d 51bf dc4b e9be
000000e0: c737 afbe 6631 1cbf b172 ffbe f253 36be
000000f0: f8b7 f9bf f1f1 dbbf 2890 cf3e a2b5 8a3c
00000100: 2cbc 8f3e 86c1 a5bf ed00 5640 9c60 753f
00000110: d83d f73d a43e 873f b75b c4be 47a6 983e
00000120: 34e4 0c3f bd4b d73f 242b b83f b006 fbbe
00000130: de29 f6be 0195 903f 7e03 8bbf c06d 643e
00000140: 101e 593f a2de 57bf aa19 d5bf 4a6b 163c
00000150: bffe 99be 5aee 6fbf c3e3 e23f 47ad 1bbf
00000160: dc90 65bf 096c 0c3f 2db1 a43e f75a c93f
00000170: 8ab8 e83f 7ade 173e 117c aa3f 63b6 743f
00000180: b136 07bf 9a2d 8c3f 771a ba3f faef f5bf
00000190: c136 0dbd ee7f 803f e494 5bbf 87cb 24bf
000001a0: 3db9 7b3f eb0f 84bf 971d 2c3e 0a7b 9f3e
000001b0: 2bb3 09c0 b7aa 68bf 6369 853f 09c3 19c0
000001c0: 97b7 69bf fd13 b1bd 37cc 04c0 bcee a7bf
000001d0: eba4 be3e 5d2e 8b3f 91a2 893e 35cd fe3f
000001e0: 056a 06c0 2749 6a3e 16b8 ba3f 8208 b4bf
000001f0: d816 343e 90e5 8d3f 1943 85bf 93e0 803f
00000200: 7141 073f 9880 dbbf 6243 063f 750e e4be
00000210: 4053 04c0 9148 2f3f 610b 173e 7ac6 efbd
00000220: 2614 893f 6939 0840 f834 b1be 32e2 1cbd
00000230: 2d65 f73f 7b32 2ebf 9416 1ebf 5f9c cb3f
00000240: 7a86 82c0 64b3 e7bc 1789 f03e 04af 5fbf
00000250: f878 77bf 9057 93be 0472 9cbf 9a51 d7bf
00000260: 5d3c 51bf 0cc7 883f e10c 1cc0 9c42 7b3d
00000270: 589e 6b3f 66f0 22c0 1e4d 96bf 16d6 57be
00000280: c276 c7bf 9df8 f73f b8cd 91bd 090e 9fbf
00000290: ec7d 923f 459e ce3d 28d9 3dc0 0b0a 95bf
000002a0: 4011 fa3d 2abe 03c0 9551 54bf 1462 c43f
000002b0: 7556 b83e 8e4f c1be d18a c03e b928 163d
000002c0: 0dab 91be e0c1 79be 910a 7dbc 14fd ccbe
000002d0: c87d 983e 5f30 64c0 0f62 f53e 648b 0f3f
000002e0: bb43 4fc0 079f f0bf 5cc2 dd3e 4d83 84c0
000002f0: 3060 0dc0 cd5c 243e af54 08c0 c4a6 a13f
00000300: fb76 7c3f 59e2 07be b83b fcbe dc0a b83f
00000310: cf6a 21bf 2192 f3bf f410 f53e 710d 6d3d
00000320: f277 293f 949c 3fbe e489 ffbb a77b 46bd
00000330: 2e51 08bf 1dbe a6be 469e 2a3f 4f76 b93f
00000340: 2e22 bf3d 01ba 7cbe 7124 c33f d354 b83e
00000350: f28c c33d 6bcb a23f 6178 45bf 72d4 663e
00000360: 6807 80c0 aaae 0bc0 fc82 b0bf 4b19 cc3e
00000370: d12b 073f 2b47 0540 80b1 81bf cb8e 353f
00000380: 6071 483e bd2d da3f a76f 123f 2b35 783e
00000390: a4fb 9fbf 770b 9dbe ced5 413f 4961 0ac0
000003a0: 60ff 633e ffc4 a83f cc9a 1fc0 b191 d9bf
000003b0: b3a0 a1be 4d45 44bf 7080 ebbe 6d9e b0be
000003c0: ebee 73bf e67a ccbe af5f 193f fac0 243f
000003d0: 8d04 e5be 9556 6abe 9dab 823f 1bd5 9b3f
000003e0: 7a56 483f 03de 87bf cc0d 25bf 21e3 f5bf
000003f0: f4a8 f2bf 65fb c93d 20a7 45bf cbd4 adbe

conv2.bias f4 [16]
-0.29164138 -0.2802252 -0.35992497 -1.5896506 0.19271258 -3.765969 -3.869706 1.8152691
1.1195369 -1.9110124 -1.9195251 -0.6123551 1.9398595 -2.3962142 -0.21620366 -2.911618
00000000: 0552 95be ad79 8fbe 1648 b8be ac79 cbbf
00000010: 7256 453e a305 71c0 43a9 77c0 bd5a e83f
00000020: fc4c 8f3f 0e9c f4bf 00b3 f5bf 4ec3 1cbf
00000030: 514d f83f 935b 19c0 7e64 5dbe f357 3ac0

bn2.weight f4 [16]
2.5582147 2.4475014 1.3411916 1.0995128 0.8039777 1.7940952 1.462333 1.0749387
3.1814666 0.95899093 1.4845641 1.4706995 2.0295072 1.5921606 0.72658587 1.4695272
00000000: cab9 2340 dda3 1c40 2bac ab3f d6bc 8c3f
00000010: 7cd1 4d3f e9a4 e53f ba2d bb3f 9797 893f
00000020: 269d 4b40 6e80 753f 3206 be3f e23f bc3f
00000030: 72e3 0140 ebcb cb3f 8801 3a3f 7819 bc3f

bn2.bias f4 [16]
0.26969525 0.34885657 -0.8506537 -0.13950503 -0.56783897 0.28259528 0.35956046 -1.199696
0.04841204 0.33968958 0.37360352 -0.30632845 -0.28774998 0.69890934 0.4284996 0.33536556
00000000: 7f15 8a3e 549d b23e 71c4 59bf 68da 0ebe
00000010: e55d 11bf 54b0 903e 4f18 b83e a38f 99bf
00000020: b44b 463d cbeb ad3e f648 bf3e 15d7 9cbe
00000030: f753 93be b9eb 323f 4d64 db3e 09b5 ab3e

bn2.running_mean f4 [16]
1.8570024 4.097931 45.106583 7.7117267 29.22861 4.4343143 1.7855109 19.238045
2.5548294 9.968911 1.7003436 2.232234 4.2923474 1.4865265 13.025527 36.33593
00000000: 41b2 ed3f 4022 8340 246d 3442 77c6 f640
00000010: 31d4 e941 e7e5 8d40 9f8b e43f 84e7 9941
00000020: 5382 2340 a980 1f41 dca4 d93f ecdc 0e40
00000030: e95a 8940 8046 be3f 8f68 5041 fe57 1142

bn2.running_var f4 [16]
47.281666 191.86809 372.91617 151.51645 430.99985 195.98439 33.968727 89.72861
77.08098 222.46925 38.27644 53.019455 147.10132 29.44433 82.71521 299.93552
00000000: 6d20 3d42 3bde 3f43 4575 ba43 3684 1743
00000010: fb7f d743 01fc 4343 fadf 0742 0c75 b342
00000020: 7629 9a42 2178 5e43 131b 1942 ec13 5442
00000030: f019 1343 fd8d eb41 306e a542 bff7 9543

conv3.weight f4 [32, 16, 3, 3]
1.7254326 -0.9042844 -1.1913099 -0.7170761 -1.1668879 0.6998141 -1.4165411 -0.62617135
0.09200305 0.61502403 0.48082426 -0.06684537 0.47991434 1.2788471 2.5262957 -0.15659513
2.0764225 2.1412823 -1.1221306 2.183489 0.96393734 1.1497679 2.5842001 0.88950163
2.9327567 2.9728324 0.43798333 -2.8981452 -2.4423199 1.130613 -0.95888406 0.9757763
0.519073 -2.6895642 -0.16169682 -0.05329519 1.7501278 0.27594543 -0.45542017 1.6083894
-0.66688514 0.14355953 2.5849903 0.95413023 -1.0227917 -2.8640306 1.4623785 0.020575987
-2.0135407 -0.97690594 1.276938 -2.6337266 0.6292102 1.8390272 0.6959098 1.0408703
-0.021733947 -0.47021765 0.20934081 0.09803951 -1.3700876 1.5740353 0.68683606 0.7370059
1.5727183 0.9525093 2.8125114 1.1920825 0.7164193 2.1877337 1.1490813 1.7794937
1.0867263 0.9346559 -1.1713693 0.2571597 -0.49085078 0.52270764 -1.5339023 -1.740176
0.5390243 -1.9736655 -0.4850707 -1.141734 -1.720989 0.52331734 0.20002803 -0.7268223
1.2578293 0.9469708 -1.3466595 -1.7098515 0.25750306 -3.046325 -0.9625711 -0.1502308
-2.2570987 0.12491936 0.30177152 0.9058818 -2.3603609 1.1826631 -0.5402824 0.95644605
-0.09359387 -1.5236053 1.5162628 0.4649228 0.13911048 -0.17028616 -0.1462575 0.80263996
0.37195942 0.6374951 1.4444598 0.7222754 0.23196408 2.9145992 0.57093495 -1.4701422
-0.07408167 0.66635764 0.05985082 -2.7754178 0.012707729 -0.20113572 -3.3355546 -1.068598
0.41126174 -2.3665776 -0.21549235 0.21852665 -0.34293106 1.2448148 1.3396776 -0.73392683
-0.32891288 0.5890065 0.42984062 -0.5864317 1.2024357 1.9368368 -0.15340434 1.0725235
0.9150907 -0.18865786 0.5535173 2.0641952 1.8207589 0.85425913 0.66464734 0.53047323
0.44534954 -0.3723583 0.35334522 -0.9071264 -0.54205745 -0.98670036 -0.9011168 0.5519935
-2.527461 -0.22073485 -0.08956239 -0.101992324 1.0604507 -0.33366793 0.03845292 0.2914785
-0.95465547 -0.19202971 0.5991965 0.46547738 0.30901584 -0.20961486 0.65369046 -0.36022013
-0.45595354 -5.4222603 -2.2492437 -0.17436922 -0.2957354 1.0217005 0.06127789 -2.0419757
-0.21703771 -1.0564104 -1.3696812 -0.43597034 -1.717091 -0.37890404 0.22961979 1.2710452
0.60080063 1.0189583 0.8965504 1.7555708 0.118896075 -1.4022605 0.23601283 -0.8578244
-0.63783836 -1.7292104 0.4186331 -0.91706294 1.0916146 0.21396013 -0.051393796 0.31752896
0.542224 0.5664172 0.18757077 -0.28203458 0.25399905 0.32926533 1.3093773 0.94797516
0.46627453 0.22703093 0.48331687 0.24721639 -0.82235277 0.28114492 -3.6272874 -1.2967625
-1.497866 -0.44310093 1.4934624 1.1842191 -2.9280608 -0.46868882 -0.3010953 -0.6521077
0.0072387704 -0.56158286 0.005157752 0.32208025 1.1929134 -2.110918 -3.194316 -2.580047
0.121922 0.8450064 -0.7276337 0.80390006 1.0744252 -0.80949783 -0.013192222 0.16470325
2.8101969 0.34922147 -2.470183 0.3389872 1.4222012 -0.025915181 0.20921548 0.7116142
00000000: fada dc3f 2f7f 67bf d87c 98bf 4d92 37bf
00000010: 955c 95bf 0427 333f 3851 b5bf c44c 20bf
00000020: 186c bc3d 3772 1d3f 992e f63e 3ae6 88bd
00000030: 55b7 f53e 43b1 a33f d4ae 2140 795a 20be
00000040: 1be4 0440 c50a 0940 faa1 8fbf 49be 0b40
00000050: 99c4 763f 982b 933f 8963 2540 61b6 633f
00000060: 49b2 3b40 e342 3e40 5a3f e03e 367b 39c0
00000070: f84e 1cc0 edb7 903f 6d79 75bf 7acc 793f
00000080: f8e1 043f d221 2cc0 da93 25be 0f4c 5abd
00000090: 3004 e03f b848 8d3e d52c e9be b4df cd3f
000000a0: fcb8 2abf 4501 133e 7b70 2540 e141 743f
000000b0: d7ea 82bf 474c 37c0 382f bb3f f98e a83c
000000c0: dadd 00c0 8216 7abf b472 a33f fa8e 28c0
000000d0: eb13 213f 3e65 eb3f 2527 323f 3d3b 853f
000000e0: 640b b2bc 5ec0 f0be 705d 563e f0c8 c83d
000000f0: 085f afbf fd79 c93f 7dd4 2f3f 6bac 3c3f
00000100: d54e c93f a6d7 733f 3000 3440 2996 983f
00000110: 4167 373f d403 0c40 1915 933f 73c6 e33f
00000120: d919 8b3f 9c45 6f3f 6eef 95bf 70aa 833e
00000130: cb50 fbbe 2bd0 053f e956 c4bf 16be debf
00000140: 7ffd 093f 12a1 fcbf 305b f8be 5724 92bf
00000150: 5e49 dcbf 20f8 053f 26d4 4c3e 0711 3abf
00000160: 8d00 a13f ae6c 723f 575f acbf 6adc dabf
00000170: 71d7 833e fdf6 42c0 0f6b 76bf 1ad6 19be
00000180: 4e74 10c0 b9d5 ff3d cc81 9a3e dfe7 673f
00000190: 2710 17c0 8161 973f f34f 0abf a6d9 743f
000001a0: 25ae bfbd 8005 c3bf e614 c23f 5c0a ee3e
000001b0: fa72 0e3e 7f5f 2ebe 87c4 15be d079 4d3f
000001c0: 7771 be3e e132 233f 0fe4 b83f 0ae7 383f
000001d0: fe87 6d3e cb88 3a40 cb28 123f 9f2d bcbf
000001e0: 21b8 97bd 6a96 2a3f 2226 753d 72a0 31c0
000001f0: 1434 503c 86f6 4dbe ba79 55c0 d2c7 88bf
00000200: e690 d23e 0276 17c0 07aa 5cbe 73c5 5f3e
00000210: a994 afbe 1756 9f3f 8e7a ab3f a1e2 3bbf
00000220: 4567 a8be 21c9 163f 1214 dc3e 6320 16bf
00000230: 6ae9 993f 45ea f73f 0716 1dbe 7348 893f
00000240: 6243 6a3f 872f 41be 4fb3 0d3f c61b 0440
00000250: a10e e93f bab0 5a3f 5426 2a3f 18cd 073f
00000260: db04 e43e bfa5 bebe aae9 b43e 7039 68bf
00000270: 47c4 0abf 6598 7cbf 97af 66bf 724f 0d3f
00000280: ecc1 21c0 5108 62be 7d6c b7bd 5ae1 d0bd
00000290: d9bc 873f 86d6 aabe cf80 1d3d ac3c 953e
000002a0: 4d64 74bf 70a3 44be f164 193f 0d53 ee3e
000002b0: 5337 9e3e 47a5 56be 4258 273f c66e b8be
000002c0: be72 e9be 2883 adc0 9cf3 0fc0 d88d 32be
000002d0: a16a 97be 15c7 823f 86fe 7a3d bbaf 02c0
000002e0: 223f 5ebe 7538 87bf b751 afbf 8137 dfbe
000002f0: a3c9 dbbf b6ff c1be 7321 6b3e 9cb1 a23f
00000300: 12ce 193f 3a6d 823f 5484 653f 8bb6 e03f
00000310: c97f f33d 467d b3bf 59ad 713e 619a 5bbf
00000320: 6049 23bf c456 ddbf 1457 d63e a3c4 6abf
00000330: 07ba 8b3f 5d18 5b3e 4d82 52bd 2893 a23e
00000340: 31cf 0a3f b800 113f 8d12 403e d666 90be
00000350: 2a0c 823e 7795 a83e ad99 a73f 80ae 723f
00000360: 89bb ee3e cc7a 683e 4f75 f73e 4b26 7d3e
00000370: b685 52bf 3af2 8f3e 7a25 68c0 50fc a5bf
00000380: 13ba bfbf 20de e2be c729 bf3f 7e94 973f
00000390: 5965 3bc0 fbf7 efbe 2a29 9abe 88f0 26bf
000003a0: 3533 ed3b e5c3 0fbf 5c02 a93b b4e7 a43e
000003b0: 63b1 983f 4819 07c0 ac6f 4cc0 7d1f 25c0
000003c0: 3eb2 f93d 5752 583f 3446 3abf 65cc 4d3f
000003d0: c486 893f 403b 4fbf 3124 58bc f8a7 283e
000003e0: 44da 3340 28cd b23e 7a17 1ec0 bb8f ad3e
000003f0: b00a b63f 134c d4bc 953c 563e 592c 363f

conv3.bias f4 [32]
-1.8212065 -1.8665764 -1.749989 0.710666 -1.3062334 -2.017569 -1.9433209 -0.4915864
-2.7024748 -0.6423758 -0.48514253 -0.55645716 -1.161552 -1.3611109 -0.53599745 -2.7794526
-0.49490526 -2.8286903 0.9012473 -0.136989 -2.6114926 0.051065512 -2.1979043 -1.0026575
-0.7744038 -2.0590894 0.08759353 -1.305978 -2.7401402 -1.16747 -1.2579516 -2.2813869
00000000: 4b1d e9bf faeb eebf a4ff dfbf 35ee 353f
00000010: a832 a7bf da1f 01c0 bdbe f8bf 36b1 fbbe
00000020: 59f5 2cc0 be72 24bf 9a64 f8be fa73 0ebf
00000030: bcad 94bf e238 aebf 2137 09bf 8de2 31c0
00000040: 3964 fdbe 4309 35c0 25b8 663f d846 0cbe
00000050: b222 27c0 122a 513d 77aa 0cc0 1557 80bf
00000060: 543f 46bf 1fc8 03c0 3d64 b33d 492a a7bf
00000070: 755e 2fc0 a86f 95bf 8f04 a1bf 3e02 12c0

bn3.weight f4 [32]
2.1976166 1.1062343 1.5247934 1.6166953 1.2284 1.6693475 1.9284729 1.785034
1.571883 1.1589458 2.0895038 1.3731169 2.1790802 1.759339 2.0047953 1.4122506
1.8018639 1.6407132 1.8831921 2.1101315 1.3794767 2.148893 2.0566945 1.7255267
1.6243905 1.2105671 1.4883437 1.5646645 1.4665849 1.8067685 1.3525102 1.4885801
00000000: c0a5 0c40 1699 8d3f 6e2c c33f dfef ce3f
00000010: 363c 9d3f 2ead d53f 33d8 f63f fe7b e43f
00000020: 7633 c93f 5658 943f 6eba 0540 4bc2 af3f
00000030: 0d76 0b40 0532 e13f 914e 0040 a1c4 b43f
00000040: 7aa3 e63f e402 d23f 700c f13f 650c 0740
00000050: b192 b03f 7787 0940 e2a0 0340 0fde dc3f
00000060: 07ec cf3f ddf3 9a3f 0c82 be3f ed46 c83f
00000070: 0eb9 bb3f 3144 e73f 0e1f ad3f cb89 be3f

bn3.bias f4 [32]
-1.2287365 -0.32277107 -0.499972 -0.53452355 -0.60432446 1.1608057 0.3854795 1.1907225
0.5067072 1.4542408 0.9519342 0.7113986 0.9870757 -1.0816953 0.63905555 1.0033542
0.39471966 0.056047346 0.7876745 1.0527213 -2.1055303 0.6252238 -0.08853043 0.12877011
0.019883497 0.13163975 -0.3052281 -0.67216456 0.17560008 -1.7476636 0.6979432 -0.18768695
00000000: 3d47 9dbf 4042 a5be 54fc ffbe 89d6 08bf
00000010: 02b5 1abf 4895 943f 925d c53e 9869 983f
00000020: 90b7 013f 9024 ba3f f6b1 733f 381e 363f
00000030: feb0 7c3f fe74 8abf 2599 233f e96d 803f
00000040: b218 ca3e e791 653d 09a5 493f 92bf 863f
00000050: 02c1 06c0 ab0e 203f 714f b5bd 50dc 033e
00000060: b7e2 a23c 92cc 063e dc46 9cbe fa12 2cbf
00000070: 82d0 333e 71b3 dfbf 68ac 323f 0231 40be

bn3.running_mean f4 [32]
1.038267 1.2827271 2.3757446 7.0511775 4.1015654 4.417703 2.0023227 5.286949
3.730018 4.699626 3.3970268 8.149865 3.1029701 4.4105434 2.705405 0.82890284
3.3485715 4.354469 13.495872 2.0531662 1.9643308 6.6541247 0.82852286 7.260335
4.4323587 1.5227903 2.0297596 10.5918865 2.3969212 5.3214273 4.69473 2.630744
00000000: efe5 843f 6730 a43f 330c 1840 3fa3 e140
00000010: 0640 8340 d35d 8d40 0e26 0040 b02e a940
00000020: 9db8 6e40 5663 9640 e368 5940 d965 0241
00000030: 1097 4640 2c23 8d40 5b25 2d40 fa32 543f
00000040: ff4e 5640 cf57 8b40 17ef 5741 1367 0340
00000050: 316f fb3f 97ee d440 131a 543f aa54 e840
00000060: e2d5 8d40 cbea c23f 95e7 0140 5e78 2941
00000070: 2867 1940 2249 aa40 3a3b 9640 1c5e 2840

bn3.running_var f4 [32]
67.43468 52.978207 100.2153 144.97278 104.003426 162.55002 97.1883 65.513725
203.86247 77.04299 171.3025 55.429512 223.87662 213.37276 222.84207 43.822826
109.38573 355.75638 145.6204 101.67732 54.86768 279.75592 43.44115 213.06206
168.4796 35.330776 64.680664 106.06649 135.66376 108.75451 71.55452 78.8433
00000000: 8ede 8642 afe9 5342 3c6e c842 08f9 1043
00000010: c101 d042 ce8c 2243 6960 c242 0707 8342
00000020: cbdc 4b43 0316 9a42 714d 2b43 d2b7 5d42
00000030: 6ae0 5f43 6d5f 5543 92d7 5e43 934a 2f42
00000040: 7ec5 da42 d1e0 b143 d39e 1143 ca5a cb42
00000050: 8178 5b42 c2e0 8b43 bdc3 2d42 e30f 5543
00000060: c77a 2843 b752 0d42 805c 8142 0b22 d442
00000070: eca9 0743 4f82 d942 ea1b 8f42 c5af 9d42

conv4.weight f4 [64, 32, 3, 3]
1.5612419 0.07705725 -0.73534834 1.4248731 -0.054610122 -1.6228708 0.44284415 -3.5490887
-1.2739289 -0.38674432 0.64935136 -1.217338 0.20429261 0.2653725 -0.11858604 0.56928
-0.35096568 0.71707016 -0.0036121078 2.7680807 0.67933685 -0.7390967 0.44288617 -0.680757
-0.49496615 -0.0779683 -0.0697034 -2.2337244 -1.6916997 1.4333404 1.0647143 -0.21050453
-1.4895982 0.826675 0.5878132 -2.597098 -0.16521627 -0.56650436 -0.75717133 -0.17570043
-1.0088842 -2.4888568 0.24686697 1.200542 -1.9069104 -0.25839832 -0.48973295 1.1900039
-0.092987135 -0.49522644 1.3219799 0.929439 -1.2305008 -0.03050181 -1.8451935 0.584391
-0.31998897 0.6285871 1.4327948 0.364117 0.16910951 -0.9258905 0.82725495 -0.8639096
-2.5630393 -0.8554116 -2.0811799 1.3602027 1.4712317 -0.1077285 -0.16364726 -1.1189443
-0.7243504 0.703808 0.13044061 -0.19986597 0.32510063 0.6556175 -0.11842863 -0.44646898
2.1573136 -0.83808464 -1.0413383 -0.40540782 0.91980225 1.6868849 0.39629117 -1.5393523
-0.78164655 1.8131436 -1.0738105 -3.2627995 -2.0193334 2.3170023 -0.22074193 -0.68867755
0.7577064 -2.7239518 -0.23828003 -1.3869835 -0.33392206 0.7608639 1.3285631 -0.22655062
-0.71584034 -0.23672532 1.1829762 0.27454376 0.75386286 -0.18990846 -0.99726427 -0.48281136
-0.371716 -0.8548283 0.42693025 -0.9804326 -1.1422132 -0.13170108 1.1263752 1.178618
0.6665121 0.010135414 0.31198388 -0.666219 -0.22314899 -1.354262 -0.7304499 -0.7944271
0.06263732 0.6714923 1.1326689 -3.0879517 0.11107625 -1.4588087 -2.7536738 -0.45564505
-0.5713254 -1.6254734 -0.33093962 -2.6325285 -0.25243688 0.12147962 -1.3937265 -0.48292392
-0.2037981 1.0081512 -0.19029048 -0.9549673 0.4840716 -0.18402107 0.45452392 1.6133407
-1.1466715 0.39777312 1.6231169 -0.49616975 -0.96631145 1.3413615 -5.6265697 -1.8858742
-1.6432853 -1.8178928 1.4825842 1.9178134 0.67636 -1.8868291 -0.58190984 -0.1004819
-1.8918312 -0.90657103 0.45904624 0.089153565 0.49587673 1.2819957 -0.46114415 -0.18402454
-1.4097219 0.79887986 0.28209254 -3.0737026 0.4265555 -0.28944105 0.77317935 0.47764537
1.1656836 2.408499 1.422102 1.6203538 1.3590177 -0.30841193 0.45254463 -0.21166812
-0.14502458 -0.19591185 2.4518623 0.27791303 -1.4474508 1.1685814 -2.216696 0.36169222
0.32631335 1.7297344 1.5590254 -2.5064719 0.20448637 -0.35025775 -1.9346483 -1.1934065
0.07511446 1.384435 -1.0323622 -0.06996415 1.5802139 0.32323724 0.4511656 -0.7032131
1.2221807 -0.83686787 -0.81767553 0.74723464 -0.016775196 0.40672463 1.0465876 -0.07194938
-1.6198878 1.1076437 -1.9504522 -4.5707703 -1.1135131 -2.0921798 1.0801399 -0.0533505
0.17525735 -1.2980648 -1.253253 0.88487685 0.5565098 0.605148 0.81184965 -0.82867
-1.7956898 0.9740043 0.34482437 -1.2772733 0.6066606 -0.8391158 0.6551473 1.4862845
0.43906197 -4.2450733 -0.11436017 1.389484 -0.5920778 -0.77849233 -0.4263791 -0.3663773
00000000: c6d6 c73f 31d0 9d3d ca3f 3cbf 3e62 b63f
00000010: ddae 5fbd 3bba cfbf 78bc e23e 4524 63c0
00000020: 1a10 a3bf 5a03 c6be e43b 263f bbd1 9bbf
00000030: 1532 513e e8de 873e 3ddd f2bd 56bc 113f
00000040: c6b1 b3be e991 373f 1db9 6cbb 3c28 3140
00000050: 05e9 2d3f 7135 3dbf fac1 e23e 1746 2ebf
00000060: 346c fdbe d8ad 9fbd a8c0 8ebd 57f5 0ec0
00000070: 9e89 d8bf b377 b73f 8f48 883f 808e 57be
00000080: 27ab bebf f9a0 533f ed7a 163f db36 26c0
00000090: 742e 29be 6e06 11bf fbd5 41bf d0ea 33be
000000a0: 1e23 81bf 6e49 1fc0 b2ca 7c3e 5cab 993f
000000b0: a415 f4bf c94c 84be 47be fabe 0c52 983f
000000c0: 0a70 bebd 528e fdbe a336 a93f b7ef 6d3f
000000d0: 0d81 9dbf efde f9bc 4d2f ecbf a69a 153f
000000e0: 98d5 a3be 16eb 203f d265 b73f 8b6d ba3e
000000f0: 0b2b 2d3e 2907 6dbf fbc6 533f 2e29 5dbf
00000100: d608 24c0 41fc 5abf 0d32 05c0 1f1b ae3f
00000110: 5251 bc3f c3a0 dcbd 2693 27be 9139 8fbf
00000120: 076f 39bf c32c 343f 3992 053e aaa9 4cbe
00000130: 9773 a63e 8cd6 273f b68a f2bd 9597 e4be
00000140: 6d11 0a40 b78c 56bf 934a 85bf 9d91 cfbe
00000150: 2978 6b3f d8eb d73f ade6 ca3e 7f09 c5bf
00000160: fd19 48bf 1715 e83f 9f72 89bf b5d1 50c0
00000170: c23c 01c0 c449 1440 2c0a 62be 2c4d 30bf
00000180: 0cf9 413f 3a55 2ec0 aeff 73be ad88 b1bf
00000190: d5f7 aabe fac7 423f 5b0e aa3f e3fc 67be
000001a0: 5041 37bf 1f68 72be c46b 973f 0091 8c3e
000001b0: 28fd 403f 5d77 42be b64c 7fbf 0d33 f7be
000001c0: 8f51 bebe 07d6 5abf 9a96 da3e a2fd 7abf
000001d0: 0b34 92bf a6dc 06be 102d 903f f4dc 963f
000001e0: 89a0 2a3f 020f 263c 5abc 9f3e 548d 2abf
000001f0: 2b81 64be 7558 adbf c4fe 3abf 935f 4bbf
00000200: ff47 803d ebe6 2b3f 4bfb 903f 00a1 45c0
00000210: f27b e33d 3eba babf 313c 30c0 4f4a e9be
00000220: 6242 12bf 830f d0bf eb70 a9be 597b 28c0
00000230: 683f 81be 4fca f83d a165 b2bf ce41 f7be
00000240: 73b0 50be 190b 813f 82db 42be bd78 74bf
00000250: 3cd8 f73e 0570 3cbe 5cb7 e83e f381 ce3f
00000260: 22c6 92bf eba8 cb3e 4bc2 cf3f f609 febe
00000270: 3060 77bf bcb1 ab3f dc0c b4c0 5364 f1bf
00000280: 2c57 d2bf b6b0 e8bf 52c5 bd3f e97a f53f
00000290: ee25 2d3f 9e83 f1bf 0bf8 14bf 74c9 cdbd
000002a0: 8627 f2bf 0a15 68bf 1c08 eb3e 2596 b63d
000002b0: 8ee3 fd3e 6f18 a43f 161b ecbe ee70 3cbe
000002c0: c471 b4bf 6483 4c3f 6f6e 903e 8bb7 44c0
000002d0: 7c65 da3e 9e31 94be 15ef 453f ef8d f43e
000002e0: 1f35 953f d924 1a40 7007 b63f c167 cf3f
000002f0: 4bf4 ad3f 2be8 9dbe eeb3 e73e 87bf 58be
00000300: 5381 14be 1e9d 48be 50eb 1c40 9e4a 8e3e
00000310: 1146 b9bf 1394 953f 59de 0dc0 b92f b93e
00000320: 8b12 a73e f067 dd3f 258e c73f 096a 20c0
00000330: e064 513e fc54 b3be 8ea2 f7bf 8bc1 98bf
00000340: 9cd5 993d 2b35 b13f 7224 84bf 5d49 8fbd
00000350: 7344 ca3f 5a7f a53e 2dff e63e c605 34bf
00000360: 6b70 9c3f f93c 56bf 2f53 51bf c54a 3f3f
00000370: 236c 89bc 363e d03e 95f6 853f 325a 93bd
00000380: 7c58 cfbf 45c7 8d3f 6ba8 f9bf c043 92c0
00000390: 9987 8ebf 46e6 05c0 0642 8a3f 0e86 5abd
000003a0: aa76 333e fd26 a6bf 986a a0bf 4a87 623f
000003b0: 6d77 0e3f fbea 1a3f 61d5 4f3f b823 54bf
000003c0: 2ad9 e5bf 5958 793f d28c b03e b17d a3bf
000003d0: 1c4e 1b3f 4bd0 56bf bcb7 273f 923e be3f
000003e0: bbcc e03e a4d7 87c0 aa35 eabd 9dda b13f
000003f0: 6992 17bf 464b 47bf 5d4e dabe ce95 bbbe

conv4.bias f4 [64]
-0.33935785 -3.0289059 0.021445394 -0.18938306 -1.074342 -2.113512 -0.38971502 -0.40543613
-0.50912005 -0.9268611 -1.5432585 -1.3662701 0.07824016 -0.28730965 -1.3825173 -1.151933
-1.118076 -1.3526459 0.2389044 -1.0972793 0.5142487 0.1898413 -2.5607944 -1.2094638
-0.68195283 -0.08875066 -0.48362097 -1.2983125 -1.5035584 -0.7076531 -0.75146747 -0.3969602
0.06376627 -0.41411152 -1.1392794 -0.7628627 -0.47646862 0.07294968 -0.36358792 -0.50326985
-0.56234616 -2.0869539 -0.8764988 1.1080966 -0.92309487 -1.2422167 -1.2585273 0.3738763
-0.43160838 0.29941252 -1.5635031 -0.7779755 -0.6177556 -1.826881 -1.6223792 -0.6050658
0.4447233 -0.66383445 -1.4321737 -1.2754292 -1.0887349 -2.3025334 -2.259604 -1.0974569
00000000: 50c0 adbe 98d9 41c0 40ae af3c a2ed 41be
00000010: 0a84 89bf c843 07c0 ba88 c7be 5395 cfbe
00000020: b155 02bf c546 6dbf 7f89 c5bf f0e1 aebf
00000030: 613c a03d 401a 93be 54f6 b0bf 8a72 93bf
00000040: 1d1d 8fbf 8023 adbf 5ba3 743e a673 8cbf
00000050: cea5 033f c265 423e 0ee4 23c0 b6cf 9abf
00000060: 7694 2ebf e8c2 b5bd 2b9d f7be 1b2f a6bf
00000070: 9a74 c0bf c128 35bf 2c60 40bf 5e3e cbbe
00000080: e497 823d 6d06 d4be e8d3 91bf f84a 43bf
00000090: b2f3 f3be a466 953d 3228 babe 4bd6 00bf
000000a0: ebf5 0fbf a790 05c0 3a62 60bf 1cd6 8d3f
000000b0: f24f 6cbf f500 9fbf 6c17 a1bf b76c bf3e
000000c0: c6fb dcbe 994c 993e df20 c8bf 6729 47bf
000000d0: 3b25 1ebf 3dd7 e9bf 1faa cfbf 98e5 1abf
000000e0: c6b2 e33e 0ef1 29bf 7851 b7bf 4441 a3bf
000000f0: aa5b 8bbf b55c 13c0 5a9d 10c0 7879 8cbf

bn4.weight f4 [64]
4.203657 4.405893 1.4507568 4.559381 4.240948 3.335688 4.858649 3.2716365
3.3781836 3.912394 4.167348 3.5064158 1.3307167 4.0948467 4.01311 3.0263608
3.276631 4.724325 4.6651874 2.7997775 4.455357 1.4608222 4.797128 3.8344555
5.1661196 3.1907344 4.856917 4.398775 4.062147 0.787162 0.15378818 1.3074191
4.337312 2.0467849 3.5870032 3.8390107 5.9776382 3.7252152 3.692414 4.749156
4.2759233 3.5284078 0.92802054 5.217383 5.0462976 4.4402776 4.0531816 5.7670827
4.166879 4.904386 3.1741538 3.7346296 0.72216934 4.0632396 4.0997624 2.5631316
5.0956492 4.0272493 3.180784 4.415661 4.218283 4.386122 4.038457 4.0646577
00000000: 5c84 8640 13fd 8c40 66b2 b93f 73e6 9140
00000010: d9b5 8740 ea7b 5540 0d7a 9b40 7e62 5140
00000020: 2934 5840 aa64 7a40 ea5a 8540 1e69 6040
00000030: ed54 aa3f fc08 8340 666b 8040 e5af 4140
00000040: 53b4 5140 ac2d 9740 3749 9540 8e2f 3340
00000050: 4992 8e40 39fc ba3f 1382 9940 b867 7540
00000060: da50 a540 fe34 4c40 dd6b 9b40 c4c2 8c40
00000070: 1cfd 8140 7383 493f a67a 1d3e 8259 a73f
00000080: 43cb 8a40 86fe 0240 7691 6540 5ab2 7540
00000090: d048 bf40 ed69 6e40 8350 6c40 16f9 9740
000000a0: 5dd4 8840 6fd1 6140 c192 6d3f cdf4 a640
000000b0: 457b a140 c116 8e40 aab3 8140 f18b b840
000000c0: 1357 8540 bbf0 9c40 5625 4b40 2c04 6f40
000000d0: 17e0 383f 0f06 8240 4131 8340 590a 2440
000000e0: 8f0f a340 3adf 8040 f791 4b40 184d 8d40
000000f0: 2dfc 8640 1d5b 8c40 0a3b 8140 ad11 8240

bn4.bias f4 [64]
0.3792409 0.23386046 0.034906562 0.15988651 0.0026347353 0.32762894 0.42095104 -0.04924093
0.2519856 -0.0016058197 0.034326363 0.2855046 0.104162246 0.25585833 0.1647926 0.15477093
0.039848346 -0.02503287 0.038607128 0.16513963 0.008635633 0.004372127 0.3444249 0.11212419
0.1301356 0.051567405 0.18218784 0.198341 0.32907724 0.04793897 -0.00709932 0.13691722
0.17829706 0.11374699 0.1158752 0.021689294 0.2890325 0.09087668 0.09833252 0.10654225
0.20714253 0.00465129 0.24619429 0.19639814 0.23405065 0.14621893 0.31245494 0.26850855
0.11517246 -0.073247194 0.08033355 0.1696911 0.023029782 0.20272616 0.3045778 0.018149793
0.33302006 -0.0060687303 0.19983187 0.15249908 0.10586343 0.39997575 0.093211845 0.030261742
00000000: dd2b c23e 1e79 6f3e 2ffa 0e3d 4ab9 233e
00000010: 86ab 2c3b fbbe a73e e586 d73e dbb0 49bd
00000020: 4204 813e 5e7a d2ba cd99 0c3d a92d 923e
00000030: 0453 d53d ddff 823e 64bf 283e 457c 1e3e
00000040: 0538 233d bc11 cdbc 8222 1e3d 5d1a 293e
00000050: 787c 0d3c 0f44 8f3b 7658 b03e 5ea1 e53d
00000060: 4442 053e 5838 533d 738f 3a3e e719 4b3e
00000070: d07c a83e a75b 443d 6aa1 e8bb 0734 0c3e
00000080: 8193 363e 2ff4 e83d fa4f ed3d bfad b13c
00000090: 11fc 933e 8e1d ba3d 8f62 c93d d332 da3d
000000a0: 2c1d 543e d969 983b 5b1a 7c3e 981c 493e
000000b0: f9aa 6f3e 6aba 153e 18fa 9f3e f479 893e
000000c0: 8adf eb3d a002 96bd eb85 a43d 81c3 2d3e
000000d0: f4a8 bc3c 7297 4f3e 9ff1 9b3e e0ae 943c
000000e0: 9b81 aa3e 33dc c6bb baa0 4c3e b828 1c3e
000000f0: edce d83d 9fc9 cc3e dae5 be3d 79e7 f73c

bn4.running_mean f4 [64]
1.5061693 0.80318856 60.391796 0.98515785 0.56529254 1.5800375 2.7113478 1.0574288
0.68154806 0.4522574 0.75135314 0.990536 30.131676 0.9557715 1.011252 1.2651972
0.32849652 0.37086368 0.8813164 0.69565934 0.7543755 74.91922 1.6738722 1.1934036
0.35496294 0.8974375 1.271141 0.4260906 0.50549555 2.3623438 0.3409762 3.91184
0.83993655 3.5982044 0.3682364 0.720884 0.82767767 1.04477 0.27039933 0.51275533
0.7496562 1.199209 7.5590005 0.8306968 0.5370595 0.6919894 0.34859908 1.4580857
1.0160761 0.29534978 0.37771657 1.6955847 11.429807 0.49335286 0.8214434 3.1330535
0.8272879 0.5667435 2.0961995 0.22993127 0.5286913 1.8788092 0.78416586 0.9759442
00000000: 28ca c03f c49d 4d3f 3391 7142 4e33 7c3f
00000010: 03b7 103f ab3e ca3f b986 2d40 d459 873f
00000020: ef79 2e3f 488e e73e ae58 403f c493 7d3f
00000030: ac0d f141 71ad 743f b570 813f fbf1 a13f
00000040: b230 a83e d8e1 bd3e f49d 613f bb16 323f
00000050: c11e 413f a4d6 9542 7241 d63f 73c1 983f
00000060: b4bd b53e 77be 653f c0b4 a23f 8c28 da3e
00000070: 2868 013f a430 1740 6f94 ae3e 965b 7a40
00000080: 1506 573f fb48 6640 7b89 bc3e db8b 383f
00000090: afe2 533f 06bb 853f c871 8a3e ef43 033f
000000a0: 78e9 3f3f ae7f 993f 55e3 f140 8ca8 543f
000000b0: bb7c 093f 3826 313f 947b b23e 8da2 ba3f
000000c0: c80e 823f 1638 973e 1164 c13e eb08 d93f
000000d0: 7de0 3641 bf98 fc3e 1d4a 523f f383 4840
000000e0: 24c9 533f 1a16 113f 2228 0640 1a73 6b3e
000000f0: 5058 073f d27c f03f 18bf 483f 7bd7 793f

bn4.running_var f4 [64]
102.80961 52.65587 2463.078 48.643272 29.273832 97.068436 214.32153 67.626724
30.124504 19.495947 43.4754 51.54769 1067.6903 63.451466 64.4856 108.61081
14.252859 15.650422 49.9444 34.537724 37.608746 2064.0544 110.11619 94.33609
14.116846 42.52914 90.30491 19.047121 23.049585 56.454258 21.190504 237.69963
52.209713 157.97383 21.248064 35.468338 57.4062 55.33444 9.546884 25.025885
37.59738 91.52583 234.55392 40.322163 27.29613 33.13981 14.476618 85.72705
47.68804 14.479486 19.817886 165.0464 458.0834 29.14591 39.6072 255.64899
50.4093 25.696657 127.99758 12.785337 31.159824 132.04465 39.27156 49.281265
00000000: 859e cd42 9c9f 5242 3ff1 1945 b692 4242
00000010: cf30 ea41 0a23 c242 5052 5643 e240 8742
00000020: fcfe f041 b3f7 9b41 cfe6 2d42 d630 4e42
00000030: 1776 8544 4dce 7d42 a1f8 8042 bc38 d942
00000040: b60b 6441 2168 7a41 11c7 4742 a126 0a42
00000050: 5b6f 1642 df00 0145 7d3b dc42 14ac bc42
00000060: 9ade 6141 d71d 2a42 1d9c b442 8160 9841
00000070: 8d65 b841 29d1 6142 2786 a941 1bb3 6d43
00000080: bfd6 5042 4df9 1d43 09fc a941 94df 0d42
00000090: f39f 6542 7756 5d42 09c0 1841 0335 c841
000000a0: b863 1642 3a0d b742 ce8d 6a43 e549 2142
000000b0: 795e da41 2a8f 0442 3aa0 6741 4074 ab42
000000c0: 8ec0 3e42 faab 6741 088b 9e41 e10b 2543
000000d0: ad0a e543 d32a e941 c66d 1e42 24a6 7f43
000000e0: 20a3 4942 c192 cd41 c3fe ff42 be90 4c41
000000f0: 5247 f941 6e0b 0443 1416 1d42 0420 4542

lin.weight f4 [10, 64]
0.47473776 -0.98145366 0.28686005 0.4847167 -1.4967828 0.8112858 -0.6038805 0.06544836
-0.96919703 -0.3392198 -1.6209854 0.22142395 0.9769644 -3.3298347 -2.0935848 0.8905474
0.48112717 -0.14647469 2.2992387 -0.5797867 0.10095822 1.761697 -2.6484916 -0.96803147
-0.61603665 0.31168327 0.9568074 -0.08980667 -1.1229874 0.6623103 -0.033500202 0.68186057
-0.111989334 1.072612 0.28140444 -0.44535306 2.3553295 -0.14115514 -0.028509052 -0.8419566
0.081459165 1.8168299 -0.2630686 1.2328432 -2.2231853 -2.178029 -0.8141296 0.9385685
-2.3848903 -0.7775222 0.76000285 1.6331363 -1.0317866 0.19405659 -1.3488073 0.7834533
1.8131207 1.5874114 -0.4980691 -2.131919 -0.078859486 0.6325728 -0.02246506 -1.1920823
-0.5984212 1.252463 0.09262352 1.7222655 0.9338526 -0.8536801 1.1580604 -0.3002377
0.4513791 -0.7249426 -0.28878695 -0.48697683 0.34326828 1.0356941 -0.55945575 -0.34051684
-0.59404033 -0.72221535 0.0033223245 -1.0594765 -1.4091897 -0.129888 1.1993442 0.00979009
-1.9849832 0.37144893 -0.82822204 -0.2866556 1.4541235 -0.2081424 -0.0023217795 0.015333992
2.020415 0.7763375 1.6417292 0.14169626 0.11252711 0.5229424 -0.8445866 -0.352518
-1.4382343 -1.4347408 -0.04562666 -1.649817 0.65480864 -1.326742 1.2853987 0.7813713
-0.23231843 -1.7307678 1.2337136 0.10695978 0.0645808 0.021378253 1.1034361 0.42270282
-1.0306275 -0.33439255 -2.6745725 0.9719059 -2.1843462 -0.025274556 -1.9515951 0.61154014
-0.2782182 1.6436061 -0.38673806 -0.93055195 0.79256785 0.08330096 0.61423594 0.15911773
1.3920821 -0.14079851 0.007284161 0.430481 -0.2593377 0.0490757 1.6167556 1.0297801
-0.8128397 -1.9423696 -0.61554444 0.47351313 1.536979 -0.17037448 -0.8240574 -0.3839193
-0.916463 0.1544339 0.9516782 0.101632215 0.7802836 0.057497993 0.040271606 -1.2252663
-0.30222943 -0.6428048 -1.1109873 1.0156416 -0.86801463 -1.7035872 -1.1119272 1.419525
0.43425536 -0.37900224 0.21614884 -1.3683947 -1.6426084 1.2534466 0.899525 -2.4968548
-1.0930011 0.15789707 -1.3854173 1.1464299 0.8288297 -0.76214826 0.1412098 -0.42678002
1.5718585 -1.5863876 0.6036676 -0.6198919 1.2049377 -1.3911935 0.8126855 -0.073284045
-0.8008685 -0.041714836 0.28288192 0.04258504 0.097432554 -1.0821066 0.5019113 1.4102147
0.09329691 -0.09406339 -1.1611941 -0.20250884 -0.12512742 -0.44056356 0.441627 -0.11941139
0.82721436 1.6558167 -0.37248433 1.4414073 -2.0599065 -0.21144769 1.5763603 -2.9370682
-1.9686065 -1.1505721 -1.4090157 -0.56407046 -1.3387718 0.20828526 -0.05412597 0.44456372
0.20890428 -0.21112576 -0.61366993 0.22922496 -1.434223 1.6636385 -0.3258606 1.251656
-2.5276587 -1.8819584 0.29112196 -0.013307446 0.7260082 0.9452739 -0.075938955 1.3368406
-0.557882 0.7877718 -0.17547168 0.25393885 0.24417438 2.0436788 -0.9910888 -1.1518319
0.13733594 1.0452517 -1.5119513 0.3206184 -1.9224119 1.0497186 -1.7274572 1.9176719
00000000: d410 f33e 8c40 7bbf 52df 923e ca2c f83e
00000010: 9496 bfbf 6db0 4f3f ea97 1abf ca09 863d
00000020: 4c1d 78bf 38ae adbe 737c cfbf f6bc 623e
00000030: 571a 7a3f 031c 55c0 4bfd 05c0 eafa 633f
00000040: 4d56 f63e 76fd 15be ba26 1340 e76c 14bf
00000050: 2fc3 ce3d 4a7f e13f e380 29c0 e9d0 77bf
00000060: 94b4 1dbf f394 9f3e 54f1 743f 8fec b7bd
00000070: 0dbe 8fbf 2b8d 293f 8237 09bd 6a8e 2e3f
00000080: aa5a e5bd 5a4b 893f 3e14 903e 5105 e4be
00000090: b8bd 1640 f98a 10be d18b e9bc 788a 57bf
000000a0: 10d4 a63d e28d e83f edb0 86be cecd 9d3f
000000b0: ab48 0ec0 d464 0bc0 cc6a 50bf 0646 703f
000000c0: 0ba2 18c0 b20b 47bf 8c8f 423f 9c0a d13f
000000d0: 9511 84bf c5b6 463e b8a5 acbf 6590 483f
000000e0: 5714 e83f 4c30 cb3f ea02 ffbe 5c71 08c0
000000f0: 1581 a1bd 4bf0 213f a508 b8bc 2796 98bf
00000100: 2232 19bf b550 a03f 66b1 bd3d 3273 dc3f
00000110: f710 6f3f c78a 5abf 533b 943f c1b8 99be
00000120: 291b e73e d795 39bf e2db 93be 0755 f9be
00000130: dcc0 af3e a091 843f 7e38 0fbf 3958 aebe
00000140: 0713 18bf 1be3 38bf 5bbb 593b ed9c 87bf
00000150: 5460 b4bf 5c01 05be 1c84 993f 9d66 203c
00000160: ee13 febf 8e2e be3e 5c06 54bf 86c4 92be
00000170: b820 ba3f 4823 55be ff28 18bb 6d3b 7b3c
00000180: 7b4e 0140 0ebe 463f 2f24 d23f d318 113e
00000190: 9d74 e63d 8edf 053f d436 58bf 3d7d b4be
000001a0: 1018 b8bf 96a5 b7bf 05e3 3abd 342d d3bf
000001b0: 8aa1 273f afd2 a9bf f287 a43f f307 483f
000001c0: e2e4 6dbe cd89 ddbf 54ea 9d3f bb0d db3d
000001d0: f042 843d 7221 af3c 653d 8d3f 816c d83e
000001e0: 9aeb 83bf 8035 abbe 322c 2bc0 d3ce 783f
000001f0: 54cc 0bc0 960c cfbc decd f9bf e58d 1c3f
00000200: 9e72 8ebe af61 d23f 8802 c6be a738 6ebf
00000210: bae5 4a3f b299 aa3d 913e 1d3f c2ef 223e
00000220: bf2f b23f 7c2d 10be f9af ee3b 0168 dc3e
00000230: e9c7 84be 9a03 493d d9f1 ce3f d6cf 833f
00000240: 4316 50bf 919f f8bf 5294 1dbf 5070 f23e
00000250: babb c43f a676 2ebe 6df5 52bf 1291 c4be
00000260: 529d 6abf ec23 1e3e 2fa1 733f 8d24 d03d
00000270: aac0 473f 0483 6b3d d7f3 243d 87d5 9cbf
00000280: d1bd 9abe db8e 24bf d534 8ebf 8b00 823f
00000290: 3536 5ebf 250f dabf a153 8ebf ffb2 b53f
000002a0: b856 de3e 950c c2be 1f56 5d3e 8f27 afbf
000002b0: fe40 d2bf f070 a03f 4547 663f 78cc 1fc0
000002c0: 76e7 8bbf c5af 213e 5b55 b1bf 37be 923f
000002d0: 2f2e 543f 261c 43bf 4d99 103e e982 dabe
000002e0: a932 c93f c00e cbbf f689 1a3f 3cb1 1ebf
000002f0: 663b 9a3f a112 b2bf 280c 503f f215 96bd
00000300: b805 4dbf 2ddd 2abd e6d5 903e a76d 2e3d
00000310: b88a c73d 7882 8abf 427d 003f ea81 b43f
00000320: 7312 bf3d 4ea4 c0bd 02a2 94bf 7a5e 4fbe
00000330: 6721 00be 8c91 e1be ef1c e23e f58d f4bd
00000340: 52c4 533f cdf1 d33f 44b6 bebe 0980 b83f
00000350: 82d5 03c0 be85 58be 2dc6 c93f edf8 3bc0
00000360: 4cfb fbbf f245 93bf a05a b4bf ec66 10bf
00000370: e05c abbf bb48 553e 31b3 5dbd db9d e33e
00000380: 01eb 553e 5a31 58be 7919 1dbf f3b9 6a3e
00000390: 9f94 b7bf 1bf2 d43f 33d7 a6be 4436 a03f
000003a0: 29c5 21c0 03e4 f0bf f00d 953e 7907 5abc
000003b0: acdb 393f 78fd 713f e285 9bbd 981d ab3f
000003c0: 5bd1 0ebf 6aab 493f d9ae 33be 4604 823e
000003d0: d908 7a3e a2cb 0240 ffb7 7dbf 3a6f 93bf
000003e0: cba1 0c3e cfca 853f 9f87 c1bf 1828 a43e
000003f0: 9811 f6bf 2e5d 863f 511d ddbf 4676 f53f

lin.bias f4 [10]
-0.10007006 0.51716757 0.44512546 0.11639586 -0.28682497 -0.58124244 -0.22792928 0.63031024
-1.3827475 -3.6871228
00000000: 88f1 ccbd 1865 043f 7ce7 e33e f460 ee3d
00000010: b9da 92be 4ecc 14bf 4b66 69be 035c 213f
00000020: dffd b0bf d2f9 6bc0

conv.0.weight f4 [8, 2, 5, 5]
-0.73788166 0.9257812 4.6143327 1.5494217 0.86977917 -1.6485829 -0.39416346 1.597595
0.54620606 -0.74121046 -0.6193874 -1.0132077 0.14980048 -0.41800305 -0.024628347 -1.1996922
-1.1586215 0.333887 -0.7825827 0.25187844 -0.5527639 -0.50168777 0.24349967 -1.1091695
-0.3416928 -0.21050172 1.1309652 4.1101093 1.983572 0.75893503 -0.6586702 -0.13416988
1.3411038 -0.4147558 -0.70459294 -0.36411476 -1.0500227 0.49162206 -0.65096956 0.2678981
-0.01439234 -0.64351016 -0.14403473 -0.54335916 0.08653945 0.34577325 0.23915096 0.0116957575
-0.29904 0.44799715 -0.16011353 -1.9700633 -0.73117614 -1.034019 -0.60943705 0.46697703
-1.3200713 -0.33936083 0.020368995 0.5527387 0.7047825 -0.906315 -0.30146474 0.51499146
0.027197931 0.9718756 -1.1126962 -0.9308189 -0.023524841 0.010327657 2.572787 1.2531583
0.9297195 0.86590195 0.4357347 -0.27070045 -1.3851098 -1.2937641 -1.0602463 -0.6566003
1.0113167 -0.7662696 -0.7443543 0.16696092 0.036162138 1.1171838 -0.7354559 -0.6178776
-0.2148406 -0.2399925 1.4300255 -0.36950314 -0.3687039 -0.31500593 0.11690377 3.3901706
1.9251366 1.0365092 0.94709945 0.49769306 6.514887 0.36396518 3.6671276 0.9594902
-0.35909215 1.9753766 -1.008345 1.0365514 -0.09371795 -0.60881263 1.002005 -1.3333772
0.81496656 -0.13669181 -0.41086435 -0.13549355 -1.6704305 1.5038221 0.41880658 0.4743163
1.5029863 0.308794 0.7494946 0.36950764 0.22757153 2.6652899 -0.37825778 1.3048807
0.27335408 -0.58090866 0.16605109 -1.3214039 0.3147512 0.013039997 -0.20501131 -0.056101844
-1.390035 -0.12002613 -0.23118761 0.14991927 -1.6942159 -1.530745 0.59778225 0.3601417
0.20002533 0.20223229 -0.029575905 0.17316271 0.13099246 0.15447235 -1.0017854 -1.5006086
-1.2463052 0.5056474 -0.6732792 -0.48951533 -0.3092186 -0.0808893 0.061880182 0.5309695
-0.98380065 1.2201747 -0.48610052 -0.6924363 -0.36927494 1.3577613 3.1503022 0.9031526
1.0564536 -0.050989155 -0.33258763 0.78924286 -0.27926 -0.9047089 -0.5480921 -1.2713257
-1.4657305 -1.3509711 0.0015711092 -0.32743046 -0.48024416 -0.060077574 -0.17418122 0.029163703
0.22114527 -0.94096863 1.5678539 -0.18133426 -0.6695076 -0.011741584 1.1046587 3.9709506
1.2222909 0.5071496 0.36141384 0.01996475 1.087837 0.25852326 -0.73951024 -0.12157388
4.5056334 1.7732787 -0.26126894 -0.33518586 -0.11602042 2.9410143 1.4680179 -0.5992412
-0.3804956 -0.388008 2.6333964 0.89026046 -0.17211996 0.54916346 0.13557065 0.982313
-0.22118826 -0.6041476 0.69057035 -0.021629004 0.13197093 -0.2258281 -0.4543258 0.9481313
-0.1713624 1.4112396 1.5511588 -1.6132671 -1.1894798 -1.3743292 1.0510082 0.6192956
-2.1976147 -1.4019184 -1.0070299 1.2065374 1.099587 -1.5228251 -0.635333 -0.89534295
-0.18929759 -0.21510269 -0.92982495 0.26051453 -0.5018901 -0.5681554 -0.553893 -0.4599441
0.10110994 -0.28804296 -1.43595 -0.79072446 -2.6509128 -1.494992 -1.4418186 0.65898395
00000000: d0e5 3cbf ffff 6c3f 9da8 9340 7353 c63f
00000010: d9a9 5e3f c404 d3bf cbcf c9be fe7d cc3f
00000020: 29d4 0b3f f8bf 3dbf 2c90 1ebf cab0 81bf
00000030: 4c65 193e 7f04 d6be 63c1 c9bc 848f 99bf
00000040: b64d 94bf 3df3 aa3e 5757 48bf 36f6 803e
00000050: ef81 0dbf 9c6e 00bf fa57 793e 44f9 8dbf
00000060: 5cf2 aebe c38d 57be 78c3 903f 0486 8340
00000070: b0e5 fd3f 9149 423f 9c9e 28bf d463 09be
00000080: 4aa9 ab3f df5a d4be 3460 34bf 406d babe
00000090: 2567 86bf e3b5 fb3e f1a5 26bf f129 893e
000000a0: d9cd 6bbc 15bd 24bf d77d 13be 9619 0bbf
000000b0: 983b b13d 3109 b13e fde3 743e 909f 3f3c
000000c0: c51b 99be e25f e53e cdf4 23be 092b fcbf
000000d0: 5c2e 3bbf bc5a 84bf 1104 1cbf 9d17 ef3e
000000e0: 19f8 a8bf b4c0 adbe e1dc a63c 4980 0d3f
000000f0: a06c 343f 4304 68bf 9659 9abe 7bd6 033f
00000100: 32ce de3c d7cc 783f d46c 8ebf 264a 6ebf
00000110: 2bb7 c0bc 5535 293c 8ba8 2440 7e67 a03f
00000120: 1902 6e3f c0ab 5d3f 9e18 df3e 4099 8abe
00000130: 474b b1bf 109a a5bf 27b6 87bf f516 28bf
00000140: d372 813f 3f2a 44bf 018e 3ebf cef7 2a3e
00000150: c01e 143d e1ff 8e3f d646 3cbf 3a2d 1ebf
00000160: 2dff 5bbe 98c0 75be 130b b73f 842f bdbe
00000170: c2c6 bcbe 7548 a1be 3e6b ef3d 8ef8 5840
00000180: e06a f63f 55ac 843f 1c75 723f a0d1 fe3e
00000190: f479 d040 a559 ba3e 38b2 6a40 26a1 753f
000001a0: edda b7be 24d9 fc3f 7311 81bf b7ad 843f
000001b0: 32ef bfbd 25db 1bbf b341 803f 1bac aabf
000001c0: a6a1 503f f0f8 0bbe d05c d2be d2be 0abe
000001d0: abd0 d5bf 3e7d c03f d16d d63e 96d9 f23e
000001e0: db61 c03f 3f1a 9e3e e1de 3f3f 1b30 bd3e
000001f0: 8308 693e 1c94 2a40 01ab c1be 5506 a73f
00000200: 11f5 8b3e 6eb6 14bf 4c09 2a3e c323 a9bf
00000210: 1227 a13e b6a5 553c 7cee 51be 0ccb 65bd
00000220: abec b1bf 42d0 f5bd 72bc 6cbe 7084 193e
00000230: 11dc d8bf 74ef c3bf 4208 193f 7e64 b83e
00000240: 71d3 4c3e fb15 4f3e 2b49 f2bc 9151 313e
00000250: e322 063e 002e 1e3e 813a 80bf f113 c0bf
00000260: ee86 9fbf 1c72 013f 075c 2cbf c1a1 fabe
00000270: e651 9ebe 4aa9 a5bd 1376 7d3d 9eed 073f
00000280: 5cda 7bbf af2e 9c3f 2be2 f8be 8143 31bf
00000290: 9b11 bdbe 1fcb ad3f 8d9e 4940 0235 673f
000002a0: df39 873f 01da 50bd ed48 aabe d20b 4a3f
000002b0: 2bfb 8ebe 019b 67bf c44f 0cbf cdba a2bf
000002c0: 0f9d bbbf 9fec acbf aded cd3a f7a4 a7be
000002d0: 90e2 f5be e713 76bd 905c 32be b8e8 ee3c
000002e0: e873 623e 52e3 70bf 70af c83f b0af 39be
000002f0: da64 2bbf c65f 40bc 7565 8d3f 0e24 7e40
00000300: 0774 9c3f 8ed4 013f 3c0b b93e 1e8d a33c
00000310: 3e3e 8b3f 295d 843e 8b50 3dbf bafb f8bd
00000320: 262e 9040 ccfa e23f 0bc5 85be 7b9d abbe
00000330: 1d9c edbd 9439 3c40 03e8 bb3f df67 19bf
00000340: 52d0 c2be fca8 c6be 9189 2840 1ce8 633f
00000350: 3740 30be fa95 0c3f 08d3 0a3e dd78 7b3f
00000360: 2d7f 62be 6ba9 1abf 38c9 303f 4f2f b1bc
00000370: 6323 073e 7b3f 67be 649d e8be bcb8 723f
00000380: a079 2fbe 80a3 b43f 5f8c c63f 897f cebf
00000390: e040 98bf 05ea afbf 7087 863f 288a 1e3f
000003a0: b8a5 0cc0 1072 b3bf 5be6 80bf d16f 9a3f
000003b0: 44bf 8c3f efeb c2bf 2fa5 22bf 3235 65bf
000003c0: 3ad7 41be e143 5cbe 0209 6ebf 2962 853e
000003d0: df7b 00bf a272 11bf efcb 0dbf cb7d ebbe
000003e0: ba12 cf3d 5e7a 93be 36cd b7bf eb6c 4abf
000003f0: 8ea8 29c0 e65b bfbf 838d b8bf 2cb3 283f
