models/standard/k-fold saves/test1e_f5_e10_f4_b64.pt (torch, 335209 bytes, 86 tensors)

conv1.weight f4 [8, 2, 5, 5]
-0.74299765 0.92446953 4.609883 1.5227835 0.8565311 -1.6430444 -0.3818165 1.6009004
0.53255534 -0.74635905 -0.6179058 -1.0136847 0.1460701 -0.42981026 -0.028200751 -1.2108499
-1.1761552 0.31997222 -0.8095736 0.24164054 -0.56804204 -0.5166358 0.23356713 -1.1383178
-0.35121265 -0.21793859 1.1256704 4.111464 1.9581509 0.75707155 -0.650396 -0.123427756
1.3475808 -0.4275622 -0.70048827 -0.36373508 -1.050235 0.49066082 -0.6629959 0.26850215
-0.026625525 -0.66172224 -0.15945049 -0.5707587 0.07661282 0.3314194 0.22179118 0.0016301835
-0.32509285 0.44233677 -0.174526 -1.9864906 -0.7379385 -1.0377071 -0.6169368 0.44600946
-1.3422042 -0.35636657 0.009279271 0.5375173 0.68280244 -0.9305131 -0.32107192 0.50209963
0.0075593903 0.96682185 -1.1210222 -0.9354404 -0.021528503 0.006871919 2.5589716 1.2332982
0.91181034 0.8576371 0.41975233 -0.2872282 -1.400071 -1.3010604 -1.0630894 -0.66625667
0.9891921 -0.78647614 -0.7599922 0.15525265 0.019244198 1.0919544 -0.759527 -0.63585985
-0.22935212 -0.2577884 1.4229449 -0.3765243 -0.37006512 -0.3131785 0.11241228 3.3749795
1.9081465 1.0230654 0.9407363 0.48114386 6.523733 0.40409473 3.7128022 0.973554
-0.32572064 2.0075111 -0.94560784 1.0907189 -0.055474572 -0.5674815 1.0029951 -1.309508
0.82858443 -0.1372529 -0.40038034 -0.15303855 -1.6672211 1.5065585 0.4166235 0.48738968
1.4625096 0.28053713 0.721468 0.33070275 0.20759062 2.6913545 -0.33230254 1.3706429
0.29699948 -0.53767806 0.20699467 -1.2574272 0.38246542 0.05374231 -0.15438138 -0.05050072
-1.3638732 -0.095495954 -0.22737561 0.17096785 -1.7062125 -1.5229709 0.60825276 0.36386606
0.22319248 0.1653898 -0.05777217 0.15033667 0.0928975 0.14127405 -1.0041617 -1.503493
-1.2443182 0.5196333 -0.6546792 -0.482495 -0.30855262 -0.07242489 0.07800618 0.55256814
-0.9845199 1.214148 -0.48437384 -0.6885685 -0.3526912 1.3553331 3.1512818 0.90647435
1.0684779 -0.027055059 -0.33372432 0.7938284 -0.27508092 -0.89231247 -0.52948856 -1.2753322
-1.4674647 -1.3547282 0.013633847 -0.31054258 -0.47629073 -0.057995755 -0.17129456 0.040779922
0.23974761 -0.9419999 1.5628858 -0.18416831 -0.6676512 0.0039651906 1.1026784 3.9721072
1.2233099 0.51366 0.3839041 0.020129291 1.093987 0.25889233 -0.7281783 -0.100402
4.501586 1.7638112 -0.26589367 -0.32391503 -0.10936871 2.950328 1.4729995 -0.5891591
-0.36221156 -0.37795424 2.636335 0.88938844 -0.16811392 0.5550542 0.13740765 0.97928315
-0.22645013 -0.60562533 0.6920754 -0.022717772 0.12194366 -0.237213 -0.45976517 0.94368154
-0.17980783 1.4012473 1.5400925 -1.6177894 -1.183883 -1.3717881 1.0514839 0.62111205
-2.1925044 -1.3906175 -1.0029017 1.200584 1.0937871 -1.5247893 -0.6333668 -0.896129
-0.19668889 -0.22203286 -0.93311894 0.25962636 -0.5034447 -0.5816678 -0.56738013 -0.46548104
0.09328365 -0.29495004 -1.4291373 -0.7910223 -2.6557953 -1.494367 -1.4400238 0.67314345
00000000: 1835 3ebf 09aa 6c3f 2984 9340 92ea c23f
00000010: 9f45 5b3f 474f d2bf 747d c3be 4eea cc3f
00000020: 8c55 083f 6311 3fbf 132f 1ebf 6cc0 81bf
00000030: 6693 153e 1710 dcbe 4305 e7bc 21fd 9abf
00000040: 418c 96bf 66d3 a33e 3740 4fbf 9e70 773e
00000050: 346b 11bf 3e42 04bf 392c 6f3e 66b4 91bf
00000060: 25d2 b3be 4b2b 5fbe f815 903f 1d91 8340
00000070: b0a4 fa3f 71cf 413f 5a80 26bf b1c7 fcbd
00000080: 877d ac3f 6fe9 dabe 3353 33bf 7c3b babe
00000090: 1a6e 86bf e537 fb3e 19ba 29bf 1d79 893e
000000a0: c61d dabc a166 29bf fd46 23be 3e1d 12bf
000000b0: 2fe7 9c3d ceaf a93e 3a1d 633e e2ab d53a
000000c0: 9272 a6be f779 e23e f2b6 32be 5345 febf
000000d0: 8ae9 3cbf 96d3 84bf 92ef 1dbf 5a5b e43e
000000e0: 59cd abbf ae75 b6be 1508 183c bc9a 093f
000000f0: 24cc 2e3f 1b36 6ebf 8a63 a4be 9a89 003f
00000100: c3b4 f73b a381 773f a87d 8fbf 0679 6fbf
00000110: 8b5c b0bc d62d e13b 31c6 2340 b7dc 9d3f
00000120: 676c 693f 1b8e 5b3f c7e9 d63e 930f 93be
00000130: 8735 b3bf 2689 a6bf 5013 88bf cc8f 2abf
00000140: b23b 7d3f 8056 49bf d98e 42bf 8dfa 1e3e
00000150: 02a6 9d3c 29c5 8b3f 5d70 42bf b6c7 22bf
00000160: 48db 6abe d7fc 83be 0f23 b63f cbc7 c0be
00000170: 2d79 bdbe ef58 a0be 6938 e63d aaff 5740
00000180: 253e f43f cff3 823f 18d4 703f 7d58 f63e
00000190: 6cc2 d040 81e5 ce3e 8d9e 6d40 d63a 793f
000001a0: dbc4 a6be 107b 0040 5b13 72bf ad9c 8b3f
000001b0: 4e39 63bd 7846 11bf 2562 803f f59d a7bf
000001c0: 1c1e 543f 068c 0cbe a7fe ccbe 23b6 1cbe
000001d0: 8067 d5bf e9d6 c03f ad4f d53e 248b f93e
000001e0: 8433 bb3f 90a2 8f3e 20b2 383f df51 a93e
000001f0: a392 543e 273f 2c40 8f23 aabe 3a71 af3f
00000200: 5110 983e 45a5 09bf 69f6 533e 60f3 a0bf
00000210: 82d2 c33e e520 5c3d 2716 1ebe d8d9 4ebd
00000220: 6693 aebf 6293 c3bd 27d5 68be 3212 2f3e
00000230: 2c65 dabf b6f0 c2bf 74b6 1b3f a74c ba3e
00000240: 928c 643e f25b 293e 83a2 6cbd dbf1 193e
00000250: 0b41 be3d 25aa 103e 5f88 80bf 7572 c0bf
00000260: d245 9fbf b006 053f 0e99 27bf 9609 f7be
00000270: 9cfa 9dbe 8053 94bd b4c1 9f3d 1b75 0d3f
00000280: 7f09 7cbf 3469 9b3f d9ff f7be 0646 30bf
00000290: f193 b4be 8e7b ad3f 9aae 4940 b40e 683f
000002a0: e2c3 883f 92a2 ddbc eadd aabe 5738 4b3f
000002b0: 68d7 8cbe 976e 64bf 908c 07bf 163e a3bf
000002c0: e2d5 bbbf bc67 adbf 8060 5f3c 70ff 9ebe
000002d0: 61dc f3be f58c 6dbd d767 2fbe d908 273d
000002e0: 6680 753e e826 71bf a40c c83f 9e96 3cbe
000002f0: 30eb 2abf 6eee 813b 9124 8d3f 0137 7e40
00000300: 6b95 9c3f 397f 033f 148f c43e 2fe6 a43c
00000310: c407 8c3f 898d 843e e569 3abf 909f cdbd
00000320: fe0c 9040 91c4 e13f 3723 88be 31d8 a5be
00000330: b4fc dfbd 2dd2 3c40 3f8b bc3f 21d3 16bf
00000340: cb73 b9be 3883 c1be b6b9 2840 f6ae 633f
00000350: 0e26 2cbe 0818 0e3f 97b4 0c3e 4db2 7a3f
00000360: 8be2 67be 430a 1bbf da2b 313f 9f1a babc
00000370: 99bd f93d f7e7 72be 5766 ebbe 1d95 713f
00000380: 8b1f 38be 125c b33f c021 c53f b913 cfbf
00000390: 7a89 97bf c196 afbf 0697 863f 3301 1f3f
000003a0: fe51 0cc0 c1ff b1bf 155f 80bf bdac 993f
000003b0: 3701 8c3f 4c2c c3bf 5424 22bf b668 65bf
000003c0: d068 49be 955c 63be e2e0 6ebf bfed 843e
000003d0: c0e1 00bf 2ee8 14bf d33f 11bf 8853 eebe
000003e0: 800b bf3d b103 97be f9ed b6bf 7080 4abf
000003f0: 8df8 29c0 6b47 bfbf b352 b8bf 2153 2c3f

conv1.bias f4 [8]
-3.9737735 -2.674422 -1.8569182 -1.2986822 -3.512613 -0.2287695 0.017726973 -5.5017138
00000000: 4e52 7ec0 bb29 2bc0 7faf edbf 383b a6bf
00000010: a7ce 60c0 8d42 6abe 2838 913c 0a0e b0c0

bn1.weight f4 [8]
1.2721401 1.3453444 1.3082298 1.7794149 1.3363106 1.8447568 1.5115974 1.3837564
00000000: 7dd5 a23f 3f34 ac3f 1374 a73f dec3 e33f
00000010: 3a0c ab3f fe20 ec3f 067c c13f ee1e b13f

bn1.bias f4 [8]
-0.75928634 -0.3257134 -1.334703 0.48478976 -1.9351667 -1.1096592 1.0024574 -1.0556728
00000000: 9760 42bf e8c3 a6be 8cd7 aabf 5d36 f83e
00000010: 8bb3 f7bf 5009 8ebf 8650 803f 4920 87bf

bn1.running_mean f4 [8]
1.3154813 0.8040069 5.190078 0.9525445 1.6059787 1.3709042 10.016084 1.9789983
00000000: b161 a83f 65d3 4d3f 1e15 a640 f5d9 733f
00000010: b690 cd3f ca79 af3f e141 2041 d14f fd3f

bn1.running_var f4 [8]
19.08106 11.23623 149.67853 11.353706 21.111092 21.185984 71.36937 27.645891
00000000: 03a6 9841 99c7 3341 b4ad 1543 c8a8 3541
00000010: 84e3 a841 e57c a941 1ebd 8e42 c92a dd41

conv2.weight f4 [16, 8, 3, 3]
-0.27204236 -2.089437 -1.0825311 2.053246 -0.8144985 -0.51186126 0.094564915 -0.11995711
0.9308732 -0.78439116 -0.2252222 0.79288775 -3.110546 -1.2673116 -0.64379185 -0.38386998
0.15796305 -0.29126132 1.2988204 0.34626463 0.558908 1.0426718 0.8723568 0.5198537
1.6981997 0.927183 0.6667533 0.46245822 -0.016388366 -0.7574558 -2.231671 -2.723649
0.41548246 -0.14783823 -0.45149732 0.8169054 -0.8868504 0.0793789 0.1588542 0.48714277
0.3398631 0.13954784 2.593012 0.38198635 0.33236378 0.5120022 0.15045471 -0.69682556
-3.3154972 -2.9678466 -1.7649245 1.1808645 -0.021537295 0.13322748 -0.831115 -0.43116406
-0.30630332 -0.6273349 -0.4735311 -0.1397795 -1.966877 -1.6921505 0.45200488 0.006048196
0.26769003 -1.2849063 3.3551013 0.9555144 0.132278 1.0932366 -0.35974494 0.32348895
0.5392876 1.6220605 1.4183726 -0.4584086 -0.48911282 1.1516838 -1.0765508 0.20744784
0.8719754 -0.8637035 -1.686902 -0.023479654 -0.2800829 -0.9094429 1.7894053 -0.6286968
-0.922557 0.518171 0.30398157 1.5534153 1.7965208 0.15106516 1.3381627 0.95812595
-0.5251905 1.0918934 1.4563437 -1.924292 -0.024645898 0.9824249 -0.8081353 -0.5923025
1.0165569 -1.0254811 0.19565831 0.30139184 -2.1885815 -0.91483986 1.0104891 -2.4218943
-0.9045701 -0.114797115 -2.075495 -1.2975211 0.35879916 1.1002084 0.27965167 1.9963756
-2.058717 0.2736227 1.5049126 -1.4052905 0.1793619 1.1169876 -1.0445346 1.0031965
0.52711695 -1.7245805 0.5231277 -0.46387354 -2.0877385 0.67832315 0.13337061 -0.12153853
1.0792701 2.1170397 -0.31326446 0.0010960681 1.9761448 -0.6739219 -0.59822613 1.586611
-4.105035 -0.07727031 0.42737243 -0.9469679 -0.972831 -0.2900556 -1.2498434 -1.677629
-0.80812776 1.0559188 -2.4524713 0.06291311 0.89325583 -2.5846646 -1.2152549 -0.2014688
-1.570205 1.8958052 -0.081196286 -1.250865 1.1246759 0.07455945 -2.9726648 -1.150559
0.1249743 -2.044201 -0.8074027 1.5411793 0.35756955 -0.39290676 0.3767708 0.019973092
-0.31771165 -0.20320176 0.017130954 -0.4246146 0.27043557 -3.5637925 0.44469503 0.53870964
-3.2406762 -1.9002789 0.4237465 -4.1299896 -2.2050111 0.16248254 -2.1216102 1.2902616
0.96224475 -0.16094792 -0.52310014 1.4089365 -0.6851995 -1.9420972 0.42025304 0.0032738661
0.6120635 -0.24218456 -0.061037786 -0.101093076 -0.588882 -0.3808194 0.6124032 1.4363096
0.077716954 -0.26595727 1.5075147 0.35298997 0.090056434 1.2667252 -0.77668744 0.21578398
-3.9904017 -2.121977 -1.3950387 0.39993897 0.56772494 2.0652776 -1.0030309 0.73016185
0.19491276 1.6863047 0.5602304 0.21301252 -1.2397773 -0.28467488 0.76112336 -2.1666043
0.20006454 1.2934617 -2.493119 -1.6772224 -0.2868411 -0.7674328 -0.44454983 -0.3257901
-0.9610618 -0.39139435 0.6094204 0.6438011 -0.45683372 -0.2396603 1.0254406 1.2288742
0.79519415 -1.029403 -0.63058645 -1.9146343 -1.9019783 0.068281956 -0.78217 -0.3669835
00000000: 2349 8bbe 56b9 05c0 6190 8abf 6268 0340
00000010: f982 50bf 5709 03bf 40ab c13d 13ac f5bd
00000020: b54d 6e3f dccd 48bf a6a0 66be b1fa 4a3f
00000030: 3013 47c0 4437 a2bf 8bcf 24bf 9b8a c4be
00000040: 11c1 213e 3420 95be bf3f a63f 9949 b13e
00000050: 9814 0f3f 4576 853f c652 5f3f 2215 053f
00000060: 9c5e d93f dd5b 6d3f 58b0 2a3f 53c7 ec3e
00000070: e540 86bc a0e8 41bf b3d3 0ec0 4450 2ec0
00000080: 1eba d43e e862 17be a82a e7be b620 513f
00000090: a108 63bf 6891 a23d adaa 223e c76a f93e
000000a0: 8902 ae3e a1e5 0e3e e9f3 2540 b793 c33e
000000b0: 962b aa3e 9412 033f cd10 1a3e 2963 32bf
000000c0: 1b31 54c0 33f1 3dc0 0ce9 e1bf 9126 973f
000000d0: fb6e b0bc c96c 083e f4c3 54bf 89c1 dcbe
000000e0: cad3 9cbe 0599 20bf ab72 f2be 5b22 0fbe
000000f0: a0c2 fbbf 6398 d8bf 2f6d e73e f22f c63b
00000100: ab0e 893e cf77 a4bf fbb9 5640 979c 743f
00000110: e273 073e 2def 8b3f 7d30 b8be 58a0 a53e
00000120: c10e 0a3f ae9f cf3f 3c8d b53f 88b4 eabe
00000130: ff6c fabe 606a 933f 6bcc 89bf 356d 543e
00000140: c839 5f3f ac1b 5dbf 68ec d7bf 6758 c0bc
00000150: 0767 8fbe 40d1 68bf 3c0b e53f 46f2 20bf
00000160: b22c 6cbf dba6 043f 79a3 9b3e 50d6 c63f
00000170: 65f4 e53f d3b0 1a3e ea48 ab3f be47 753f
00000180: e272 06bf 2ac3 8b3f 7869 ba3f 334f f6bf
00000190: 32e6 c9bc 3380 7b3f f4e1 4ebf 23a1 17bf
000001a0: 891e 823f f742 83bf a75a 483e 0850 9a3e
000001b0: b811 0cc0 f232 6abf b557 813f 5100 1bc0
000001c0: e891 67bf c01a ebbd e9d4 04c0 2c15 a6bf
000001d0: 86b4 b73e a1d3 8c3f 812e 8f3e 3c89 ff3f
000001e0: 05c2 03c0 4618 8c3e faa0 c03f 8fe0 b3bf
000001f0: a5aa 373e 73f9 8e3f 4fb3 85bf be68 803f
00000200: 23f1 063f 0ebf dcbf b2eb 053f d580 edbe
00000210: 829d 05c0 96a6 2d3f 4e92 083e 31e9 f8bd
00000220: 8625 8a3f 947d 0740 3364 a0be f1a9 8f3a
00000230: 50f2 fc3f 2586 2cbf 5925 19bf 1216 cb3f
00000240: 725c 83c0 e53f 9ebd 8fd0 da3e 7d6c 72bf
00000250: 740b 79bf 2b82 94be defa 9fbf 8cbc d6bf
00000260: 76e1 4ebf 5928 873f 4af5 1cc0 97d8 803d
00000270: 6aac 643f 256b 25c0 798d 9bbf d64d 4ebe
00000280: 7afc c8bf bfa9 f23f 3d4a a6bd 581c a0bf
00000290: 61f5 8f3f a0b2 983d 2440 3ec0 8445 93bf
000002a0: 87f2 ff3d 30d4 02c0 f1b1 4ebf 5d45 c53f
000002b0: 5b13 b73e 132b c9be 1ae8 c03e 9c9e a33c
000002c0: 1aab a2be 1f14 50be 3756 8c3c 1667 d9be
000002d0: 8876 8a3e 2d15 64c0 11af e33e e0e8 093f
000002e0: 3d67 4fc0 573c f3bf 4df5 d83e e028 84c0
000002f0: e71e 0dc0 d361 263e 76c8 07c0 4b27 a53f
00000300: ac55 763f 88cf 24be e4e9 05bf 0858 b43f
00000310: 3c69 2fbf a496 f8bf 682b d73e 5c8e 563b
00000320: 32b0 1c3f 3bff 77be c202 7abd e309 cfbd
00000330: f9c0 16bf c3fa c2be 75c6 1c3f fed8 b73f
00000340: 112a 9f3d 8d2b 88be 3ef6 c03f 1abb b43e
00000350: 826f b83d 0d24 a23f fdd4 46bf 7af6 5c3e
00000360: be62 7fc0 79ce 07c0 a190 b2bf cdc4 cc3e
00000370: 6c56 113f 822d 0440 5163 80bf e3eb 3a3f
00000380: 3697 473e d5d8 d73f 426b 0f3f f41f 5a3e
00000390: 06b1 9ebf e8c0 91be fbd8 423f a5a9 0ac0
000003a0: b8dd 4c3e 2790 a53f 438f 1fc0 39af d6bf
000003b0: d6dc 92be 7a76 44bf 099c e3be f6cd a6be
000003c0: 2508 76bf d764 c8be fa02 1c3f 26d0 243f
000003d0: 1ce6 e9be 8269 75be a341 833f c04b 9d3f
000003e0: d891 4b3f 7ac3 83bf 1d6e 21bf bd12 f5bf
000003f0: 0674 f3bf 69d7 8b3d 4b3c 48bf 43e5 bbbe

conv2.bias f4 [16]
-0.27134407 -0.28240824 -0.35021186 -1.5827751 0.19166619 -3.8063421 -3.9474945 1.8227379
1.1295139 -1.9315627 -1.9202819 -0.6313843 1.9703938 -2.364732 -0.26786307 -2.8856866
00000000: 9ced 8abe d097 90be f84e b3be 6098 cabf
00000010: 2444 443e 1c9b 73c0 c0a3 7cc0 7a4f e93f
00000020: e993 903f 723d f7bf cccb f5bf 67a2 21bf
00000030: dd35 fc3f c557 17c0 5925 89be 17af 38c0

bn2.weight f4 [16]
2.5927944 2.40644 1.3622818 1.0941315 0.7790514 1.7954853 1.4814936 1.0758026
3.1755033 0.96941453 1.5507971 1.4052819 2.0126784 1.5919007 0.7293148 1.4773902
00000000: 58f0 2540 1d03 1a40 405f ae3f 800c 8c3f
00000010: ea6f 473f 76d2 e53f 95a1 bd3f e6b3 893f
00000020: 723b 4b40 8d2b 783f 8580 c63f 47e0 b33f
00000030: b9cf 0040 67c3 cb3f 60b4 3a3f 1f1b bd3f

bn2.bias f4 [16]
0.29628992 0.39159784 -0.8939861 -0.14877267 -0.53895664 0.28264672 0.37073776 -1.2082006
0.035405044 0.37211317 0.3984624 -0.25430635 -0.2614129 0.6737081 0.42820197 0.3236965
00000000: 50b3 973e 837f c83e 46dc 64bf dd57 18be
00000010: 10f9 09bf 12b7 903e 57d1 bd3e 51a6 9abf
00000020: e104 113d 9e85 be3e 4403 cc3e 7134 82be
00000030: e9d7 85be 2278 2c3f 4a3d db3e 8cbb a53e

bn2.running_mean f4 [16]
2.024577 4.1282287 45.707203 7.999401 29.877491 4.2001095 1.7309903 18.660994
2.5961232 10.778598 1.7378002 2.5523558 4.2303615 1.4903936 12.122945 38.466434
00000000: ab92 0140 731a 8440 2dd4 3642 18fb ff40
00000010: 1a05 ef41 4c67 8640 1791 dd3f b749 9541
00000020: e226 2640 2375 2c41 3d70 de3f cc59 2340
00000030: 1f5f 8740 38c5 be3f 95f7 4141 a1dd 1942

bn2.running_var f4 [16]
54.045273 186.53809 374.25662 156.5196 469.21478 178.93768 33.304115 85.993614
77.84118 250.83008 38.91579 64.35315 138.25783 30.140406 75.90365 334.87976
00000000: 5c2e 5842 c089 3a43 d920 bb43 0585 1c43
00000010: 7e9b ea43 0cf0 3243 6a37 0542 bbfc ab42
00000020: afae 9b42 80d4 7a43 c5a9 1b42 d0b4 8042
00000030: 0142 0a43 8d1f f141 abce 9742 9c70 a743

conv3.weight f4 [32, 16, 3, 3]
1.7407811 -0.8952954 -1.1829723 -0.6869254 -1.1569177 0.7402502 -1.4131469 -0.59484595
0.11528639 0.70476866 0.47923353 -0.053029913 0.57465833 1.2747029 2.5438733 -0.08284309
2.0456855 2.1209285 -1.1667029 2.1827683 0.9250654 1.1053352 2.5731494 0.84783405
2.8758624 2.9759216 0.40868366 -2.8463361 -2.4308767 1.1556636 -0.8724155 1.0058451
0.54647946 -2.6132824 -0.16687661 -0.04297207 1.6868795 0.27163905 -0.48404935 1.5437486
-0.67237675 0.13218 2.5259833 0.9479113 -1.0289494 -2.8817708 1.4623693 0.008413626
-2.07632 -0.97355 1.2505002 -2.6874287 0.65562135 1.8392435 0.72113883 1.0844531
0.020189928 -0.39060423 0.24597569 0.117612116 -1.2873772 1.5572417 0.69999826 0.6813204
1.5669053 0.92863995 2.7634249 1.1913466 0.70255345 2.1416771 1.1455739 1.7593182
1.1088512 0.95442325 -1.1431695 0.28250003 -0.5165537 0.55377144 -1.4860519 -1.7555938
0.58336705 -2.006859 -0.5054093 -1.1035278 -1.7301683 0.45962483 0.20487817 -0.75726295
1.2586161 1.0164167 -1.3397062 -1.804429 0.25590685 -3.066081 -0.99112236 -0.12744704
-2.2858632 0.1269799 0.34275654 0.8530833 -2.2690816 1.1897321 -0.554352 1.0240669
-0.112854935 -1.5341214 1.5975876 0.44208902 0.16910252 -0.06238145 -0.16272412 0.81656533
0.4618139 0.6284921 1.4541136 0.8096218 0.20316343 2.9459062 0.56846434 -1.4684862
-0.07182834 0.645871 0.0653879 -2.7457795 -0.0507179 -0.22407126 -3.3596768 -1.0714887
0.4536039 -2.392027 -0.22838624 0.2526336 -0.36517873 1.2373253 1.3739531 -0.7082122
-0.3006744 0.5829041 0.45124403 -0.5688519 1.1954247 1.9573861 -0.14205328 1.0660914
0.83546513 -0.24420285 0.5251794 2.0182972 1.8282107 0.847899 0.64074934 0.52548116
0.4299404 -0.41097796 0.32422918 -0.8880957 -0.59066075 -1.0214336 -0.88514036 0.5169365
-2.5777237 -0.23528677 -0.032765947 -0.057820816 1.1060787 -0.26908827 0.074853115 0.35620502
-0.886907 -0.15129274 0.67015505 0.47986448 0.34581706 -0.16068938 0.7069701 -0.3211514
-0.41452542 -5.403901 -2.263311 -0.16506329 -0.23605111 1.0264529 0.09441882 -2.0099018
-0.21375434 -1.0298592 -1.3144451 -0.4248128 -1.6822948 -0.42866373 0.19096659 1.2532215
0.5497979 0.944779 0.8027197 1.715244 0.0353122 -1.4788612 0.19675489 -0.88060945
-0.61115766 -1.7295585 0.4514602 -0.8959653 1.1257786 0.20677689 -0.045701545 0.37347248
0.592084 0.60519445 0.21668495 -0.2386114 0.28929082 0.36566472 1.3414828 0.98856115
0.41013944 0.20581266 0.47873157 0.21242417 -0.8569435 0.24593222 -3.671894 -1.3005087
-1.5220004 -0.3890923 1.4910625 1.2063018 -2.8894258 -0.48689738 -0.29369384 -0.6212744
-0.02550239 -0.5532418 -0.065189615 0.27659285 1.1715753 -2.1256707 -3.2299454 -2.633962
0.0918723 0.7605357 -0.8525005 0.79323936 1.0571177 -0.8097106 -0.10091901 0.0818373
2.7445774 0.25288513 -2.5261955 0.29495645 1.4165093 -0.03777073 0.19858497 0.68892896
00000000: ead1 de3f 1432 65bf a36b 97bf 58da 2fbf
00000010: e115 94bf 0981 3d3f ffe1 b4bf d347 18bf
00000020: 451b ec3d b86b 343f 195e f53e e535 59bd
00000030: cf1c 133f 7729 a33f d2ce 2240 a3a9 a9bd
00000040: 83ec 0240 4bbd 0740 8556 95bf 7ab2 0b40
00000050: 16d1 6c3f a07b 8d3f 7bae 2440 a70b 593f
00000060: 210e 3840 8075 3e40 fc3e d13e 5f2a 36c0
00000070: 7c93 1bc0 c9ec 933f 9f56 5fbf 88bf 803f
00000080: 14e6 0b3f 0540 27c0 b4e1 2abe 7b03 30bd
00000090: abeb d73f 4614 8b3e 51d5 f7be 8e99 c53f
000000a0: e220 2cbf 325a 073e b6a9 2140 51aa 723f
000000b0: 9db4 83bf ef6e 38c0 eb2e bb3f 4ed9 093c
000000c0: 6de2 04c0 933a 79bf 6410 a03f d5fe 2bc0
000000d0: cdd6 273f 556c eb3f 8e9c 383f 5ccf 8a3f
000000e0: 5965 a53c 47fd c7be 0de1 7b3e 9fde f03d
000000f0: c7c8 a4bf b253 c73f 1633 333f 046b 2e3f
00000100: 5a90 c83f 59bb 6d3f f4db 3040 0c7e 983f
00000110: 8bda 333f 3d11 0940 2aa2 923f 5731 e13f
00000120: d6ee 8d3f 1555 743f 6153 92bf d8a3 903e
00000130: dd3c 04bf f7c3 0d3f f336 bebf 4cb7 e0bf
00000140: 8b57 153f 6170 00c0 8162 01bf 6640 8dbf
00000150: 2876 ddbf f253 eb3e 95cb 513e fcdb 41bf
00000160: 551a a13f f119 823f 7e7b abbf 88f7 e6bf
00000170: 3906 833e ac3a 44c0 32ba 7dbf 7a81 02be
00000180: 954b 12c0 0507 023e c97d af3e ab63 5a3f
00000190: a238 11c0 2449 983f 03ea 0dbf a014 833f
000001a0: 7d20 e7bd 175e c4bf c07d cc3f 7e59 e23e
000001b0: 3629 2d3e b183 7fbd 27a1 26be 6d0a 513f
000001c0: df72 ec3e dce4 203f 6520 ba3f 6043 4f3f
000001d0: 130a 503e ba89 3c40 e186 113f 5bf7 bbbf
000001e0: bd1a 93bd cd57 253f 17ea 853d daba 2fc0
000001f0: 93bd 4fbd f072 65be f204 57c0 8b26 89bf
00000200: c53e e83e f816 19c0 15de 69be 3159 813e
00000210: b5f8 babe ad60 9e3f b2dd af3f 654d 35bf
00000220: fff1 99be 3439 153f 7509 e73e 47a0 11bf
00000230: ad03 993f a18b fa3f 6a76 11be af75 883f
00000240: 0be1 553f 5010 7abe 2872 063f c82b 0140
00000250: cf02 ea3f e90f 593f 2608 243f ef85 063f
00000260: 2621 dc3e b46b d2be 5e01 a63e 3d5a 63bf
00000270: 8b35 17bf 56be 82bf 8f98 62bf f355 043f
00000280: 6df9 24c0 04ef 70be 9635 06bd 85d5 6cbd
00000290: fd93 8d3f f0c5 89be 974c 993d 8160 b63e
000002a0: 560c 63bf 7cec 1abe 488f 2b3f ccb0 f53e
000002b0: ef0e b13e c28b 24be fefb 343f f56d a4be
000002c0: ad3c d4be c2ec acc0 16da 10c0 5a06 29be
000002d0: 62b7 71be cf62 833f a85e c13d 3ba2 00c0
000002e0: 6be2 5abe 6dd2 83bf bd3f a8bf 1081 d9be
000002f0: 7055 d7bf d079 dbbe bf8c 433e 9069 a03f
00000300: 8ebf 0c3f 09dd 713f 0a7f 4d3f 1e8d db3f
00000310: 87a3 103d 534b bdbf 1d7a 493e 9f6f 61bf
00000320: d474 1cbf 2c62 ddbf cb25 e73e fb5d 65bf
00000330: 8319 903f 52bd 533e 8b31 3bbd c937 bf3e
00000340: d192 173f 06ee 1a3f a9e2 5d3e 8c56 74be
00000350: ed1d 943e 6838 bb3e b5b5 ab3f 5812 7d3f
00000360: ccfd d13e 8ec0 523e 4e1c f53e b985 593e
00000370: a660 5bbf a8d5 7b3e 5000 6bc0 1277 a6bf
00000380: e9d0 c2bf 1b37 c7be 23db be3f 1968 9a3f
00000390: 5aec 38c0 9d4a f9be 0a5f 96be d70b 1fbf
000003a0: 63ea d0bc 41a1 0dbf 2282 85bd 949d 8d3e
000003b0: 2ef6 953f fd0a 08c0 6db7 4ec0 d592 28c0
000003c0: 8b27 bc3d 78b2 423f 793d 5abf bc11 4b3f
000003d0: a24f 873f 3249 4fbf a0ae cebd 509a a73d
000003e0: 28a7 2f40 297a 813e 30ad 21c0 8804 973e
000003f0: 2d50 b53f 7bb5 1abd dc59 4b3e a65d 303f

conv3.bias f4 [32]
-1.8027103 -1.8909068 -1.8114495 0.6888472 -1.4000838 -1.9971942 -1.9370843 -0.5100818
-2.623814 -0.66483635 -0.4462485 -0.5728361 -1.1942395 -1.3500695 -0.5149007 -2.8049734
-0.49722868 -2.824996 0.8529442 -0.16949774 -2.6245813 0.04024112 -2.2578335 -1.0317689
-0.7578742 -2.0679939 0.09383107 -1.3104793 -2.774245 -1.1512018 -1.2476411 -2.268935
00000000: 36bf e6bf 3c09 f2bf 94dd e7bf 4a58 303f
00000010: f235 b3bf 0fa4 ffbf 61f2 f7bf b994 02bf
00000020: 92ec 27c0 b732 2abf af7a e4be 63a5 12bf
00000030: d7dc 98bf 14cf acbf 88d0 03bf af84 33c0
00000040: c294 febe bccc 34c0 8d5a 5a3f d190 2dbe
00000050: 24f9 27c0 dfd3 243d 5880 10c0 0111 84bf
00000060: 0b04 42bf 035a 04c0 812a c03d c9bd a7bf
00000070: 3b8d 31c0 955a 93bf b4b2 9fbf 3b36 11c0

bn3.weight f4 [32]
2.2304723 1.1579514 1.4924799 1.6252502 1.2679529 1.663636 1.8925455 1.7917918
1.6596918 1.185309 2.0773463 1.3652078 2.1437967 1.7412893 1.978748 1.361945
1.8094805 1.6534883 1.9010667 2.1273463 1.4149567 2.1178215 2.0231235 1.7209177
1.6015177 1.259552 1.5123006 1.5195631 1.4702816 1.7704939 1.3082972 1.4877434
00000000: 0fc0 0e40 c037 943f 9509 bf3f 3308 d03f
00000010: 484c a23f 06f2 d43f ee3e f23f 6f59 e53f
00000020: c870 d43f 35b8 973f 3ef3 0440 21bf ae3f
00000030: f733 0940 91e2 de3f 9d47 fd3f 3754 ae3f
00000040: 0f9d e73f 81a5 d33f 2756 f33f 7126 0840
00000050: 4d1d b53f 638a 0740 db7a 0140 0847 dc3f
00000060: 88fe cc3f 0039 a13f 1193 c13f 0b81 c23f
00000070: 3032 bc3f 8b9f e23f 4876 a73f 606e be3f

bn3.bias f4 [32]
-1.2286302 -0.30232728 -0.5336347 -0.48717606 -0.5907974 1.1626824 0.3806232 1.2203711
0.50643814 1.4960486 0.9786663 0.7063389 0.9800119 -1.0997244 0.6391474 0.9945275
0.40241602 0.029613703 0.7861336 1.0654548 -2.1154428 0.632489 -0.06525927 0.16344672
0.042586904 0.2158079 -0.27862692 -0.68682235 0.14011863 -1.7299917 0.70134896 -0.15287144
00000000: c143 9dbf a4ca 9abe 499c 08bf 246f f9be
00000010: 803e 17bf c7d2 943f 0be1 c23e 1f35 9c3f
00000020: eea5 013f 857e bf3f e089 7a3f a0d2 343f
00000030: 0fe2 7a3f c5c3 8cbf 2a9f 233f 5b99 7e3f
00000040: 7909 ce3e 7098 f23c 0d40 493f d360 883f
00000050: 6a63 07c0 cdea 213f a7a6 85bd 945e 273e
00000060: 9b6f 2e3d bffc 5c3e 30a8 8ebe 97d3 2fbf
00000070: 427b 0f3e 5e70 ddbf 9b8b 333f 558a 1cbe

bn3.running_mean f4 [32]
1.0204837 0.7840941 1.6349592 6.258159 3.1612804 4.3555565 2.0922554 4.9187236
4.6470685 4.543408 3.7015538 7.940533 2.682381 5.1597347 2.3420033 0.5661881
3.048276 3.8245795 11.847758 1.950773 1.9005905 5.7185946 0.6626344 6.9992886
4.5339932 1.6740781 1.932759 10.545881 2.081368 5.3608027 5.495874 2.5351593
00000000: 369f 823f 64ba 483f 5846 d13f d742 c840
00000010: 6b52 4a40 b860 8b40 83e7 0540 2f66 9d40
00000020: c9b4 9440 9963 9140 42e6 6c40 d918 fe40
00000030: 21ac 2b40 8c1c a540 62e3 1540 b4f1 103f
00000040: f416 4340 e9c5 7440 6b90 3d41 eeb2 f93f
00000050: 8d46 f33f bafe b640 68a2 293f 2cfa df40
00000060: 7916 9140 3148 d63f a664 f73f eebb 2841
00000070: 2235 0540 b28b ab40 33de af40 0d40 2240

bn3.running_var f4 [32]
66.08705 29.808449 58.104893 124.42539 76.98583 157.6573 103.522644 63.423313
283.22906 64.92413 187.70853 53.683216 194.58266 269.58453 188.68103 35.70043
92.23343 297.6134 127.48904 92.82726 52.682766 207.70766 32.741695 203.50728
171.64001 43.285904 58.37633 115.29789 113.78297 133.73384 86.69072 77.25799
00000000: 922c 8442 b477 ee41 696b 6842 cdd9 f842
00000010: bff8 9942 45a8 1d43 980b cf42 79b1 7d42
00000020: 529d 8d43 28d9 8142 62b5 3b43 9dbb 5642
00000030: 2995 4243 d2ca 8643 58ae 3c43 3ecd 0e42
00000040: 8477 b842 84ce 9443 63fa fe42 8fa7 b942
00000050: 27bb 5242 29b5 4f43 7ff7 0242 dd81 4b43
00000060: d8a3 2b43 c424 2d42 5d81 6942 8598 e642
00000070: e190 e342 ddbb 0543 a661 ad42 1784 9a42

conv4.weight f4 [64, 32, 3, 3]
1.54862 0.10726435 -0.780763 1.3769896 -0.060198892 -1.6700463 0.40408027 -3.5712926
-1.3264205 -0.37517655 0.6948615 -1.1790359 0.2493108 0.27630088 -0.109373696 0.58026135
-0.33455044 0.7693103 -0.016019884 2.7849648 0.6814524 -0.7473927 0.5033906 -0.61278653
-0.56329566 -0.06872243 -0.07761896 -2.242178 -1.6842501 1.4859598 1.0304346 -0.17687923
-1.4887336 0.788549 0.57875764 -2.5992563 -0.12863274 -0.6018128 -0.7369661 -0.12739657
-0.9832268 -2.4406846 0.2815807 1.1733519 -1.9068128 -0.23573071 -0.45837116 1.2117589
-0.06972904 -0.48389104 1.3837214 0.9185464 -1.1933159 0.011833359 -1.8829868 0.60011595
-0.3369376 0.6306877 1.4707745 0.43003654 0.10527215 -0.9315642 0.8263994 -0.8460438
-2.545436 -0.8335353 -2.0279384 1.3426389 1.5241158 -0.08299309 -0.19460627 -1.1281241
-0.77895474 0.6950912 0.09917559 -0.17691976 0.33068293 0.6358028 -0.1503935 -0.46606934
2.1184185 -0.8336116 -1.0730089 -0.3953975 0.94768393 1.7165407 0.4061907 -1.5210326
-0.7750864 1.8226541 -1.0604599 -3.2274516 -2.0357597 2.3355794 -0.16157076 -0.6689064
0.7767322 -2.7082093 -0.2308514 -1.3909655 -0.29647323 0.78446096 1.3382732 -0.19621001
-0.73444974 -0.21043238 1.1591455 0.28282005 0.73496264 -0.17874569 -0.97993207 -0.521011
-0.33922815 -0.8445411 0.38338786 -0.99932176 -1.1224597 -0.124313906 1.138919 1.2045575
0.67759556 -0.016007721 0.3365386 -0.71025157 -0.22592513 -1.3947014 -0.70134264 -0.76766676
0.09466706 0.70286804 1.1686381 -3.1067047 0.14013322 -1.4250869 -2.7883453 -0.4499128
-0.5975263 -1.6226885 -0.3190939 -2.6015646 -0.25099856 0.11151011 -1.375956 -0.46375558
-0.17120275 1.033242 -0.18028218 -0.9745677 0.48214072 -0.21165666 0.45312777 1.6146426
-1.1351703 0.37781575 1.6026134 -0.5224823 -0.9559955 1.3524631 -5.623792 -1.8462037
-1.6345594 -1.8139868 1.4691659 1.9097275 0.7043194 -1.8943862 -0.58690745 -0.094412535
-1.8954283 -0.8974179 0.479383 0.094367355 0.5016501 1.2805649 -0.4288818 -0.13054611
-1.3833026 0.8061717 0.26636493 -3.0796523 0.43441465 -0.26611665 0.7805628 0.47335124
1.1995783 2.4084167 1.4239256 1.6605359 1.3472974 -0.31487957 0.4577867 -0.19049463
-0.12474903 -0.1681869 2.4755313 0.2821739 -1.3922818 1.1992683 -2.1882198 0.38604665
0.32371783 1.7160362 1.5557584 -2.5448594 0.19950494 -0.32275647 -1.9086359 -1.1753087
0.13117109 1.393855 -1.0404809 -0.07932466 1.5574789 0.37810275 0.48636797 -0.69893324
1.217895 -0.8197923 -0.8110364 0.75301135 -0.015430752 0.38318285 1.0523037 -0.014518427
-1.6146178 1.1115322 -1.9243205 -4.5558047 -1.1436222 -2.080721 1.1025405 -0.12696299
0.1775798 -1.2866102 -1.24444 0.87237984 0.5910577 0.6055622 0.816948 -0.81233156
-1.7680846 0.97014004 0.3820078 -1.2716249 0.59447366 -0.78131175 0.7007197 1.4876748
0.47452807 -4.262235 -0.1563092 1.4088258 -0.5777804 -0.75397354 -0.45692837 -0.3851434
00000000: 2e39 c63f 69ad db3d 15e0 47bf 3241 b03f
00000010: 1d93 76bd 14c4 d5bf 9ce3 ce3e 0f90 64c0
00000020: 26c8 a9bf 2417 c0be 71e2 313f a6ea 96bf
00000030: 554b 7f3e 4f77 8d3e 51ff dfbd 028c 143f
00000040: 324a abbe 85f1 443f 223c 83bc dd3c 3240
00000050: aa73 2e3f 2155 3fbf 35de 003f 94df 1cbf
00000060: 2534 10bf 58be 8cbd b0f6 9ebd d87f 0fc0
00000070: 8295 d7bf ee33 be3f 48e5 833f d41f 35be
00000080: d38e bebf 59de 493f 7629 143f 375a 26c0
00000090: 4db8 03be 6710 1abf cfa9 3cbf 3f74 02be
000000a0: c0b4 7bbf 2d34 1cc0 582b 903e 6530 963f
000000b0: 7112 f4bf 6463 71be a0af eabe ea1a 9b3f
000000c0: 19ce 8ebd 91c0 f7be c81d b13f db25 6b3f
000000d0: 93be 98bf b4e0 413c b605 f1bf 33a1 193f
000000e0: 1683 acbe c074 213f 5742 bc3f c02d dc3e
000000f0: ed98 d73d fe7a 6ebf e98e 533f 5496 58bf
00000100: 6ce8 22c0 9262 55bf bec9 01c0 97db ab3f
00000110: 3a16 c33f 48f8 a9bd de46 47be 5f66 90bf
00000120: 9469 47bf 7ff1 313f 921c cb3d 742a 35be
00000130: 464f a93e f9c3 223f c100 1abe a4a0 eebe
00000140: 2b94 0740 9267 55bf 5b58 89bf 8b71 cabe
00000150: 6a9b 723f 9bb7 db3f 3af8 cf3e 32b1 c2bf
00000160: 106c 46bf bb4c e93f 26bd 87bf 918e 4ec0
00000170: e349 02c0 227a 1540 ce72 25be 733d 2bbf
00000180: ecd7 463f 4d53 2dc0 4f64 6cbe 280b b2bf
00000190: 57cb 97be 6fd2 483f 894c ab3f 47eb 48be
000001a0: e604 3cbf 967b 57be e15e 943f cacd 903e
000001b0: 8326 3c3f 1c09 37be d4dc 7abf fa60 05bf
000001c0: 50af adbe d833 58bf 6a4b c43e 8dd3 7fbf
000001d0: c2ac 8fbf 4a98 febd 19c8 913f f12e 9a3f
000001e0: e776 2d3f a022 83bc ca4e ac3e 0cd3 35bf
000001f0: eb58 67be 9385 b2bf 318b 33bf cf85 44bf
00000200: cee0 c13d 29ef 333f ef95 953f 40d4 46c0
00000210: 157f 0f3e 3f69 b6bf 4074 32c0 f85a e6be
00000220: 7cf7 18bf 42b4 cfbf 4760 a3be 0980 26c0
00000230: e282 80be 6a5f e43d 541f b0bf 5f71 edbe
00000240: c64f 2fbe 4641 843f e49b 38be 457d 79bf
00000250: 26db f63e 86bc 58be 5d00 e83e 9cac ce3f
00000260: 434d 91bf 1171 c13e 7022 cd3f 66c1 05bf
00000270: 1fbc 74bf 831d ad3f 1bf6 b3c0 6750 ecbf
00000280: 3e39 d1bf b830 e8bf a10d bc3f f371 f43f
00000290: 474e 343f 3f7b f2bf 913f 16bf 5c5b c1bd
000002a0: 659d f2bf 2ebd 65bf b071 f53e ac43 c13d
000002b0: 246c 003f 8de9 a33f 6596 dbbe e1ad 05be
000002c0: 0f10 b1bf 4561 4e3f fc60 883e 0619 45c0
000002d0: 996b de3e 7140 88be f7d2 473f 185b f23e
000002e0: c88b 993f 8023 1a40 3243 b63f 718c d43f
000002f0: 3e74 ac3f e537 a1be 0563 ea3e 0611 43be
00000300: 6b7c ffbd 3039 2cbe 1b6f 1e40 1979 903e
00000310: 4a36 b2bf a081 993f cb0b 0cc0 e8a7 c53e
00000320: 58be a53e 13a7 db3f 1723 c73f fade 22c0
00000330: 064b 4c3e 5640 a5be 2e4e f4bf 8470 96bf
00000340: b751 063e d769 b23f 7a2e 85bf f874 a2bd
00000350: 785b c73f af96 c13e 3905 f93e 4aed 32bf
00000360: fce3 9b3f e8dd 51bf 15a0 4fbf 5ac5 403f
00000370: 44d1 7cbc 8b30 c43e e3b1 863f b2de 6dbc
00000380: ccab cebf b046 8e3f 2250 f6bf 27c9 91c0
00000390: 3662 92bf 882a 05c0 0c20 8d3f 9602 02be
000003a0: 7bd7 353e a5af a4bf cf49 9fbf 4954 5f3f
000003b0: 8f4f 173f 2006 1b3f 8123 513f f6f4 4fbf
000003c0: 9950 e2bf 195b 783f 8796 c33e 9bc4 a2bf
000003d0: 6d2f 183f 0c04 48bf 5e62 333f 216c be3f
000003e0: 58f5 f23e 3b64 88c0 850f 20be 6754 b43f
000003f0: 6be9 13bf 6904 41bf 84f2 e9be 8431 c5be

conv4.bias f4 [64]
-0.2950185 -3.0116615 0.019173121 -0.19697477 -1.0638837 -2.112658 -0.39301306 -0.43398738
-0.48085836 -0.9010821 -1.5744371 -1.3900818 0.06770904 -0.2515942 -1.4227924 -1.1412833
-1.0676959 -1.3469933 0.20070349 -1.1009886 0.51336026 0.20825115 -2.5472817 -1.200069
-0.647199 -0.09317375 -0.53583205 -1.3738084 -1.4549242 -0.71147937 -0.74527025 -0.3792498
0.057674315 -0.3851017 -1.1684004 -0.80796576 -0.5125062 0.1366799 -0.40932778 -0.55742705
-0.5539373 -2.0960157 -0.8548826 1.0921223 -0.8540049 -1.2518063 -1.285926 0.34834364
-0.44870952 0.3358434 -1.5617507 -0.75892943 -0.58569485 -1.82491 -1.6482086 -0.6088288
0.41558874 -0.6533728 -1.4279273 -1.2898308 -1.0391965 -2.3429723 -2.2392864 -1.1071492
00000000: aa0c 97be 10bf 40c0 f310 9d3c c1b3 49be
00000010: 572d 88bf ca35 07c0 0239 c9be 9833 debe
00000020: 1133 f6be 51ad 66bf 2887 c9bf 33ee b1bf
00000030: 0aab 8a3d f4d0 80be 101e b6bf 9215 92bf
00000040: 42aa 88bf 476a acbf 3785 4d3e 32ed 8cbf
00000050: 946b 033f ca3f 553e aa06 23c0 dc9b 99bf
00000060: d5ae 25bf e1d1 bebd 4a2c 09bf f4d8 afbf
00000070: f53a babf 8323 36bf 08ca 3ebf 082d c2be
00000080: e73b 6c3d 0d2c c5be 258e 95bf d8d6 4ebf
00000090: 9b33 03bf d1f5 0b3e 6993 d1be 8ab3 0ebf
000000a0: d6ce 0dbf 1f25 06c0 96d9 5abf aaca 8b3f
000000b0: 11a0 5abf 303b a0bf 3999 a4bf 195a b23e
000000c0: 41bd e5be abf3 ab3e 72e7 c7bf 3349 42bf
000000d0: 19f0 15bf a796 e9bf 80f8 d2bf 34dc 1bbf
000000e0: 0cc8 d43e 7143 27bf 52c6 b6bf 2d19 a5bf
000000f0: 6404 85bf 42f3 15c0 7850 0fc0 11b7 8dbf

bn4.weight f4 [64]
4.1786146 4.4269123 1.4793845 4.567653 4.239508 3.3566997 4.8761754 3.2743707
3.408185 3.9845812 4.1057506 3.525401 1.3670297 4.1017747 4.015208 3.0423083
3.252123 4.734244 4.70462 2.8315094 4.4671926 1.4647561 4.73487 3.875497
5.1449766 3.1596708 4.8783994 4.413156 4.0939593 0.7970261 0.20281719 1.3201151
4.3404107 2.071775 3.5601354 3.849192 6.000538 3.7172914 3.643123 4.761405
4.2570076 3.579201 0.96115124 5.1939683 5.025535 4.4172225 4.033657 5.7688417
4.153787 4.8572016 3.1993275 3.7201757 0.7734888 4.0829673 4.0899677 2.5708377
5.0993114 4.0143867 3.194383 4.432187 4.223329 4.343902 4.0414586 4.1021085
00000000: 36b7 8540 44a9 8d40 795c bd3f 372a 9240
00000010: 0daa 8740 2bd4 5640 a109 9c40 4a8f 5140
00000020: b41f 5a40 6103 7f40 4f62 8340 2ca0 6140
00000030: d4fa ae3f bd41 8340 957c 8040 2eb5 4240
00000040: c922 5040 ed7e 9740 3f8c 9640 7337 3540
00000050: 3ef3 8e40 217d bb3f 0e84 9740 2508 7840
00000060: a6a3 a440 0c38 4a40 d91b 9c40 9338 8d40
00000070: b701 8340 e709 4c3f 4faf 4f3e 88f9 a83f
00000080: a5e4 8a40 f697 0440 42d9 6340 2959 7640
00000090: 6804 c040 1ae8 6d40 ed28 6940 6e5d 9840
000000a0: 6839 8840 a111 6540 020e 763f fd34 a640
000000b0: 2fd1 a040 e359 8d40 b813 8140 5a9a b840
000000c0: d3eb 8440 326e 9b40 c8c1 4c40 5c17 6e40
000000d0: 5d03 463f aba7 8240 04e1 8240 9b88 2440
000000e0: 8f2d a340 db75 8040 c570 4c40 7ad4 8d40
000000f0: 8325 8740 3f01 8b40 a153 8140 7944 8340

bn4.bias f4 [64]
0.37702775 0.237577 0.0401487 0.16255155 0.0029452604 0.32380834 0.40882352 -0.054902345
0.25618082 0.008253721 0.04543153 0.2887285 0.10479732 0.2713794 0.16606344 0.14186108
0.035606235 -0.027346367 0.032701973 0.15720415 0.0071137547 -0.011238449 0.3635299 0.11815001
0.1308276 0.052138347 0.18166114 0.18998319 0.33105665 0.047665417 -0.0061129024 0.13865541
0.18163735 0.11168579 0.119618036 0.018346718 0.28912914 0.086282276 0.095215924 0.10434281
0.20628586 -0.0032296877 0.24932279 0.1952364 0.24021757 0.14418624 0.31466928 0.27006137
0.12672223 -0.079734676 0.07880995 0.16220146 0.022984244 0.20066574 0.3073246 0.017301753
0.32260638 -0.008703019 0.2017489 0.17371546 0.09996556 0.3938343 0.087711066 0.033770733
00000000: c809 c13e 6347 733e f772 243d ea73 263e
00000010: 4505 413b 35ca a53e 5151 d13e 48e1 60bd
00000020: 222a 833e 9d3a 073c 6916 3a3d 39d4 933e
00000030: fa9f d63d 3ef2 8a3e 890c 2a3e 0844 113e
00000040: d8d7 113d 7d05 e0bc 81f2 053d 20fa 203e
00000050: 801a e93b 7921 38bc 9720 ba3e a2f8 f13d
00000060: acf7 053e 058f 553d 6105 3a3e f48a 423e
00000070: 4280 a93e d03c 433d be4e c8bb affb 0d3e
00000080: 24ff 393e 85bb e43d 4dfa f43d db4b 963c
00000090: bc08 943e c3b4 b03d 9100 c33d afb1 d53d
000000a0: 9a3c 533e 2ba9 53bb 794e 7f3e 0dec 473e
000000b0: 98fb 753e 8fa5 133e 551c a13e 7c45 8a3e
000000c0: 79c3 013e ef4b a3bd 1c67 a13d 2418 263e
000000d0: 7449 bc3c 527b 4d3e a659 9d3e 68bc 8d3c
000000e0: aa2c a53e 1b97 0ebc 4397 4e3e 77e2 313e
000000f0: beba cc3d a6a4 c93e dca1 b33d 2e53 0a3d

bn4.running_mean f4 [64]
1.7098516 0.8812917 60.356804 0.82158536 0.5113355 1.3410338 2.5564148 1.0052687
0.73478055 0.3902601 0.7153681 0.9067589 27.777933 1.0848811 0.76585305 1.3007356
0.4414062 0.4480758 0.81167006 0.76414764 0.6779712 76.54286 1.6220208 1.3149974
0.42177036 0.79383945 1.111336 0.30571297 0.62020594 2.7309291 0.32297534 4.334449
0.80992806 3.7018416 0.42225614 0.5976442 0.8013461 1.232384 0.25323215 0.40196002
0.82854295 1.2108619 7.8811903 0.9639123 0.5935989 0.68645793 0.32153592 1.3691539
0.9596342 0.28131104 0.36843774 1.8301038 12.591606 0.6224063 0.7757445 2.7653797
0.77751166 0.66882 2.3388417 0.21352293 0.7187265 1.7219832 0.83491504 0.922028
00000000: 6bdc da3f 559c 613f 5e6d 7142 6b53 523f
00000010: e2e6 023f ffa6 ab3f 4d9c 2340 a5ac 803f
00000020: 941a 3c3f 2cd0 c73e 5d22 373f 5a21 683f
00000030: 3539 de41 62dd 8a3f f20e 443f 817e a63f
00000040: feff e13e 316a e53e 9cc9 4f3f 2e9f 433f
00000050: 858f 2d3f f215 9942 619e cf3f d651 a83f
00000060: 49f2 d73e 1039 4b3f 4240 8e3f 6986 9c3e
00000070: d1c5 1e3f 8bc7 2e40 065d a53e ceb3 8a40
00000080: 7257 4f3f f9ea 6c40 f531 d83e 36ff 183f
00000090: 0525 4d3f c2be 9d3f a5a7 813e b4cd cd3e
000000a0: 641b 543f 86fd 9a3f b632 fc40 f5c2 763f
000000b0: 19f6 173f b5bb 2f3f 5ba0 a43e 6f40 af3f
000000c0: 96aa 753f 0008 903e dfa3 bc3e d740 ea3f
000000d0: 3877 4941 0556 1f3f 3197 463f fbfb 3040
000000e0: 010b 473f ca37 2b3f 95af 1540 c1a5 5a3e
000000f0: 76fe 373f f269 dc3f febc 553f 070a 6c3f

bn4.running_var f4 [64]
124.737595 60.131615 2410.3838 38.41227 24.434055 79.36058 202.56926 66.4054
34.432163 15.106664 44.914104 46.18106 962.09 74.31894 45.960766 108.27343
21.726208 19.903824 47.384266 40.43083 33.358353 2101.0398 107.86219 99.91749
17.371601 34.88605 84.70245 13.311901 29.137974 67.688896 21.851475 258.82852
46.78505 151.08186 25.31643 28.509398 50.98236 68.189354 9.55953 18.690266
44.42636 96.10162 239.35895 52.33922 30.377531 34.08982 13.222064 78.59444
46.799065 13.280981 17.821333 184.88594 480.74338 41.4812 39.77 221.58183
45.180645 32.194756 144.32948 11.630187 46.526047 119.3957 41.156395 48.841194
00000000: a679 f942 c686 7042 24a6 1645 2aa6 1942
00000010: f278 c341 9eb8 9e42 bb91 4a43 91cf 8442
00000020: 89ba 0942 e5b4 7141 0ba8 3342 68b9 3842
00000030: c385 7044 4ca3 9442 d3d7 3742 ff8b d842
00000040: 46cf ad41 083b 9f41 7d89 3d42 2bb9 2142
00000050: f46e 0542 a350 0345 71b9 d742 c1d5 c742
00000060: 0af9 8a41 518b 0b42 a867 a942 8cfd 5441
00000070: 921a e941 b760 8742 d2cf ae41 0d6a 8143
00000080: e423 3b42 f514 1743 0c88 ca41 3f13 e441
00000090: f0ed 4b42 f360 8842 d6f3 1841 aa85 9541
000000a0: 98b4 3142 0834 c042 e45b 6f43 5c5b 5142
000000b0: 2f05 f341 fa5b 0842 938d 5341 5a30 9d42
000000c0: 3e32 3b42 e67e 5441 1792 8e41 cde2 3843
000000d0: 275f f043 c0ec 2542 7b14 1f42 f394 5d43
000000e0: fbb8 3442 6ec7 0042 5954 1043 3f15 3a41
000000f0: ac1a 3a42 99ca ee42 26a0 2442 625d 4342

lin.weight f4 [10, 64]
0.48049876 -0.9306315 0.25197953 0.5130431 -1.4880686 0.8371176 -0.5775249 0.117556825
-1.0202167 -0.36123583 -1.5939529 0.22614963 0.9740372 -3.28446 -2.0622435 0.91887075
0.52375877 -0.15248773 2.3211482 -0.63079184 0.093859315 1.7754797 -2.627021 -0.94538826
-0.62114275 0.3047941 0.97366375 -0.08448236 -1.1414942 0.673562 -0.03825627 0.6810171
-0.1113278 1.065227 0.2578305 -0.45166898 2.3608878 -0.1353435 -0.027421925 -0.84089404
0.0926427 1.8602107 -0.28666726 1.2322026 -2.2055638 -2.1515877 -0.8144392 0.97571397
-2.3657975 -0.77643085 0.7975711 1.628418 -1.0330145 0.21040954 -1.2915728 0.8256594
1.8228935 1.5660787 -0.48409855 -2.1328146 -0.035267454 0.6316067 -0.01108204 -1.1504681
-0.56904024 1.2547119 0.13690549 1.7064487 0.87294334 -0.8506103 1.1613287 -0.36297545
0.46696863 -0.78558314 -0.29184398 -0.51967144 0.37248564 1.0637646 -0.57948416 -0.37065196
-0.60324293 -0.71405 -0.012853737 -1.0877599 -1.4218979 -0.0753121 1.1897855 0.027608471
-1.9847412 0.31999338 -0.83540815 -0.28829202 1.4854378 -0.18437408 -0.032034002 -0.0043815267
2.0327427 0.80852664 1.5808489 0.13530988 0.13688 0.4972826 -0.8144877 -0.36168215
-1.4585772 -1.4607414 -0.0653963 -1.6465489 0.6512054 -1.3201287 1.2736678 0.7652696
-0.2502268 -1.6941935 1.2549099 0.08529435 0.021957183 0.003345821 1.0802107 0.39091313
-1.0531263 -0.32341126 -2.693022 0.9499378 -2.162746 -0.0094866445 -1.9450558 0.5870978
-0.30350116 1.6745253 -0.4039173 -0.94596314 0.8148664 0.109750524 0.6155011 0.13596737
1.3976902 -0.13598417 -0.061171908 0.41593647 -0.23569514 0.04966446 1.661993 1.0525604
-0.7741885 -1.9732491 -0.6535572 0.54408085 1.5145327 -0.17975043 -0.77282584 -0.40310284
-0.8785783 0.14504753 0.9638003 0.101488546 0.800132 0.023766818 0.101548724 -1.267616
-0.3039121 -0.6404534 -1.1063614 1.017125 -0.9048151 -1.6626834 -1.0605326 1.4358735
0.43066448 -0.4199924 0.19993524 -1.3395464 -1.6166679 1.2312413 0.92639226 -2.5371444
-1.0708519 0.17126603 -1.3606387 1.1238039 0.87990254 -0.82179576 0.17824888 -0.40219453
1.550442 -1.5443726 0.62295127 -0.6342113 1.1983733 -1.4017768 0.80885416 -0.09504868
-0.81940675 -0.0800117 0.22743827 0.03589331 0.09031722 -1.088657 0.5031008 1.4547017
0.10737639 -0.08267142 -1.1092157 -0.17577946 -0.13911058 -0.46662456 0.41848955 -0.10126535
0.7932471 1.6505054 -0.38568687 1.4550638 -2.0718765 -0.2614373 1.566388 -2.9849484
-1.9863707 -1.1082993 -1.439847 -0.58683294 -1.3494818 0.17267357 -0.050891686 0.4393156
0.2149264 -0.2466775 -0.5428271 0.2683036 -1.470527 1.6926811 -0.30167803 1.2306478
-2.4832907 -1.8770034 0.32444105 -0.016942788 0.7452915 0.93999463 -0.12843859 1.3542998
-0.56264204 0.7964039 -0.22227474 0.28710815 0.2621747 2.0358562 -1.0124607 -1.1292014
0.1178444 1.0805655 -1.495191 0.3450669 -1.9574512 0.98203766 -1.7563357 1.9347223
00000000: ef03 f63e de3d 6ebf 7603 813e cb56 033f
00000010: 0879 bebf 574d 563f acd8 13bf a2c1 f03d
00000020: 7696 82bf e7f3 b8be a606 ccbf c593 673e
00000030: 805a 793f 9834 52c0 ccfb 03c0 1d3b 6b3f
00000040: 0e15 063f be25 1cbe b18d 1440 937b 21bf
00000050: 5039 c03d eb42 e33f 1d21 28c0 f704 72bf
00000060: 3603 1fbf f90d 9c3e 0742 793f 1605 adbd
00000070: 7b1c 92bf 8f6e 2c3f 9bb2 1cbd 2357 2e3f
00000080: d4ff e3bd 5c59 883f 5c02 843e 2841 e7be
00000090: c918 1740 7d97 0abe f2a3 e0bc d544 57bf
000000a0: 75bb bd3d 621b ee3f 0dc6 92be d1b8 9d3f
000000b0: f527 0dc0 9db3 09c0 167f 50bf 64c8 793f
000000c0: 3a69 17c0 2cc4 46bf 9f2d 4c3f 0070 d03f
000000d0: d239 84bf 9975 573e 4252 a5bf 6a5e 533f
000000e0: 9354 e93f 4475 c83f c4db f7be 0980 08c0
000000f0: 9b74 10bd fab0 213f 7291 35bc 8a42 93bf
00000100: 9fac 11bf 669a a03f f430 0c3e e96c da3f
00000110: 3779 5f3f 99c1 59bf 6ba6 943f ebd7 b9be
00000120: 8316 ef3e fa1b 49bf 936c 95be 3009 05bf
00000130: 70b6 be3e 7029 883f 1359 14bf 18c6 bdbe
00000140: 216e 1abf fbcb 36bf 7b98 52bc b73b 8bbf
00000150: c000 b6bf 3b3d 9abd e44a 983f 292b e23c
00000160: 000c febf 2cd6 a33e 4fdd 55bf 039b 93be
00000170: d322 be3f 8fcc 3cbe 1636 03bd e992 8fbb
00000180: 7518 0240 9afb 4e3f 4259 ca3f ac8e 0a3e
00000190: 452a 0c3e d39b fe3e 4482 50bf 672e b9be
000001a0: a8b2 babf 93f9 babf 7fee 85bd 1dc2 d2bf
000001b0: 66b5 263f faf9 a8bf 8c07 a33f b5e8 433f
000001c0: ba1d 80be 55db d8bf e3a0 a03f ceae ae3d
000001d0: 8ddf b33c 9045 5b3b 5844 8a3f c425 c83e
000001e0: d8cc 86bf 2996 a5be 795a 2cc0 202f 733f
000001f0: 6e6a 0ac0 df6d 1bbc 97f7 f8bf 0b4c 163f
00000200: 8164 9bbe d856 d63f 40ce cebe a42a 72bf
00000210: 169b 503f e2c4 e03d 7b91 1d3f 083b 0b3e
00000220: 83e7 b23f 6f3f 0bbe 658f 7abd a0f5 d43e
00000230: 115a 71be f66c 4b3d 30bc d43f 4dba 863f
00000240: 3831 46bf 6d93 fcbf 864f 27bf e248 0b3f
00000250: 35dc c13f 7f10 38be ead7 45bf 7f63 cebe
00000260: 82ea 60bf 5787 143e 9ebb 763f 3ad9 cf3d
00000270: 73d5 4c3f a1b2 c23c c7f8 cf3d 3e41 a2bf
00000280: 5e9a 9bbe c1f4 23bf 409d 8dbf 2731 823f
00000290: f6a1 67bf cfd2 d4bf 88bf 87bf b4ca b73f
000002a0: 0e80 dc3e 3e09 d7be d3bb 4c3e 4276 abbf
000002b0: f9ee cebf 5199 9d3f 0b28 6d3f 9360 22c0
000002c0: ad11 89bf 5d60 2f3e 6929 aebf ced8 8f3f
000002d0: 4b41 613f 3561 52bf e086 363e 71ec cdbe
000002e0: e274 c63f 00ae c5bf bc79 1f3f ac5b 22bf
000002f0: 4c64 993f 6c6d b3bf 1111 4f3f e2a8 c2bd
00000300: a4c4 51bf 2ddd a3bd 94e5 683e dd04 133d
00000310: 3cf8 b83d 1d59 8bbf 37cb 003f aa33 ba3f
00000320: 27e8 db3d a24f a9bd c8fa 8dbf 88ff 33be
00000330: 0173 0ebe 6ae9 eebe 4344 d63e 3564 cfbd
00000340: 3e12 4b3f c343 d33f c078 c5be 883f ba3f
00000350: a099 04c0 1cdb 85be 677f c83f 6509 3fc0
00000360: 6541 febf c0dc 8dbf e84c b8bf af3a 16bf
00000370: d2bb acbf 57d1 303e cd73 50bd f9ed e03e
00000380: ab15 5c3e 0799 7cbe b8f6 0abf 175f 893e
00000390: 3b3a bcbf c6a9 d83f 8b75 9abe de85 9d3f
000003a0: 3cee 1ec0 a641 f0bf 231d a63e 9acb 8abc
000003b0: 6ccb 3e3f 7da3 703f 6885 03be b259 ad3f
000003c0: 4f09 10bf 20e1 4b3f fd9b 63be d7ff 923e
000003d0: c33b 863e 784b 0240 5098 81bf ac89 90bf
000003e0: 6858 f13d f84f 8a3f 6b62 bfbf 9cac b03e
000003f0: c38d fabf d266 7b3f 9ccf e0bf fba4 f73f

lin.bias f4 [10]
-0.11441785 0.5229218 0.4436612 0.113689125 -0.2886938 -0.5745106 -0.2114485 0.6300039
-1.3844148 -3.6978354
00000000: e853 eabd 34de 053f 9027 e33e d8d5 e83d
00000010: accf 93be 2013 13bf f585 58be f047 213f
00000020: 8134 b1bf 56a9 6cc0

conv.0.weight f4 [8, 2, 5, 5]
-0.74299765 0.92446953 4.609883 1.5227835 0.8565311 -1.6430444 -0.3818165 1.6009004
0.53255534 -0.74635905 -0.6179058 -1.0136847 0.1460701 -0.42981026 -0.028200751 -1.2108499
-1.1761552 0.31997222 -0.8095736 0.24164054 -0.56804204 -0.5166358 0.23356713 -1.1383178
-0.35121265 -0.21793859 1.1256704 4.111464 1.9581509 0.75707155 -0.650396 -0.123427756
1.3475808 -0.4275622 -0.70048827 -0.36373508 -1.050235 0.49066082 -0.6629959 0.26850215
-0.026625525 -0.66172224 -0.15945049 -0.5707587 0.07661282 0.3314194 0.22179118 0.0016301835
-0.32509285 0.44233677 -0.174526 -1.9864906 -0.7379385 -1.0377071 -0.6169368 0.44600946
-1.3422042 -0.35636657 0.009279271 0.5375173 0.68280244 -0.9305131 -0.32107192 0.50209963
0.0075593903 0.96682185 -1.1210222 -0.9354404 -0.021528503 0.006871919 2.5589716 1.2332982
0.91181034 0.8576371 0.41975233 -0.2872282 -1.400071 -1.3010604 -1.0630894 -0.66625667
0.9891921 -0.78647614 -0.7599922 0.15525265 0.019244198 1.0919544 -0.759527 -0.63585985
-0.22935212 -0.2577884 1.4229449 -0.3765243 -0.37006512 -0.3131785 0.11241228 3.3749795
1.9081465 1.0230654 0.9407363 0.48114386 6.523733 0.40409473 3.7128022 0.973554
-0.32572064 2.0075111 -0.94560784 1.0907189 -0.055474572 -0.5674815 1.0029951 -1.309508
0.82858443 -0.1372529 -0.40038034 -0.15303855 -1.6672211 1.5065585 0.4166235 0.48738968
1.4625096 0.28053713 0.721468 0.33070275 0.20759062 2.6913545 -0.33230254 1.3706429
0.29699948 -0.53767806 0.20699467 -1.2574272 0.38246542 0.05374231 -0.15438138 -0.05050072
-1.3638732 -0.095495954 -0.22737561 0.17096785 -1.7062125 -1.5229709 0.60825276 0.36386606
0.22319248 0.1653898 -0.05777217 0.15033667 0.0928975 0.14127405 -1.0041617 -1.503493
-1.2443182 0.5196333 -0.6546792 -0.482495 -0.30855262 -0.07242489 0.07800618 0.55256814
-0.9845199 1.214148 -0.48437384 -0.6885685 -0.3526912 1.3553331 3.1512818 0.90647435
1.0684779 -0.027055059 -0.33372432 0.7938284 -0.27508092 -0.89231247 -0.52948856 -1.2753322
-1.4674647 -1.3547282 0.013633847 -0.31054258 -0.47629073 -0.057995755 -0.17129456 0.040779922
0.23974761 -0.9419999 1.5628858 -0.18416831 -0.6676512 0.0039651906 1.1026784 3.9721072
1.2233099 0.51366 0.3839041 0.020129291 1.093987 0.25889233 -0.7281783 -0.100402
4.501586 1.7638112 -0.26589367 -0.32391503 -0.10936871 2.950328 1.4729995 -0.5891591
-0.36221156 -0.37795424 2.636335 0.88938844 -0.16811392 0.5550542 0.13740765 0.97928315
-0.22645013 -0.60562533 0.6920754 -0.022717772 0.12194366 -0.237213 -0.45976517 0.94368154
-0.17980783 1.4012473 1.5400925 -1.6177894 -1.183883 -1.3717881 1.0514839 0.62111205
-2.1925044 -1.3906175 -1.0029017 1.200584 1.0937871 -1.5247893 -0.6333668 -0.896129
-0.19668889 -0.22203286 -0.93311894 0.25962636 -0.5034447 -0.5816678 -0.56738013 -0.46548104
0.09328365 -0.29495004 -1.4291373 -0.7910223 -2.6557953 -1.494367 -1.4400238 0.67314345
00000000: 1835 3ebf 09aa 6c3f 2984 9340 92ea c23f
00000010: 9f45 5b3f 474f d2bf 747d c3be 4eea cc3f
00000020: 8c55 083f 6311 3fbf 132f 1ebf 6cc0 81bf
00000030: 6693 153e 1710 dcbe 4305 e7bc 21fd 9abf
00000040: 418c 96bf 66d3 a33e 3740 4fbf 9e70 773e
00000050: 346b 11bf 3e42 04bf 392c 6f3e 66b4 91bf
00000060: 25d2 b3be 4b2b 5fbe f815 903f 1d91 8340
00000070: b0a4 fa3f 71cf 413f 5a80 26bf b1c7 fcbd
00000080: 877d ac3f 6fe9 dabe 3353 33bf 7c3b babe
00000090: 1a6e 86bf e537 fb3e 19ba 29bf 1d79 893e
000000a0: c61d dabc a166 29bf fd46 23be 3e1d 12bf
000000b0: 2fe7 9c3d ceaf a93e 3a1d 633e e2ab d53a
000000c0: 9272 a6be f779 e23e f2b6 32be 5345 febf
000000d0: 8ae9 3cbf 96d3 84bf 92ef 1dbf 5a5b e43e
000000e0: 59cd abbf ae75 b6be 1508 183c bc9a 093f
000000f0: 24cc 2e3f 1b36 6ebf 8a63 a4be 9a89 003f
00000100: c3b4 f73b a381 773f a87d 8fbf 0679 6fbf
00000110: 8b5c b0bc d62d e13b 31c6 2340 b7dc 9d3f
00000120: 676c 693f 1b8e 5b3f c7e9 d63e 930f 93be
00000130: 8735 b3bf 2689 a6bf 5013 88bf cc8f 2abf
00000140: b23b 7d3f 8056 49bf d98e 42bf 8dfa 1e3e
00000150: 02a6 9d3c 29c5 8b3f 5d70 42bf b6c7 22bf
00000160: 48db 6abe d7fc 83be 0f23 b63f cbc7 c0be
00000170: 2d79 bdbe ef58 a0be 6938 e63d aaff 5740
00000180: 253e f43f cff3 823f 18d4 703f 7d58 f63e
00000190: 6cc2 d040 81e5 ce3e 8d9e 6d40 d63a 793f
000001a0: dbc4 a6be 107b 0040 5b13 72bf ad9c 8b3f
000001b0: 4e39 63bd 7846 11bf 2562 803f f59d a7bf
000001c0: 1c1e 543f 068c 0cbe a7fe ccbe 23b6 1cbe
000001d0: 8067 d5bf e9d6 c03f ad4f d53e 248b f93e
000001e0: 8433 bb3f 90a2 8f3e 20b2 383f df51 a93e
000001f0: a392 543e 273f 2c40 8f23 aabe 3a71 af3f
00000200: 5110 983e 45a5 09bf 69f6 533e 60f3 a0bf
00000210: 82d2 c33e e520 5c3d 2716 1ebe d8d9 4ebd
00000220: 6693 aebf 6293 c3bd 27d5 68be 3212 2f3e
00000230: 2c65 dabf b6f0 c2bf 74b6 1b3f a74c ba3e
00000240: 928c 643e f25b 293e 83a2 6cbd dbf1 193e
00000250: 0b41 be3d 25aa 103e 5f88 80bf 7572 c0bf
00000260: d245 9fbf b006 053f 0e99 27bf 9609 f7be
00000270: 9cfa 9dbe 8053 94bd b4c1 9f3d 1b75 0d3f
00000280: 7f09 7cbf 3469 9b3f d9ff f7be 0646 30bf
00000290: f193 b4be 8e7b ad3f 9aae 4940 b40e 683f
000002a0: e2c3 883f 92a2 ddbc eadd aabe 5738 4b3f
000002b0: 68d7 8cbe 976e 64bf 908c 07bf 163e a3bf
000002c0: e2d5 bbbf bc67 adbf 8060 5f3c 70ff 9ebe
000002d0: 61dc f3be f58c 6dbd d767 2fbe d908 273d
000002e0: 6680 753e e826 71bf a40c c83f 9e96 3cbe
000002f0: 30eb 2abf 6eee 813b 9124 8d3f 0137 7e40
00000300: 6b95 9c3f 397f 033f 148f c43e 2fe6 a43c
00000310: c407 8c3f 898d 843e e569 3abf 909f cdbd
00000320: fe0c 9040 91c4 e13f 3723 88be 31d8 a5be
00000330: b4fc dfbd 2dd2 3c40 3f8b bc3f 21d3 16bf
00000340: cb73 b9be 3883 c1be b6b9 2840 f6ae 633f
00000350: 0e26 2cbe 0818 0e3f 97b4 0c3e 4db2 7a3f
00000360: 8be2 67be 430a 1bbf da2b 313f 9f1a babc
00000370: 99bd f93d f7e7 72be 5766 ebbe 1d95 713f
00000380: 8b1f 38be 125c b33f c021 c53f b913 cfbf
00000390: 7a89 97bf c196 afbf 0697 863f 3301 1f3f
000003a0: fe51 0cc0 c1ff b1bf 155f 80bf bdac 993f
000003b0: 3701 8c3f 4c2c c3bf 5424 22bf b668 65bf
000003c0: d068 49be 955c 63be e2e0 6ebf bfed 843e
000003d0: c0e1 00bf 2ee8 14bf d33f 11bf 8853 eebe
000003e0: 800b bf3d b103 97be f9ed b6bf 7080 4abf
000003f0: 8df8 29c0 6b47 bfbf b352 b8bf 2153 2c3f
