models/standard/k-fold saves/test1e_f7_e10_f6_b64.pt (torch, 335209 bytes, 86 tensors)

conv1.weight f4 [8, 2, 5, 5]
-0.7310987 0.9291708 4.622334 1.5505601 0.87118393 -1.6424725 -0.38948083 1.599935
0.538612 -0.74769425 -0.62271494 -1.0239549 0.13972726 -0.4290715 -0.0309528 -1.183209
-1.1493273 0.34927464 -0.767111 0.27778453 -0.5420962 -0.50041616 0.25299212 -1.1066407
-0.32279012 -0.20421809 1.1349933 4.1176467 1.9938211 0.7679329 -0.65034735 -0.13142042
1.3433993 -0.4181185 -0.70750797 -0.3681457 -1.0619774 0.48412654 -0.66238874 0.26331195
0.0018048612 -0.6326966 -0.12707727 -0.5283879 0.11261963 0.358723 0.24153896 0.018792689
-0.29856485 0.46620634 -0.15436676 -1.9585342 -0.7180235 -1.0267766 -0.6051563 0.47317213
-1.3133895 -0.33053738 0.025194416 0.55601585 0.71216124 -0.8985697 -0.29464066 0.5173352
0.028480362 0.9838754 -1.1038474 -0.92130333 -0.02023119 0.0145586645 2.5885463 1.2639755
0.93923426 0.86505604 0.4367532 -0.26668772 -1.3749834 -1.2831931 -1.053878 -0.6547398
1.0144954 -0.75955945 -0.7382361 0.16957442 0.03879437 1.1216234 -0.72740126 -0.61227715
-0.21319999 -0.23609288 1.4367818 -0.35999224 -0.36032635 -0.31341287 0.11870465 3.401803
1.9364673 1.0433056 0.94740945 0.49643612 6.512099 0.36556947 3.663352 0.96473837
-0.34916937 1.9681156 -1.0068573 1.0389901 -0.083476126 -0.5967963 0.9922497 -1.346493
0.8045007 -0.13815954 -0.40256092 -0.13332058 -1.666734 1.5159838 0.44120532 0.50344473
1.4883376 0.2909818 0.73854357 0.36465284 0.23063731 2.6588361 -0.3802727 1.2957108
0.27835122 -0.5704771 0.15211119 -1.3257141 0.31463438 0.020086532 -0.19319223 -0.06953823
-1.4069403 -0.1290457 -0.23695174 0.16173771 -1.695718 -1.5316896 0.60633826 0.378861
0.22982699 0.18332836 -0.057251126 0.1534061 0.11743938 0.15418763 -1.0204593 -1.5100079
-1.2495418 0.49998865 -0.6693009 -0.49696162 -0.31517276 -0.07842976 0.062165517 0.53894603
-0.9915486 1.2132277 -0.48632723 -0.6993091 -0.3628233 1.3475318 3.141285 0.8984911
1.0506928 -0.045491118 -0.34960622 0.7748902 -0.29008728 -0.9191282 -0.5535399 -1.2883303
-1.4756483 -1.3569018 -0.0034449105 -0.32704315 -0.49018112 -0.06420638 -0.17595854 0.026409019
0.22827011 -0.9543104 1.5626756 -0.18618575 -0.67599875 -0.008365325 1.0850301 3.958606
1.2093633 0.49809378 0.36155084 -0.002345878 1.0694312 0.23886041 -0.7536992 -0.12925763
4.495715 1.7577511 -0.27765986 -0.34171197 -0.12293278 2.957609 1.4728272 -0.60092443
-0.37513962 -0.38569906 2.629676 0.8709447 -0.18627328 0.5439756 0.12962034 1.0113623
-0.20654184 -0.5864762 0.7134283 -0.0031542736 0.13930728 -0.22938457 -0.45137587 0.9548217
-0.16875404 1.3973942 1.537121 -1.6257712 -1.1957201 -1.3802245 1.0609407 0.6227378
-2.1989677 -1.3956771 -1.0016965 1.2004775 1.0797397 -1.5407566 -0.6426472 -0.898176
-0.16218492 -0.20275116 -0.91597706 0.28161395 -0.48136124 -0.5626825 -0.56246597 -0.4593729
0.10522407 -0.28466108 -1.4269363 -0.78753656 -2.651982 -1.4955393 -1.4331162 0.67158616
00000000: 4929 3bbf 23de 6d3f 29ea 9340 c178 c63f
00000010: e905 5f3f 8a3c d2bf 086a c7be acca cc3f
00000020: 7ae2 093f e468 3fbf 3f6a 1fbf f410 83bf
00000030: aa14 0f3e 42af dbbe ba90 fdbc 6473 97bf
00000040: 281d 93bf 20d4 b23e 6361 44bf c639 8e3e
00000050: d1c6 0abf 461b 00bf 2f88 813e 67a6 8dbf
00000060: bf44 a5be 8c1e 51be 7647 913f c3c3 8340
00000070: 8835 ff3f 4097 443f 2a7d 26bf 1393 06be
00000080: 82f4 ab3f a113 d6be 3e1f 35bf 987d bcbe
00000090: e0ee 87bf 6fdf f73e 4f92 29bf d3d0 863e
000000a0: 1891 ec3a 68f8 21bf 8b20 02be 6e44 07bf
000000b0: 1fa5 e63d 8baa b73e fd55 773e 20f3 993c
000000c0: 7edd 98be 99b2 ee3e 5212 1ebe 40b1 fabf
000000d0: 63d0 37bf 6a6d 83bf 86eb 1abf 9e43 f23e
000000e0: 261d a8bf 323c a9be 8564 ce3c 0e57 0e3f
000000f0: 3350 363f aa08 66bf 24db 96be 1470 043f
00000100: a64f e93c 42df 7b3f df4a 8dbf 89da 6bbf
00000110: e1bb a5bc 7787 6e3c beaa 2540 f3c9 a13f
00000120: a871 703f 5074 5d3f 1e9e df3e 4b8b 88be
00000130: 75ff afbf ac3f a4bf 79e5 86bf 079d 27bf
00000140: fcda 813f 7d72 42bf 0bfd 3cbf eba4 2d3e
00000150: d8e6 1e3d 5b91 8f3f f836 3abf 32be 1cbf
00000160: 1951 5abe 55c2 71be 77e8 b73f e750 b8be
00000170: b27c b8be a777 a0be 6c1b f33d 24b7 5940
00000180: 29de f73f 0a8b 853f 6d89 723f e02c fe3e
00000190: 1d63 d040 ec2b bb3e 5c74 6a40 18f9 763f
000001a0: 54c6 b2be 36eb fb3f b3e0 80bf a1fd 843f
000001b0: 88f5 aabd a4c7 18bf 1404 7e3f e259 acbf
000001c0: c2f3 4d3f b279 0dbe 771c cebe 3185 08be
000001d0: 8a57 d5bf c20b c23f aae5 e13e c1e1 003f
000001e0: d981 be3f 91fb 943e 3111 3d3f c7b3 ba3e
000001f0: 302c 6c3e 5f2a 2a40 1ab3 c2be dad9 a53f
00000200: 0d84 8e3e ca0a 12bf 09c3 1b3e 00b1 a9bf
00000210: c217 a13e 838c a43c 2fd4 45be 0f6a 8ebd
00000220: 9f16 b4bf 8e24 04be 7aa3 72be 929e 253e
00000230: 4a0d d9bf 680e c4bf fc38 1b3f 12fa c13e
00000240: c457 6b3e 6eba 3b3e 2880 6abd 7d16 1d3e
00000250: 0f84 f03d 5de3 1d3e 699e 82bf f047 c1bf
00000260: fcf0 9fbf 83fe ff3e 4e57 2bbf c171 febe
00000270: 535e a1be c89f a0bd 45a1 7e3d 5ef8 093f
00000280: 21d6 7dbf 0c4b 9b3f e2ff f8be ec05 33bf
00000290: fac3 b9be ec7b ac3f d00a 4940 8303 663f
000002a0: 1a7d 863f e554 3abd 96ff b2be 345f 463f
000002b0: 5286 94be fc4b 6bbf cab4 0dbf 02e8 a4bf
000002c0: 0be2 bcbf f5ae adbf 02c4 61bb 3372 a7be
000002d0: 05f9 fabe a27e 83bd 7a2e 34be ba57 d83c
000002e0: a4bf 693e b04d 74bf c105 c83f 7aa7 3ebe
000002f0: 410e 2dbf b70e 09bc 44e2 8a3f cd59 7d40
00000300: 6bcc 9a3f 2606 ff3e 311d b93e 4dbd 19bb
00000310: 1fe3 883f d397 743e 6ef2 40bf 1d5c 04be
00000320: e6dc 8f40 fdfd e03f 6f29 8ebe dff4 aebe
00000330: 2ec4 fbbd 7749 3d40 9a85 bc3f 2fd6 19bf
00000340: 4d12 c0be 597a c5be 9d4c 2840 3bf6 5e3f
00000350: 6cbe 3ebe fc41 0b3f 32bb 043e 5274 813f
00000360: b47f 53be 4e23 16bf 3da3 363f eeb7 4ebb
00000370: 91a6 0e3e cae3 6abe bd1a e7be 326f 743f
00000380: dccd 2cbe d0dd b23f 62c0 c43f 4519 d0bf
00000390: 5b0d 99bf 32ab b0bf e8cc 873f bf6b 1f3f
000003a0: e3bb 0cc0 8ca5 b2bf 9737 80bf 3fa9 993f
000003b0: e934 8a3f 8337 c5bf 8784 24bf ddee 65bf
000003c0: ce13 26be 009e 4fbe 797d 6abf b42f 903e
000003d0: fb74 f6be f60b 10bf c5fd 0fbf ed32 ebbe
000003e0: b87f d73d 19bf 91be d9a5 b6bf ff9b 49bf
000003f0: 13ba 29c0 d56d bfbf 5a70 b7bf 12ed 2b3f

conv1.bias f4 [8]
-3.9649963 -2.613482 -1.8316622 -1.3121725 -3.4955218 -0.25351414 0.045502882 -5.4921517
00000000: 80c2 7dc0 4a43 27c0 e873 eabf 45f5 a7bf
00000010: a1b6 5fc0 9bcc 81be 3b61 3a3d b5bf afc0

bn1.weight f4 [8]
1.2829552 1.3546467 1.317173 1.7639556 1.3404893 1.8591275 1.4838037 1.398722
00000000: e037 a43f 1065 ad3f 2099 a83f 4cc9 e13f
00000010: 2795 ab3f e4f7 ed3f 48ed bd3f 5309 b33f

bn1.bias f4 [8]
-0.7548978 -0.32346 -1.3333006 0.4740427 -1.9350344 -1.0859876 1.0023583 -1.0464954
00000000: fb40 41bf 8d9c a5be 98a9 aabf bab5 f23e
00000010: 35af f7bf a401 8bbf 474d 803f 90f3 85bf

bn1.running_mean f4 [8]
1.486377 1.0220865 4.942594 0.76467127 1.6497924 1.3603117 10.614206 2.0917506
00000000: 9a41 be3f bbd3 823f bb29 9e40 7fc1 433f
00000010: 662c d33f b21e ae3f cad3 2941 3edf 0540

bn1.running_var f4 [8]
22.221111 13.450214 135.88646 9.413082 22.199394 20.915804 79.63329 30.626823
00000000: d6c4 b141 1434 5741 efe2 0743 fc9b 1641
00000010: 5c98 b141 9153 a741 3f44 9f42 bc03 f541

conv2.weight f4 [16, 8, 3, 3]
-0.27208838 -2.0883636 -1.067757 2.0391564 -0.818158 -0.53513956 0.08133063 -0.11609849
0.92206806 -0.7950697 -0.25482106 0.77458 -3.0690107 -1.2799729 -0.6109453 -0.35635087
0.16013685 -0.28256065 1.3049508 0.34369728 0.55741554 1.041509 0.8650014 0.5116106
1.6817187 0.903403 0.64996016 0.41834176 -0.05548796 -0.78585446 -2.2606893 -2.7112045
0.42983422 -0.16846874 -0.4221168 0.8044172 -0.8798764 0.06775956 0.13258348 0.4745272
0.31308076 0.11188139 2.5846274 0.35193804 0.33081523 0.49536183 0.13598908 -0.71234107
-3.3405926 -2.998602 -1.7910378 1.2139072 -0.005810565 0.16767226 -0.8267132 -0.45354947
-0.31962937 -0.6197055 -0.4941691 -0.1510516 -1.9707292 -1.7207924 0.42874023 -0.020863773
0.25057358 -1.2966057 3.348917 0.9674471 0.15367627 1.0716298 -0.35832587 0.33629867
0.54327834 1.6221498 1.4190737 -0.44984633 -0.4668854 1.1404766 -1.0660474 0.24705677
0.8753966 -0.87558216 -1.6748496 0.014000042 -0.33048016 -0.9571379 1.7638602 -0.622215
-0.92175454 0.52145976 0.31464094 1.5695626 1.8042761 0.15832047 1.3497944 0.96812856
-0.5327616 1.0984361 1.4669641 -1.9155005 -0.034489006 0.9948885 -0.87369174 -0.67546505
0.95309734 -1.0547974 0.14309233 0.2578205 -2.1645257 -0.8719776 1.0150303 -2.4043329
-0.8768714 -0.088032305 -2.0763109 -1.2953473 0.37028086 1.0994556 0.2909414 2.0063584
-2.1100464 0.23302339 1.4788183 -1.4459392 0.12669696 1.0673356 -1.034384 1.0137634
0.5297519 -1.707414 0.5281652 -0.4542217 -2.067601 0.69734985 0.14672117 -0.104426205
1.0749966 2.1339574 -0.33286014 -0.038198713 1.9400308 -0.6782959 -0.6234283 1.5786692
-4.1024237 -0.009143629 0.47182024 -0.8612306 -0.9025262 -0.23320155 -1.2285773 -1.6669372
-0.7954685 1.0598955 -2.482947 0.032002203 0.872649 -2.6478407 -1.2316246 -0.20287307
-1.5596135 1.9729222 -0.07166092 -1.2244862 1.1606095 0.11134285 -2.9248004 -1.105017
0.11707553 -2.0534558 -0.81880164 1.4769192 0.31447098 -0.40498692 0.2753005 -0.06432309
-0.37310946 -0.26773372 -0.0088605285 -0.38143265 0.28352743 -3.5742044 0.49973714 0.549722
-3.2479756 -1.8510264 0.41951036 -4.1810284 -2.2053483 0.18325959 -2.1064334 1.3085663
0.9095654 -0.20931925 -0.5574819 1.3941115 -0.66896445 -1.9313524 0.44140795 -0.0014426152
0.60070753 -0.22710088 -0.065168716 -0.11137199 -0.58591086 -0.38511518 0.60172844 1.4184958
0.06509593 -0.21887228 1.5092157 0.35123506 0.11560596 1.230607 -0.80460304 0.2386007
-4.0070744 -2.1866777 -1.3964438 0.39979193 0.5347022 2.0580022 -1.014709 0.7141731
0.18549332 1.7063767 0.58078283 0.25579193 -1.2416695 -0.3014823 0.7744417 -2.1786146
0.18799545 1.3127941 -2.4952698 -1.7052441 -0.32621223 -0.75713515 -0.44523022 -0.32911628
-0.960922 -0.40222353 0.6003696 0.6509216 -0.4377338 -0.22260006 1.0183955 1.2175273
0.7708692 -1.0347998 -0.60181004 -1.9026649 -1.9117832 0.061772812 -0.7977047 -0.37214664
00000000: 2b4f 8bbe c0a7 05c0 43ac 88bf 8a81 0240
00000010: cd72 51bf e8fe 08bf ac90 a63d 0cc5 edbd
00000020: a70c 6c3f b089 4bbf e877 82be e04a 463f
00000030: ac6a 44c0 27d6 a3bf e966 1cbf 9f73 b6be
00000040: eafa 233e caab 90be a108 a73f 17f9 af3e
00000050: c9b2 0e3f 2b50 853f bb70 5d3f eaf8 023f
00000060: 8f42 d73f 6b45 673f ca63 263f e430 d63e
00000070: 5847 63bd c22d 49bf 22af 10c0 6084 2dc0
00000080: 3b13 dc3e 1283 2cbe b11f d8be 49ee 4d3f
00000090: 943f 61bf 86c5 8a3d f7c3 073e 3bf5 f23e
000000a0: 1f4c a03e 1222 e53d 896a 2540 3931 b43e
000000b0: 9d60 a93e 11a0 fd3e b940 0b3e fc5b 36bf
000000c0: 45cc 55c0 18e9 3fc0 ba40 e5bf 5061 9b3f
000000d0: 8d66 bebb 47b2 2b3e 7aa3 53bf a337 e8be
000000e0: 76a6 a3be 05a5 1ebf bb03 fdbe 45ad 1abe
000000f0: db40 fcbf ed42 dcbf d783 db3e 81ea aabc
00000100: 2e4b 803e 2df7 a5bf a854 5640 9daa 773f
00000110: 505d 1d3e 2a2b 893f 7d76 b7be 572f ac3e
00000120: 4a14 0b3f 9ba2 cf3f 35a4 b53f 4252 e6be
00000130: 9a0b efbe 23fb 913f 3e74 88bf 73fc 7c3e
00000140: fe19 603f 2726 60bf 7961 d6bf 6f60 653c
00000150: b234 a9be fd06 75bf 2cc6 e13f 7b49 1fbf
00000160: 1bf8 6bbf 637e 053f 9e18 a13e 6de7 c83f
00000170: 85f2 e63f c31e 223e 10c6 ac3f 46d7 773f
00000180: 1063 08bf 8e99 8c3f 7bc5 bb3f 1f2f f5bf
00000190: 5844 0dbd 03b1 7e3f 43aa 5fbf 47eb 2cbf
000001a0: 30fe 733f 9a03 87bf cc86 123e 0c01 843e
000001b0: 9787 0ac0 ed39 5fbf 83ec 813f 97e0 19c0
000001c0: a57a 60bf 484a b4bd 47e2 04c0 f1cd a5bf
000001d0: 7495 bd3e f6ba 8c3f 45f6 943e 2d68 0040
000001e0: 000b 07c0 af9d 6e3e eb49 bd3f 8914 b9bf
000001f0: d9bc 013e 749e 883f b266 84bf 00c3 813f
00000200: d29d 073f 8b8c dabf d635 073f bf8f e8be
00000210: 9353 04c0 8585 323f 133e 163e 68dd d5bd
00000220: 7d99 893f c292 0840 a56c aabe 4176 1cbd
00000230: ee52 f83f cda4 2dbf ff98 1fbf d511 ca3f
00000240: 0e47 83c0 29cf 15bc 6c92 f13e 9c79 5cbf
00000250: f50b 67bf 63cc 6ebe 0542 9dbf 335e d5bf
00000260: d3a3 4bbf a8aa 873f 9be8 1ec0 be14 033d
00000270: ed65 5f3f 3976 29c0 e0a5 9dbf f5bd 4fbe
00000280: 6aa1 c7bf b788 fc3f f6c2 92bd f7bb 9cbf
00000290: da8e 943f b807 e43d ee2f 3bc0 3271 8dbf
000002a0: 4cc5 ef3d d26b 03c0 fc9c 51bf b00b bd3f
000002b0: 5702 a13e 725a cfbe 30f4 8c3e d3bb 83bd
000002c0: 3408 bfbe 6514 89be c02b 11bc 244b c3be
000002d0: 822a 913e c4bf 64c0 8cdd ff3e 95ba 0c3f
000002e0: d5de 4fc0 6fee ecbf 10ca d63e fcca 85c0
000002f0: 6d24 0dc0 67a8 3b3e cecf 06c0 1a7f a73f
00000300: 47d9 683f c957 56be 22b7 0ebf 3f72 b23f
00000310: 4141 2bbf 8e36 f7bf 3900 e23e 2216 bdba
00000320: f8c7 193f 228d 68be 2d77 85bd ff16 e4bd
00000330: 41fe 15bf d12d c5be e00a 1a3f 4591 b53f
00000340: 0451 853d 0e20 60be fb2d c13f 15d5 b33e
00000350: d1c2 ec3d 8884 9d3f 77fa 4dbf be53 743e
00000360: f439 80c0 87f2 0bc0 acbe b2bf 87b1 cc3e
00000370: 3ee2 083f 4fb6 0340 fce1 81bf 0cd4 363f
00000380: f6f1 3d3e 8d6a da3f 2fae 143f 29f7 823e
00000390: 07ef 9ebf e35b 9abe d041 463f 6c6e 0bc0
000003a0: e181 403e a309 a83f 80b2 1fc0 7045 dabf
000003b0: 4a05 a7be 9cd3 41bf 37f5 e3be ee81 a8be
000003c0: fcfe 75bf 3ef0 cdbe d2b1 193f cca2 263f
000003d0: a51e e0be 45f1 63be c95a 823f efd7 9b3f
000003e0: af57 453f 5274 84bf 3910 1abf 868a f3bf
000003f0: 50b5 f4bf 7d05 7d3d 6036 4cbf 018a bebe

conv2.bias f4 [16]
-0.27596268 -0.2801552 -0.39272127 -1.5563941 0.20593818 -3.7722075 -3.868317 1.8377061
1.1299962 -1.9433342 -1.899166 -0.6319894 2.0015092 -2.3948286 -0.21618058 -2.8886228
00000000: fb4a 8dbe 8170 8fbe c312 c9be ec37 c7bf
00000010: 75e1 523e d96b 71c0 8192 77c0 f439 eb3f
00000020: b7a3 903f 2dbf f8bf df17 f3bf 0fca 21bf
00000030: ba18 0040 df44 19c0 715e 5dbe 32df 38c0

bn2.weight f4 [16]
2.56547 2.4727094 1.3655826 1.1120899 0.77764547 1.8505932 1.4379846 1.0725178
3.131523 0.95711523 1.540959 1.4173206 2.0107305 1.5993462 0.7159225 1.4773797
00000000: a930 2440 df40 1e40 69cb ae3f f658 8e3f
00000010: c613 473f 3de0 ec3f e10f b83f 4348 893f
00000020: df6a 4840 8105 753f 253e c53f c36a b53f
00000030: cfaf 0040 60b7 cc3f b246 373f c71a bd3f

bn2.bias f4 [16]
0.26833382 0.3824774 -0.8736115 -0.1469066 -0.5702825 0.28507316 0.3493464 -1.1853507
0.036218647 0.33671385 0.3747864 -0.27275768 -0.27112234 0.6807551 0.4289001 0.32260188
00000000: 0d63 893e 14d4 c33e 01a5 5fbf af6e 16be
00000010: 09fe 11bf 1cf5 913e 88dd b23e 92b9 97bf
00000020: 015a 143d c265 ac3e 01e4 bf3e e5a6 8bbe
00000030: 8cd0 8abe f745 2e3f cb98 db3e 132c a53e

bn2.running_mean f4 [16]
1.8629175 4.1208696 45.328938 8.112097 31.825706 4.306923 1.6965361 18.088928
2.6489434 8.386891 1.605382 2.178542 4.3450046 1.5166252 13.939598 37.55155
00000000: 1574 ee3f 2ade 8340 d550 3542 26cb 0141
00000010: 0c9b fe41 50d2 8940 1828 d93f 20b6 9041
00000020: 4a88 2940 b530 0641 287d cd3f 3b6d 0b40
00000030: 470a 8b40 c620 c23f 9808 5f41 ca34 1642

bn2.running_var f4 [16]
46.908783 192.13774 379.0594 157.96251 493.48138 188.09283 31.952866 79.639854
79.941216 184.85918 35.761967 52.736652 145.44565 29.49992 91.01139 318.54755
00000000: 98a2 3b42 4323 4043 9a87 bd43 67f6 1d43
00000010: 9ebd f643 c417 3c43 789f ff41 9b47 9f42
00000020: e7e1 9f42 f3db 3843 410c 0f42 55f2 5242
00000030: 1672 1143 d6ff eb41 d505 b642 1646 9f43

conv3.weight f4 [32, 16, 3, 3]
1.7405117 -0.9004433 -1.1638851 -0.72309744 -1.1768926 0.7290765 -1.4288758 -0.6339973
0.12091836 0.68242395 0.5176977 -0.041789915 0.5651379 1.3088521 2.548606 -0.078616135
2.0985177 2.14775 -1.1526334 2.1304135 0.8927551 1.1053865 2.527845 0.7964531
2.8766117 2.923567 0.35864535 -2.886764 -2.457295 1.1340262 -0.9308599 0.98534125
0.53873974 -2.6384354 -0.14445193 -0.015925188 1.7249705 0.24881038 -0.4982777 1.5642006
-0.6998826 0.10955119 2.5322008 0.9001991 -1.0778035 -2.864237 1.4799991 0.05121721
-2.0220003 -0.9486757 1.3134828 -2.6181571 0.6864958 1.8748537 0.72881234 1.0913234
0.035628494 -0.37124923 0.23910534 0.112808906 -1.3247875 1.5819377 0.72814846 0.68743986
1.514711 0.8787127 2.7605064 1.130002 0.65342695 2.1450577 1.0969476 1.7143295
1.1010606 0.96070933 -1.1217233 0.2803114 -0.4918464 0.5446256 -1.4909856 -1.7287849
0.5760069 -1.963337 -0.4669216 -1.1382496 -1.7193065 0.4998301 0.21240228 -0.78326994
1.2730343 0.9846473 -1.330581 -1.7524775 0.2670181 -3.0760436 -0.9599459 -0.11588599
-2.308326 0.13504411 0.34788933 0.8948418 -2.2995827 1.2153738 -0.49766374 0.9569865
-0.0824603 -1.5249066 1.5463673 0.4530054 0.18354468 -0.11511835 -0.12219721 0.8543303
0.42818853 0.63341516 1.5279181 0.773744 0.21659186 2.9287047 0.59582174 -1.45765
-0.069396764 0.6787831 0.033373453 -2.7604942 0.0029979635 -0.19594315 -3.3663204 -1.0616293
0.4078737 -2.434781 -0.2378479 0.19183366 -0.40978706 1.2074358 1.2928196 -0.73652846
-0.3368621 0.5480824 0.4078198 -0.6254141 1.1462257 1.9020205 -0.19570793 1.023834
0.93301505 -0.15828969 0.5750393 2.042233 1.8284999 0.85176617 0.6739539 0.540078
0.43265027 -0.37921742 0.31662875 -0.907481 -0.57357115 -1.0416795 -0.92823344 0.49738243
-2.597028 -0.2671355 -0.11449375 -0.13155438 1.0486068 -0.33154458 0.033292864 0.31884062
-0.94973356 -0.19722666 0.6223238 0.4443798 0.2916765 -0.2174785 0.68457556 -0.33866873
-0.4496603 -5.4411592 -2.2928689 -0.19169994 -0.3143615 1.0262922 0.090482265 -2.0477142
-0.20368089 -1.0153971 -1.3728919 -0.42698678 -1.6706005 -0.37006104 0.24154331 1.2459102
0.6049775 0.99875253 0.84063154 1.7417986 0.08013227 -1.4699495 0.24756703 -0.85051286
-0.637162 -1.7588636 0.38807327 -0.9611473 1.0808961 0.16400252 -0.10201642 0.3004729
0.5185092 0.5758517 0.18105133 -0.2886675 0.2594862 0.35730904 1.3240857 0.9632156
0.46223322 0.22226998 0.46644002 0.25931188 -0.8395297 0.25987014 -3.6153367 -1.292391
-1.5209168 -0.3871699 1.5354401 1.224678 -2.884556 -0.47528657 -0.2577612 -0.63442945
0.004066419 -0.53650665 -0.011879485 0.30332702 1.1833471 -2.073928 -3.1619337 -2.6012397
0.12127232 0.82183725 -0.7823927 0.81451935 1.0485871 -0.84628457 -0.044533886 0.12860008
2.7560422 0.32919747 -2.5052347 0.29139614 1.4160439 -0.03437703 0.19822274 0.6916387
00000000: 16c9 de3f 7483 66bf 30fa 94bf ea1c 39bf
00000010: 6ba4 96bf c2a4 3a3f 67e5 b6bf a64d 22bf
00000020: 0ca4 f73d 56b3 2e3f d687 043f e72b 2bbd
00000030: e1ac 103f 7788 a73f 5c1c 2340 7f01 a1bd
00000040: 1d4e 0640 bc74 0940 7e89 93bf b258 0840
00000050: 998b 643f 4e7d 8d3f 36c8 2140 5ae4 4b3f
00000060: 681a 3840 b91b 3b40 5da0 b73e bec0 38c0
00000070: 5244 1dc0 c527 913f d64c 6ebf 533f 7c3f
00000080: d9ea 093f 20dc 28c0 35eb 13be 8a75 82bc
00000090: d5cb dc3f 26c8 7e3e 411e ffbe ba37 c83f
000000a0: 822b 33bf 605c e03d 940f 2240 7373 663f
000000b0: 77f5 89bf a94f 37c0 9c70 bd3f 23c9 513d
000000c0: 7468 01c0 69dc 72bf 3420 a83f e38f 27c0
000000d0: 30be 2f3f 35fb ef3f 7293 3a3f 7cb0 8b3f
000000e0: 2fef 113d 6114 bebe 08d8 743e 5b08 e73d
000000f0: a392 a9bf ef7c ca3f f067 3a3f 0ffc 2f3f
00000100: 0de2 c13f 51f3 603f 23ac 3040 e8a3 903f
00000110: fd46 273f a048 0940 c768 8c3f 266f db3f
00000120: 8eef 8c3f 0cf1 753f a194 8fbf fa84 8f3e
00000130: 4bd3 fbbe 956c 0b3f 9ed8 bebf d348 ddbf
00000140: 3075 133f a04e fbbf 5910 efbe 2ab2 91bf
00000150: 3c12 dcbf bbe9 ff3e fc7f 593e 6184 48bf
00000160: caf2 a23f d811 7c3f 7a50 aabf 2f51 e0bf
00000170: 99b6 883e e6dd 44c0 04bf 75bf a255 edbd
00000180: 9dbb 13c0 0149 0a3e 8d1e b23e 5a14 653f
00000190: 5d2c 13c0 5e91 9b3f c8cd febe 11fd 743f
000001a0: f2e0 a8bd 2430 c3bf 5def c53f 53f0 e73e
000001b0: 23f3 3b3e 2bc3 ebbd 8842 fabd 64b5 5a3f
000001c0: 873b db3e 7f27 223f d292 c33f 1614 463f
000001d0: 42ca 5d3e e66f 3b40 c687 183f 4694 babf
000001e0: e41f 8ebd bbc4 2d3f 9ab2 083d f0ab 30c0
000001f0: 7b79 443b 52a5 48be cb71 57c0 78e3 87bf
00000200: d2d4 d03e 74d3 1bc0 668e 73be 0b70 443e
00000210: 9ccf d1be 428d 9a3f 1d7b a53f 218d 3cbf
00000220: 3079 acbe 214f 0c3f c2cd d03e 231b 20bf
00000230: 86b7 923f 6875 f33f a967 48be fe0c 833f
00000240: 13da 6e3f b116 22be c735 133f f2b3 0240
00000250: 490c ea3f 590d 5a3f 3e88 2c3f 8d42 0a3f
00000260: 5684 dd3e c928 c2be 2a1d a23e ad50 68bf
00000270: 8fd5 12bf c155 85bf b5a0 6dbf e9a8 fe3e
00000280: b535 26c0 fcc5 88be b37b eabd 31b6 06be
00000290: bf38 863f 36c0 a9be 195e 083d 143f a33e
000002a0: bd21 73bf c9f5 49be 9d50 1f3f c085 e33e
000002b0: 9f56 953e afb2 5ebe 5840 2f3f fd65 adbe
000002c0: e039 e6be fa1d aec0 5dbe 12c0 fd4c 44be
000002d0: fef3 a0be 8b5d 833f c44e b93d c00d 03c0
000002e0: b991 50be 88f8 81bf ecba afbf 039e dabe
000002f0: 3dd6 d5bf a478 bdbe 2157 773e fc79 9f3f
00000300: cedf 1a3f 3fae 7f3f a133 573f 42f3 de3f
00000310: 631c a43d 4e27 bcbf 3682 7d3e 36bb 59bf
00000320: 0d1d 23bf 7122 e1bf 8ab1 c63e c00d 76bf
00000330: ce5a 8a3f 47f0 273e fced d0bd 95d7 993e
00000340: 05bd 043f 046b 133f 8565 393e 3acc 93be
00000350: 60db 843e 36f1 b63e a47b a93f 4c95 763f
00000360: d5a9 ec3e be9a 633e 3ad1 ee3e 87c4 843e
00000370: 6beb 56bf b30d 853e ad61 67c0 116d a5bf
00000380: 67ad c2bf 223b c6be 4d89 c43f 40c2 9c3f
00000390: 919c 38c0 c358 f3be 47f9 83be f869 22bf
000003a0: 983f 853b 8058 09bf 2ca2 42bc ae4d 9b3e
000003b0: eb77 973f 3dbb 04c0 1f5d 4ac0 b67a 26c0
000003c0: 9f5d f83d ed63 523f e34a 48bf 5784 503f
000003d0: 1a38 863f 1ba6 58bf 2a69 36bd bdaf 033e
000003e0: ff62 3040 928c a83e c455 20c0 e031 953e
000003f0: ed40 b53f eece 0cbd e7fa 4a3e 3c0f 313f

conv3.bias f4 [32]
-1.7728091 -1.8534821 -1.7756416 0.68729526 -1.3607337 -1.9602773 -1.9375408 -0.49055
-2.6873298 -0.7131617 -0.43567407 -0.56270343 -1.1229479 -1.3250116 -0.5306506 -2.786981
-0.5234761 -2.8520017 0.91842216 -0.120146535 -2.6726942 -0.0077768774 -2.2205498 -1.0063771
-0.7583534 -2.077072 0.10956959 -1.3297776 -2.710021 -1.1352584 -1.2434998 -2.283368
00000000: 69eb e2bf e73e edbf 3948 e3bf 95f2 2f3f
00000010: 862c aebf 5eea fabf 5601 f8bf 5f29 fbbe
00000020: 36fd 2bc0 c491 36bf ac10 dfbe 550d 10bf
00000030: c2bc 8fbf fb99 a9bf b8d8 07bf e65d 32c0
00000040: 8802 06bf 3287 36c0 b71d 6b3f 630f f6bd
00000050: 6c0d 2bc0 2dd5 febb 7d1d 0ec0 f7d0 80bf
00000060: 7323 42bf bfee 04c0 0566 e03d 2736 aabf
00000070: fc70 2dc0 2650 91bf 002b 9fbf b422 12c0

bn3.weight f4 [32]
2.2012007 1.1439579 1.5146064 1.6416146 1.2542144 1.6674107 1.926659 1.7841748
1.6303297 1.1665572 2.0913413 1.3189008 2.182515 1.7439523 1.9918051 1.432469
1.7813057 1.6314473 1.88048 2.0736961 1.3955927 2.1559968 2.047825 1.7353674
1.5902886 1.1987296 1.5008899 1.571623 1.4226285 1.7781689 1.3043637 1.4827095
00000000: 79e0 0c40 366d 923f 9fde c13f 6d20 d23f
00000010: 198a a03f b76d d53f c39c f63f d75f e43f
00000020: a5ae d03f bf51 953f 89d8 0540 bed1 a83f
00000030: 53ae 0b40 d439 df3f 78f3 fe3f 255b b73f
00000040: d301 e43f 44d3 d03f 92b3 f03f 70b7 0440
00000050: c8a2 b23f dafb 0940 910f 0340 8520 de3f
00000060: 948e cb3f f96f 993f 291d c03f f12a c93f
00000070: b118 b63f 0a9b e33f 64f5 a63f 6dc9 bd3f

bn3.bias f4 [32]
-1.2533834 -0.27111292 -0.52859735 -0.46770462 -0.57757294 1.1732386 0.37279722 1.2235954
0.47654384 1.486333 0.9940975 0.715192 0.99348253 -1.0863184 0.6403094 0.9612287
0.39001375 0.034188982 0.78662443 1.05763 -2.126131 0.66172725 -0.047159832 0.14399955
0.052021325 0.18624566 -0.26219755 -0.69277734 0.14392239 -1.7459023 0.71347415 -0.18378316
00000000: de6e a0bf 50cf 8abe 2852 07bf fb76 efbe
00000010: d2db 13bf af2c 963f 47df be3e c69e 9c3f
00000020: 8efd f33e 2940 be3f 2c7d 7e3f d316 373f
00000030: df54 7e3f 7b0c 8bbf 51eb 233f 1613 763f
00000040: e2af c73e bf09 0c3d 3860 493f 6b60 873f
00000050: 8812 08c0 f566 293f ab2a 41bd 9e74 133e
00000060: 5014 553d 2fb7 3e3e c23e 86be db59 31bf
00000070: 6460 133e ba79 dfbf 3ea6 363f a731 3cbe

bn3.running_mean f4 [32]
1.2846376 1.1745411 1.9797827 6.7912498 3.6122508 5.0278044 2.0244255 5.3891244
3.5783746 4.1444316 4.229489 8.315942 3.266054 4.7340455 2.4963222 0.5374954
3.1765301 4.119345 13.863166 2.1081357 1.7005211 5.5586724 0.73164755 7.0484056
4.739945 1.6525819 2.4608538 10.500676 2.601675 5.4934773 5.1195683 2.4143038
00000000: 016f a43f 5d57 963f 8569 fd3f eb51 d940
00000010: 1e2f 6740 c6e3 a040 3090 0140 b573 ac40
00000020: 1704 6540 2f9f 8440 f957 8740 190e 0541
00000030: 0707 5140 4d7d 9740 bec3 1f40 4c99 093f
00000040: 454c 4b40 add1 8340 87cf 5d41 b2eb 0640
00000050: adaa d93f a5e0 b140 414d 3b3f 8a8c e140
00000060: a1ad 9740 ce87 d33f a17e 1d40 c502 2841
00000070: d881 2640 91ca af40 81d3 a340 f483 1a40

bn3.running_var f4 [32]
93.79744 46.654556 81.1807 152.93759 100.81585 203.34436 95.01235 70.588715
200.2849 61.343296 227.51202 61.904976 232.60043 228.56668 208.23936 28.523252
98.23282 334.41837 143.19983 102.36254 45.889786 214.32994 35.62203 206.03665
175.95256 35.390373 81.98188 115.554955 151.31844 139.64555 78.967125 73.20322
00000000: 4a98 bb42 449e 3a42 855c a242 06f0 1843
00000010: b7a1 c942 2858 4b43 5306 be42 6c2d 8d42
00000020: ef48 4843 895f 7542 1483 6343 b29e 7742
00000030: b699 6843 1291 6443 473d 5043 9f2f e441
00000040: 3477 c442 8d35 a743 2833 0f43 9fb9 cc42
00000050: 248f 3742 7754 5643 f57c 0e42 6209 4e43
00000060: dbf3 2f43 be8f 0d42 b9f6 a342 231c e742
00000070: 8551 1743 43a5 0b43 2bef 9d42 0c68 9242

conv4.weight f4 [64, 32, 3, 3]
1.5444747 0.09206676 -0.75379825 1.4064096 -0.07091378 -1.6573459 0.40245572 -3.5562382
-1.3150996 -0.4031565 0.64555115 -1.1809244 0.2451723 0.25075158 -0.08576749 0.5434138
-0.36369833 0.74345404 -0.03948531 2.7578843 0.6478912 -0.7706111 0.42826396 -0.6271787
-0.562194 -0.13048959 -0.088721484 -2.2239156 -1.6872474 1.4809862 1.0240315 -0.20039897
-1.5101805 0.8078993 0.5693994 -2.606095 -0.19221674 -0.6163088 -0.7795464 -0.1298817
-0.9882557 -2.5051239 0.29912513 1.1706698 -1.9324561 -0.23983002 -0.5054898 1.1684935
-0.06675178 -0.49468967 1.3566645 0.9314476 -1.1880931 -0.016370246 -1.8366686 0.60511464
-0.3050126 0.67893696 1.4581047 0.39038014 0.14461125 -0.90558034 0.8163183 -0.8417143
-2.5847805 -0.8435774 -2.0777283 1.3304225 1.506039 -0.074704856 -0.23786494 -1.1330881
-0.77257854 0.7039748 0.12691835 -0.20792031 0.35652852 0.6302794 -0.12058282 -0.44449428
2.1410975 -0.85455316 -1.0354837 -0.3931976 0.9294307 1.7190313 0.43259785 -1.5325747
-0.7620811 1.8284502 -1.0609918 -3.2412965 -2.0110674 2.3126051 -0.19384938 -0.693366
0.7688688 -2.746786 -0.25242206 -1.3869478 -0.33390513 0.8112801 1.3427702 -0.22537161
-0.76199317 -0.20849244 1.1743114 0.2851304 0.7742515 -0.19927207 -0.98362625 -0.45081168
-0.3308453 -0.8358563 0.45573592 -0.9566587 -1.120476 -0.14286259 1.09741 1.1691045
0.6579726 0.00262439 0.32157624 -0.6664293 -0.2325662 -1.3574674 -0.74920034 -0.7911049
0.06869199 0.6533815 1.1317112 -3.102334 0.09517575 -1.4274955 -2.8029153 -0.4246768
-0.577055 -1.6437131 -0.31894505 -2.6378229 -0.30204087 0.14185879 -1.4098921 -0.48114505
-0.21033575 1.0078229 -0.19761583 -0.96207803 0.48240334 -0.21577086 0.46036777 1.6208292
-1.1574886 0.4269953 1.6279069 -0.530445 -0.93461037 1.3854523 -5.615405 -1.8295294
-1.6092138 -1.8170815 1.4865355 1.9109768 0.69036174 -1.8655162 -0.5921295 -0.12559296
-1.8789643 -0.92602026 0.4608283 0.09526342 0.53258044 1.2937056 -0.40924153 -0.109928586
-1.3887613 0.82120955 0.23127486 -3.0882347 0.40598175 -0.2940257 0.8183858 0.43847498
1.1958764 2.4174826 1.3967276 1.6289296 1.3473153 -0.31287828 0.4636757 -0.21767661
-0.15373772 -0.2243019 2.4186492 0.2669247 -1.4226397 1.1895144 -2.1766405 0.33649424
0.30244642 1.7153628 1.5795954 -2.475312 0.23149747 -0.3580421 -1.9615529 -1.1866941
0.11113148 1.3741382 -1.0561852 -0.08469725 1.5958219 0.34417674 0.49516088 -0.7009484
1.2000285 -0.8999508 -0.855643 0.7107709 -0.020134343 0.40937287 1.0225449 -0.08927453
-1.6352658 1.0802813 -1.9025656 -4.622424 -1.1334537 -2.0458167 1.0966874 -0.14066832
0.18990907 -1.3206912 -1.2594413 0.87990445 0.5878633 0.5937574 0.8296025 -0.8375307
-1.766222 0.97649664 0.34666488 -1.2986271 0.6055231 -0.798775 0.7187223 1.5197316
0.47991648 -4.2805634 -0.167144 1.4257348 -0.5589545 -0.7705954 -0.46466047 -0.3825149
00000000: 59b1 c53f 7f8d bc3d ecf8 40bf 3b05 b43f
00000010: 3e3b 91bd e923 d4bf ad0e ce3e 6899 63c0
00000020: 2f55 a8bf 876a cebe d742 253f 8828 97bf
00000030: 730e 7b3e 8362 803e dea6 afbd 2b1d 0b3f
00000040: ab36 babe 0153 3e3f 59bb 21bd 2d81 3040
00000050: 33dc 253f c546 45bf 6a45 db3e c98e 20bf
00000060: f2eb 0fbf 109f 05be 9cb3 b5bd a254 0ec0
00000070: b9f7 d7bf f590 bd3f 7713 833f 6335 4dbe
00000080: 984d c1bf 7dd2 4e3f 29c4 113f 43ca 26c0
00000090: 77d4 44be 6ac6 1dbf 5a90 47bf b5ff 04be
000000a0: 53fe 7cbf f353 20c0 ee26 993e 82d8 953f
000000b0: b95a f7bf 0096 75be c867 01bf 3291 953f
000000c0: 28b5 88bd f747 fdbe 2fa7 ad3f 5a73 6e3f
000000d0: 6f13 98bf e51a 86bc f517 ebbf cbe8 1a3f
000000e0: 9d2a 9cbe d0ce 2d3f 2da3 ba3f e8df c73e
000000f0: f914 143e 1dd4 67bf 3cfa 503f 977a 57bf
00000100: 0b6d 25c0 b0f4 57bf 80f9 04c0 494b aa3f
00000110: e3c5 c03f dcfe 98bd de92 73be 0809 91bf
00000120: b5c7 45bf b137 343f e2f6 013e 10e9 54be
00000130: e88a b63e fe59 213f 20f4 f6bd c194 e3be
00000140: be07 0940 ffc3 5abf bb8a 84bf 3251 c9be
00000150: 2cef 6d3f 3809 dc3f 777d dd3e 682b c4bf
00000160: bf17 43bf a80a ea3f 94ce 87bf 6771 4fc0
00000170: 54b5 00c0 b901 1440 7480 46be 6f80 31bf
00000180: 96d4 443f 58cb 2fc0 773d 81be 8187 b1bf
00000190: 9df5 aabe 0db0 4f3f e5df ab3f d1c7 66be
000001a0: fc11 43bf 0b7f 55be d64f 963f 9dfc 913e
000001b0: 5935 463f fa0d 4cbe eece 7bbf cad0 e6be
000001c0: 8e64 a9be aefa 55bf 3856 e93e 96e7 74bf
000001d0: c26b 8fbf 924a 12be ee77 8c3f 37a5 953f
000001e0: e470 283f f5fd 2b3b a4a5 a43e 1c9b 2abf
000001f0: d525 6ebe 7ec1 adbf 98cb 3fbf da85 4abf
00000200: 63ae 8c3d 0344 273f eadb 903f a48c 46c0
00000210: 81eb c23d 2cb8 b6bf f762 33c0 3d6f d9be
00000220: e0b9 13bf 3165 d2bf c44c a3be 17d2 28c0
00000230: 1aa5 9abe 6e43 113e 5877 b4bf a558 f6be
00000240: 4162 57be 5700 813f ce5b 4abe bf4a 76bf
00000250: 92fd f63e 09f3 5cbe 53b5 eb3e 5577 cf3f
00000260: 9628 94bf 219f da3e 415f d03f 3ecb 07bf
00000270: a042 6fbf 8056 b13f 66b1 b3c0 052e eabf
00000280: b8fa cdbf 2096 e8bf cc46 be3f e39a f43f
00000290: 8cbb 303f 3cc9 eebf cd95 17bf 719b 00be
000002a0: e781 f0bf aa0f 6dbf b0f1 eb3e 7819 c33d
000002b0: 3157 083f 2598 a53f 1b88 d1be 3d22 e1bd
000002c0: eec2 b1bf ca3a 523f 51d3 6c3e a3a5 45c0
000002d0: d7dc cf3e 898a 96be bb81 513f cb7f e03e
000002e0: 7a12 993f 09b8 1a40 f8c7 b23f c480 d03f
000002f0: d474 ac3f 9531 a0be e766 ed3e 9ee6 5ebe
00000300: 6c6d 1dbe 66af 65be 26cb 1a40 5baa 883e
00000310: 0f19 b6bf 0242 983f 144e 0bc0 f948 ac3e
00000320: 42da 9a3e 0291 db3f 2f30 ca3f 836b 1ec0
00000330: ac0d 6d3e 4b51 b7be 2a14 fbbf 98e5 97bf
00000340: e798 e33d c3e3 af3f 1431 87bf c075 adbd
00000350: e443 cc3f ef37 b03e ba85 fd3e 5b71 33bf
00000360: 899a 993f 2d63 66bf 6b0b 5bbf 15f5 353f
00000370: c7f0 a4bc 5299 d13e c0e2 823f 91d5 b6bd
00000380: 6450 d1bf a846 8a3f 4587 f3bf e6ea 93c0
00000390: 0315 91bf a9ee 02c0 4160 8c3f 5b0b 10be
000003a0: 8677 423e 690c a9bf 5f35 a1bf 6b41 613f
000003b0: 367e 163f 7c00 183f d460 543f 6968 56bf
000003c0: 9013 e2bf affb 793f 0f7e b13e 6a39 a6bf
000003d0: 9003 1b3f 857c 4cbf 2ffe 373f 9186 c23f
000003e0: 9db7 f53e 60fa 88c0 cc27 2bbe 7a7e b63f
000003f0: a417 0fbf bd45 45bf fae7 edbe fed8 c3be

conv4.bias f4 [64]
-0.3038073 -3.0283933 -0.016307484 -0.17424464 -1.0742981 -2.120009 -0.4004176 -0.42065197
-0.515016 -0.89091283 -1.564128 -1.3692871 0.06323592 -0.23458745 -1.4521044 -1.1319312
-1.083083 -1.3326591 0.19848856 -1.1328332 0.4685511 0.23111297 -2.525589 -1.1988618
-0.64640784 -0.08685042 -0.5342579 -1.3294089 -1.4231616 -0.7136292 -0.7838026 -0.35688916
-0.031796437 -0.3875989 -1.1483957 -0.779728 -0.48366824 0.1183594 -0.38450876 -0.5327958
-0.5084986 -2.071805 -0.88585365 1.0764687 -0.91385204 -1.2423213 -1.261122 0.35624385
-0.45135322 0.31225476 -1.5554347 -0.7769461 -0.64753383 -1.8509166 -1.6201187 -0.61246836
0.42943048 -0.63048476 -1.4230754 -1.3310158 -1.0665971 -2.3847477 -2.1948128 -1.1471542
00000000: a18c 9bbe 32d1 41c0 4697 85bc 306d 32be
00000010: 9a82 89bf 3aae 07c0 8903 cdbe b25f d7be
00000020: 17d8 03bf dd12 64bf 5935 c8bf cd44 afbf
00000030: d681 813d b137 70be 8fde b9bf 1fe3 90bf
00000040: 77a2 8abf 9394 aabf 9640 4b3e ae00 91bf
00000050: eee5 ef3e e1a8 6c3e 40a3 21c0 4e74 99bf
00000060: fc7a 25bf a2de b1bd 20c5 08bf 122a aabf
00000070: 292a b6bf 67b0 36bf 4aa7 48bf 2dba b6be
00000080: fb3c 02bd 5d73 c6be a1fe 92bf 419c 47bf
00000090: 5da3 f7be 6a66 f23d 55de c4be 4e65 08bf
000000a0: f72c 02bf 7498 04c0 4ec7 62bf bac9 893f
000000b0: 35f2 69bf 6204 9fbf 726c a1bf 9865 b63e
000000c0: c517 e7be dbdf 9f3e 7c18 c7bf f1e5 46bf
000000d0: c7c4 25bf d6ea ecbf 0d60 cfbf baca 1cbf
000000e0: 50de db3e 7367 21bf 5627 b6bf ba5e aabf
000000f0: 4186 88bf b59f 18c0 d077 0cc0 f3d5 92bf

bn4.weight f4 [64]
4.189028 4.4281373 1.4657278 4.571547 4.2616935 3.359327 4.860682 3.2693784
3.3922212 3.962613 4.0922446 3.5240178 1.3604212 4.0922513 4.0667515 3.036146
3.2648568 4.7176027 4.679902 2.7741814 4.4546576 1.4570647 4.7810693 3.8468752
5.167092 3.1912994 4.8591714 4.4118686 4.0761538 0.8091747 0.15420562 1.3364463
4.3533397 2.0210066 3.6062129 3.877679 5.975428 3.7228968 3.6558287 4.737393
4.2628136 3.5220973 0.9498594 5.1937413 5.0330763 4.4332685 4.0419264 5.7741923
4.135924 4.829132 3.1784205 3.7422323 0.7604092 4.077297 4.0767837 2.541642
5.0950465 3.9994767 3.1989667 4.443723 4.221606 4.372254 4.0216203 4.1195283
00000000: 840c 8640 4db3 8d40 f89c bb3f 1d4a 9240
00000010: cb5f 8840 37ff 5640 b58a 9b40 7f3d 5140
00000020: 271a 5940 749b 7d40 abf3 8240 8289 6140
00000030: 4822 ae3f b9f3 8240 d422 8240 3750 4240
00000040: 6af3 5040 9af6 9640 c2c1 9540 308c 3140
00000050: 8e8c 8e40 1981 ba3f 85fe 9840 3433 7640
00000060: d158 a540 403e 4c40 557e 9b40 072e 8d40
00000070: da6f 8240 1326 4f3f 14e8 1d3e ac10 ab3f
00000080: 8f4e 8b40 2c58 0140 31cc 6640 e52b 7840
00000090: b536 bf40 f143 6e40 19f9 6940 b998 9740
000000a0: f868 8840 0b6a 6140 fc29 733f 2133 a640
000000b0: f60e a140 56dd 8d40 7657 8140 2fc6 b840
000000c0: 7d59 8440 4088 9a40 3e6b 4b40 bc80 6f40
000000d0: 2daa 423f 3879 8240 0375 8240 43aa 2240
000000e0: 9f0a a340 6df7 7f40 dfbb 4c40 fb32 8e40
000000f0: 6517 8740 81e9 8b40 1db1 8040 2dd3 8340

bn4.bias f4 [64]
0.380422 0.23673539 0.033623666 0.15381382 0.0066433367 0.3300117 0.42080134 -0.051058576
0.2619594 0.0031410365 0.04010701 0.2812256 0.10750569 0.25878614 0.17297408 0.15098657
0.03094465 -0.03389081 0.029482313 0.16683972 0.016652917 -6.992573e-05 0.34509194 0.11639722
0.13501927 0.04835207 0.18118553 0.19071141 0.33007264 0.04604472 0.0033306861 0.1230055
0.17365946 0.11102418 0.10862474 0.023799134 0.27946338 0.080007605 0.09542327 0.11127457
0.21332029 0.0037112837 0.2456037 0.19299874 0.23511913 0.15074213 0.31912372 0.26184872
0.116511144 -0.0664396 0.073720425 0.16671422 0.030803885 0.19336975 0.31137314 0.01512359
0.33466265 -0.011906847 0.20748942 0.15299574 0.11442448 0.39353883 0.100985706 0.030636378
00000000: acc6 c23e c36a 723e f8b8 093d 5f81 1d3e
00000010: 59b0 d93b 4bf7 a83e 4673 d73e cc22 51bd
00000020: 8b1f 863e d9d9 4d3b 4047 243d cdfc 8f3e
00000030: f12b dc3d 9e7f 843e 1e20 313e 399c 1a3e
00000040: a27f fd3c 17d1 0abd e484 f13c 08d8 2a3e
00000050: b36b 883c 17a5 92b8 e4af b03e aa61 ee3d
00000060: 7e42 0a3e d20c 463d b388 393e da49 433e
00000070: 48ff a83e 6399 3c3d a447 5a3b 4fea fb3d
00000080: c9d3 313e a560 e33d a676 de3d 67f6 c23c
00000090: d315 8f3e 07db a33d 466d c33d ece3 e33d
000000a0: a270 5a3e 0239 733b 897f 7b3e 76a1 453e
000000b0: 12c3 703e 255c 1a3e 2f64 a33e 0911 863e
000000c0: 659d ee3d 7c11 88bd bcfa 963d 22b7 2a3e
000000d0: 6e58 fc3c b802 463e 4d6c 9f3e efc8 773c
000000e0: e758 ab3e f014 43bc 1b78 543e eaaa 1c3e
000000f0: 6257 ea3d ec7d c93e 98d1 ce3d 24f9 fa3c

bn4.running_mean f4 [64]
1.5459974 0.79777926 60.225822 0.8812295 0.557366 1.3150152 2.7278674 1.0441966
0.61050236 0.4633872 0.6333218 0.94793546 28.73382 1.124085 0.661027 1.298413
0.4431019 0.4347589 0.7730699 0.5754632 0.622374 77.810715 1.760874 1.244509
0.38367578 0.77217865 1.130041 0.4205389 0.63291544 2.1971817 0.30005613 4.773502
0.5737342 3.614165 0.3978605 0.7035516 0.75928766 1.2594765 0.2182453 0.476432
0.8838629 1.0522306 5.9769735 0.83269036 0.51723236 0.57544386 0.33583266 1.3667542
0.9736716 0.28487447 0.34386507 1.5607781 9.414682 0.44405928 0.92840797 2.7747746
0.80806667 0.686125 2.3047614 0.15107761 0.46588576 1.544128 1.0120305 0.93678033
00000000: 3ee3 c53f 433b 4c3f 3ee7 7042 4298 613f
00000010: 8aaf 0e3f 6b52 a83f 6195 2e40 3ca8 853f
00000020: e249 1c3f 1641 ed3e 6121 223f e6ab 723f
00000030: ddde e541 04e2 8f3f 1139 293f 6632 a63f
00000040: 41de e23e b898 de3e e9e7 453f 8e51 133f
00000050: e753 1f3f 169f 9b42 5264 e13f 124c 9f3f
00000060: 2771 c43e 80ad 453f 2fa5 903f e050 d73e
00000070: bf06 223f a09e 0c40 f5a0 993e 87c0 9840
00000080: 3fe0 123f 7b4e 6740 5fb4 cb3e f51b 343f
00000090: ad60 423f 8736 a13f b27b 5f3e e5ee f33e
000000a0: d744 623f 7eaf 863f 5e43 bf40 322b 553f
000000b0: 5769 043f 4a50 133f 42f2 ab3e cdf1 ae3f
000000c0: 8b42 793f 11db 913e 150f b03e 94c7 c73f
000000d0: 8aa2 1641 bd5b e33e 25ac 6d3f e895 3140
000000e0: 75dd 4e3f e3a5 2f3f 3681 1340 17b4 1a3e
000000f0: 9488 ee3e fca5 c53f 378a 813f d6d0 6f3f

bn4.running_var f4 [64]
105.06681 54.048935 2473.6074 42.867893 28.097963 76.446594 221.80269 68.066986
26.818401 18.923264 35.997692 49.66924 977.62805 71.65156 37.631924 110.407715
21.960482 19.121107 42.541607 28.170406 30.521257 2130.8733 117.649704 91.026695
16.364273 34.472168 82.41641 18.292738 31.193003 51.80857 19.77149 293.03812
33.50486 150.71072 24.527998 35.521908 50.899914 68.651924 7.160392 22.444386
46.842815 80.70992 192.38332 39.99088 24.765106 25.860035 13.238155 73.05987
47.39934 14.027734 17.30602 150.24359 364.3384 23.192923 46.53626 222.02654
48.119312 32.312378 146.5495 7.4952345 25.942968 106.07792 52.120754 48.439445
00000000: 3522 d242 1c32 5842 b899 1a45 b978 2b42
00000010: a1c8 e041 a8e4 9842 7dcd 5d43 4c22 8842
00000020: 168c d641 d862 9741 a3fd 0f42 4dad 4642
00000030: 3268 7444 994d 8f42 1787 1642 c0d0 dc42
00000040: 11af af41 07f8 9841 9b2a 2a42 fe5c e141
00000050: 892b f441 f92d 0545 a64c eb42 ab0d b642
00000060: 08ea 8241 80e3 0942 34d5 a442 8757 9241
00000070: 458b f941 fa3b 4f42 032c 9e41 e184 9243
00000080: fa04 0642 f2b5 1643 5739 c441 6f16 0e42
00000090: 8399 4b42 c94d 8942 ee21 e540 1a8e b341
000000a0: 0b5f 3b42 7b6b a142 2162 4043 a9f6 1f42
000000b0: f01e c641 5ae1 ce41 7ccf 5341 a71e 9242
000000c0: ed98 3d42 9971 6041 bb72 8a41 5c3e 1643
000000d0: 512b b643 1b8b b941 2125 3a42 cb06 5e43
000000e0: 2d7a 4042 e03f 0142 ac8c 1243 f6d8 ef40
000000f0: 338b cf41 e527 d442 a77b 5042 fec1 4142

lin.weight f4 [10, 64]
0.48472106 -0.9657539 0.27597648 0.51154447 -1.4837022 0.84595865 -0.60990775 0.07507087
-0.9940631 -0.34931406 -1.5709467 0.19665323 0.9776545 -3.3084438 -2.121447 0.8911778
0.49148828 -0.11271767 2.3356934 -0.6534253 0.113834985 1.7779574 -2.61841 -0.9616041
-0.6070633 0.28349006 0.9802682 -0.05862532 -1.1405143 0.6620745 -0.063976824 0.6904193
-0.08724633 1.0406045 0.27212697 -0.43141103 2.3552349 -0.20459871 -0.015670786 -0.81157875
0.085069515 1.8107516 -0.27923468 1.2195082 -2.229755 -2.1741054 -0.79655474 0.95112133
-2.366904 -0.7873948 0.7464535 1.6440818 -1.0488851 0.20862988 -1.334714 0.7737384
1.8057343 1.5799607 -0.5245176 -2.1068957 -0.08990072 0.6320639 0.011632813 -1.1982998
-0.59644365 1.2923814 0.115689784 1.7179691 0.9072592 -0.8712756 1.1639253 -0.3118515
0.48495984 -0.727378 -0.26283666 -0.5421387 0.3606606 1.0752289 -0.6248024 -0.32626143
-0.61853987 -0.7104922 0.017016212 -1.0238864 -1.4124545 -0.13125764 1.1811299 0.058912523
-1.9834764 0.3641397 -0.81948423 -0.25570488 1.4839448 -0.24083692 -0.05865719 0.02856332
2.0423121 0.7696908 1.6742543 0.16110033 0.10876837 0.5094181 -0.8036771 -0.32250902
-1.4439434 -1.4126228 -0.060096495 -1.6158293 0.66253746 -1.3574961 1.2894701 0.7282077
-0.21411857 -1.6701082 1.2362397 0.15039189 0.10689232 0.021118116 1.0814062 0.4363354
-1.0268166 -0.3035754 -2.696482 0.98992044 -2.2057476 -0.030779075 -1.9520789 0.59594935
-0.2765174 1.6602211 -0.40802664 -0.9420429 0.7939375 0.095000245 0.6051107 0.12518688
1.3882557 -0.15481557 -0.037615426 0.44336328 -0.20874615 0.09004155 1.6582738 1.0433977
-0.78886384 -1.9520329 -0.6218939 0.507312 1.5322306 -0.18094943 -0.811731 -0.4100751
-0.8995853 0.13719091 0.9663838 0.100757845 0.82178754 0.08233961 0.082682386 -1.2410525
-0.33688357 -0.61300415 -1.1036221 1.0084683 -0.87819386 -1.6660436 -1.070712 1.4237624
0.44489646 -0.4190595 0.19323601 -1.3934585 -1.6332246 1.2169088 0.92006433 -2.5124648
-1.0599344 0.1743809 -1.3647956 1.1109546 0.820497 -0.80029327 0.1576593 -0.41826338
1.5811698 -1.5627846 0.5969627 -0.6535606 1.19039 -1.3918681 0.80034107 -0.05711385
-0.785071 -0.09829819 0.25004128 0.04263563 0.1445538 -1.06816 0.4943135 1.4264475
0.07863696 -0.08837718 -1.1388029 -0.16342574 -0.14279166 -0.43700463 0.4549166 -0.14339057
0.82437485 1.6593281 -0.38714576 1.4298694 -2.049143 -0.23783383 1.6002091 -2.9545407
-2.0035114 -1.1578697 -1.40565 -0.595569 -1.3041825 0.2137809 -0.060978383 0.41439363
0.21750927 -0.20523033 -0.58911854 0.24016753 -1.4190792 1.6865425 -0.29691353 1.2112844
-2.5191853 -1.8809574 0.3179032 -0.050967433 0.7345767 0.93640065 -0.13290769 1.3808149
-0.6015939 0.7796646 -0.18266264 0.23598334 0.21073964 2.0378885 -0.97425616 -1.1519
0.121088564 1.0211394 -1.4887019 0.36389467 -1.8873676 1.0167689 -1.7460377 1.9676337
00000000: 5c2d f83e a63b 77bf ca4c 8d3e 94f4 023f
00000010: f4e9 bdbf bf90 583f ea22 1cbf c2be 993d
00000020: eb7a 7ebf 4bd9 b2be c814 c9bf 775f 493e
00000030: 9147 7a3f 8bbd 53c0 cac5 07c0 3a24 643f
00000040: 5aa4 fb3e 86d8 e6bd 007c 1540 e146 27bf
00000050: 5122 e93d 1c94 e33f 0894 27c0 b02b 76bf
00000060: 8068 1bbf 9c25 913e dbf2 7a3f 1b21 70bd
00000070: 5ffc 91bf b77d 293f 4806 83bd 52bf 303f
00000080: 34ae b2bd 8732 853f 3a54 8b3e e8e1 dcbe
00000090: 2bbc 1640 5382 51be 0560 80bc a0c3 4fbf
000000a0: ed38 ae3d b5c6 e73f d9f7 8ebe d818 9c3f
000000b0: 4eb4 0ec0 8b24 0bc0 03eb 4bbf b07c 733f
000000c0: 5b7b 17c0 b592 49bf 9417 3f3f 4671 d23f
000000d0: de41 86bf 12a3 553e e9d7 aabf b813 463f
000000e0: 4d22 e73f 273c ca3f c946 06bf 61d7 06c0
000000f0: de1d b8bd f1ce 213f 8e97 3e3c e361 99bf
00000100: 88b0 18bf c16c a53f c4ee ec3d 69e6 db3f
00000110: 2442 683f eb0b 5fbf 81fb 943f 00ab 9fbe
00000120: a84c f83e 7235 3abf 8792 86be 9ac9 0abf
00000130: 82a8 b83e 1aa1 893f 0df3 1fbf bd0b a7be
00000140: a158 1ebf d1e2 35bf 9565 8b3c b60e 83bf
00000150: 4fcb b4bf 6768 06be 442f 973f 424e 713d
00000160: 8ee2 fdbf 8570 ba3e b8c9 51bf c0eb 82be
00000170: e7f1 bd3f f49d 76be 8642 70bd a0fd e93c
00000180: 3eb5 0240 750a 453f f74d d63f 7cf7 243e
00000190: f3c1 de3d 3969 023f c8bd 4dbf e71f a5be
000001a0: 23d3 b8bf d3d0 b4bf be27 76bd 7fd3 cebf
000001b0: 0e9c 293f 6fc2 adbf 5b0d a53f d26b 3a3f
000001c0: e641 5bbe 1bc6 d5bf 1a3d 9e3f 5500 1a3e
000001d0: 5cea da3d e6ff ac3c 856b 8a3f 5b67 df3e
000001e0: ba6e 83bf 3c6e 9bbe 2993 2cc0 6d6b 7d3f
000001f0: f82a 0dc0 6624 fcbc b9dd f9bf 2390 183f
00000200: b093 8dbe 2082 d43f dee8 d0be b929 71bf
00000210: 7d3f 4b3f 7d8f c23d 89e8 1a3f fd30 003e
00000220: 5db2 b13f f987 1ebe a212 1abd 8300 e33e
00000230: 8dc1 55be b467 b83d 5142 d43f 0e8e 853f
00000240: fbf2 49bf 37dc f9bf 7034 1fbf 33df 013f
00000250: 2220 c43f cf4a 39be 9acd 4fbf 5df5 d1be
00000260: 394b 66bf c67b 0c3e ee64 773f 215a ce3d
00000270: ab60 523f aba1 a83d 6255 a93d cfda 9ebf
00000280: 017c acbe d7ed 1cbf 7d43 8dbf 7d15 813f
00000290: 50d1 60bf eb40 d5bf 170d 89bf d93d b63f
000002a0: 78c9 e33e f78e d6be a9df 453e d95c b2bf
000002b0: 810d d1bf abc3 9b3f 5689 6b3f 39cc 20c0
000002c0: eeab 87bf e890 323e 9fb1 aebf c333 8e3f
000002d0: 170c 523f 05e0 4cbf 7171 213e 9e26 d6be
000002e0: c663 ca3f 5309 c8bf 8cd2 183f bf4f 27bf
000002f0: b35e 983f bc28 b2bf 27e3 4c3f 36f0 69bd
00000300: 6afa 48bf 9050 c9bd 6905 803e b3a2 2e3d
00000310: e905 143e 78b9 88bf a916 fd3e d595 b63f
00000320: 6a0c a13d 18ff b4bd 4bc4 91bf 1459 27be
00000330: fa37 12be 12bf dfbe d4ea e83e fad4 12be
00000340: 3b0a 533f dd64 d43f f837 c6be f605 b73f
00000350: 2925 03c0 b68a 73be a7d3 cc3f 3217 3dc0
00000360: 8839 00c0 1335 94bf 57ec b3bf 3677 18bf
00000370: 74ef a6bf 61e9 5a3e 78c4 79bd 672b d43e
00000380: c0ba 5e3e e627 52be 79d0 16bf 7aee 753e
00000390: 63a4 b5bf a0e0 d73f 0d05 98be 5e0b 9b3f
000003a0: 553a 21c0 36c3 f0bf 35c4 a23e 3ac3 50bd
000003b0: 380d 3c3f f4b7 6f3f f418 08be 8bbe b03f
000003c0: 0f02 1abf 1998 473f ea0b 3bbe 9ea5 713e
000003d0: 22cc 573e c46c 0240 da68 79bf 7671 93bf
000003e0: 48fd f73d b2b4 823f c98d bebf 6750 ba3e
000003f0: 4395 f1bf 7c25 823f 2a7e dfbf 6cdb fb3f

lin.bias f4 [10]
-0.10909672 0.5139829 0.4558511 0.11249172 -0.29496977 -0.5768384 -0.22506464 0.6323883
-1.3778803 -3.68292
00000000: 1a6e dfbd 6294 033f 5165 e93e 0f62 e63d
00000010: 4706 97be aeab 13bf 5877 66be 33e4 213f
00000020: 625e b0bf f6b4 6bc0

conv.0.weight f4 [8, 2, 5, 5]
-0.7310987 0.9291708 4.622334 1.5505601 0.87118393 -1.6424725 -0.38948083 1.599935
0.538612 -0.74769425 -0.62271494 -1.0239549 0.13972726 -0.4290715 -0.0309528 -1.183209
-1.1493273 0.34927464 -0.767111 0.27778453 -0.5420962 -0.50041616 0.25299212 -1.1066407
-0.32279012 -0.20421809 1.1349933 4.1176467 1.9938211 0.7679329 -0.65034735 -0.13142042
1.3433993 -0.4181185 -0.70750797 -0.3681457 -1.0619774 0.48412654 -0.66238874 0.26331195
0.0018048612 -0.6326966 -0.12707727 -0.5283879 0.11261963 0.358723 0.24153896 0.018792689
-0.29856485 0.46620634 -0.15436676 -1.9585342 -0.7180235 -1.0267766 -0.6051563 0.47317213
-1.3133895 -0.33053738 0.025194416 0.55601585 0.71216124 -0.8985697 -0.29464066 0.5173352
0.028480362 0.9838754 -1.1038474 -0.92130333 -0.02023119 0.0145586645 2.5885463 1.2639755
0.93923426 0.86505604 0.4367532 -0.26668772 -1.3749834 -1.2831931 -1.053878 -0.6547398
1.0144954 -0.75955945 -0.7382361 0.16957442 0.03879437 1.1216234 -0.72740126 -0.61227715
-0.21319999 -0.23609288 1.4367818 -0.35999224 -0.36032635 -0.31341287 0.11870465 3.401803
1.9364673 1.0433056 0.94740945 0.49643612 6.512099 0.36556947 3.663352 0.96473837
-0.34916937 1.9681156 -1.0068573 1.0389901 -0.083476126 -0.5967963 0.9922497 -1.346493
0.8045007 -0.13815954 -0.40256092 -0.13332058 -1.666734 1.5159838 0.44120532 0.50344473
1.4883376 0.2909818 0.73854357 0.36465284 0.23063731 2.6588361 -0.3802727 1.2957108
0.27835122 -0.5704771 0.15211119 -1.3257141 0.31463438 0.020086532 -0.19319223 -0.06953823
-1.4069403 -0.1290457 -0.23695174 0.16173771 -1.695718 -1.5316896 0.60633826 0.378861
0.22982699 0.18332836 -0.057251126 0.1534061 0.11743938 0.15418763 -1.0204593 -1.5100079
-1.2495418 0.49998865 -0.6693009 -0.49696162 -0.31517276 -0.07842976 0.062165517 0.53894603
-0.9915486 1.2132277 -0.48632723 -0.6993091 -0.3628233 1.3475318 3.141285 0.8984911
1.0506928 -0.045491118 -0.34960622 0.7748902 -0.29008728 -0.9191282 -0.5535399 -1.2883303
-1.4756483 -1.3569018 -0.0034449105 -0.32704315 -0.49018112 -0.06420638 -0.17595854 0.026409019
0.22827011 -0.9543104 1.5626756 -0.18618575 -0.67599875 -0.008365325 1.0850301 3.958606
1.2093633 0.49809378 0.36155084 -0.002345878 1.0694312 0.23886041 -0.7536992 -0.12925763
4.495715 1.7577511 -0.27765986 -0.34171197 -0.12293278 2.957609 1.4728272 -0.60092443
-0.37513962 -0.38569906 2.629676 0.8709447 -0.18627328 0.5439756 0.12962034 1.0113623
-0.20654184 -0.5864762 0.7134283 -0.0031542736 0.13930728 -0.22938457 -0.45137587 0.9548217
-0.16875404 1.3973942 1.537121 -1.6257712 -1.1957201 -1.3802245 1.0609407 0.6227378
-2.1989677 -1.3956771 -1.0016965 1.2004775 1.0797397 -1.5407566 -0.6426472 -0.898176
-0.16218492 -0.20275116 -0.91597706 0.28161395 -0.48136124 -0.5626825 -0.56246597 -0.4593729
0.10522407 -0.28466108 -1.4269363 -0.78753656 -2.651982 -1.4955393 -1.4331162 0.67158616
00000000: 4929 3bbf 23de 6d3f 29ea 9340 c178 c63f
00000010: e905 5f3f 8a3c d2bf 086a c7be acca cc3f
00000020: 7ae2 093f e468 3fbf 3f6a 1fbf f410 83bf
00000030: aa14 0f3e 42af dbbe ba90 fdbc 6473 97bf
00000040: 281d 93bf 20d4 b23e 6361 44bf c639 8e3e
00000050: d1c6 0abf 461b 00bf 2f88 813e 67a6 8dbf
00000060: bf44 a5be 8c1e 51be 7647 913f c3c3 8340
00000070: 8835 ff3f 4097 443f 2a7d 26bf 1393 06be
00000080: 82f4 ab3f a113 d6be 3e1f 35bf 987d bcbe
00000090: e0ee 87bf 6fdf f73e 4f92 29bf d3d0 863e
000000a0: 1891 ec3a 68f8 21bf 8b20 02be 6e44 07bf
000000b0: 1fa5 e63d 8baa b73e fd55 773e 20f3 993c
000000c0: 7edd 98be 99b2 ee3e 5212 1ebe 40b1 fabf
000000d0: 63d0 37bf 6a6d 83bf 86eb 1abf 9e43 f23e
000000e0: 261d a8bf 323c a9be 8564 ce3c 0e57 0e3f
000000f0: 3350 363f aa08 66bf 24db 96be 1470 043f
00000100: a64f e93c 42df 7b3f df4a 8dbf 89da 6bbf
00000110: e1bb a5bc 7787 6e3c beaa 2540 f3c9 a13f
00000120: a871 703f 5074 5d3f 1e9e df3e 4b8b 88be
00000130: 75ff afbf ac3f a4bf 79e5 86bf 079d 27bf
00000140: fcda 813f 7d72 42bf 0bfd 3cbf eba4 2d3e
00000150: d8e6 1e3d 5b91 8f3f f836 3abf 32be 1cbf
00000160: 1951 5abe 55c2 71be 77e8 b73f e750 b8be
00000170: b27c b8be a777 a0be 6c1b f33d 24b7 5940
00000180: 29de f73f 0a8b 853f 6d89 723f e02c fe3e
00000190: 1d63 d040 ec2b bb3e 5c74 6a40 18f9 763f
000001a0: 54c6 b2be 36eb fb3f b3e0 80bf a1fd 843f
000001b0: 88f5 aabd a4c7 18bf 1404 7e3f e259 acbf
000001c0: c2f3 4d3f b279 0dbe 771c cebe 3185 08be
000001d0: 8a57 d5bf c20b c23f aae5 e13e c1e1 003f
000001e0: d981 be3f 91fb 943e 3111 3d3f c7b3 ba3e
000001f0: 302c 6c3e 5f2a 2a40 1ab3 c2be dad9 a53f
00000200: 0d84 8e3e ca0a 12bf 09c3 1b3e 00b1 a9bf
00000210: c217 a13e 838c a43c 2fd4 45be 0f6a 8ebd
00000220: 9f16 b4bf 8e24 04be 7aa3 72be 929e 253e
00000230: 4a0d d9bf 680e c4bf fc38 1b3f 12fa c13e
00000240: c457 6b3e 6eba 3b3e 2880 6abd 7d16 1d3e
00000250: 0f84 f03d 5de3 1d3e 699e 82bf f047 c1bf
00000260: fcf0 9fbf 83fe ff3e 4e57 2bbf c171 febe
00000270: 535e a1be c89f a0bd 45a1 7e3d 5ef8 093f
00000280: 21d6 7dbf 0c4b 9b3f e2ff f8be ec05 33bf
00000290: fac3 b9be ec7b ac3f d00a 4940 8303 663f
000002a0: 1a7d 863f e554 3abd 96ff b2be 345f 463f
000002b0: 5286 94be fc4b 6bbf cab4 0dbf 02e8 a4bf
000002c0: 0be2 bcbf f5ae adbf 02c4 61bb 3372 a7be
000002d0: 05f9 fabe a27e 83bd 7a2e 34be ba57 d83c
000002e0: a4bf 693e b04d 74bf c105 c83f 7aa7 3ebe
000002f0: 410e 2dbf b70e 09bc 44e2 8a3f cd59 7d40
00000300: 6bcc 9a3f 2606 ff3e 311d b93e 4dbd 19bb
00000310: 1fe3 883f d397 743e 6ef2 40bf 1d5c 04be
00000320: e6dc 8f40 fdfd e03f 6f29 8ebe dff4 aebe
00000330: 2ec4 fbbd 7749 3d40 9a85 bc3f 2fd6 19bf
00000340: 4d12 c0be 597a c5be 9d4c 2840 3bf6 5e3f
00000350: 6cbe 3ebe fc41 0b3f 32bb 043e 5274 813f
00000360: b47f 53be 4e23 16bf 3da3 363f eeb7 4ebb
00000370: 91a6 0e3e cae3 6abe bd1a e7be 326f 743f
00000380: dccd 2cbe d0dd b23f 62c0 c43f 4519 d0bf
00000390: 5b0d 99bf 32ab b0bf e8cc 873f bf6b 1f3f
000003a0: e3bb 0cc0 8ca5 b2bf 9737 80bf 3fa9 993f
000003b0: e934 8a3f 8337 c5bf 8784 24bf ddee 65bf
000003c0: ce13 26be 009e 4fbe 797d 6abf b42f 903e
000003d0: fb74 f6be f60b 10bf c5fd 0fbf ed32 ebbe
000003e0: b87f d73d 19bf 91be d9a5 b6bf ff9b 49bf
000003f0: 13ba 29c0 d56d bfbf 5a70 b7bf 12ed 2b3f
