models/standard/k-fold saves/test1e_f3_e10_f2_b64.pt (torch, 335209 bytes, 86 tensors)

conv1.weight f4 [8, 2, 5, 5]
00000000: 9561 3cbf f230 6e3f d2e4 9340 2c64 c43f
00000010: d91b 5b3f b615 d2bf 0821 c7be 2c16 cd3f
00000020: fa09 083f 96ce 40bf a159 1ebf 9b32 82bf
00000030: 8129 113e b98a e0be 6426 2abd 449b 98bf
00000040: 45fb 93bf 6def ab3e c94a 4bbf debb 773e
00000050: f712 09bf e8ba f9be ad08 833e a0a5 8ebf
00000060: 1490 aebe f168 53be c397 913f bbc6 8340
00000070: 36a4 fc3f be0f 403f 3a53 26bf ad88 03be
00000080: b342 ac3f 468e dabe be72 37bf e18e babe
00000090: 75e2 86bf 8b25 f83e 39f6 2bbf 6134 7f3e
000000a0: 54ef 8dbb 8a0d 23bf d217 11be 99c4 0dbf
000000b0: a1e9 a03d 81a0 bb3e 4898 833e 05d5 c53c
000000c0: 8cef 99be 25a8 e73e a5df 29be 39e7 fcbf
000000d0: 1134 3dbf 0d93 85bf c531 1cbf bfb6 ef3e
000000e0: c3ad a8bf 5922 afbe 6f29 833c ab32 0f3f
000000f0: 8c7b 323f fb6b 6abf 58d5 a0be d552 ff3e
00000100: c75a b33c 9a0e 773f d06c 8fbf 4172 70bf
00000110: 490b 17bd 5cee 223c bf2f 2440 4e2f 9f3f
00000120: ab23 6b3f b810 5a3f c1e7 de3e 02fe 8cbe
00000130: ac34 b2bf 32b5 a6bf e830 89bf 19a8 28bf
00000140: baad 813f 17e1 43bf 6f06 3fbf 7421 233e
00000150: 0a9a 2c3d 17df 8d3f db0b 3fbf 5cfb 20bf
00000160: 0dbc 6dbe 8ca6 78be 2329 b63f 1b1b c0be
00000170: b6af bfbe 3c75 a8be 0375 ee3d 9774 5840
00000180: 3f60 f53f 95a4 833f 204a 6f3f 2756 ff3e
00000190: c468 d040 56a3 c13e 2d76 6c40 6f2c 763f
000001a0: fe73 b4be ad75 fd3f 3ff6 78bf 133d 8a3f
000001b0: f7a2 86bd 1e50 15bf ffa1 803f 7dd3 a7bf
000001c0: a9ff 553f 44d6 fcbd bcbb cabe 16ca 02be
000001d0: 16cf d1bf 5b50 c33f 6aac e33e 0923 ff3e
000001e0: cd48 c13f 7d13 a63e 4088 413f 849b be3e
000001f0: 3211 723e 4097 2a40 70e1 bdbe 3cfc a83f
00000200: 6d85 8b3e b4fe 11bf 369b 2f3e 2ef6 a5bf
00000210: 1a86 b13e c784 033d 2fda 3abe 2ed2 5bbd
00000220: 3c07 b0bf 09e9 dabd b75e 67be 23bb 293e
00000230: 4faf d7bf 8064 c0bf f4d3 1d3f 18bc c23e
00000240: fb24 693e 97db 593e a33c 94bc dce3 373e
00000250: 5104 043e 92b2 293e 615b 82bf 34fc c0bf
00000260: 48f3 a0bf 0e51 003f 8aac 2ebf c024 fcbe
00000270: 30cf 9bbe 2b4b 9fbd 2dc8 873d 3622 083f
00000280: 46c9 7ebf 34b7 9b3f 2a04 f9be ee81 33bf
00000290: 940e bfbe c924 ab3f ec0e 4940 713a 653f
000002a0: 6b9f 853f 80d9 7ebd c3ad afbe c9b4 4b3f
000002b0: eeb8 8dbe 63c9 68bf 428e 0dbf 3dce a4bf
000002c0: 5ee1 bcbf 2039 aebf 290c e6bb b950 adbe
000002d0: beb2 f8be 6a0e 6cbd 7326 31be 0e78 e63c
000002e0: 71f1 603e 2440 75bf dee3 c73f ff65 3ebe
000002f0: d4f0 2dbf 59d2 a3bc e524 8a3f 2653 7d40
00000300: d4eb 9a3f 1d81 fb3e 04e9 b23e 00f6 d43b
00000310: 804e 8b3f 47bd 843e 8a61 3ebf 9190 febd
00000320: d985 9040 6e0e e33f b9c1 86be 0ef5 a6be
00000330: 19b8 d6bd c278 3d40 4f22 be3f 6ace 15bf
00000340: 84c4 b8be e407 bdbe 5958 2840 a172 633f
00000350: 233d 31be 058b 0e3f 0e4d 133e 02f7 7e3f
00000360: 31fe 56be bb88 17bf f208 363f 2b22 163b
00000370: 0ed9 0a3e 7b15 65be 4a73 e7be 69be 753f
00000380: 78db 21be 54e4 b43f 03c2 c63f d7f6 cdbf
00000390: 4418 97bf 6c98 aebf 55ab 873f 6ded 213f
000003a0: fd15 0cc0 0c15 b1bf d45b 7dbf 0c2c 993f
000003b0: 840f 8c3f 2eb9 c3bf cdfd 20bf 463a 63bf
000003c0: d472 38be 1b3e 54be 6c26 6cbf 630a 903e
000003d0: 8a6a f4be 0110 11bf 8975 0ebf 6617 e9be
000003e0: a157 ea3d a187 8cbe fe66 b6bf 2ca3 49bf
000003f0: 0c3a 29c0 013d c0bf 178f b8bf 071f 2e3f
-0.735864 0.93043435 4.621682 1.534307 0.8558937 -1.6412876 -0.38892388 1.6022391
0.53140223 -0.75315225 -0.6185551 -1.0171694 0.14175989 -0.43855837 -0.04154052 -1.1922383
-1.1561056 0.33581105 -0.7941099 0.2419276 -0.53544563 -0.4877541 0.25592557 -1.1144295
-0.34094298 -0.206455 1.1374439 4.118009 1.9737613 0.7502402 -0.64970744 -0.12845106
1.3457855 -0.4268667 -0.7165946 -0.36437133 -1.0537859 0.48466143 -0.6717258 0.24922325
-0.0043315087 -0.63692534 -0.14169243 -0.5537811 0.07857061 0.36645892 0.2570212 0.024149427
-0.30065572 0.45245472 -0.1658922 -1.9758064 -0.7390757 -1.0435501 -0.6101344 0.46819112
-1.3178028 -0.34205893 0.016010968 0.5593669 0.6971977 -0.91571015 -0.31412768 0.49867883
0.021893872 0.96506655 -1.1205082 -0.9392434 -0.036875997 0.009944525 2.5654142 1.2436311
0.918513 0.8518176 0.4353619 -0.27537543 -1.3922324 -1.3024046 -1.071805 -0.65881497
1.0131142 -0.76515335 -0.7461919 0.1593073 0.04213909 1.1083707 -0.74627465 -0.62883544
-0.23216267 -0.24282283 1.4231304 -0.3752068 -0.37438744 -0.32901943 0.11643412 3.382116
1.9169997 1.0284601 0.9347248 0.49870417 6.512789 0.37819928 3.6947129 0.9616155
-0.35244745 1.9801537 -0.9725074 1.0799888 -0.06574052 -0.58325374 1.0049437 -1.3111416
0.8359323 -0.123455554 -0.39596355 -0.12772402 -1.6391323 1.5258898 0.4446748 0.49831417
1.5100342 0.32436743 0.75598526 0.37228024 0.23639372 2.6654816 -0.37086058 1.3201976
0.27250233 -0.5702927 0.17149052 -1.2965753 0.34672624 0.03210905 -0.18247293 -0.05366724
-1.3752208 -0.10688979 -0.22594725 0.16575293 -1.6850375 -1.503067 0.6165154 0.3803413
0.22768013 0.21275173 -0.01809532 0.17958015 0.12892272 0.16572025 -1.0184137 -1.5076966
-1.2574244 0.5012368 -0.68232024 -0.49246788 -0.3043151 -0.07778009 0.066299774 0.531772
-0.9952587 1.2165284 -0.4863599 -0.7012013 -0.3731581 1.3370601 3.1415358 0.895423
1.0439276 -0.062219143 -0.34312257 0.7957273 -0.27680153 -0.9093229 -0.55295193 -1.2875439
-1.4756277 -1.3611183 -0.0070204926 -0.3385065 -0.4857387 -0.057630934 -0.17299823 0.028133418
0.21967103 -0.95800996 1.5616415 -0.18593596 -0.679456 -0.019997763 1.0792509 3.9582
1.2103219 0.49121943 0.34943402 0.006499052 1.0883331 0.25925657 -0.7436758 -0.124299176
4.516339 1.7738779 -0.26319674 -0.32608837 -0.104843326 2.9604955 1.485422 -0.5851809
-0.3608743 -0.36920083 2.6303923 0.88846785 -0.17308478 0.55680877 0.14384863 0.99595654
-0.20995404 -0.5919301 0.711074 0.002290855 0.13559362 -0.22371475 -0.45205146 0.9599367
-0.15806377 1.413218 1.5527958 -1.6090955 -1.180428 -1.3640265 1.0599161 0.6325291
-2.188842 -1.3834548 -0.98968244 1.1966567 1.0942235 -1.5290887 -0.6288727 -0.88760793
-0.18012553 -0.20726816 -0.9224613 0.28132924 -0.47737533 -0.56665045 -0.55648094 -0.45525664
0.11442495 -0.27447227 -1.4250181 -0.78764606 -2.644168 -1.5018617 -1.4418668 0.68016094

conv1.bias f4 [8]
00000000: a176 7ec0 89dd 28c0 d2a9 edbf dbd2 a7bf
00000010: 31ee 5fc0 30e2 6bbe 532a 043d a579 afc0
-3.9759905 -2.6385214 -1.856745 -1.3111223 -3.498913 -0.23035502 0.032266926 -5.483599

bn1.weight f4 [8]
00000000: 6148 a63f cf59 ab3f 664e a73f a192 e23f
00000010: fd53 ab3f a793 ee3f fdee bd3f 956d b13f
1.2990838 1.3386782 1.30708 1.7700998 1.3385006 1.863881 1.4838558 1.3861567

bn1.bias f4 [8]
00000000: 7d06 3ebf eee8 b6be 7e02 aabf 57d9 e93e
00000010: aebb fabf 4058 8cbf 9673 803f ef26 85bf
-0.7422865 -0.35724586 -1.328201 0.4567363 -1.9588525 -1.0964432 1.0035274 -1.0402507

bn1.running_mean f4 [8]
00000000: de52 b23f cd5e 5f3f dbfe a240 34c9 433f
00000010: c2b9 df3f aeb8 b73f 4661 1841 62bd 0b40
1.3931539 0.8725403 5.0936103 0.76478887 1.7478564 1.4353235 9.523748 2.183434

bn1.running_var f4 [8]
00000000: ea2d ac41 eba5 4341 3f0d 1843 8552 1c41
00000010: 5e70 cb41 25b3 b341 007a 8842 757c 0a42
21.522419 12.228007 152.05174 9.770146 25.429867 22.462473 68.23828 34.62154

conv2.weight f4 [16, 8, 3, 3]
00000000: 63a9 89be fdf7 05c0 82ab 86bf 39eb 0040
00000010: 60c5 56bf 70b0 04bf dddd ce3d d530 d7bd
00000020: 5b7f 763f 749e 47bf 0d34 51be e5f1 4a3f
00000030: deda 45c0 400d a0bf 8026 21bf a606 c8be
00000040: 6974 223e 1364 97be ae3a a93f 85a9 ba3e
00000050: b2dd 123f 7893 873f bfd8 623f bc7b 073f
00000060: f451 da3f 1bd7 6e3f d921 2d3f 5396 df3e
00000070: 338f 16bd 6fba 47bf 3242 0ec0 e720 2cc0
00000080: 18a8 d93e 9f29 25be e45d d9be 2f26 573f
00000090: f8f0 5ebf d085 a33d fda8 db3d 6831 f93e
000000a0: 4123 ab3e aa86 b03d 8113 2640 ef08 c23e
000000b0: 191f 9b3e a26d 013f b09a 1d3e de8d 30bf
000000c0: 61d6 54c0 286d 3ec0 4f34 e2bf cc50 9c3f
000000d0: 74c3 b03b 711f 253e 92eb 57bf a9d6 debe
000000e0: 2511 b1be 265c 23bf 5512 f4be c683 30be
000000f0: 5ff1 ffbf 97e1 dabf 608d cc3e be2f 3b3c
00000100: e29a 813e 7141 a3bf 5578 5740 c5b3 753f
00000110: 3ecc 173e efe5 893f acce bcbe 8291 a63e
00000120: cbb2 0e3f 57e8 cc3f 03ed b13f 8bb4 e4be
00000130: 86c7 fdbe 4b56 933f bc12 87bf bc50 463e
00000140: 5e82 573f 3f05 59bf b3fb d3bf 6f89 173d
00000150: b20b adbe b73c 77bf a439 e03f c6c7 21bf
00000160: 5c9f 6dbf 5988 073f 4859 9d3e 1215 c73f
00000170: ce24 e33f cd74 293e 4ed3 ac3f 6170 763f
00000180: 339e 07bf e35e 8b3f 4200 b83f 27dd f1bf
00000190: 1e11 0f3c 8dbd 863f 43f4 5ebf 4b74 24bf
000001a0: 1246 793f 0b04 81bf 12c2 503e 7d54 a73e
000001b0: 37d6 0cc0 fd5a 67bf 4bd7 823f 00cc 1ac0
000001c0: 5bd7 63bf b5cc b6bd 9b4d 06c0 0f6e a6bf
000001d0: cb91 bb3e 4d91 8f3f 647a 9e3e 584c 0240
000001e0: d347 08c0 f66a 4c3e 7bde b63f 1584 b3bf
000001f0: 33d8 383e ddee 8f3f 4d67 8bbf 45b7 773f
00000200: 1557 043f af04 dfbf f590 fd3e aedb ecbe
00000210: 4133 08c0 b99a 243f 919b ff3d dc06 01be
00000220: 7a18 883f 129f 0640 e588 aabe 2bda d3bc
00000230: 97fb f93f f60f 2dbf a8c2 1bbf 67c8 c93f
00000240: d9ee 82c0 c015 4ebd 25ab e83e ea84 5ebf
00000250: 8769 71bf d1a9 87be 9398 9dbf 3cd5 d6bf
00000260: 9785 4ebf 02b9 863f 7871 1dc0 5c1f 433d
00000270: 1d74 5f3f b83d 28c0 7d82 a0bf 0629 6cbe
00000280: ad1e cdbf b290 ef3f 6f2d 70bd 064d 9ebf
00000290: 67ee 913f 812a e23d 1951 3cc0 0788 91bf
000002a0: 159b e53d 45bf 05c0 0fc5 56bf 5509 be3f
000002b0: 1779 ab3e bfb2 c5be 9c3a 9b3e 5cd4 d1bc
000002c0: ef9e a8be 6902 90be 52f4 20bd 565f e6be
000002d0: 8be6 7c3e 19a3 65c0 a890 dd3e 89f0 033f
000002e0: be78 50c0 e86a f5bf ef5b c63e 1543 86c0
000002f0: 9c1a 11c0 0643 1f3e 880a 07c0 6931 a53f
00000300: 9dc9 6a3f 54b9 49be 068b 0bbf 0a4c b03f
00000310: b2cd 34bf 7aa3 fabf 9848 ec3e d916 6e3c
00000320: 40c2 1f3f a596 54be 7bf2 59bd 5f60 bdbd
00000330: ba9d 0ebf 1368 bbbe 6089 203f 15b7 b23f
00000340: 5abc bd3c c5fa 90be 8d7d bb3f e722 973e
00000350: a9df 8f3d 2c29 983f 0366 5fbf e4a6 283e
00000360: aeac 80c0 f15f 0fc0 f5e5 b6bf 2a08 ca3e
00000370: 51f1 083f 7c5c 0440 c580 82bf 2c41 333f
00000380: bb53 473e a1f5 d83f f28a 123f 902c 833e
00000390: 96e3 a5bf 7985 b1be 3862 353f bad6 0ec0
000003a0: 8dc9 203e 9900 9f3f 3898 1fc0 d093 d9bf
000003b0: 698d acbe 0f0d 3fbf ef5a dbbe cd9b a5be
000003c0: b946 74bf 78e5 c6be 0a7e 1a3f fa82 223f
000003d0: 9894 efbe 4fa6 3ebe a948 763f 935e 933f
000003e0: bb94 413f ef32 8dbf 3b48 34bf 22d0 f9bf
000003f0: fe79 f3bf c0b6 9a3d 8387 47bf 7bb4 b1be
-0.26887044 -2.093261 -1.052109 2.0143569 -0.8389492 -0.5183172 0.10100911 -0.10507361
0.9628808 -0.77976155 -0.20430012 0.7927535 -3.0914836 -1.2504044 -0.6294937 -0.39067572
0.1586472 -0.29568538 1.3221033 0.36457458 0.5736953 1.0591879 0.8861198 0.5292318
1.705626 0.93296975 0.6762977 0.43669376 -0.03675766 -0.7801885 -2.2227902 -2.6895082
0.42511058 -0.16129158 -0.42454445 0.8404264 -0.8708644 0.07984507 0.10725591 0.48670506
0.33425334 0.08619435 2.5949404 0.3789744 0.30297163 0.5055791 0.1539104 -0.6896647
-3.3255847 -2.9754124 -1.7672213 1.2212157 0.0053943936 0.16125275 -0.84343827 -0.43523148
-0.34583393 -0.6381248 -0.47670236 -0.17237768 -1.9995536 -1.7100095 0.3995161 0.011424957
0.2531348 -1.2754346 3.3667195 0.9597743 0.14824006 1.0773295 -0.36876428 0.3253289
0.55741566 1.6008404 1.3900455 -0.44668993 -0.49566287 1.151071 -1.0552592 0.19366735
0.841833 -0.8477363 -1.6561188 0.0369963 -0.33797985 -0.9657702 1.751759 -0.63195455
-0.9282129 0.52942425 0.3073218 1.5553305 1.7745607 0.16548462 1.3501985 0.96265227
-0.5297577 1.0888332 1.4375079 -1.8895615 0.008732108 1.0526596 -0.87091464 -0.6423995
0.97372544 -1.0079359 0.20386532 0.32681647 -2.2005746 -0.9037321 1.0221952 -2.4187012
-0.8900048 -0.089257635 -2.0984867 -1.3002337 0.3663467 1.1216217 0.30952752 2.0359097
-2.1293838 0.19962677 1.4286646 -1.4024683 0.18051223 1.124477 -1.08909 0.9676402
0.51695377 -1.7423304 0.49524656 -0.46261352 -2.1281283 0.6429859 0.12480844 -0.12600273
1.063247 2.103459 -0.33307567 -0.025860867 1.9529904 -0.6760248 -0.60843897 1.5764283
-4.091656 -0.05031371 0.45443073 -0.8692156 -0.94301647 -0.26496747 -1.2312187 -1.6783824
-0.8067259 1.052521 -2.4600506 0.04763733 0.8728655 -2.628767 -1.2539822 -0.23062524
-1.6024987 1.8716033 -0.05863708 -1.2367256 1.140088 0.11043263 -2.9424498 -1.1369637
0.1121122 -2.0897992 -0.8389444 1.4846598 0.33490822 -0.38612935 0.30318153 -0.025613956
-0.32933757 -0.2812684 -0.039295502 -0.4499461 0.2469732 -3.5880797 0.43274426 0.515389
-3.2573695 -1.917325 0.38742015 -4.1956887 -2.267249 0.15552911 -2.1100178 1.2905704
0.9171389 -0.19699603 -0.5450901 1.3773205 -0.70626366 -1.9581139 0.46149135 0.0145318145
0.62405777 -0.20760591 -0.053209763 -0.09246897 -0.5570942 -0.3660284 0.6270962 1.3962122
0.023161102 -0.28316322 1.464769 0.29518816 0.07025082 1.1887565 -0.8726503 0.16469914
-4.021079 -2.2402308 -1.4288927 0.39459354 0.5349322 2.0681448 -1.0195547 0.7002132
0.19465534 1.694996 0.57243264 0.25619936 -1.2960079 -0.34672144 0.70852995 -2.2318559
0.15701886 1.2422057 -2.4936657 -1.6998234 -0.33701637 -0.746293 -0.42842814 -0.3234543
-0.95420414 -0.38846946 0.6034857 0.63481104 -0.46793056 -0.18618129 0.9620462 1.1513237
0.7561757 -1.1031169 -0.70422715 -1.9516642 -1.9021604 0.07554388 -0.7794115 -0.34708008

conv2.bias f4 [16]
00000000: 2796 82be 3a11 74be d4b7 a9be 5327 ccbf
00000010: 8692 293e 9256 73c0 c644 79c0 6405 ef3f
00000020: 7259 8f3f 6d48 f7bf c0df f4bf 90ac 26bf
00000030: 2bd2 f93f b6b5 17c0 473e 7fbe 39b0 38c0
-0.25505182 -0.23834696 -0.33148062 -1.5949501 0.165598 -3.8021588 -3.8948226 1.867352
1.1199172 -1.9318978 -1.9130783 -0.6510706 1.9517263 -2.3704658 -0.249261 -2.8857558

bn2.weight f4 [16]
00000000: 7ebd 2340 0c33 1e40 fcf5 ac3f e2cc 8e3f
00000010: f5ea 413f 7bca e83f 7433 ba3f 8fa2 883f
00000020: b753 4a40 7b5b 7e3f 12db c73f 4aa7 b83f
00000030: 0e12 0040 9d50 ca3f a5e1 343f 565f bb3f
2.5584407 2.4718657 1.3512568 1.1156275 0.7574914 1.8186792 1.4546952 1.0674609
3.1613595 0.9935834 1.561373 1.4426053 2.001102 1.5805851 0.70656806 1.4638469

bn2.bias f4 [16]
00000000: fe3c 7c3e 2e25 bf3e dde0 60bf 3f6f 41be
00000010: f5b0 0ebf f182 a13e 5ef7 b43e d7ec 99bf
00000020: 04ee 863c 3899 bb3e a45a ca3e 2977 78be
00000030: 6976 98be e0db 263f 90e4 e53e 40d3 aa3e
0.24632642 0.37333053 -0.87843114 -0.18890093 -0.55738765 0.31545213 0.35344976 -1.2025403
0.016470917 0.36640334 0.39522278 -0.24264206 -0.2977784 0.6517925 0.44900942 0.33364296

bn2.running_mean f4 [16]
00000000: baf0 fd3f a94b 8840 887f 3e42 5daf 0241
00000010: 431a e241 c107 8740 4a8b e33f f763 a541
00000020: 3235 1b40 7b72 0641 076a e33f b001 0840
00000030: 6755 8140 654f c03f 215e 4341 7c88 1942
1.9839089 4.259236 47.624542 8.167813 28.262823 4.2196965 1.7776883 20.673811
2.4251218 8.402949 1.7766732 2.125103 4.041675 1.5024229 12.210481 38.383286

bn2.running_var f4 [16]
00000000: f105 5742 ec15 4b43 b7a4 c743 c2f8 1243
00000010: baf9 de43 d736 3e43 c1fe 0642 2ea9 c342
00000020: 1e68 9042 e429 4643 94ba 2a42 698b 4c42
00000030: 24eb 0543 8d80 de41 fe01 9142 e87b 9e43
53.755802 203.08563 399.28683 146.97171 445.951 190.21422 33.748783 97.83043
72.203354 198.16364 42.682205 51.136143 133.91852 27.812769 72.50389 316.96802

conv3.weight f4 [32, 16, 3, 3]
00000000: 937b e53f d2e6 56bf d889 97bf ea82 25bf
00000010: 45c8 8dbf 15d7 433f 07b4 afbf 60e1 12bf
00000020: 017c d03d 5481 313f 5cc9 ff3e 749a adbc
00000030: 3ed2 123f 9299 a53f c428 2440 b1ab 92bd
00000040: adcd 0540 5a0c 0a40 d29b 99bf 91f7 0840
00000050: aa3c 6b3f 8df7 863f 23e4 2140 a8f0 543f
00000060: 3f8c 3640 9fb3 3a40 6823 cc3e 6e53 38c0
00000070: 0fc5 1fc0 1fef 8c3f 02c5 6cbf 3daf 7d3f
00000080: affa 0f3f 053d 28c0 d716 30be 420b 02bd
00000090: 8bdd d73f 4061 713e 2009 f9be 1486 c43f
000000a0: b5fa 3abf 3927 8c3d e4e0 1f40 e8a4 633f
000000b0: f0c1 8abf 4bc9 35c0 d4d5 bd3f 4394 f33c
000000c0: b5f1 00c0 4647 6ebf 9b83 a53f a5f3 26c0
000000d0: 2a32 2f3f f0cc eb3f db9b 3c3f da98 893f
000000e0: ba29 07bc b2e0 bbbe 43f0 7c3e a8cf e93d
000000f0: fca3 a6bf 7e61 cc3f 673d 333f 25bc 303f
00000100: 4814 c33f a6dd 663f 7278 3040 bdcb 913f
00000110: 68bd 2a3f 209c 0740 b4f1 8b3f 4497 db3f
00000120: 76d7 923f d985 773f d8a1 91bf 5188 a83e
00000130: 9036 fbbe 52e8 003f f651 babf 9719 debf
00000140: e75a 153f 0b99 01c0 6f67 f2be f909 94bf
00000150: 4ac2 e0bf 9a1c f33e 2836 3c3e 1571 48bf
00000160: 7db9 a13f 0e60 703f a559 a4bf cf87 ddbf
00000170: 6a30 8b3e e829 43c0 be14 7abf 39b3 04be
00000180: 66e7 0ec0 bb57 2c3e 179e ad3e 7573 6a3f
00000190: a1b6 13c0 a39f 9a3f 7d4b f4be 33af 803f
000001a0: 0b67 c6bd c746 bfbf 162f c73f c81d f13e
000001b0: 6183 613e b48e f3bd 5851 fcbd 8d8d 613f
000001c0: 0af5 d83e bfb4 223f 6684 c33f 88cd 3e3f
000001d0: a2a3 5d3e 4842 3d40 414e 1a3f f1df b5bf
000001e0: d8a7 b7bb 5a76 2b3f aee9 8a3b 0102 2ec0
000001f0: a964 a23a ab93 53be 1ba7 5ac0 c7ef 85bf
00000200: 2d72 c03e 7a19 1ec0 ce5d 61be f566 323e
00000210: 322a d1be e48b 9e3f 61ba a43f 2483 43bf
00000220: 00b1 b8be 762b 0d3f 4e74 be3e a9e2 29bf
00000230: 9a25 943f 2235 f23f e0f1 4dbe 1de8 843f
00000240: 610b 5d3f 6417 72be 4334 053f f55a 0140
00000250: 217b e63f 1a10 563f f337 283f dc76 053f
00000260: 708b e83e ae91 e1be 5a04 ab3e de14 66bf
00000270: 8bb2 1dbf e3d1 80bf 0da5 63bf 1ce8 f63e
00000280: 9ac7 24c0 933c 74be dce0 95bd 46ca c8bd
00000290: 8b71 893f 1497 a7be d801 fe3c 512a 9f3e
000002a0: 6c27 71bf c7d9 4bbe 9175 1c3f fc84 e33e
000002b0: 77a3 9f3e b3cd 48be 8136 383f 72b4 96be
000002c0: 8ad2 cdbe a66c adc0 9b87 10c0 9bc0 58be
000002d0: a555 84be fb0e 853f 0693 ce3d 67d9 02c0
000002e0: 0274 67be 8276 86bf e975 aebf 1fc7 e2be
000002f0: bde8 d9bf 5bae bbbe e729 6e3e a9a2 a23f
00000300: 65eb 1a3f 50ab 7d3f c17d 5a3f f632 e13f
00000310: 523c c43d 4535 b6bf 1a88 733e 7da9 5cbf
00000320: bccb 1abf b8b4 debf 24b0 d73e 1c54 6abf
00000330: 81bf 883f 67a9 353e 9345 89bd ba9b a33e
00000340: 82a9 0a3f 242f 143f caed 263e 2a4e 98be
00000350: ad89 7f3e 05df a63e 640e a73f da98 743f
00000360: e3c2 ca3e faf0 3f3e 662d e93e b5d3 503e
00000370: 1d63 5fbf 48f0 6c3e 6503 6bc0 8b5b aabf
00000380: 1b96 c3bf ebd3 d8be 4208 c53f 7b8b 9d3f
00000390: fcea 3ac0 ff15 dbbe 3c68 80be b98f 1bbf
000003a0: 4089 0d3d 246e 02bf e411 5bbc 985f 933e
000003b0: 7297 953f 0b91 05c0 7a2b 4ec0 12db 26c0
000003c0: a92e d43d b1b1 513f 7fb7 47bf 6a94 553f
000003d0: 6bbb 8a3f 5e09 4bbf 7473 3ebd a777 b73d
000003e0: 6865 3140 35fe aa3e 1994 20c0 a9ab 9f3e
000003f0: de0b b43f 36fc 08bd 2b4c 543e 87a7 333f
1.7928337 -0.83945954 -1.1838942 -0.64652884 -1.1076742 0.76500064 -1.3726815 -0.57375145
0.10179902 0.69337964 0.49958313 -0.021191813 0.57352054 1.2937491 2.5649881 -0.07161654
2.0906785 2.1570039 -1.2000678 2.1401103 0.9188944 1.0544297 2.5295494 0.8317971
2.85231 2.9172132 0.39870763 -2.8800921 -2.4964025 1.1010474 -0.9248811 0.9909552
0.5624189 -2.6287243 -0.17196213 -0.031749018 1.6864485 0.23572254 -0.48639774 1.5353417
-0.730388 0.06843419 2.4981012 0.889235 -1.0840435 -2.840411 1.483088 0.029733783
-2.0147526 -0.93077505 1.2930788 -2.608621 0.6843592 1.8421917 0.73675317 1.0749772
-0.0082496945 -0.36694866 0.24701028 0.114165604 -1.3018794 1.5967252 0.7001557 0.69037086
1.5240564 0.9018196 2.7573514 1.1390301 0.6669526 2.118904 1.0933137 1.7155538
1.1472003 0.9668861 -1.1377516 0.329165 -0.49065065 0.5035449 -1.4556262 -1.7351559
0.5834183 -2.024966 -0.4734454 -1.1565543 -1.7559292 0.4748276 0.18380034 -0.7829755
1.2634732 0.9389657 -1.2839857 -1.730707 0.27185374 -3.0494328 -0.976879 -0.12958993
-2.2328734 0.16830342 0.33909675 0.91582423 -2.3080218 1.2079967 -0.47713843 1.0053467
-0.09687623 -1.4943475 1.5561244 0.47093034 0.22022773 -0.11892453 -0.123202026 0.88106614
0.4237445 0.63557047 1.527478 0.74532366 0.21644452 2.9571705 0.60275656 -1.4208966
-0.0056047253 0.66977465 0.0042392826 -2.7188723 0.0012389618 -0.206618 -3.4164493 -1.0463799
0.3758711 -2.470305 -0.2200844 0.17422087 -0.40852505 1.2386441 1.2869378 -0.7637198
-0.3607254 0.5514444 0.37198108 -0.6636148 1.1573975 1.8922465 -0.20111799 1.0383335
0.8634549 -0.23641735 0.5203287 2.0211766 1.8006326 0.8361832 0.6571037 0.5213449
0.45418882 -0.44056457 0.33401757 -0.8987559 -0.6160056 -1.0064052 -0.8892372 0.4822396
-2.5746827 -0.23851232 -0.07318279 -0.098042056 1.0737776 -0.3273245 0.031006739 0.31086972
-0.9420078 -0.19907294 0.6111689 0.44437397 0.311794 -0.19609718 0.71958166 -0.29434544
-0.4019969 -5.4195127 -2.2582767 -0.21167223 -0.25846592 1.0395197 0.10086636 -2.0445192
-0.22602847 -1.0504916 -1.3629733 -0.44292542 -1.7024151 -0.3665646 0.23258172 1.270589
0.60515434 0.9908953 0.85348135 1.7593677 0.09581818 -1.4235007 0.23782387 -0.8619612
-0.60467124 -1.7398901 0.42126572 -0.9153459 1.0683442 0.17740403 -0.06702723 0.31954747
0.541649 0.5788443 0.16301647 -0.29747134 0.24954863 0.32592025 1.3051267 0.9554573
0.39601812 0.18744269 0.4554245 0.2039326 -0.8726061 0.23138535 -3.6720822 -1.3309187
-1.5280184 -0.4234918 1.5393145 1.2308191 -2.9205923 -0.4279022 -0.25079525 -0.6076618
0.03455472 -0.5094931 -0.013370965 0.2878387 1.1686842 -2.0869777 -3.2214036 -2.607121
0.10360462 0.8191176 -0.7801437 0.83429587 1.0838445 -0.7931117 -0.046496823 0.08958369
2.7718143 0.3339707 -2.5090392 0.31185654 1.4066122 -0.033443652 0.20732181 0.701775

conv3.bias f4 [32]
00000000: 338a e0bf 6e62 ebbf 3c50 e4bf 6681 353f
00000010: 86b8 abbf abec 00c0 bf40 f7bf 92df 07bf
00000020: 49dd 2cc0 4383 20bf 8f2c ecbe 484e 12bf
00000030: 1ac6 95bf 85f0 afbf abe4 05bf 0d44 35c0
00000040: f407 02bf 06a3 35c0 426a 663f f3b3 22be
00000050: c0b6 2ac0 e2b1 ce3c f71e 0fc0 0754 84bf
00000060: 81f2 50bf c220 04c0 e883 ac3d e52e a5bf
00000070: 8791 33c0 bc27 90bf 2804 9ebf 5658 0fc0
-1.7542175 -1.8389413 -1.7836986 0.7090057 -1.3415687 -2.014445 -1.9316634 -0.53075516
-2.7010062 -0.6270029 -0.46127746 -0.571507 -1.1701081 -1.3745276 -0.52302045 -2.8322785
-0.50793386 -2.8380752 0.90005887 -0.15888958 -2.6674042 0.025231306 -2.236265 -1.0338143
-0.8162003 -2.0644994 0.084235966 -1.2904936 -2.8057573 -1.1262126 -1.2345018 -2.2397666

bn3.weight f4 [32]
00000000: 26ff 0a40 d2bd 903f e6bc bd3f 77fe d33f
00000010: 63e6 9b3f 0be1 d63f 5fab f73f 3aa6 e73f
00000020: c9ee cf3f 8c55 953f fa20 0740 07e7 ab3f
00000030: 8684 0a40 456b e43f e21c 0340 32e3 b93f
00000040: 6575 e63f 1c89 cc3f 6f53 f33f 9572 0440
00000050: 0a31 b03f 061e 0940 05ba 0240 a676 e13f
00000060: 9ca8 c73f ca34 9d3f 3a20 bf3f 8906 c33f
00000070: 423c b63f 25fb e33f dba5 ab3f b3c6 bc3f
2.171823 1.1307929 1.4823272 1.6562032 1.2179683 1.6787428 1.9349173 1.8097603
1.6244746 1.1666732 2.1113877 1.3429879 2.1643386 1.7845236 2.0486379 1.452246
1.8004576 1.5979342 1.9009837 2.0694935 1.3764966 2.1424575 2.0426037 1.7614334
1.559833 1.2281735 1.493171 1.5236369 1.4237139 1.7811018 1.340999 1.4748138

bn3.bias f4 [32]
00000000: 1f7a a0bf 4618 93be 53cd 09bf f744 eebe
00000010: 3cc4 18bf e6a9 973f 5088 b83e ba02 9a3f
00000020: d00c fa3e e1f2 bb3f 0925 7a3f ee7b 3f3f
00000030: 0b8c 7b3f 0388 8abf b7d5 1d3f 39c2 7c3f
00000040: e2ea e83e 41e2 b93c 6e8e 433f ea39 8a3f
00000050: 09ce 09c0 5b23 253f a113 43bd f07e 0c3e
00000060: 1b7a 2c3d bafd 423e 3837 8ebe c87f 32bf
00000070: ec1f 183e 8064 dfbf e013 373f e75f 1ebe
-1.2537268 -0.28729457 -0.53828925 -0.4653699 -0.5967443 1.1848724 0.36041498 1.2032082
0.488379 1.4683496 0.9771276 0.74798477 0.98260564 -1.0822757 0.6165423 0.9873386
0.454917 0.022690894 0.76389205 1.0798924 -2.1532004 0.64507073 -0.04762614 0.13720298
0.042108636 0.19042102 -0.27776504 -0.6972623 0.14855927 -1.7452545 0.715147 -0.15466271

bn3.running_mean f4 [32]
00000000: 2d9a a23f 3311 813f f791 de3f dfe5 d940
00000010: 4571 6840 aca7 8c40 53aa 0440 2b50 a040
00000020: b024 7940 1563 9740 ed30 6940 57ac 0341
00000030: 82a1 3140 1f11 9140 8cc7 2d40 e7f1 e33e
00000040: 92bf 4e40 e813 8440 4b33 5241 d260 f13f
00000050: ccb1 dc3f f427 a640 ddbe 2b3f cea8 dd40
00000060: b109 8740 93d0 f33f 966d ef3f a2e4 3441
00000070: e993 f43f 27c4 ba40 804f a040 38d2 2e40
1.2703301 1.0083374 1.7388295 6.8093104 3.6319134 4.3954678 2.0728958 5.009786
3.8928642 4.730845 3.6436112 8.229575 2.7754827 4.53334 2.7153044 0.44520494
3.2304425 4.12743 13.137523 1.8857672 1.7241759 5.192377 0.6708811 6.926856
4.219933 1.9048027 1.8705318 11.305819 1.9107639 5.8364444 5.0097046 2.7315807

bn3.running_var f4 [32]
00000000: 1309 bd42 8d5c 1642 4de1 9842 b9a4 1743
00000010: 865b c542 c9ec 2c43 1c14 ce42 dc7a 7242
00000020: 6e24 6043 d817 a542 41ab 3e43 0083 7442
00000030: aa53 4f43 1ec4 6943 6575 6343 e425 bb41
00000040: 5de0 d742 a1f1 aa43 f780 0643 e186 b742
00000050: 02ac 4642 e619 3043 7260 0642 916c 5643
00000060: a5ca 1b43 5c78 4742 86f4 6642 1a59 f742
00000070: 79f8 c542 4c0c 1443 5009 ae42 fce2 b642
94.51772 37.59038 76.44004 151.64345 98.67876 172.92494 103.039276 60.61998
224.1423 82.54657 190.66896 61.12793 207.32681 233.76608 227.45857 23.393501
107.93821 341.88773 134.50377 91.763435 49.667976 176.10117 33.594185 214.42409
155.79158 49.86754 57.738792 123.67403 98.9853 148.04803 87.01819 91.44333

conv4.weight f4 [64, 32, 3, 3]
00000000: 52b4 c03f 82ed b23d fb6d 4dbf ba19 af3f
00000010: 6379 5dbd 36ba d4bf e455 cb3e 53b2 65c0
00000020: b62b a7bf cf07 c5be 7eac 253f b6ef 98bf
00000030: 9e48 8b3e 9148 9a3e 0930 a2bd bb3d 203f
00000040: 5c54 b1be 7757 443f f3e0 88bd bd31 2e40
00000050: 3100 1e3f f4af 46bf 0be9 d33e dc28 2dbf
00000060: c5ce 13bf 63f2 02be c69a 70bd 34cf 0ec0
00000070: b5b0 dcbf 8132 b93f 3b12 863f 1eaa 74be
00000080: 99f7 c4bf 96db 483f 7fed 063f b1ce 27c0
00000090: 035e e7bd 4413 0dbf 1829 3dbf df2e 28be
000000a0: d36c 74bf f993 1fc0 39a2 913e 753e 973f
000000b0: bec5 f7bf 1b11 56be c623 ecbe 57f7 9e3f
000000c0: 2422 91bd d95f 00bf b3b9 b13f 42f9 743f
000000d0: 861a 9abf 130d d03c c18f f3bf ae62 1a3f
000000e0: faad 98be dde8 1e3f 86ae bd3f 2d99 e23e
000000f0: 3904 ee3d 41f9 68bf 46de 583f 57d7 53bf
00000100: 0fd4 23c0 534e 4ebf f2d5 05c0 6bc7 a63f
00000110: 42ba bd3f 5c8d e3bd 481c 66be 2bee 90bf
00000120: 36f0 43bf 237a 383f f1ea e03d b5a2 36be
00000130: 4c32 bc3e 29fc 283f b0e6 cbbd e28b d9be
00000140: be4f 0940 0e09 5cbf eb3a 86bf a272 b9be
00000150: 8fbf 613f 3322 dd3f f8ea d23e f5ca c3bf
00000160: 0e28 4bbf 2cbe ea3f a725 82bf 8d05 4dc0
00000170: 6bce 00c0 62c2 1440 e274 33be 515a 2cbf
00000180: 7e8a 4c3f 1ab4 2dc0 7b1e 49be b3f5 b4bf
00000190: 6c3d 92be 606f 4a3f ce7e a83f d633 2fbe
000001a0: b6ea 3abf 7e7c 7dbe fc05 993f 302b 633e
000001b0: 1025 3c3f e0d1 26be aa56 72bf 9419 09bf
000001c0: a116 aebe 78af 50bf ba99 c73e 019e 7fbf
000001d0: 0348 8fbf 8557 c2bd ce47 913f abe3 963f
000001e0: 36ba 2d3f f548 cebc bacd b33e aea0 2abf
000001f0: 701a 6ebe a219 b1bf e82b 3cbf 6f93 3ebf
00000200: cb00 e13d ac4c 323f deb7 963f b1c5 43c0
00000210: d2ce f53d e372 b4bf 5a4b 30c0 8b8d ddbe
00000220: c46c 1dbf 7958 d5bf 000b 98be b4c9 27c0
00000230: 0f66 61be 414d f73d 2051 b5bf 4cdd fabe
00000240: 3687 4bbe 6885 843f 1a09 30be 5967 7abf
00000250: f985 053f 12c9 52be 10c5 ef3e d253 d23f
00000260: cae4 95bf 3398 cc3e 1491 cd3f 15d3 06bf
00000270: 6b01 70bf 46a8 ad3f 7c40 b5c0 e112 eebf
00000280: 0bb9 d1bf fab4 ebbf bfff bd3f a0a7 f33f
00000290: 3f58 293f a1ae f2bf 387d 1ebf 3204 06be
000002a0: 190e f8bf 5aa8 76bf eb63 d63e 3a8f fe3d
000002b0: ac83 023f ace0 a63f afb8 cebe 88a0 efbd
000002c0: b566 b5bf 5aa1 513f 8ccc 803e 6a25 44c0
000002d0: 0362 d43e fb9f 96be 46ca 463f 21c1 da3e
000002e0: 5320 953f 3669 1940 e50e b43f ee04 d33f
000002f0: 9c98 a83f e84a 91be 60f5 ed3e 2452 4bbe
00000300: e0f9 01be d9dc 4dbe a991 1f40 4ae0 963e
00000310: ad03 b5bf e42f 983f 2e45 0ac0 dcd5 b73e
00000320: 1197 c13e c265 d83f 9d61 c73f f7f8 22c0
00000330: 41ff 593e fd92 b9be 9a9f f5bf f2bb 90bf
00000340: da78 f13d 861c b53f cb84 7bbf ede4 96bd
00000350: 2c1c cc3f da69 d33e 0763 043f 152d 2fbf
00000360: 0304 9f3f 2d7a 43bf a979 48bf cea8 473f
00000370: e547 f53c a0f2 cf3e da7f 863f 71c1 9abc
00000380: f2af c3bf b9e4 8a3f 70eb f3bf 7263 91c0
00000390: a337 92bf 713b 04c0 f75b 8c3f 530a 04be
000003a0: c180 103e 2421 a4bf 71e6 9abf 82dd 653f
000003b0: 52de 153f 705d 253f 20a1 563f e450 56bf
000003c0: 597b debf 50b0 7b3f f7bb e03e 19db a7bf
000003d0: cfd4 153f 300e 54bf 44ae 373f cbf9 be3f
000003e0: f786 ce3e 7870 88c0 65f4 3fbe b39c af3f
000003f0: feb8 0abf aafc 3dbf f37c dfbe ee32 cebe
1.5055029 0.08736707 -0.8024594 1.3679726 -0.05407084 -1.6619327 0.39713967 -3.589009
-1.3060215 -0.3848252 0.6471633 -1.1948154 0.2720384 0.3013349 -0.07919318 0.62594193
-0.34634674 0.7669596 -0.06683531 2.7217858 0.6171904 -0.77612233 0.41388735 -0.6764047
-0.5773738 -0.12787776 -0.058741353 -2.2313967 -1.7241427 1.4468538 1.0474313 -0.2389302
-1.5388061 0.7846006 0.5270614 -2.6219904 -0.11297228 -0.5510752 -0.7389083 -0.1642413
-0.9547855 -2.4934065 0.2844408 1.1815935 -1.9357221 -0.20904963 -0.46121043 1.2419232
-0.0708659 -0.5014625 1.3884796 0.9569284 -1.2039344 0.02539686 -1.9028245 0.60306823
-0.29820234 0.6207407 1.4818885 0.4425749 0.11621899 -0.9100533 0.8471416 -0.8275046
-2.559818 -0.80588263 -2.0911832 1.3029608 1.4822466 -0.111109465 -0.22471726 -1.1322683
-0.7653841 0.72061366 0.109823115 -0.17835505 0.36757123 0.66009766 -0.099561095 -0.42489535
2.145492 -0.85951316 -1.048673 -0.3622027 0.8818292 1.7276062 0.41194892 -1.5296313
-0.79357994 1.8339286 -1.016774 -3.2034638 -2.0125988 2.3243642 -0.17525056 -0.6732531
0.7989882 -2.7141175 -0.19640534 -1.4137481 -0.28562486 0.79076195 1.3163698 -0.17109618
-0.7301439 -0.24754521 1.1954951 0.22184443 0.7349405 -0.16290998 -0.9466349 -0.53554654
-0.3400164 -0.81517744 0.38984472 -0.9985047 -1.1193851 -0.09489349 1.1350038 1.1788229
0.6786226 -0.025181273 0.35117894 -0.6665143 -0.23252273 -1.3835948 -0.73504496 -0.74443716
0.10986479 0.6964824 1.1774862 -3.0589411 0.120023385 -1.4097561 -2.754599 -0.4327205
-0.6149409 -1.6667625 -0.29695892 -2.621686 -0.22011589 0.12075282 -1.4165382 -0.4899696
-0.19875798 1.0353212 -0.17190972 -0.97813946 0.5215755 -0.20584515 0.46830034 1.643183
-1.1710446 0.3995987 1.6059899 -0.52665836 -0.93752164 1.3566978 -5.6641216 -1.8599511
-1.6384596 -1.8414605 1.4843673 1.903553 0.6615028 -1.8959543 -0.6190982 -0.13087538
-1.9379302 -0.96350634 0.41873106 0.12429662 0.50982165 1.3037314 -0.40375277 -0.11700541
-1.4171969 0.8188683 0.25156057 -3.0647836 0.41481027 -0.2941893 0.77652395 0.4272547
1.165049 2.3970466 1.4067045 1.648588 1.3171573 -0.2837746 0.4647627 -0.19855553
-0.12692976 -0.20103778 2.4932654 0.29467994 -1.4141747 1.1889615 -2.1604724 0.3590535
0.37810567 1.6906054 1.5576664 -2.5464456 0.21288778 -0.36244956 -1.9189332 -1.1307356
0.11790629 1.414933 -0.982495 -0.07367883 1.5946097 0.41291696 0.51713604 -0.68428165
1.2423099 -0.763583 -0.7831064 0.7799195 0.029941509 0.40614796 1.0507767 -0.018891068
-1.5288069 1.0851051 -1.9056225 -4.5433893 -1.1423229 -2.066128 1.0965565 -0.12894563
0.14111616 -1.2822614 -1.2101575 0.8979112 0.5854236 0.645957 0.8383961 -0.8371718
-1.7381393 0.98315907 0.43893406 -1.3113738 0.58527845 -0.8283415 0.71750283 1.4919981
0.40337345 -4.263729 -0.18745573 1.3719696 -0.54188526 -0.7421366 -0.43650016 -0.4027323

conv4.bias f4 [64]
00000000: 571c 98be 76c8 43c0 f2fc 4d3c c988 6cbe
00000010: ceb2 88bf 9280 07c0 a70f c9be fbab e7be
00000020: 3c38 fbbe d56b 71bf 06b4 c9bf fc2e b1bf
00000030: b5cc 583d 7ff3 84be cfec b6bf e56b 92bf
00000040: a77e 8bbf 5de4 a9bf 6338 5d3e 8337 90bf
00000050: 184a fc3e 323d 3b3e ce67 24c0 c866 9bbf
00000060: 7c82 24bf fe3d edbd 696b 08bf 7c98 a8bf
00000070: 0bad b2bf 6f5f 39bf 85ed 4abf be79 c6be
00000080: dc1c 8a3d 1ffd c7be f36d 95bf c22f 4ebf
00000090: cbba efbe daea b43d 5b5f cdbe 89cd 05bf
000000a0: 9b90 12bf 5d7f 07c0 1705 60bf 0ca7 8c3f
000000b0: 0fd8 66bf 8393 9bbf 48a4 9ebf dcba 9a3e
000000c0: 3091 e5be acec b03e 3c54 c8bf 5438 41bf
000000d0: 4fe8 1abf 158c ebbf de35 d1bf 9030 15bf
000000e0: 9877 eb3e ceb2 23bf 3ba8 b8bf 3125 a5bf
000000f0: 692a 89bf 5d14 17c0 b8dd 0dc0 c697 8fbf
-0.29709122 -3.0591102 0.012572514 -0.23099054 -1.0679567 -2.1172223 -0.39269754 -0.45248398
-0.4906634 -0.94305164 -1.5758064 -1.3842463 0.0529296 -0.25967023 -1.4291018 -1.1439177
-1.0898026 -1.3272816 0.21603541 -1.1266941 0.4927528 0.18285063 -2.5688357 -1.2140741
-0.64261603 -0.1158409 -0.53288895 -1.3171535 -1.3959059 -0.72411245 -0.79268676 -0.38764757
0.06743786 -0.39060304 -1.1674179 -0.8054162 -0.468222 0.08833857 -0.40111813 -0.52266747
-0.572519 -2.1171486 -0.87507766 1.0988479 -0.9017343 -1.2154392 -1.2393885 0.30220687
-0.44837332 0.34555566 -1.5650706 -0.75476575 -0.60510725 -1.8402125 -1.6344564 -0.58277225
0.4598968 -0.6394471 -1.442634 -1.2901975 -1.0716068 -2.3606179 -2.2166576 -1.1218193

bn4.weight f4 [64]
00000000: 487d 8640 696e 8d40 b770 bd3f 5075 9240
00000010: e130 8740 c470 5540 50ab 9b40 27ac 5340
00000020: b07d 5740 d0a9 7d40 764b 8340 ba66 6140
00000030: 4891 ad3f 9e1b 8340 c332 8140 40ae 4240
00000040: 3870 5240 a898 9740 2cc8 9540 f016 3340
00000050: 4fd5 8e40 99e7 bd3f f3e6 9840 6f65 7540
00000060: f4c5 a440 c805 4b40 68ae 9b40 e3fe 8d40
00000070: e946 8340 c5a6 523f 6d66 343e 394c a93f
00000080: 16fd 8a40 861d 0340 804a 6540 ad50 7640
00000090: 1d20 bf40 5f67 6d40 2542 6c40 f1d7 9740
000000a0: 2acc 8740 80c6 6140 deb1 753f 84da a740
000000b0: 3f60 a140 26c8 8d40 fa2d 8040 1abd b840
000000c0: c4d9 8440 4e1c 9b40 c19d 4a40 afbd 7040
000000d0: e447 383f 8730 8440 a8a5 8240 d682 2240
000000e0: 8aa4 a140 7b6b 8040 e14f 4d40 ef09 8d40
000000f0: 00cb 8640 3f92 8b40 cfda 8140 264d 8340
4.202793 4.419728 1.4800023 4.5768204 4.2247167 3.3350077 4.864662 3.3073823
3.3670464 3.9634895 4.1029615 3.521895 1.3559961 4.0971212 4.0374465 3.0418854
3.2880993 4.737385 4.680685 2.798275 4.4635386 1.4836303 4.778192 3.834316
5.149164 3.1722279 4.86504 4.437364 4.102406 0.8228572 0.17617197 1.3226386
4.3433943 2.048677 3.582672 3.848674 5.97267 3.7094343 3.6915371 4.74511
4.2436724 3.5277405 0.9597453 5.2454243 5.042999 4.430682 4.0056124 5.7730837
4.1515827 4.847205 3.1658785 3.7615774 0.71984696 4.1309237 4.0827217 2.5392356
5.0513353 4.01312 3.2080004 4.4074626 4.2122803 4.3616023 4.05796 4.1031675

bn4.bias f4 [64]
00000000: 1c7f c13e 6908 743e 4cab 073d aaef 223e
00000010: 8b0a 4b3b ea7f a63e 094e d33e 18eb 5dbd
00000020: 953f 863e 0dc2 203c 1ba3 2e3d 731b 943e
00000030: c467 df3d 34ca 873e 1136 333e b569 143e
00000040: 8f3b 103d 25ee 0bbd 3c4e e23c b80c 283e
00000050: 717a 803c f0fd 2fbc 1d2d b73e c0ce ef3d
00000060: a878 093e 7feb 3d3d 200b 3d3e 54c2 3d3e
00000070: 9e98 a73e ccc1 4b3d 3370 e2ba 1870 033e
00000080: f326 363e 2072 e53d ed5c de3d 9419 b43c
00000090: db2d 903e fc6a a03d 2f04 bd3d 74ec e83d
000000a0: b1ce 573e 7031 93b8 9a7f 7c3e 8161 463e
000000b0: 8d60 733e f4b8 193e 9821 a43e 06b9 853e
000000c0: 0850 f83d 7716 91bd 212b 943d fa30 283e
000000d0: 96a8 d13c 0928 493e d449 9d3e aeb9 913c
000000e0: 7a3d a93e e94b 15bc f53a 523e 4674 2a3e
000000f0: 2c61 df3d f587 c63e 7469 c33d ebfc fc3c
0.3779229 0.23831333 0.033122346 0.15911737 0.0030981626 0.32519466 0.41270474 -0.05417928
0.26220384 0.00981189 0.04263602 0.28927192 0.109084636 0.26521456 0.17501093 0.14493449
0.03521305 -0.03416266 0.027625196 0.16411102 0.015683385 -0.010741696 0.35776606 0.11709356
0.13424933 0.046367165 0.18461275 0.18531162 0.32733625 0.049745366 -0.001727587 0.12835729
0.17788295 0.11203408 0.10857568 0.021984853 0.28159985 0.07832906 0.092293136 0.11373225
0.2107494 -7.018715e-05 0.24658051 0.19373132 0.237673 0.1501196 0.3205688 0.26117724
0.1212464 -0.07084363 0.07234789 0.16424933 0.025593083 0.19644178 0.3072039 0.017788734
0.33054715 -0.009112337 0.20530303 0.16645917 0.10907206 0.38775602 0.09541598 0.03088232

bn4.running_mean f4 [64]
00000000: 8b18 d73f 2e76 303f 4bbd 6f42 54e4 3c3f
00000010: 330b 003f f761 b63f 75a5 2e40 ce92 683f
00000020: 39ce 443f cc62 d73e f16b 453f 7a3d 4e3f
00000030: 8255 dd41 aaf4 863f 6562 3a3f b4a1 a43f
00000040: 953b c43e ef03 d73e 0a75 6b3f 4182 243f
00000050: ba2e 323f bc5f 9842 e722 df3f 9b5c 8e3f
00000060: ca42 d03e 8ced 203f 9ea9 723f a8c1 af3e
00000070: 683d 4f3f dd6c 1240 a24e b23e 8af6 8840
00000080: 1d70 3e3f 9ea1 6e40 27aa b63e bfcc 2a3f
00000090: e9ba 603f 78fe 903f 7542 5c3e 7ce2 ec3e
000000a0: 0064 363f be3c 7f3f 8971 d240 5b4f 513f
000000b0: cd3a 113f 8922 2d3f 49fb a63e 5bf1 a63f
000000c0: ddf1 5c3f 4643 933e 2dba a23e 01f1 df3f
000000d0: 5cca 3b41 06e3 d93e fa40 4d3f 0ae6 3a40
000000e0: 39b6 763f ea9a 2d3f 2138 1c40 0b27 523e
000000f0: 1893 123f d56d da3f a4ec 5a3f baba 783f
1.6804365 0.6893033 59.934856 0.737859 0.5001709 1.4248646 2.7288487 0.90849006
0.7687717 0.42067564 0.7711783 0.80562556 27.666752 1.0543416 0.7280639 1.2861848
0.38326707 0.4199519 0.9197546 0.6426125 0.6960255 76.18698 1.7432526 1.1122011
0.40675956 0.6286247 0.94790065 0.34327435 0.80953074 2.2878945 0.34825617 4.280095
0.7438982 3.7286143 0.3567669 0.6671867 0.877852 1.1327658 0.21509726 0.46266544
0.7124634 0.9970206 6.5763593 0.8176171 0.5673035 0.6763082 0.3261359 1.3042406
0.86306554 0.28762263 0.31782666 1.7495424 11.736904 0.42556018 0.8017727 2.9202905
0.963718 0.67814505 2.4409258 0.20522706 0.572557 1.7064768 0.85517335 0.9715992

bn4.running_var f4 [64]
00000000: 1c7f e942 753a 2f42 c0ee 1545 52ca 0542
00000010: 99c3 ce41 1ca6 bb42 3d36 5f43 66d9 7842
00000020: 5f1a 1442 6ca5 8c41 05e7 4342 4ba4 2842
00000030: 4345 6444 350f 8642 b601 3142 1cda de42
00000040: 2e79 9541 0e0d 8b41 acc1 6042 6354 0342
00000050: 0e20 0f42 21aa 0045 419c e942 ba8d ab42
00000060: 388b 8e41 8670 d841 f640 8242 d1b7 6041
00000070: d7a2 2742 9aa6 4442 6306 d341 7a6d 8943
00000080: 7f54 3142 c927 2543 0ced b241 6b87 0442
00000090: 957b 7542 7b11 7242 dddc ed40 82b2 ad41
000000a0: 74ce 1442 355e 9a42 a2a4 5a43 1e24 1b42
000000b0: b77e e241 a4eb fa41 b881 5441 1139 9642
000000c0: 4836 2342 bfcf 5241 39dc 7941 e5b9 2543
000000d0: 3409 dc43 d685 a541 e124 1e42 dbfc 7143
000000e0: 69ee 6842 3b4c 0642 f4f2 2643 dcdd 3441
000000f0: c910 1642 0090 ee42 e9c2 2a42 a83f 5642
116.74826 43.807087 2398.9219 33.44758 25.845507 93.82443 223.21187 62.212303
37.025753 17.580772 48.975605 42.160442 913.0822 67.0297 44.25167 111.425995
18.68417 17.381374 56.189133 32.83241 35.781303 2058.633 116.80518 85.77681
17.817978 27.054943 65.12688 14.044877 41.909023 49.162697 26.378119 274.8553
44.332516 165.15541 22.365746 33.132244 61.370686 60.51707 7.433211 21.712162
37.201614 77.184 218.6431 38.78527 28.311872 31.365059 13.28167 75.11146
40.80301 13.175719 15.616265 165.72615 440.0719 20.69035 39.536015 241.98772
58.232822 33.574444 166.94904 11.304165 37.51639 119.28125 42.690342 53.562164

lin.weight f4 [10, 64]
00000000: 157c f53e 6ea7 82bf 4aa2 913e f7b1 043f
00000010: 6439 bebf fa54 573f 2c9c 14bf 5139 7b3d
00000020: b5ff 75bf 262c b7be 99a0 cebf 304a 543e
00000030: a794 7e3f 3442 53c0 1549 05c0 81b2 5e3f
00000040: 1a40 f73e e1e5 e2bd b93b 1540 534a 24bf
00000050: 539e 123e 8c99 e53f 1991 28c0 fc5c 81bf
00000060: d1f8 16bf 29b1 993e ed60 773f 7d6c 99bd
00000070: d6aa 8bbf 59de 253f 2050 52bd 2f2e 2e3f
00000080: 4c55 b5bd a0e7 873f c7b0 813e 968b ddbe
00000090: e56e 1640 8bd0 4cbe f4a4 87bc 6270 4abf
000000a0: 362c ad3d 2bc2 e43f 596d 8bbe 2d9f a03f
000000b0: 6edf 0dc0 3e35 0ac0 6537 4dbf fc02 763f
000000c0: a5ff 16c0 9734 45bf 0e36 383f 9fee d23f
000000d0: 3cd1 86bf 942b 483e c954 a7bf 6452 403f
000000e0: b720 e33f e6b5 cb3f c3d2 09bf e866 07c0
000000f0: 87a5 aebd b7d0 213f 68cd 0fbc 934d 98bf
00000100: 60b9 21bf c63a 9e3f 5dd9 c73d 1150 d83f
00000110: 5b76 6b3f 98f1 5abf dc9c 963f 1963 b4be
00000120: 2e81 f63e a4da 47bf 7c92 93be 06f8 0cbf
00000130: 6651 bf3e fe8b 883f 83e3 1fbf 87cf b9be
00000140: 2e8d 1cbf 1b17 35bf 60c6 603c aaa3 85bf
00000150: d4bc b2bf 1d2a f1bd ea6f 983f 34e3 dd3c
00000160: 2d40 00c0 ea2a c63e cde2 58bf e46f 94be
00000170: 2ac9 be3f 0564 77be 5935 72bd f7c2 3f3c
00000180: e7b4 0240 2df8 4a3f c0b4 cf3f 67b6 073e
00000190: 6abc 023e 3b68 003f f1f2 5cbf bc6f aabe
000001a0: 193f b5bf 3f9d b9bf c7db 87bd 2c44 d8bf
000001b0: b483 1e3f 8267 aebf 855f 9c3f 2442 3b3f
000001c0: da39 51be 8143 d6bf eae9 a03f f8dc da3d
000001d0: 0664 9e3d 6f5a eb3b 93d2 893f 838b ce3e
000001e0: 6444 88bf 10f8 aebe 4a4e 2cc0 2ee1 6b3f
000001f0: c12f 0dc0 3bc5 bcbc 5a8b fbbf 0a42 143f
00000200: 969d 8dbe 4a3e da3f 5976 d7be 6f99 76bf
00000210: 7427 403f 32a1 d53d a602 1a3f 5145 013e
00000220: 6fc3 b33f a47c 1cbe 1377 11bc 93b8 e43e
00000230: e246 77be a4c5 5e3d 259d d33f 9dda 893f
00000240: 0e87 4bbf ef84 fdbf 77fe 20bf 78fa 043f
00000250: 6780 c33f 86d0 43be b710 50bf cfc1 c2be
00000260: b87f 65bf a5ac 0c3e 8441 7a3f 821f b43d
00000270: 9c4e 4f3f d926 323d 483e c13d 3170 a0bf
00000280: a7e3 a9be 35d4 1ebf a410 8dbf 77cd 813f
00000290: e50a 6abf d8fe d5bf e105 8bbf ddae b43f
000002a0: 9ddf dc3e bb53 d2be 0536 473e 939a afbf
000002b0: 2abb cfbf f9c8 993f 7216 6a3f 5616 20c0
000002c0: c6e5 89bf 7e79 2a3e d319 adbf 3a56 8e3f
000002d0: b0b7 573f b118 55bf 306d 1f3e 36a4 c7be
000002e0: 9bf7 c33f 442c c7bf 6754 1e3f 9060 1cbf
000002f0: 671d 943f 1c1a b3bf eb7e 513f cb82 84bd
00000300: 504f 3cbf 3e77 48bd 47f8 883e d391 963d
00000310: b609 d73d 4622 89bf aaa7 ed3e 7e91 c03f
00000320: 6f5b 913d d899 86bd ed21 8abf b54e 16be
00000330: 6a4c 16be 9335 ddbe 5014 ee3e f4ad e7bd
00000340: 9042 563f 1074 d23f 8d50 c5be a526 b83f
00000350: e479 04c0 66a6 65be 1cc9 ca3f 586d 3bc0
00000360: acf6 fcbf a89c 95bf 4708 b4bf e603 0dbf
00000370: de23 aabf f325 803e 759b 97bd 26be e53e
00000380: cde1 4f3e 5275 68be 7936 0fbf 5921 5f3e
00000390: 2935 b8bf 959f d53f 4788 95be 05a4 9c3f
000003a0: dd38 22c0 21de efbf 4469 9f3e a24d 053c
000003b0: 4811 413f 7067 7b3f e974 adbd 160b b23f
000003c0: 4dcf 18bf b16b 3e3f fd25 3fbe e5f4 923e
000003d0: 2cdf 633e b5e1 0440 5afa 7dbf 2ff1 90bf
000003e0: cd0f fc3d c9ee 803f fb3c c3bf c8b5 cf3e
000003f0: 4d84 f1bf edf3 833f 7a30 e2bf b732 fb3f
0.4794623 -1.0207345 0.2844413 0.5183405 -1.4861264 0.8411404 -0.580508 0.061333958
-0.960933 -0.3577587 -1.614276 0.20731425 0.99445575 -3.3009157 -2.0825856 0.86991125
0.48291093 -0.11079002 2.3317702 -0.6417591 0.14318208 1.7937484 -2.633856 -1.0106502
-0.58973414 0.30017975 0.9663227 -0.074913956 -1.091151 0.647924 -0.051345944 0.6803922
-0.0885416 1.0617561 0.25330183 -0.43270558 2.3505185 -0.20001428 -0.016558148 -0.7907773
0.08455698 1.7871755 -0.27231863 1.2548577 -2.216762 -2.1594996 -0.8016265 0.96098304
-2.3593533 -0.7703337 0.7195748 1.6479071 -1.0532603 0.19547874 -1.3072749 0.7512572
1.7744359 1.5914886 -0.5383722 -2.115656 -0.085276656 0.632091 -0.008777 -1.1898674
-0.63173485 1.2361686 0.09758256 1.6899434 0.9197747 -0.8552489 1.176662 -0.35231856
0.4814543 -0.78067994 -0.28822696 -0.55065954 0.3736679 1.0667722 -0.6245653 -0.36291143
-0.61152923 -0.7073838 0.013719171 -1.0440571 -1.3963876 -0.117756106 1.1909153 0.027085878
-2.003917 0.38704616 -0.8472107 -0.28991616 1.490514 -0.24159248 -0.059132908 0.011704198
2.0422914 0.79284936 1.6227036 0.13253175 0.12767187 0.50159043 -0.863082 -0.33288372
-1.4159881 -1.4501113 -0.06633716 -1.6895804 0.61919713 -1.3625338 1.221665 0.731478
-0.20432225 -1.673935 1.2571385 0.10686678 0.07733922 0.0071824114 1.0767387 0.40340814
-1.0645871 -0.34173632 -2.6922784 0.9214047 -2.2060397 -0.023043266 -1.9651902 0.5791327
-0.2765929 1.7050259 -0.4208248 -0.9632787 0.750602 0.10431136 0.6016029 0.12624098
1.4044017 -0.15281922 -0.008878487 0.4467207 -0.24148133 0.054387704 1.6532332 1.076984
-0.7950295 -1.9806193 -0.6288828 0.51944685 1.527356 -0.19122514 -0.81275505 -0.3803849
-0.8964801 0.13737734 0.9775622 0.08795072 0.80979323 0.04349408 0.09435707 -1.2534238
-0.33181497 -0.6204255 -1.1020703 1.0140828 -0.91422874 -1.6718397 -1.0861169 1.4115864
0.43139353 -0.41079506 0.194542 -1.3719047 -1.6228993 1.2014457 0.914405 -2.5013633
-1.0773246 0.16647908 -1.3523506 1.1120064 0.8426466 -0.832408 0.15568995 -0.3899247
1.5309938 -1.5560384 0.6184754 -0.6108484 1.1571473 -1.3992343 0.81834286 -0.06470259
-0.7355852 -0.048941843 0.2675192 0.073520325 0.10499899 -1.0713584 0.4641698 1.5044401
0.07097518 -0.06572312 -1.0791603 -0.14678462 -0.14677587 -0.43204936 0.46499872 -0.11312476
0.83695316 1.644167 -0.38538018 1.4386793 -2.0699396 -0.22426757 1.5842624 -2.9285488
-1.9762778 -1.1688433 -1.4065026 -0.55084074 -1.3292196 0.25028953 -0.07402698 0.44871634
0.2030098 -0.22701004 -0.55942494 0.21790065 -1.4391223 1.6689326 -0.29205534 1.2237555
-2.5347207 -1.8739663 0.31135 0.008136185 0.75416994 0.9820471 -0.084695645 1.3909633
-0.59691316 0.74383074 -0.18666835 0.28702465 0.22253102 2.076276 -0.9921013 -1.1323603
0.12307701 1.0072871 -1.5252985 0.40568376 -1.88685 1.0308815 -1.7671044 1.9624852

lin.bias f4 [10]
00000000: 3f10 e8bd c6a4 043f 9a45 e83e 7b87 e93d
00000010: 2fab 97be 5e10 12bf 7a1a 5cbe 1c6e 213f
00000020: a77f b1bf 380e 6cc0
-0.11331224 0.51813924 0.45365602 0.11402794 -0.2962279 -0.57056224 -0.21494475 0.6305864
-1.3867081 -3.6883678

conv.0.weight f4 [8, 2, 5, 5]
00000000: 9561 3cbf f230 6e3f d2e4 9340 2c64 c43f
00000010: d91b 5b3f b615 d2bf 0821 c7be 2c16 cd3f
00000020: fa09 083f 96ce 40bf a159 1ebf 9b32 82bf
00000030: 8129 113e b98a e0be 6426 2abd 449b 98bf
00000040: 45fb 93bf 6def ab3e c94a 4bbf debb 773e
00000050: f712 09bf e8ba f9be ad08 833e a0a5 8ebf
00000060: 1490 aebe f168 53be c397 913f bbc6 8340
00000070: 36a4 fc3f be0f 403f 3a53 26bf ad88 03be
00000080: b342 ac3f 468e dabe be72 37bf e18e babe
00000090: 75e2 86bf 8b25 f83e 39f6 2bbf 6134 7f3e
000000a0: 54ef 8dbb 8a0d 23bf d217 11be 99c4 0dbf
000000b0: a1e9 a03d 81a0 bb3e 4898 833e 05d5 c53c
000000c0: 8cef 99be 25a8 e73e a5df 29be 39e7 fcbf
000000d0: 1134 3dbf 0d93 85bf c531 1cbf bfb6 ef3e
000000e0: c3ad a8bf 5922 afbe 6f29 833c ab32 0f3f
000000f0: 8c7b 323f fb6b 6abf 58d5 a0be d552 ff3e
00000100: c75a b33c 9a0e 773f d06c 8fbf 4172 70bf
00000110: 490b 17bd 5cee 223c bf2f 2440 4e2f 9f3f
00000120: ab23 6b3f b810 5a3f c1e7 de3e 02fe 8cbe
00000130: ac34 b2bf 32b5 a6bf e830 89bf 19a8 28bf
00000140: baad 813f 17e1 43bf 6f06 3fbf 7421 233e
00000150: 0a9a 2c3d 17df 8d3f db0b 3fbf 5cfb 20bf
00000160: 0dbc 6dbe 8ca6 78be 2329 b63f 1b1b c0be
00000170: b6af bfbe 3c75 a8be 0375 ee3d 9774 5840
00000180: 3f60 f53f 95a4 833f 204a 6f3f 2756 ff3e
00000190: c468 d040 56a3 c13e 2d76 6c40 6f2c 763f
000001a0: fe73 b4be ad75 fd3f 3ff6 78bf 133d 8a3f
000001b0: f7a2 86bd 1e50 15bf ffa1 803f 7dd3 a7bf
000001c0: a9ff 553f 44d6 fcbd bcbb cabe 16ca 02be
000001d0: 16cf d1bf 5b50 c33f 6aac e33e 0923 ff3e
000001e0: cd48 c13f 7d13 a63e 4088 413f 849b be3e
000001f0: 3211 723e 4097 2a40 70e1 bdbe 3cfc a83f
00000200: 6d85 8b3e b4fe 11bf 369b 2f3e 2ef6 a5bf
00000210: 1a86 b13e c784 033d 2fda 3abe 2ed2 5bbd
00000220: 3c07 b0bf 09e9 dabd b75e 67be 23bb 293e
00000230: 4faf d7bf 8064 c0bf f4d3 1d3f 18bc c23e
00000240: fb24 693e 97db 593e a33c 94bc dce3 373e
00000250: 5104 043e 92b2 293e 615b 82bf 34fc c0bf
00000260: 48f3 a0bf 0e51 003f 8aac 2ebf c024 fcbe
00000270: 30cf 9bbe 2b4b 9fbd 2dc8 873d 3622 083f
00000280: 46c9 7ebf 34b7 9b3f 2a04 f9be ee81 33bf
00000290: 940e bfbe c924 ab3f ec0e 4940 713a 653f
000002a0: 6b9f 853f 80d9 7ebd c3ad afbe c9b4 4b3f
000002b0: eeb8 8dbe 63c9 68bf 428e 0dbf 3dce a4bf
000002c0: 5ee1 bcbf 2039 aebf 290c e6bb b950 adbe
000002d0: beb2 f8be 6a0e 6cbd 7326 31be 0e78 e63c
000002e0: 71f1 603e 2440 75bf dee3 c73f ff65 3ebe
000002f0: d4f0 2dbf 59d2 a3bc e524 8a3f 2653 7d40
00000300: d4eb 9a3f 1d81 fb3e 04e9 b23e 00f6 d43b
00000310: 804e 8b3f 47bd 843e 8a61 3ebf 9190 febd
00000320: d985 9040 6e0e e33f b9c1 86be 0ef5 a6be
00000330: 19b8 d6bd c278 3d40 4f22 be3f 6ace 15bf
00000340: 84c4 b8be e407 bdbe 5958 2840 a172 633f
00000350: 233d 31be 058b 0e3f 0e4d 133e 02f7 7e3f
00000360: 31fe 56be bb88 17bf f208 363f 2b22 163b
00000370: 0ed9 0a3e 7b15 65be 4a73 e7be 69be 753f
00000380: 78db 21be 54e4 b43f 03c2 c63f d7f6 cdbf
00000390: 4418 97bf 6c98 aebf 55ab 873f 6ded 213f
000003a0: fd15 0cc0 0c15 b1bf d45b 7dbf 0c2c 993f
000003b0: 840f 8c3f 2eb9 c3bf cdfd 20bf 463a 63bf
000003c0: d472 38be 1b3e 54be 6c26 6cbf 630a 903e
000003d0: 8a6a f4be 0110 11bf 8975 0ebf 6617 e9be
000003e0: a157 ea3d a187 8cbe fe66 b6bf 2ca3 49bf
000003f0: 0c3a 29c0 013d c0bf 178f b8bf 071f 2e3f
-0.735864 0.93043435 4.621682 1.534307 0.8558937 -1.6412876 -0.38892388 1.6022391
0.53140223 -0.75315225 -0.6185551 -1.0171694 0.14175989 -0.43855837 -0.04154052 -1.1922383
-1.1561056 0.33581105 -0.7941099 0.2419276 -0.53544563 -0.4877541 0.25592557 -1.1144295
-0.34094298 -0.206455 1.1374439 4.118009 1.9737613 0.7502402 -0.64970744 -0.12845106
1.3457855 -0.4268667 -0.7165946 -0.36437133 -1.0537859 0.48466143 -0.6717258 0.24922325
-0.0043315087 -0.63692534 -0.14169243 -0.5537811 0.07857061 0.36645892 0.2570212 0.024149427
-0.30065572 0.45245472 -0.1658922 -1.9758064 -0.7390757 -1.0435501 -0.6101344 0.46819112
-1.3178028 -0.34205893 0.016010968 0.5593669 0.6971977 -0.91571015 -0.31412768 0.49867883
0.021893872 0.96506655 -1.1205082 -0.9392434 -0.036875997 0.009944525 2.5654142 1.2436311
0.918513 0.8518176 0.4353619 -0.27537543 -1.3922324 -1.3024046 -1.071805 -0.65881497
1.0131142 -0.76515335 -0.7461919 0.1593073 0.04213909 1.1083707 -0.74627465 -0.62883544
-0.23216267 -0.24282283 1.4231304 -0.3752068 -0.37438744 -0.32901943 0.11643412 3.382116
1.9169997 1.0284601 0.9347248 0.49870417 6.512789 0.37819928 3.6947129 0.9616155
-0.35244745 1.9801537 -0.9725074 1.0799888 -0.06574052 -0.58325374 1.0049437 -1.3111416
0.8359323 -0.123455554 -0.39596355 -0.12772402 -1.6391323 1.5258898 0.4446748 0.49831417
1.5100342 0.32436743 0.75598526 0.37228024 0.23639372 2.6654816 -0.37086058 1.3201976
0.27250233 -0.5702927 0.17149052 -1.2965753 0.34672624 0.03210905 -0.18247293 -0.05366724
-1.3752208 -0.10688979 -0.22594725 0.16575293 -1.6850375 -1.503067 0.6165154 0.3803413
0.22768013 0.21275173 -0.01809532 0.17958015 0.12892272 0.16572025 -1.0184137 -1.5076966
-1.2574244 0.5012368 -0.68232024 -0.49246788 -0.3043151 -0.07778009 0.066299774 0.531772
-0.9952587 1.2165284 -0.4863599 -0.7012013 -0.3731581 1.3370601 3.1415358 0.895423
1.0439276 -0.062219143 -0.34312257 0.7957273 -0.27680153 -0.9093229 -0.55295193 -1.2875439
-1.4756277 -1.3611183 -0.0070204926 -0.3385065 -0.4857387 -0.057630934 -0.17299823 0.028133418
0.21967103 -0.95800996 1.5616415 -0.18593596 -0.679456 -0.019997763 1.0792509 3.9582
1.2103219 0.49121943 0.34943402 0.006499052 1.0883331 0.25925657 -0.7436758 -0.124299176
4.516339 1.7738779 -0.26319674 -0.32608837 -0.104843326 2.9604955 1.485422 -0.5851809
-0.3608743 -0.36920083 2.6303923 0.88846785 -0.17308478 0.55680877 0.14384863 0.99595654
-0.20995404 -0.5919301 0.711074 0.002290855 0.13559362 -0.22371475 -0.45205146 0.9599367
-0.15806377 1.413218 1.5527958 -1.6090955 -1.180428 -1.3640265 1.0599161 0.6325291
-2.188842 -1.3834548 -0.98968244 1.1966567 1.0942235 -1.5290887 -0.6288727 -0.88760793
-0.18012553 -0.20726816 -0.9224613 0.28132924 -0.47737533 -0.56665045 -0.55648094 -0.45525664
0.11442495 -0.27447227 -1.4250181 -0.78764606 -2.644168 -1.5018617 -1.4418668 0.68016094
