models/model_lr0.0002_mlr0.01_e1000_b64.pt (torch, 115659 bytes, 26 tensors)

weight f4 [8, 2, 5, 5]
000000 9d c2 36 bf 37 8a 73 3f 1f 1b 94 40 8c cb c4 3f
       -0.71390706 0.95132774 4.6283107 1.5374618
000010 e5 13 5d 3f b1 95 cf bf 27 fb bc be fd 6b ce 3f
       0.8635848 -1.6217557 -0.36910364 1.6126705
000020 22 b5 08 3f 24 ba 40 bf 22 26 1c bf d9 ec 80 bf
       0.53401387 -0.7528403 -0.60995686 -1.007228
000030 d6 40 13 3e 15 fe e2 be 31 25 33 bd 04 67 97 bf
       0.14380202 -0.44334474 -0.04373664 -1.1828313
000040 ac cf 92 bf 3a 5c aa 3e 15 02 4c bf 56 3d 7a 3e
       -1.1469626 0.33273488 -0.79690677 0.2443746
000050 01 e5 0a bf 63 59 fd be 45 e7 77 3e 30 5e 90 bf
       -0.5425568 -0.4948226 0.24209316 -1.1278744
000060 f3 46 b4 be 1e b5 3f be 5b 04 94 3f 27 fb 83 40
       -0.3521038 -0.18721434 1.1563829 4.1244082
000070 85 5f fc 3f 38 ad 42 3f 26 c0 21 bf ca 3e dd bd
       1.971665 0.7604556 -0.6318382 -0.10802992
000080 93 83 ad 3f 50 a2 d9 be 79 36 36 bf 90 44 b5 be
       1.3555778 -0.42506647 -0.7117687 -0.35403872
000090 fb d4 85 bf 9b 8b f9 3e cd a5 2c bf 69 b5 81 3e
       -1.0455621 0.48739323 -0.6744049 0.25333717
0000a0 f9 3a 98 3b 15 3d 21 bf 68 4a 12 be eb b7 0e bf
       0.004645702 -0.6298383 -0.14286196 -0.55749387
0000b0 8b 73 ae 3d f1 f6 b7 3e 28 9d 7d 3e 11 c6 16 3c
       0.08518132 0.3593059 0.24766982 0.009202496
0000c0 31 fd a2 be 9b f4 e1 3e 5b 62 26 be 29 3e fc bf
       -0.31833795 0.44131932 -0.16248457 -1.970647
0000d0 00 39 39 bf 66 e9 83 bf 3f d3 1c bf f9 e9 ec 3e
       -0.723526 -1.0305603 -0.61259836 0.46272257
0000e0 9e 55 a9 bf d1 d0 a9 be c9 50 be 3c 08 35 0d 3f
       -1.3229253 -0.33167127 0.02323188 0.55159044
0000f0 5c 05 32 3f 62 8e 6a bf 26 40 9a be 2f bd 02 3f
       0.6953943 -0.9162351 -0.30127066 0.5106992
000100 ed 34 9f 3c 0d a7 77 3f 03 0a 8f bf c4 d9 6c bf
       0.019434417 0.96739274 -1.117493 -0.92519784
000110 aa 41 da bc a1 8e e4 3b eb a7 24 40 e2 3a a0 3f
       -0.02664264 0.0069750105 2.572749 1.251797
000120 33 2d 6f 3f 7d a0 5d 3f e6 0b de 3e 16 e9 8b be
       0.93428344 0.8657301 0.43368453 -0.27326268
000130 13 0a b1 bf f1 64 a4 bf 3a 28 87 bf ed 20 29 bf
       -1.38312 -1.2843305 -1.0559151 -0.66065866
000140 15 49 81 3f 95 90 43 bf 55 ed 3b bf 0a 39 2c 3e
       1.0100428 -0.7639249 -0.73409015 0.16818634
000150 5a 00 0e 3d 05 ee 8d 3f bf 79 3d bf 25 34 1d bf
       0.034668304 1.1088263 -0.74013895 -0.6140769
000160 35 58 60 be 8c f3 7c be 94 95 b6 3f 14 92 bc be
       -0.21908648 -0.24702281 1.4264398 -0.368302
000170 ea 5f b7 be 05 a7 a0 be b7 cd eb 3d db ef 58 40
       -0.35815364 -0.31377426 0.11513846 3.3896396
000180 05 a3 f6 3f e2 f9 85 3f 05 0f 73 3f 0a d2 fd 3e
       1.92685 1.0466883 0.94944793 0.4957431
000190 fe 12 d0 40 bc c0 c1 3e f6 21 6d 40 5c e5 74 3f
       6.5023184 0.37842357 3.7051978 0.95662475
0001a0 e0 b1 a9 be df a9 fb 3f 44 f2 7f bf ec 64 88 3f
       -0.3314352 1.9661216 -0.99979043 1.0655799
0001b0 13 30 b7 bd 4a 9c 14 bf 57 09 75 3f 0d 2b ad bf
       -0.08944716 -0.5805098 0.95717376 -1.3528763
0001c0 98 87 4d 3f 4f c0 1e be 47 1f d1 be 51 8e 24 be
       0.80285025 -0.15503047 -0.40844175 -0.16069914
0001d0 6b 0d d6 bf 0e e7 c1 3f de e1 da 3e 6a 48 01 3f
       -1.6722845 1.5148637 0.42750448 0.5050112
0001e0 62 ca ba 3f 09 e0 93 3e d0 2f 3e 3f 99 a3 b9 3e
       1.4593012 0.28881863 0.74291706 0.36257628
0001f0 23 83 76 3e e0 46 2a 40 a7 68 be be 56 30 ab 3f
       0.24073462 2.6605759 -0.37189218 1.3374126
000200 ee c7 87 3e 83 ec 0b bf 5e 9e 27 3e 80 ac a7 bf
       0.26519722 -0.54657763 0.16369006 -1.3099518
000210 25 e5 b0 3e 5c 59 8b 3c b8 97 2d be 6c ef c2 bd
       0.34549823 0.017010383 -0.16952407 -0.09518322
000220 5c fa b4 bf 50 bd 09 be af 17 81 be 34 bd 23 3e
       -1.4138904 -0.13451123 -0.25213382 0.15990144
000230 9d 41 dc bf 43 64 c4 bf 49 12 1c 3f bd d4 bd 3e
       -1.7207524 -1.5343097 0.609654 0.3707637
000240 3e 02 75 3e a1 22 25 3e a2 f5 54 bd 39 5c 2b 3e
       0.23926637 0.16126491 -0.051992066 0.16734399
000250 27 6c fe 3d d3 27 32 3e d1 14 83 bf 47 f1 c0 bf
       0.12422972 0.17398004 -1.0240728 -1.5073632
000260 27 35 9f bf a8 58 01 3f 3f 2f 2a bf 36 e4 ff be
       -1.2438096 0.50525904 -0.6647834 -0.499788
000270 24 01 9e be 6d d3 89 bd bb a3 88 3d f3 1d 0b 3f
       -0.30860245 -0.067297794 0.06671854 0.54342574
000280 82 de 80 bf 0a a6 9a 3f 13 cb f6 be 90 16 33 bf
       -1.0067904 1.2081921 -0.48201808 -0.699563
000290 d0 7a b9 be 21 c1 aa 3f 45 f7 48 40 5a ee 66 3f
       -0.3622651 1.3340188 3.1400921 0.90207446
0002a0 d2 ff 85 3f 34 37 3b bd 9c e8 b3 be 0d 74 49 3f
       1.0468695 -0.045706943 -0.35138404 0.78692704
0002b0 21 8b 8c be 90 50 69 bf f7 de 09 bf aa f6 a4 bf
       -0.27449897 -0.91138554 -0.5385584 -1.2887776
0002c0 7d 5b bc bf b3 b6 ac bf 3c 29 d1 3a 33 09 a5 be
       -1.471542 -1.3493255 0.0015957723 -0.3223358
0002d0 f2 b9 f9 be 32 88 64 bd 65 55 24 be 39 e2 0a 3d
       -0.48774678 -0.05579395 -0.160482 0.03390715
0002e0 6f 0b 6d 3e 4e 34 77 bf ce a6 c7 3f 99 f0 36 be
       0.23148893 -0.96564186 1.559778 -0.17865218
0002f0 ee cb 2c bf 03 96 02 bc 32 2e 8a 3f 78 a3 7d 40
       -0.6749867 -0.007970336 1.0795348 3.9631023
000300 47 0f 9c 3f 53 77 00 3f e4 3a bc 3e ec 8a d8 3b
       1.2192162 0.50182074 0.3676368 0.0066083577
000310 cb f3 8a 3f 9a 7b 87 3e 4a 4b 3e bf 45 33 e7 bd
       1.085565 0.26461488 -0.7433363 -0.11289076
000320 c4 49 90 40 c8 b4 e1 3f dc 78 86 be 3c 6b a5 be
       4.5090046 1.7633295 -0.26264083 -0.32308376
000330 f3 21 ea bd 56 29 3d 40 94 ce bb 3f 3f 8c 18 bf
       -0.114322565 2.955648 1.4672418 -0.59589
000340 3e a0 bc be 36 eb c3 be 91 96 28 40 1a 3a 60 3f
       -0.36841005 -0.3826539 2.6341898 0.87588656
000350 19 b6 3c be d0 ac 0c 3f 0a ab 02 3e 22 6f 7f 3f
       -0.1842884 0.5495119 0.12760559 0.9977895
000360 e8 03 62 be 7a 94 19 bf a3 6c 35 3f 7e 7a 19 bc
       -0.22071803 -0.5999218 0.7086889 -0.009367583
000370 a5 1f 12 3e 89 ed 65 be 8f 64 e6 be 7e c8 76 3f
       0.14269884 -0.22453894 -0.44998595 0.96399677
000380 6a 67 26 be 07 de b3 3f 27 cb c4 3f d8 84 ce bf
       -0.16250387 1.4052132 1.5374497 -1.6134291
000390 1d 83 97 bf 2b 64 b0 bf a7 2d 87 3f 14 60 1e 3f
       -1.1836888 -1.3780569 1.0560807 0.61865354
0003a0 37 92 0c c0 18 3d b2 bf 06 75 80 bf 83 bb 99 3f
       -2.1964242 -1.3924894 -1.0035713 1.2010349
0003b0 87 8a 8a 3f 12 28 c5 bf 8b 0a 23 bf 89 8a 67 bf
       1.0823525 -1.5402853 -0.6368796 -0.9044576
0003c0 ee 1d 36 be d9 03 5c be 0c b4 6c bf cd 1b 8f 3e
       -0.17784855 -0.21485843 -0.9246223 0.27950898
0003d0 c6 a0 f8 be 23 40 10 bf de b0 0d bf 21 df e7 be
       -0.4856016 -0.56347865 -0.55348 -0.4528742
0003e0 2a 36 ec 3d 93 0a 8d be 6c d3 b7 bf f9 a7 4b bf
       0.115337685 -0.2754713 -1.4361396 -0.7955318
0003f0 95 b3 29 c0 f0 cd bf bf 55 61 b8 bf cc b0 2a 3f
       -2.6515858 -1.4984722 -1.4404703 0.6667602

bias f4 [8]
000000 04 52 7d c0 7a 5a 29 c0 b7 b4 e5 bf df b4 a7 bf
       -3.9581308 -2.6461473 -1.7945775 -1.3102072
000010 d5 c7 5e c0 50 51 6b be d7 d7 64 3c df 7c af c0
       -3.4809468 -0.22980237 0.013967476 -5.483993

weight f4 [8]
000000 91 ae aa 3f 3b e7 aa 3f ac e3 a6 3f 74 96 e6 3f
       1.3334523 1.3351816 1.303823 1.8014665
000010 9e b8 ad 3f 1e 6a ed 3f 8e 82 c1 3f 9c e5 ac 3f
       1.3571966 1.8548009 1.5117967 1.3507571

bias f4 [8]
000000 3f 33 35 bf 5e 78 aa be 9b 27 a7 bf ab 09 f8 3e
       -0.7078132 -0.33294958 -1.3058962 0.48444876
000010 5f 6a f3 bf 1a ff 8c bf 87 af 80 3f 16 de 87 bf
       -1.9016837 -1.1015351 1.0053567 -1.061465

running_mean f4 [8]
000000 62 aa bb 3f 78 fd 70 3f 4d 03 9e 40 ad 30 50 3f
       1.4661372 0.9413676 4.937903 0.81324273
000010 2a 94 d5 3f 6a fb a8 3f 24 b5 20 41 ce 1d 04 40
       1.6685841 1.3201725 10.044224 2.0643191

running_var f4 [8]
000000 89 e2 ae 41 7a 25 4e 41 06 af 0a 43 7f ab 1f 41
       21.860613 12.88415 138.68369 9.979369
000010 4f 09 b7 41 43 8f a5 41 67 b4 8e 42 71 eb f3 41
       22.879545 20.694952 71.35235 30.489962

weight f4 [16, 8, 3, 3]
000000 00 1e a3 be f7 6b 09 c0 74 cd 88 bf df 89 02 40
       -0.31858826 -2.1472147 -1.0687699 2.039665
000010 32 c9 53 bf 1b 98 ff be ff 4b c1 3d 47 06 f7 bd
       -0.82728875 -0.49920735 0.09438323 -0.12061744
000020 1d 75 75 3f ed 11 45 bf 40 3d 65 be 75 32 47 3f
       0.95881826 -0.7698048 -0.22386646 0.77811366
000030 49 96 45 c0 82 d3 a1 bf f8 6e 22 bf 4c 1b b5 be
       -3.0872977 -1.2642672 -0.63450575 -0.35372388
000040 85 96 31 3e 5b 6e 8e be e3 e9 a4 3f 7c f9 a3 3e
       0.17342575 -0.2781857 1.2883877 0.3202628
000050 67 b5 0a 3f cc 58 84 3f 30 36 5b 3f 86 08 02 3f
       0.5418305 1.0339599 0.8562956 0.50794256
000060 cd 02 d9 3f ea 50 69 3f 69 c4 26 3f 2c 33 da 3e
       1.695398 0.9113909 0.6514345 0.42617166
000070 9c 11 1d bd 15 2f 47 bf 30 a7 11 c0 13 74 2f c0
       -0.03834687 -0.77806216 -2.2758293 -2.7414596
000080 77 5d e4 3e 5c 0d 43 be 23 3f de be d8 d1 58 3f
       0.44602558 -0.19048065 -0.43407544 0.84695196
000090 9a 25 67 bf 01 29 56 3d 31 f7 a2 3d 47 4e f1 3e
       -0.9029175 0.052285198 0.07957304 0.47130033
0000a0 53 e5 a2 3e b3 7e 8d 3d 3f 4f 24 40 37 bd aa 3e
       0.31815585 0.069089316 2.5673368 0.33347484
0000b0 e0 c1 86 3e ff e6 02 3f 18 53 20 3e e9 86 31 bf
       0.2631979 0.5113372 0.15656698 -0.6934648
0000c0 45 50 54 c0 c2 71 3e c0 05 0d e4 bf dd 1a 98 3f
       -3.3173993 -2.9756932 -1.7816473 1.1883198
0000d0 0a 52 8c bb c8 71 2c 3e d0 ae 53 bf 79 c1 ee be
       -0.0042822408 0.16840279 -0.8268862 -0.46631983
0000e0 86 d9 a1 be 2d ef 1f bf 61 6f ff be 89 38 16 be
       -0.3161127 -0.6247433 -0.49889663 -0.14670004
0000f0 14 9b fc bf 34 08 dc bf 05 ff dd 3e 47 cb b7 bc
       -1.9734826 -1.7190003 0.43358627 -0.022435797
000100 4e 62 72 3e b2 83 a6 bf 8d 1e 55 40 9f 7b 70 3f
       0.23670313 -1.300894 3.3299897 0.9393863
000110 17 27 13 3e e0 c7 86 3f e0 ac c4 be 94 dc ab 3e
       0.1437038 1.0529747 -0.38413143 0.33566725
000120 4e b0 0c 3f 79 3f d1 3f 26 72 b9 3f 4b cb e6 be
       0.5495652 1.6347495 1.448796 -0.45076975
000130 78 7f f1 be f6 4d 96 3f bb b9 88 bf f7 ec 3f 3e
       -0.47167563 1.1742542 -1.068168 0.18742739
000140 ed c3 5f 3f c1 16 65 bf 4b e9 d9 bf 33 62 f8 bc
       0.87408334 -0.89487845 -1.702432 -0.030320263
000150 25 29 99 be 1f a7 6c bf dd 22 e1 3f 7e ab 21 bf
       -0.29914203 -0.92442507 1.7588764 -0.631523
000160 89 a5 6a bf 2b 5f 05 3f 94 c6 94 3e 7c 49 c5 3f
       -0.91658837 0.5209834 0.29057753 1.5413051
000170 bd 06 e4 3f 34 7c 03 3e 57 fa a8 3f 51 a1 72 3f
       1.7814556 0.12840348 1.3201398 0.947774
000180 fd a1 0e bf 63 c0 88 3f a2 e7 b6 3f 0d 6c f8 bf
       -0.55715925 1.0683712 1.4289439 -1.9407974
000190 08 16 56 bd 8b 47 7c 3f 29 d7 58 bf 00 d4 26 bf
       -0.052267104 0.98546666 -0.8470331 -0.65167236
0001a0 b4 95 78 3f 6c 3d 82 bf 34 0f 31 3e ad be a3 3e
       0.9710343 -1.0174994 0.17290956 0.31981412
0001b0 0c 9a 0c c0 5c fc 6e bf 9d 1d 7e 3f c0 d9 1b c0
       -2.1969023 -0.9335382 0.99263936 -2.4351654
0001c0 11 84 68 bf 0f da ee bd 65 8c 06 c0 8e 4e a7 bf
       -0.9082652 -0.11662685 -2.102319 -1.3070848
0001d0 51 f3 a8 3e 84 52 8b 3f 5e 82 8e 3e 78 0a 00 40
       0.32998136 1.0884557 0.27833837 2.000639
0001e0 df 01 07 c0 56 16 60 3e 8c 74 b9 3f c4 34 b5 bf
       -2.1094892 0.2188352 1.4488692 -1.4156728
0001f0 81 01 34 3e ca 06 8e 3f f5 95 85 bf 11 de 7e 3f
       0.17578699 1.1095822 -1.0436388 0.99557596
000200 5d 5f 06 3f 57 8c da bf 25 05 05 3f ee 98 e9 be
       0.5248926 -1.7074078 0.51960975 -0.4562449
000210 26 78 05 c0 f4 b9 28 3f b5 52 fa 3d b7 00 1f be
       -2.0854583 0.6590874 0.12222806 -0.15527616
000220 22 4b 84 3f d5 3e 06 40 8d 60 b3 be ec 9d 36 bd
       1.0335429 2.097585 -0.350346 -0.0445842
000230 0f b6 f7 3f d2 42 2f bf 01 ad 20 bf 0d 5d ca 3f
       1.9352435 -0.68461335 -0.62763983 1.5809647
000240 42 a5 83 c0 e3 71 34 bd 37 22 ed 3e ba 0b 6a bf
       -4.113923 -0.044053923 0.46315166 -0.91424143
000250 f4 56 70 bf ab 4c 76 be 54 37 9d bf 93 5c d5 bf
       -0.9388268 -0.24052684 -1.228251 -1.6668876
000260 4a ed 43 bf f3 3c 89 3f d0 37 1e c0 67 1b 04 3d
       -0.7653395 1.0721725 -2.4721565 0.032252695
000270 ba 88 6e 3f ab ce 25 c0 45 57 9c bf c8 f8 2d be
       0.9317738 -2.590739 -1.2214133 -0.16989434
000280 18 69 c8 bf 6f eb f5 3f 57 0a 89 bd 88 9f 9f bf
       -1.5657072 1.9212474 -0.06691425 -1.247056
000290 a6 31 92 3f 5d 68 ba 3d 3c 0b 3e c0 96 a2 90 bf
       1.1421402 0.09101937 -2.9694357 -1.1299617
0002a0 31 f9 f3 3d 5e 3d 04 c0 85 cc 4f bf b4 bb bb 3f
       0.11912764 -2.0662456 -0.8117145 1.4666657
0002b0 8c 8f a6 3e 0b 8d c7 be b7 94 b5 3e bf 1b 4c 3c
       0.32531393 -0.38974795 0.35465023 0.012457787
0002c0 d9 09 a0 be 76 90 65 be f0 b8 44 3c 17 a2 cd be
       -0.31257513 -0.22418389 0.012006983 -0.40162727
0002d0 db dc 94 3e 00 77 64 c0 da 7f ed 3e 7b fe 0c 3f
       0.2907475 -3.5697632 0.46386606 0.55075806
0002e0 dd ad 4f c0 a4 09 f1 bf 33 3f df 3e 73 b7 84 c0
       -3.2449868 -1.8831067 0.43602905 -4.1473937
0002f0 32 e9 0d c0 b7 19 1e 3e 52 cb 07 c0 b9 3f a6 3f
       -2.217358 0.15439497 -2.1217847 1.2988197
000300 aa 1a 74 3f 7d b6 26 be b6 79 05 bf 4a 56 b8 3f
       0.95353186 -0.16280551 -0.5213884 1.4401333
000310 b2 ad 27 bf f3 05 f5 bf 7a 3e ff 3e b9 62 95 3d
       -0.65499413 -1.914244 0.49852353 0.072942205
000320 67 00 2d 3f 2f 2f 31 be 92 ec 59 3b 86 cd 2d bd
       0.6757874 -0.17303155 0.003325258 -0.04243233
000330 f0 81 09 bf 57 42 a7 be f3 d0 28 3f d4 fe b1 3f
       -0.53713894 -0.326678 0.6594383 1.3905892
000340 a8 ca fe 3c e7 bf 7d be ed 2c bf 3f 70 ca aa 3e
       0.031102493 -0.24780236 1.4935585 0.33357573
000350 35 b3 d6 3d d6 d2 9e 3f 5f a4 4d bf b3 be 61 3e
       0.104834 1.2408092 -0.80328935 0.22045402
000360 c9 07 81 c0 f3 4c 0a c0 f1 27 b6 bf 1e b0 c3 3e
       -4.0322003 -2.1609466 -1.4230939 0.38220304
000370 54 39 0f 3f 64 1c 03 40 1b 91 85 bf 26 66 36 3f
       0.5594685 2.0486078 -1.0434908 0.71249616
000380 55 df 37 3e 7e e8 d6 3f 02 24 0f 3f cb 6f 78 3e
       0.17956288 1.6789701 0.5591432 0.24261396
000390 60 82 a7 bf 9e 81 b5 be 71 55 35 3f e0 a3 0d c0
       -1.3086662 -0.35450453 0.708335 -2.2131271
0003a0 ca 6e 31 3e 5b 1c a5 3f 89 85 21 c0 2b f0 db bf
       0.17327419 1.2899278 -2.5237753 -1.7182668
0003b0 63 f8 ad be 1a f5 47 bf 6e af e9 be b1 fc ae be
       -0.33978567 -0.7810837 -0.45641655 -0.34177163
0003c0 f7 74 7d bf c0 f6 d8 be 97 75 13 3f 10 46 20 3f
       -0.990066 -0.42375755 0.576013 0.62606907
0003d0 47 bb f5 be ae 38 68 be e3 b3 75 3f e6 37 93 3f
       -0.47994444 -0.22677872 0.9597761 1.1501434
0003e0 d5 5c 38 3f e0 36 8d bf 58 fe 33 bf f7 72 fb bf
       0.7201665 -1.1032372 -0.7030997 -1.964446
0003f0 7c 98 f5 bf 0f c2 52 3d 99 43 48 bf d0 b8 c0 be
       -1.918716 0.0514546 -0.78228146 -0.37641

bias f4 [16]
000000 00 cf 8b be 5f 47 91 be 4e 4f b5 be 4e 42 cb bf
       -0.27306366 -0.28374764 -0.35412067 -1.587961
000010 ae 67 59 3e 7e f2 71 c0 83 52 78 c0 cd 19 f0 3f
       0.21230957 -3.7804255 -3.880036 1.8757874
000020 72 d4 90 3f 89 84 f6 bf 99 62 fa bf 0a d8 23 bf
       1.1314833 -1.9259197 -1.956134 -0.64001524
000030 dc 96 fe 3f b6 c1 1a c0 f2 34 73 be 60 e2 3b c0
       1.9889789 -2.4180732 -0.23750666 -2.9356918

weight f4 [16]
000000 02 71 27 40 ed 65 1a 40 d2 da ac 3f b3 53 8f 3f
       2.6162724 2.412471 1.3504279 1.1197418
000010 9b 67 50 3f ca c4 e6 3f 12 40 bb 3f 1e e3 87 3f
       0.8140809 1.8028805 1.4628928 1.0616186
000020 a6 92 4a 40 9a d5 7d 3f c3 14 c7 3f 6f ab b7 3f
       3.1652007 0.99154055 1.5553211 1.4349192
000030 1a 90 fd 3f f9 ac ce 3f df f2 3d 3f 79 64 b9 3f
       1.9809601 1.6146537 0.74198717 1.4483787

bias f4 [16]
000000 6b 92 87 3e fe 66 cc 3e 35 dd 59 bf f9 49 3b be
       0.26478896 0.39922327 -0.8510316 -0.18289937
000010 5e ee 09 bf e1 71 ae 3e 3b 89 be 3e 05 e2 95 bf
       -0.53879344 0.34071258 0.37214074 -1.1709601
000020 6e d9 35 ba c9 5d cb 3e 53 f6 be 3e 8a 15 69 be
       -0.00069370016 0.3971999 0.37297305 -0.22762123
000030 c9 78 8a be 1b ac 2a 3f f0 2e dc 3e 8c af b3 3e
       -0.27045277 0.6666886 0.4300456 0.3509487

running_mean f4 [16]
000000 6a 3e ed 3f 2d 2a 80 40 57 ca 35 42 fa 0a 09 41
       1.8534672 4.0051484 45.447598 8.56518
000010 02 1b f5 41 71 33 8c 40 05 e3 eb 3f 5f 4b 92 41
       30.638187 4.3812795 1.8428656 18.286802
000020 37 2b 2b 40 77 b3 2a 41 88 25 98 3f 19 8c 0b 40
       2.6745126 10.668815 1.1886454 2.180426
000030 d1 b3 8a 40 43 0d c0 3f 10 79 4a 41 c9 86 10 42
       4.3344502 1.5004047 12.654556 36.131626

running_var f4 [16]
000000 22 bb 3a 42 4e a6 36 43 35 75 be 43 02 90 15 43
       46.682747 182.64963 380.91568 149.56253
000010 05 bb eb 43 6d 60 44 43 a5 44 16 42 fb 6a 9f 42
       471.4611 196.37666 37.567036 79.70895
000020 6e cc a3 42 f3 e8 75 43 1b 0e bd 41 1f cb 52 42
       81.89928 245.90996 23.631887 52.69836
000030 54 e5 14 43 9c 3c f2 41 07 6b 9b 42 e0 7c 95 43
       148.89581 30.279594 77.70904 298.9756

weight f4 [32, 16, 3, 3]
000000 73 22 dd 3f 22 bc 66 bf fb 89 96 bf b8 fe 2f bf
       1.7276138 -0.9013082 -1.1760858 -0.68748045
000010 b4 cb 92 bf 87 a1 4e 3f 90 3e b7 bf 9c f9 20 bf
       -1.1468415 0.8071522 -1.4315968 -0.62880874
000020 5c 42 ba 3d 72 85 2b 3f 03 50 09 3f 42 25 d0 bc
       0.09094688 0.67000496 0.53637713 -0.02540839
000030 2a fb 0e 3f aa 3a a5 3f 6d 80 24 40 ff 3c ad bd
       0.55851996 1.2908528 2.5703385 -0.084589
000040 ea d7 04 40 2b 71 0b 40 bf a3 95 bf 0d a7 06 40
       2.0756783 2.1787822 -1.1690596 2.103946
000050 00 c0 5f 3f c5 20 8e 3f d9 79 21 40 74 2e 4f 3f
       0.87402344 1.110375 2.523062 0.80930257
000060 41 5b 38 40 fd a5 3a 40 f5 3d be 3e 20 99 39 c0
       2.8805697 2.9163811 0.37156644 -2.899971
000070 d3 f6 1e c0 15 18 92 3f 05 a9 66 bf e0 e6 71 3f
       -2.483815 1.1413599 -0.90101653 0.9449291
000080 ac ae 0a 3f 22 23 28 c0 96 eb 3a be 93 08 0e bd
       0.5417278 -2.6271443 -0.18253931 -0.034676146
000090 48 b2 db 3f f4 f6 61 3e f2 d8 eb be a3 94 c6 3f
       1.7163782 0.22066861 -0.46063954 1.551411
0000a0 37 ef 38 bf 62 00 12 3e 6a 22 22 40 6d 6f 65 3f
       -0.7224001 0.14257959 2.5333505 0.8962315
0000b0 8e 91 80 bf 34 27 38 c0 b8 f4 bb 3f 40 20 73 3d
       -1.004442 -2.8773928 1.4684057 0.059356928
0000c0 87 dd 01 c0 59 91 70 bf 4b 0b a3 3f ae fd 26 c0
       -2.029146 -0.9397178 1.2737821 -2.6092334
0000d0 d9 cf 28 3f 04 9c ec 3f fc 3d 33 3f 00 c6 88 3f
       0.6594215 1.8485112 0.70016456 1.0685425
0000e0 25 94 2c 3d ce ef c5 be e0 0a 6c 3e a8 cc 37 3e
       0.04213347 -0.3865952 0.23051023 0.17949164
0000f0 83 33 aa bf 79 57 c8 3f 7a d9 37 3f ad 1f 32 3f
       -1.329697 1.5651695 0.7181622 0.69579583
000100 71 c3 be 3f ef 40 5c 3f a4 5b 30 40 02 d4 8f 3f
       1.4903394 0.8603658 2.7555933 1.1236575
000110 01 fa 26 3f a1 a8 07 40 d4 e0 89 3f c0 99 db 3f
       0.65225226 2.1196673 1.0771737 1.7156296
000120 c5 74 8e 3f 80 28 7d 3f 42 11 93 bf b2 00 8e 3e
       1.1129385 0.98889923 -1.1489642 0.27734905
000130 bc 79 06 bf e7 0e 0a 3f aa ed c5 bf 49 c5 de bf
       -0.525295 0.5392899 -1.5463154 -1.7403957
000140 a0 c2 0a 3f 61 c8 fe bf f2 c8 fa be 90 d4 8e bf
       0.54203224 -1.9904901 -0.48981434 -1.1158619
000150 6a 4f de bf 60 33 01 3f e1 20 65 3e e5 1d 4b bf
       -1.7367985 0.5046902 0.22375824 -0.7934249
000160 9e 25 a0 3f be fb 79 3f 31 eb a4 bf d1 1d e2 bf
       1.251148 0.97649753 -1.2884275 -1.7665349
000170 9f c0 a7 3e 81 30 44 c0 71 58 7a bf d4 6f f5 bd
       0.32764146 -3.0654604 -0.977912 -0.1198422
000180 3e 53 10 c0 9c e6 01 3e 23 df a6 3e 07 3c 69 3f
       -2.2550807 0.12685627 0.32592115 0.9110722
000190 22 90 16 c0 cf 55 99 3f 87 a6 02 bf 40 5d 6f 3f
       -2.3525472 1.1979312 -0.5103535 0.93501663
0001a0 14 02 0a be 60 5e bb bf 5c 41 c5 3f e2 e8 ee 3e
       -0.13477355 -1.4638176 1.5410571 0.4666205
0001b0 4b 92 38 3e fb 03 18 be c8 47 9f bd 92 33 5a 3f
       0.18024556 -0.14845268 -0.07777363 0.8523494
0001c0 0b b0 c6 3e ff fc 2f 3f 26 8c c2 3f fd 5e 3c 3f
       0.38806185 0.68745416 1.519902 0.7358244
0001d0 20 43 9b 3e 05 78 3d 40 21 67 1a 3f ce 0e b6 bf
       0.3032465 2.9604504 0.6031361 -1.4223268
0001e0 f6 d6 82 bd 27 a6 1e 3f d1 2c 45 3d e4 d2 31 c0
       -0.06388657 0.6197228 0.048138443 -2.7784967
0001f0 61 9e d4 bc cf ff 4f be d6 77 58 c0 83 1b 89 bf
       -0.025954427 -0.20312427 -3.3823142 -1.0711521
000200 a1 5a c5 3e 79 54 1b c0 4d de 72 be a4 ee 3b 3e
       0.38545707 -2.4270308 -0.23717614 0.18352753
000210 5d fd cc be 2c 8f 9c 3f 54 90 a8 3f d9 68 3b bf
       -0.4003705 1.2231193 1.3169045 -0.7320686
000220 10 a8 bb be c7 61 04 3f 9a 43 d6 3e ef 49 21 bf
       -0.3665166 0.51711696 0.4184845 -0.6300344
000230 6a 4d 94 3f 78 3a f6 3f 37 a5 40 be 53 b9 84 3f
       1.1586125 1.9236593 -0.18813024 1.0369056
000240 48 aa 66 3f ca df 46 be 3c ca 0f 3f 08 0f 01 40
       0.9010358 -0.19421306 0.5616796 2.0165424
000250 21 be e5 3f ce 42 57 3f 68 22 28 3f 96 de 05 3f
       1.7948648 0.8408631 0.656775 0.52292764
000260 ee 3d e7 3e 6c b8 c6 be cc 39 ac 3e 37 0e 65 bf
       0.45164436 -0.38812578 0.33637846 -0.89474815
000270 95 0e 14 bf 68 37 84 bf 3f 5e 69 bf 3e 9e 05 3f
       -0.5783475 -1.0329409 -0.91159433 0.52194583
000280 77 23 23 c0 3c 3a 5c be 36 7c c3 bd 51 90 d8 bd
       -2.5490396 -0.2150659 -0.09545176 -0.10574401
000290 36 42 8a 3f 0b 8e b0 be 28 1c 2f 3d 0d a7 a2 3e
       1.0801456 -0.3448337 0.04275146 0.31768075
0002a0 a6 97 77 bf 72 f0 41 be a3 1c 1e 3f d1 05 ea 3e
       -0.9671577 -0.18939379 0.61762446 0.45707563
0002b0 03 d1 a0 3e 88 ba 4e be 57 38 33 3f cd b1 95 be
       0.31409463 -0.20188344 0.7000784 -0.29237214
0002c0 b8 c2 c5 be 56 ab ad c0 0d b5 0f c0 68 9c 2a be
       -0.3862512 -5.427165 -2.2454255 -0.16661227
0002d0 1b 20 8e be 67 dd 83 3f 02 b3 f1 3c 0f 8d 01 c0
       -0.2775887 1.0301942 0.029504303 -2.0242345
0002e0 30 e5 59 be 6d ac 8a bf 3e e2 ac bf e6 5a e3 be
       -0.21278834 -1.083387 -1.3506544 -0.44405288
0002f0 ef 28 e0 bf 56 8e cb be 9f 17 58 3e 7a 8f 9c 3f
       -1.7512492 -0.3975703 0.2110276 1.2231286
000300 02 b8 1b 3f c0 40 7d 3f fa f3 53 3f f2 41 e0 3f
       0.6082765 0.98926926 0.82794154 1.7520125
000310 da c9 ab 3d 34 f0 bb bf 43 5e 43 3e 1a 1c 61 bf
       0.083881095 -1.4682679 0.19078927 -0.87933505
000320 2f 7c 25 bf 77 74 e6 bf 48 25 cb 3e 77 1e 6e bf
       -0.64642614 -1.8004292 0.3967688 -0.93015236
000330 19 da 86 3f 28 98 47 3e 7c 1f 66 bd 59 a9 9c 3e
       1.0535308 0.19491637 -0.05618237 0.30597952
000340 3a 86 07 3f 6c c2 0e 3f 0a 7e 21 3e af 2e 9e be
       0.5293919 0.55765414 0.15770736 -0.30894992
000350 d6 68 76 3e 65 90 aa 3e bc 70 a6 3f f7 85 74 3f
       0.24063429 0.3331329 1.3003154 0.95516914
000360 f5 ee dc 3e 13 b0 66 3e e8 ff ff 3e 1d 9f 31 3e
       0.4315106 0.22528104 0.49999928 0.17345853
000370 75 91 71 bf 2b f9 43 3e 91 95 68 c0 c7 54 a4 bf
       -0.94362575 0.19138019 -3.6341288 -1.2838372
000380 60 7e ba bf 2f 11 e0 be b0 db c1 3f b2 37 99 3f
       -1.4569817 -0.4376311 1.5145168 1.1970122
000390 40 f7 39 c0 87 4f db be c0 c2 98 be db cc 25 bf
       -2.905716 -0.42834112 -0.29836082 -0.6476571
0003a0 ae 08 3b bb 0c 5d 14 bf ae df cb bc 97 92 89 3e
       -0.002853911 -0.5795448 -0.024886932 0.26869652
0003b0 94 8c 8e 3f 6e 0b 07 c0 32 a2 4d c0 cb fb 25 c0
       1.1136651 -2.1100726 -3.2130246 -2.5934932
0003c0 87 83 e9 3d ce fb 56 3f 2f c1 4d bf 0d 3c 55 3f
       0.1140204 0.83977973 -0.803729 0.83294755
0003d0 b5 ae 87 3f f8 dd 56 bf 5c 7f c1 bc 2e 1f 07 3e
       1.0600191 -0.8393245 -0.0236203 0.13195488
0003e0 9a 05 32 40 27 be b6 3e 9a e2 21 c0 ca 8c a0 3e
       2.781592 0.3569195 -2.5294557 0.31357414
0003f0 61 42 b4 3f e5 72 b5 bc de 35 36 3e d8 f6 2c 3f
       1.4082757 -0.022149513 0.17793986 0.67564154

bias f4 [32]
000000 bc 5a df bf 68 fc ec bf c9 09 e5 bf 09 09 32 3f
       -1.7449565 -1.8514528 -1.7893611 0.69545037
000010 af 0d ac bf 46 9c 00 c0 35 40 fa bf ba 4f fb be
       -1.3441676 -2.0095382 -1.9550844 -0.49084264
000020 55 3a 2e c0 a9 b5 20 bf 2e b1 d8 be 2c 9e 16 bf
       -2.7223103 -0.6277719 -0.42322677 -0.588351
000030 ae 66 99 bf 89 dc b1 bf 6c 7e 06 bf 9a 47 30 c0
       -1.198446 -1.3895427 -0.52536654 -2.7543702
000040 d6 f6 05 bf 7b 0c 34 c0 06 cd 5e 3f c8 d4 df bd
       -0.52329767 -2.8132617 0.8703159 -0.10929257
000050 c2 6f 2b c0 d9 dc 97 3c 6e 83 0c c0 44 80 83 bf
       -2.6786962 0.018537926 -2.1955218 -1.0273519
000060 36 2d 4a bf 2f 59 07 c0 3c b1 c1 3d e8 6e a6 bf
       -0.78975236 -2.1148183 0.09457633 -1.3002596
000070 7f fe 32 c0 af a4 84 bf 7b 7e 98 bf 6a 6f 12 c0
       -2.7967832 -1.0362757 -1.1913599 -2.2880502

weight f4 [32]
000000 57 32 0b 40 75 97 96 3f ce dc bd 3f 1c 47 d4 3f
       2.1749475 1.1764971 1.4833009 1.6584201
000010 60 95 9f 3f 72 05 e0 3f 6e b1 f5 3f be 74 e9 3f
       1.2467461 1.7501662 1.9194772 1.8238752
000020 b9 82 cb 3f 5a 65 97 3f b6 cf 08 40 96 ec aa 3f
       1.5899268 1.1827805 2.1376777 1.335345
000030 f6 6f 08 40 eb 00 dd 3f 56 17 02 40 50 34 bb 3f
       2.1318336 1.7265905 2.0326743 1.462534
000040 12 0f e4 3f 98 df c8 3f 5d 1a f6 3f 46 fd 02 40
       1.7817099 1.5693235 1.9226795 2.0467086
000050 cd 4c b4 3f 8c ad 0a 40 9a 41 00 40 10 a2 e1 3f
       1.4085938 2.1668425 2.004004 1.7627583
000060 31 da d6 3f e0 4e a8 3f d6 cf bc 3f 02 92 c4 3f
       1.6785337 1.3149071 1.4750926 1.5357058
000070 73 60 c4 3f 0f cc d8 3f 55 26 ac 3f 49 b1 bc 3f
       1.5341934 1.6937274 1.3449198 1.4741603

bias f4 [32]
000000 a6 8c 9a bf 2a cf 86 be 5c b3 11 bf 97 7f fd be
       -1.2074172 -0.2632993 -0.56914306 -0.49511406
000010 e1 19 10 bf 73 57 94 3f a6 bb d2 3e 85 97 97 3f
       -0.5628949 1.1589187 0.4115879 1.1843115
000020 4e 34 f3 3e 83 11 b7 3f b2 fd 80 3f 3f 56 31 3f
       0.47500843 1.4302219 1.0077422 0.69272226
000030 7b aa 81 3f 37 3a 8d bf b4 97 29 3f cd ad 6f 3f
       1.0130152 -1.1033391 0.66247106 0.93624574
000040 f4 bc c2 3e 66 21 4c 3d 52 cc 4b 3f d4 39 85 3f
       0.38034785 0.04983654 0.79608643 1.0408273
000050 0e 7b 06 c0 d6 dd 18 3f 4a 78 5d bd 0b 01 08 3e
       -2.1012607 0.59713495 -0.054069795 0.13281648
000060 6b e9 69 3d f7 68 22 3e 76 62 a1 be b9 bb 36 bf
       0.05710737 0.15860353 -0.31520432 -0.7138019
000070 96 aa 15 3e 28 ba d9 bf 79 0e 2f 3f 4f a5 57 be
       0.14615855 -1.7009935 0.6838146 -0.21059154

running_mean f4 [32]
000000 ac 6b a1 3f 11 61 a4 3f 8a bc d7 3f 67 e4 c6 40
       1.2610984 1.2842122 1.6854413 6.215381
000010 29 d1 65 40 b9 32 8f 40 8f 46 f7 3f 4f fb a4 40
       3.5908911 4.4749417 1.9318408 5.1556773
000020 a5 7f 54 40 13 cf c6 40 50 ae 6d 40 90 d1 da 40
       3.3202908 6.2127776 3.7137642 6.8380814
000030 30 9f 26 40 a1 ea 83 40 95 0f 0f 40 18 7a 2e 3f
       2.603466 4.122391 2.235326 0.6815505
000040 41 02 45 40 6e 40 86 40 90 29 2b 41 1f c7 11 40
       3.0782626 4.195365 10.697647 2.2777784
000050 f3 14 cc 3f 28 67 a9 40 21 3a 8a 3f 38 53 d9 40
       1.5943893 5.2938423 1.079899 6.7914085
000060 8e 42 89 40 9b 38 bc 3f 65 74 11 40 f7 cc 2b 41
       4.2893744 1.4704775 2.2727292 10.73754
000070 1f af 13 40 ba 5d fb 40 92 19 b8 40 05 34 17 40
       2.3075635 7.855191 5.7531214 2.36255

running_var f4 [32]
000000 89 91 b4 42 db ce 5b 42 c8 7a 8d 42 e9 2d 13 43
       90.28425 54.952007 70.73981 147.17934
000010 2f 55 b1 42 1a 52 39 43 e5 65 b7 42 09 01 84 42
       88.666374 185.32071 91.69901 66.00202
000020 e9 47 34 43 25 85 d5 42 e1 a6 43 43 c0 ed 44 42
       180.2809 106.76005 195.65187 49.232178
000030 cd ca 3b 43 36 c3 51 43 a7 0a 22 43 7c a2 0c 42
       187.79219 209.76254 162.04161 35.158676
000040 78 f4 c7 42 e3 df a4 43 da c2 da 42 41 95 cc 42
       99.97748 329.7491 109.38057 102.29151
000050 e6 76 28 42 89 56 40 43 22 bc 70 42 77 46 4c 43
       42.11611 192.33803 60.183723 204.27525
000060 c2 7e 29 43 16 d9 17 42 e1 40 94 42 61 06 d0 42
       169.49515 37.961998 74.12672 104.01246
000070 ac a2 00 43 21 c3 77 43 fb cc a8 42 6f c3 87 42
       128.63544 247.76222 84.40035 67.88171

weight f4 [64, 32, 3, 3]
000000 15 52 c1 3f de 55 85 3d f3 89 3f bf 7e 99 ac 3f
       1.5103174 0.065105185 -0.7481987 1.3484342
000010 b0 c7 40 bd fa 1e d4 bf c5 97 cb 3e 36 79 67 c0
       -0.047065437 -1.6571953 0.39764228 -3.6167731
000020 8e 74 a8 bf 6b 5f ab be 5b fb 23 3f e8 f8 99 bf
       -1.316057 -0.33471236 0.64055413 -1.2029085
000030 ec fa 82 3e ae 78 67 3e 24 b1 f2 bd 0b f9 1e 3f
       0.25582063 0.2260463 -0.11850193 0.6209876
000040 72 8d d0 be a0 68 44 3f 29 ab 93 bd d8 de 2d 40
       -0.40732914 0.76722145 -0.072103806 2.7167263
000050 99 a4 1c 3f d1 2f 5a bf 80 e0 bb 3e 01 ec 32 bf
       0.61188656 -0.8522921 0.36694717 -0.69891363
000060 84 18 1f bf 67 2c 2d be d8 03 93 bd 88 88 0d c0
       -0.6214678 -0.1691147 -0.071784675 -2.2114582
000070 8b e8 de bf 5d ec c2 3f 16 48 84 3f 12 02 92 be
       -1.7414716 1.5228382 1.0334499 -0.28517205
000080 5e c3 bd bf 90 5f 4d 3f 2c af 03 3f 69 ea 21 c0
       -1.4825246 0.8022394 0.51439166 -2.5299323
000090 ad 4f 12 be de eb 19 bf 4b c3 3e bf 79 a2 2c be
       -0.14288206 -0.6012553 -0.74516743 -0.16858853
0000a0 15 00 77 bf e1 e8 1e c0 2d d9 ae 3e 43 47 99 3f
       -0.964845 -2.4829638 0.34150067 1.1974872
0000b0 a5 a7 ed bf f9 75 83 be 2a a5 0d bf 8d d4 97 3f
       -1.8566786 -0.25675943 -0.55330145 1.186174
0000c0 52 be 39 bd 31 6d f9 be 19 67 b2 3f e3 20 70 3f
       -0.04534752 -0.4871612 1.3937713 0.9380018
0000d0 a5 54 9e bf 59 59 76 3c 8c 4d f2 bf b8 aa 1c 3f
       -1.2369581 0.015035951 -1.8929915 0.61197996
0000e0 95 4b 98 be e5 6d 1b 3f e5 f5 bc 3f 14 55 e1 3e
       -0.29745165 0.6071456 1.4762541 0.44010222
0000f0 6c c7 ee 3d d5 85 6a bf f5 a7 5c 3f b4 bf 4b bf
       0.116591305 -0.9161046 0.8619378 -0.7958939
000100 14 d6 23 c0 82 80 6c bf 01 d7 04 c0 1b 20 a4 3f
       -2.5599413 -0.9238359 -2.0756228 1.2822298
000110 4c ce b8 3f e0 e0 83 bd b1 3e 5a be b4 73 93 bf
       1.4437957 -0.06439376 -0.21312977 -1.1519685
000120 66 c0 43 bf 0a a7 35 3f ee 4f e6 3d e0 12 3a be
       -0.7646545 0.70958006 0.11245714 -0.18171263
000130 1b f2 ce 3e c8 11 2e 3f c3 f6 11 be 89 04 d4 be
       0.40419087 0.6799588 -0.14254288 -0.4140971
000140 76 9c 0a 40 5f de 53 bf 82 f1 84 bf 4c f5 bb be
       2.1657996 -0.82761186 -1.0386202 -0.36710584
000150 38 dc 73 3f d7 ad da 3f 35 47 e3 3e 00 98 be bf
       0.952579 1.7084302 0.44390264 -1.4890137
000160 74 21 40 bf cc 34 ed 3f 07 4e 84 bf c2 3f 4f c0
       -0.75051045 1.8531737 -1.0336312 -3.2382665
000170 35 d3 fb bf d8 25 16 40 b7 59 08 be 19 7e 1b bf
       -1.967383 2.3460598 -0.13315473 -0.60739285
000180 20 a6 4a 3f 99 f1 2d c0 bd e6 55 be d9 7a b4 bf
       0.79159737 -2.717871 -0.20888801 -1.409999
000190 65 68 a8 be 21 d3 46 3f 1c fa ab 3f 5f dd 0b be
       -0.32892147 0.7766591 1.3435702 -0.13658665
0001a0 c5 a8 47 bf fc 8b 66 be 75 67 9c 3f ee e0 6c 3e
       -0.77991897 -0.22514337 1.2219073 0.23132679
0001b0 34 ac 3c 3f 83 56 3a be a1 20 82 bf bf 64 f9 be
       0.7370026 -0.18197064 -1.0166208 -0.48709676
0001c0 23 bb a1 be ca 01 3f bf a4 51 db 3e d9 cc 76 bf
       -0.31588086 -0.74612105 0.42835724 -0.9640632
0001d0 1a 33 91 bf cd 81 eb bd 79 27 8e 3f 09 37 96 3f
       -1.134372 -0.11499367 1.1105796 1.1735545
0001e0 51 29 33 3f a2 76 9c bd 6f 0e a6 3e 42 06 31 bf
       0.6998492 -0.07639815 0.32432887 -0.69150174
0001f0 50 fe 77 be c6 a4 af bf 7f 30 46 bf a8 97 44 bf
       -0.24218106 -1.372216 -0.7741775 -0.7679391
000200 73 46 80 3d 4e 96 25 3f 26 76 93 3f 71 12 46 c0
       0.06263437 0.6468247 1.1520431 -3.0948756
000210 b1 71 5d 3d cc 3b b9 bf dc 71 2e c0 8a ee da be
       0.054063503 -1.4471374 -2.7256994 -0.42760116
000220 0d 72 1a bf f4 80 d4 bf 17 25 98 be b9 8f 25 c0
       -0.6033028 -1.6601853 -0.29715797 -2.5868971
000230 b5 f5 64 be e9 89 01 3e 82 e1 b8 bf 00 9a 03 bf
       -0.22359355 0.12650265 -1.444382 -0.5140686
000240 87 39 52 be c4 fc 85 3f 19 eb 2f be e2 72 80 bf
       -0.20529757 1.0467763 -0.17179526 -1.003506
000250 cc aa 09 3f da 48 74 be 79 3f e7 3e d6 c0 d7 3f
       0.5377624 -0.23855916 0.45165613 1.6855724
000260 62 ae 8d bf 3b 92 eb 3e 23 21 cf 3f 3c e2 ee be
       -1.1068842 0.46010002 1.6181988 -0.46656978
000270 48 70 65 bf 32 b8 aa 3f f0 2e b3 c0 f8 d8 e4 bf
       -0.8962445 1.3337462 -5.5994797 -1.7878714
000280 51 22 d1 bf f4 44 e1 bf a3 30 b7 3f c6 d4 f0 3f
       -1.6338598 -1.7599168 1.4311718 1.8814933
000290 c5 c9 2f 3f 70 90 f7 bf 51 83 25 bf f1 19 fa bd
       0.6866725 -1.9340954 -0.646535 -0.12211979
0002a0 f0 63 f3 bf b4 3f 73 bf 31 44 de 3e f0 3a 1f 3e
       -1.9014874 -0.9501908 0.434114 0.15549827
0002b0 04 01 f9 3e 52 87 ab 3f 1f 82 cd be 2e 7c f9 bd
       0.48633587 1.3400671 -0.40138337 -0.121818885
0002c0 c3 b5 af bf 47 3b 62 3f bf 73 99 3e 10 15 44 c0
       -1.3727344 0.883717 0.2997112 -3.0637856
0002d0 8f e0 d5 3e 82 b9 96 be c7 86 33 3f b2 50 e4 3e
       0.41772887 -0.29438406 0.7012753 0.44592816
0002e0 bf 86 92 3f 85 ff 13 40 32 5e b6 3f 96 d1 cd 3f
       1.1447371 2.3124707 1.4247496 1.6079586
0002f0 80 eb a1 3f be 9d 8d be 25 4e d2 3e 51 3e 55 be
       1.2649994 -0.2765941 0.41075245 -0.20824553
000300 e7 64 e4 bd f1 6d 7f be 2c e5 1d 40 58 c2 8e 3e
       -0.11152058 -0.24944283 2.4671125 0.27882648
000310 84 51 bc bf 69 d3 9a 3f 86 d6 0e c0 26 2d ae 3e
       -1.4712377 1.2095767 -2.2318435 0.3401882
000320 af aa 96 3e 27 e0 d8 3f 99 21 d3 3f 8a 82 22 c0
       0.29427096 1.6943406 1.6494628 -2.5392175
000330 45 2a 54 3e c9 64 af be 77 e2 f5 bf ee 14 98 bf
       0.2071925 -0.3425658 -1.9209737 -1.1881387
000340 82 7c c9 3d 57 b5 b7 3f 2c 5d 85 bf fb 4e b5 bd
       0.09838201 1.4352216 -1.0419059 -0.08852955
000350 02 ce cd 3f 0b 31 b1 3e a5 41 f9 3e c8 22 1e bf
       1.6078494 0.3460773 0.48682895 -0.6177182
000360 bc 28 9d 3f 28 4e 53 bf 88 55 4d bf 1f 3d 38 3f
       1.2278056 -0.8254113 -0.80208635 0.71968263
000370 8d 66 44 3c 11 74 d9 3e 7c be 83 3f 79 7b 52 bd
       0.011987341 0.42471364 1.0292506 -0.051387284
000380 88 8b c4 bf 56 0a 8c 3f 8d fc f9 bf f5 59 92 c0
       -1.5355082 1.0940654 -1.9530197 -4.573481
000390 b5 36 91 bf 40 60 05 c0 ff 79 92 3f 62 2d 15 be
       -1.134482 -2.0839996 1.144348 -0.14568093
0003a0 72 1a 0a 3e 71 2f ad bf 61 c0 97 bf d1 ee 5c 3f
       0.1348665 -1.3530103 -1.1855584 0.86301905
0003b0 55 14 25 3f a4 f9 23 3f 4f e3 3f 3f 9c c1 4c bf
       0.6448415 0.64052796 0.7495622 -0.79982924
0003c0 e3 a0 da bf 62 f0 6a 3f 6e 4e d0 3e 86 84 a6 bf
       -1.7080349 0.91773045 0.40684837 -1.3009193
0003d0 0a 77 15 3f 4b d4 4e bf 4b be 3e 3f 17 c3 c3 3f
       0.58384764 -0.80792683 0.74509114 1.5293912
0003e0 3a b9 f0 3e 0e 50 89 c0 7d 29 2e be 5b 06 b3 3f
       0.47016317 -4.2910223 -0.17008014 1.3986315
0003f0 72 91 12 bf 66 08 50 bf 33 50 e2 be 9b 69 bc be
       -0.5725318 -0.81262815 -0.44201812 -0.3679932

bias f4 [64]
000000 4c c1 99 be 6c fe 40 c0 40 bc f8 3b 84 f4 7c be
       -0.30030286 -3.0155287 0.0075908005 -0.2470265
000010 d6 46 8b bf da 0e 06 c0 0e 9d d7 be 11 3f d1 be
       -1.0880992 -2.0946565 -0.4211201 -0.40868428
000020 e1 db f9 be 04 0f 64 bf 41 7c c9 bf dd df af bf
       -0.48800567 -0.8908541 -1.5741044 -1.3740193
000030 d8 89 11 3d cd 68 6e be d2 4e b5 bf c2 61 93 bf
       0.03553185 -0.23282166 -1.4164679 -1.1514208
000040 50 f1 8c bf a4 7c ad bf c7 18 41 3e 86 b4 96 bf
       -1.1011143 -1.3553662 0.18857108 -1.1773841
000050 85 9f 04 3f 09 75 65 3e 87 e5 21 c0 ef 18 96 bf
       0.5180591 0.22407927 -2.5296342 -1.1726359
000060 55 3c 22 bf b4 cb bc bd 42 91 fd be 3a 4c a8 bf
       -0.6337331 -0.09218541 -0.49524885 -1.3148263
000070 3d b7 be bf 14 27 33 bf e3 08 51 bf 90 df ce be
       -1.489967 -0.69981503 -0.81654185 -0.4040494
000080 4c 5f 56 bc 22 8e d1 be 88 6f 88 bf f7 77 49 bf
       -0.013084244 -0.4092875 -1.0659037 -0.78698677
000090 2b 80 0a bf e6 89 d5 3d f3 5f e0 be b3 b9 0f bf
       -0.5410182 0.10426693 -0.43823203 -0.5614273
0000a0 51 61 0d bf 36 8b 02 c0 11 2e 59 bf 73 2e 8f 3f
       -0.5522662 -2.0397468 -0.84835917 1.118605
0000b0 43 a4 63 bf 38 57 9e bf e9 1d a0 bf f3 f9 af 3e
       -0.8892252 -1.2370367 -1.2509128 0.34370384
0000c0 43 af ef be 89 27 9d 3e 31 de cf bf 81 c0 3e bf
       -0.46813402 0.30694225 -1.6239682 -0.7451249
0000d0 7f 65 1b bf 82 07 e8 bf a4 3f cd bf 40 9e 1c bf
       -0.60701746 -1.8127291 -1.6035047 -0.6117897
0000e0 bd 97 dc 3e a4 41 30 bf ee e2 b2 bf 6d 33 a9 bf
       0.43084517 -0.6885016 -1.3975503 -1.3218819
0000f0 23 9c 8a bf a4 77 15 c0 5a 4f 0f c0 6d 94 92 bf
       -1.0828899 -2.3354273 -2.2392182 -1.1451546

weight f4 [64]
000000 b2 5b 87 40 03 7b 8e 40 56 6f c3 3f 03 16 93 40
       4.2299433 4.452516 1.5268352 4.596437
000010 e5 2d 8a 40 1f d7 5b 40 45 0e 9e 40 e1 63 56 40
       4.3181024 3.435005 4.939242 3.3498461
000020 9c bd 59 40 04 38 80 40 1d b2 84 40 77 2f 65 40
       3.4021978 4.006838 4.1467423 3.581022
000030 89 0f b0 3f f7 26 86 40 74 16 82 40 b5 55 41 40
       1.3754741 4.1922565 4.065241 3.0208561
000040 e5 22 52 40 20 ad 9a 40 3e c4 97 40 ef 75 33 40
       3.2833798 4.8336334 4.7427053 2.804073
000050 a6 0d 90 40 86 d7 ba 3f 68 db 9a 40 b1 28 7b 40
       4.501666 1.4597023 4.839283 3.9243586
000060 f0 c9 a7 40 29 27 52 40 d6 f2 9d 40 b7 bd 8e 40
       5.2434006 3.2836401 4.935893 4.4606586
000070 9e 1c 86 40 d4 41 57 3f b7 5d c6 3d c5 e8 ac 3f
       4.1909933 0.8408482 0.096858434 1.3508536
000080 aa 0b 8d 40 c8 23 06 40 aa b8 6c 40 01 d9 7e 40
       4.407674 2.095934 3.698771 3.9819949
000090 bf 25 c2 40 8b 21 72 40 a3 b6 71 40 ae 7f 9c 40
       6.0671077 3.7832973 3.7767723 4.890586
0000a0 fc 71 8a 40 99 c1 64 40 32 2b 7e 3f 57 91 a8 40
       4.326414 3.5743163 0.9928466 5.2677417
0000b0 db d2 a2 40 ea e7 8e 40 21 fe 82 40 50 a8 ba 40
       5.088239 4.46581 4.0935216 5.833046
0000c0 ca 19 87 40 a4 6c 9c 40 fb 56 53 40 83 f4 73 40
       4.221898 4.888262 3.3021839 3.8117988
0000d0 85 81 41 3f 0c 6e 85 40 8d 40 86 40 ee f9 2b 40
       0.75588256 4.1696835 4.1953797 2.6871295
0000e0 d4 bf a5 40 f2 f6 81 40 65 70 4f 40 63 a4 8d 40
       5.1796665 4.0613947 3.241235 4.4263167
0000f0 20 01 89 40 31 1e 8d 40 09 c4 84 40 66 76 83 40
       4.2813873 4.4099355 4.14893 4.108203

bias f4 [64]
000000 fd b1 bf 3e 01 3d 7b 3e 2c 15 46 3d b2 56 2b 3e
       0.37440482 0.2453499 0.048360035 0.1673229
000010 48 b6 06 3c fb f3 a6 3e 5e 4d d2 3e 60 c7 59 bd
       0.00822217 0.32608017 0.4107465 -0.053168654
000020 ab bc 8b 3e d1 0b 3a 3c 64 8c 0f 3d f0 b8 8d 3e
       0.2729238 0.011355356 0.035045996 0.2768016
000030 23 5a 0b 3e e6 1e 80 3e 9b 9b 22 3e 09 af 0e 3e
       0.13608603 0.25023574 0.15879671 0.13933958
000040 78 b5 a1 3c ed 6a 21 bd 7e b8 69 3d 52 e7 19 3e
       0.019739851 -0.039408613 0.05706071 0.15029648
000050 f1 ce 1d 3c 75 bf fa 3a 6b e3 b6 3e e8 6d ed 3d
       0.009631858 0.0019130545 0.3572038 0.115932286
000060 b0 26 01 3e 9c 95 67 3d ad 85 39 3e 90 37 32 3e
       0.12612414 0.056539163 0.181174 0.17404008
000070 89 59 a8 3e 83 5f 80 3d 4b a2 dc 3b 4e b3 03 3e
       0.3288081 0.062682174 0.006733214 0.12861368
000080 2d 7d 42 3e d9 d2 09 3e d2 28 f6 3d f5 d9 b9 3c
       0.18993063 0.13459338 0.120195046 0.022686938
000090 84 51 98 3e 2c d7 98 3d 7b 8f ab 3d 9f 93 d4 3d
       0.2974969 0.07462916 0.08376976 0.10379719
0000a0 d9 57 56 3e 76 2d 5e ba 85 8c 7d 3e b9 fb 44 3e
       0.20931949 -0.0008475402 0.24760635 0.1923665
0000b0 13 a0 72 3e 2f 59 ff 3d 95 67 a8 3e c4 3f 8d 3e
       0.23693876 0.12468182 0.32891527 0.27587712
0000c0 66 a2 d7 3d cf ae a3 bd 7b 6f bb 3d 63 2a 33 3e
       0.10529022 -0.079923265 0.091521226 0.17496638
0000d0 9d 89 a7 3c 5e 46 43 3e 56 51 a2 3e a4 a2 ad 3c
       0.020451361 0.19069812 0.3170268 0.021195717
0000e0 df 40 ac 3e 47 75 0d 3b b4 bc 49 3e 68 9e 2a 3e
       0.33643243 0.0021584795 0.19700891 0.1666199
0000f0 0b 06 cf 3d 74 48 c8 3e 76 0e b0 3d da d3 0f 3d
       0.101085745 0.39117777 0.08596508 0.035114147

running_mean f4 [64]
000000 99 80 c1 3f ae c8 3a 3f 06 7d 68 42 c8 6b 24 3f
       1.511737 0.7296246 58.122093 0.6422696
000010 a2 50 f9 3e 18 03 b1 3f 9f e3 1c 40 51 4b 5a 3f
       0.4869433 1.3829069 2.451393 0.85271174
000020 14 b1 50 3f cf 2e c3 3e 10 56 22 3f 7a 21 7e 3f
       0.815202 0.3812165 0.6341257 0.9926983
000030 14 9f dd 41 ea 5d 85 3f ed 7f 2d 3f c5 62 91 3f
       27.702675 1.0419285 0.67773324 1.1358267
000040 b6 cf dd 3e 9b f3 de 3e 66 e4 3f 3f 27 53 fe 3e
       0.43322533 0.4354523 0.74957883 0.49672815
000050 00 2d 1e 3f 4d 50 9a 42 b9 d8 da 3f f4 5b b3 3f
       0.61787415 77.15684 1.7097389 1.4012437
000060 76 e2 bb 3e 18 9b 23 3f 40 ed ae 3f 3c 88 bb 3e
       0.36696213 0.6390853 1.3666153 0.36627376
000070 e1 c6 17 3f fc 04 5c 40 88 d8 88 3e 62 ab 90 40
       0.5928784 3.4378042 0.267277 4.5209208
000080 5e d4 20 3f d7 bc 48 40 4a a4 fa 3e 79 ab 26 3f
       0.62824047 3.1365259 0.48953468 0.65105397
000090 f2 b3 2f 3f 81 f4 94 3f 02 02 5a 3e c1 ac d3 3e
       0.6863395 1.1637117 0.21289828 0.41342738
0000a0 1b 37 53 3f 61 f9 a6 3f 34 05 0f 41 ba d1 57 3f
       0.8250596 1.3044854 8.93877 0.8430439
0000b0 3d 7a 17 3f 5c 4e 25 3f 4c 03 c9 3e 48 46 a2 3f
       0.59170896 0.6457269 0.39260328 1.2677698
0000c0 4e a8 48 3f c5 61 80 3e cd 46 94 3e da b5 d0 3f
       0.7838181 0.25074592 0.28960267 1.6305497
0000d0 01 4e 3b 41 ac 4e ce 3e 33 e9 55 3f 3a a3 36 40
       11.706544 0.40294397 0.8355896 2.8537126
0000e0 24 28 4c 3f 93 a0 04 3f 15 1c 1c 40 d6 cb 37 3e
       0.7974875 0.51807517 2.439214 0.17948851
0000f0 98 10 06 3f 5f 18 c9 3f 1e 9e 3b 3f d3 ec 52 3f
       0.5236907 1.5710562 0.7328814 0.82392615

running_var f4 [64]
000000 0e 08 c2 42 1f 1e 1f 42 83 eb 13 45 df 80 df 41
       97.01573 39.779415 2366.7195 27.937925
000010 b2 a8 bf 41 d0 be a3 42 db 6f 3c 43 a0 ca 32 42
       23.95737 81.87268 188.43694 44.697876
000020 3c 44 18 42 33 8d 64 41 48 62 0c 42 50 37 4b 42
       38.066635 14.284472 35.095978 50.804016
000030 6f 2c 75 44 b4 8c 84 42 3f fd 13 42 09 1f b1 42
       980.6943 66.27481 36.99731 88.560616
000040 3d d0 99 41 15 d7 95 41 1e 80 26 42 89 f7 be 41
       19.226679 18.73002 41.625114 23.870867
000050 5f 66 e8 41 87 53 02 45 77 3e e3 42 22 e7 ae 42
       29.049986 2085.2205 113.622 87.45143
000060 2b 82 6f 41 86 cd d1 41 33 a8 c8 42 04 bb 81 41
       14.969279 26.225353 100.328514 16.216316
000070 90 c8 dd 41 8d 06 b6 42 5d 2d 8c 41 cf cf 8e 43
       27.72293 91.012794 17.52215 285.6235
000080 3b e5 04 42 89 41 ff 42 86 46 cc 41 19 2a 00 42
       33.223858 127.628 25.534435 32.04111
000090 9a 85 2c 42 c0 6b 76 42 77 a0 ec 40 82 31 97 41
       43.13047 61.605225 7.394588 18.899174
0000a0 06 88 2c 42 95 81 d3 42 3f 9e 8d 43 e6 34 1e 42
       43.132835 105.75309 283.2363 39.55166
0000b0 e6 b4 e9 41 04 f9 ec 41 cb d4 83 41 eb f9 89 42
       29.21333 29.62159 16.478903 68.98812
0000c0 3e 1d 0f 42 ca 6b 2d 41 b8 ce 5a 41 79 72 0d 43
       35.778557 10.838816 13.675468 141.44716
0000d0 fa 05 da 43 26 bf 97 41 dd f5 24 42 90 d0 65 43
       436.0467 18.968334 41.2401 229.8147
0000e0 88 8c 41 42 44 ee c2 41 1d 1e 21 43 26 47 17 41
       48.387238 24.36634 161.11763 9.45487
0000f0 b6 92 e3 41 e8 8f c9 42 f8 8e 0b 42 40 03 25 42
       28.446636 100.78107 34.889618 41.253174

weight f4 [10, 64]
000000 cf 25 09 3f 0b 82 79 bf ad 51 a1 3e 90 2f fa 3e
       0.53573316 -0.97464055 0.31507626 0.48864412
000010 46 1b c1 bf 15 31 67 3f 60 65 19 bf ba b0 5d 3d
       -1.5086448 0.9030927 -0.5992031 0.054123618
000020 e3 f4 80 bf 56 77 c1 be 8f b0 ce bf 61 d2 62 3e
       -1.0074733 -0.3778636 -1.6147631 0.22150566
000030 5d e4 80 3f 61 fa 54 c0 18 15 06 c0 06 9a 5d 3f
       1.0069691 -3.327782 -2.0950375 0.86563146
000040 a4 0a f1 3e c4 ff 06 be 7e 84 18 40 12 b3 0b bf
       0.4707843 -0.13183504 2.3830867 -0.54570115
000050 7e 7a 13 3e b3 fa e2 3f d7 85 2c c0 2a 74 75 bf
       0.14402196 1.7732757 -2.695669 -0.9588038
000060 61 30 10 bf 90 be a7 3e 2e 31 7e 3f 00 d3 cb bd
       -0.5632382 0.32762575 0.9929379 -0.099523544
000070 fd ff 93 bf 21 bc 25 3f 5b be 7d bd b6 87 39 3f
       -1.1562496 0.64740187 -0.061949115 0.72472703
000080 32 b1 6e bd 5b 25 8a 3f 24 25 90 3e f7 d8 e1 be
       -0.058274455 1.079265 0.28153336 -0.44110844
000090 15 c6 17 40 e6 42 1f be 9e 66 cf bc 01 68 4f bf
       2.371465 -0.15552863 -0.025317486 -0.8101807
0000a0 97 6a e0 3d 27 3e e9 3f 6e 99 95 be 8b e1 a0 3f
       0.109578304 1.8222092 -0.2921862 1.256883
0000b0 a8 b4 0e c0 c7 bb 0a c0 23 76 45 bf 40 40 76 3f
       -2.2297764 -2.167711 -0.7713339 0.9619179
0000c0 34 d2 17 c0 9f 70 43 bf 2b eb 48 3f bd d6 da 3f
       -2.3722048 -0.7634372 0.7848384 1.7096783
0000d0 65 9e 85 bf d7 52 7a 3e 8e 7e a6 bf c3 8d 4c 3f
       -1.0438963 0.24445663 -1.3007371 0.7990381
0000e0 3d 36 f0 3f 90 a0 c8 3f ce 91 00 bf 50 cb 03 c0
       1.8766552 1.5674 -0.5022248 -2.0592842
0000f0 a3 da b6 bd 4e 1b 31 3f 77 06 e4 3c b7 9f 96 bf
       -0.089284204 0.6918229 0.027835114 -1.1767491
000100 05 51 1b bf 1f ad a8 3f c1 ed 13 3e c8 77 df 3f
       -0.606705 1.3177832 0.14446165 1.7458429
000110 09 2b 69 3f 79 8d 61 bf c5 a1 98 3f 57 5e b3 be
       0.9108129 -0.88106495 1.1924368 -0.35032913
000120 e4 a2 f9 3e 8e 7c 43 bf 51 9e 5d be 89 06 f6 be
       0.48757088 -0.7636193 -0.21642424 -0.4805186
000130 70 e2 d4 3e 34 f9 95 3f da 9a 17 bf 61 dc bc be
       0.41579008 1.1716676 -0.5922066 -0.36886886
000140 85 75 15 bf 06 f3 53 bf 85 ba df 3c f1 d7 85 bf
       -0.58382446 -0.827927 0.02731062 -1.0456525
000150 92 53 b4 bf 4c b3 d4 bd 1a 39 99 3f 71 ea 6e 3d
       -1.4088004 -0.10385761 1.1970551 0.05832905
000160 24 30 00 c0 ee a1 e9 3e 6b 07 42 bf c0 db 91 be
       -2.0029383 0.45631355 -0.7579257 -0.28487968
000170 6e f7 c8 3f ec e7 6f be 45 3a cc bc 22 d9 cc 3c
       1.570051 -0.23428315 -0.024930129 0.02500588
000180 3d d8 05 40 2d a5 5a 3f b4 ca da 3f 90 09 09 3e
       2.0913231 0.8540829 1.709311 0.13382554
000190 37 2b 63 3e 72 1f 07 3f fc 0e 57 bf 77 81 df be
       0.22184454 0.52782357 -0.8400724 -0.4365346
0001a0 bc 72 b8 bf 09 f6 be bf 31 c7 b1 bd 00 ca db bf
       -1.4410014 -1.4918834 -0.08680571 -1.717102
0001b0 5b 2f 21 3f 31 90 ac bf 70 97 a6 3f 14 5f 58 3f
       0.62962884 -1.3481504 1.3014965 0.8452008
0001c0 4a e9 23 be 24 8a da bf d2 1d ac 3f 1f 0b 13 3e
       -0.16006961 -1.7073407 1.34466 0.14359711
0001d0 ee 8d 8c 3d d3 0d 5e bd 4b 06 93 3f 19 3c 01 3f
       0.068630084 -0.054212403 1.1486295 0.50482327
0001e0 11 71 8e bf 98 d6 b6 be 73 ee 2e c0 b0 dc 86 3f
       -1.1128255 -0.35710597 -2.7333038 1.0536098
0001f0 2c ba 0b c0 9a 30 02 3d 66 cd 01 c0 30 0c 0d 3f
       -2.183238 0.03178463 -2.0281615 0.5509672
000200 1f 3c 97 be ae 7f d0 3f 9a 40 bb be 3e a9 6d bf
       -0.29538056 1.6288965 -0.36572725 -0.9283637
000210 1d 36 58 3f 5a b1 e5 3d 9e 49 19 3f b6 7f ea 3d
       0.8445757 0.11215468 0.59877956 0.1145014
000220 d7 85 ae 3f e6 5b f5 bd 2f 2f ea bd e1 9a e8 3e
       1.3634595 -0.11980419 -0.11434781 0.45430663
000230 29 3d 92 be 2b 47 15 3d 1b 5e d6 3f 07 58 86 3f
       -0.28562286 0.036444824 1.6747469 1.0495614
000240 fe 37 59 bf 8f 64 fe bf 35 4d 25 bf d9 9b f7 3e
       -0.8485106 -1.9874438 -0.64570934 0.4836109
000250 62 c8 c7 3f c9 d8 34 be 67 5a 54 bf 85 a0 e6 be
       1.5608027 -0.17660822 -0.82950443 -0.45044342
000260 05 d9 7c bf c3 96 23 3e b3 1b 7c 3f 7a 1a 0f 3e
       -0.98768646 0.1597548 0.98479766 0.13974944
000270 5b dc 4d 3f 59 1a 0b 3d b0 ba 84 3b 88 c4 9d bf
       0.8041436 0.033960674 0.004050575 -1.2325602
000280 8a 09 ad be d5 bd 31 bf c4 c4 99 bf e9 b5 8b 3f
       -0.3379634 -0.69430286 -1.2013173 1.091489
000290 b7 fc 7d bf f0 56 dd bf 78 d3 84 bf 62 9d bb 3f
       -0.9921374 -1.7292156 -1.0377035 1.4657404
0002a0 de 24 e3 3e 7f 15 e0 be 0b 30 80 3e 17 34 ad bf
       0.44364065 -0.437664 0.25036654 -1.3531522
0002b0 7e 7e d3 bf c7 08 a1 3f d4 64 76 3f eb 66 27 c0
       -1.6522977 1.2580804 0.962476 -2.6156566
0002c0 36 8a 96 bf a0 48 3f 3e 2a d3 b5 bf ad 3a 8b 3f
       -1.1760929 0.18680048 -1.4205067 1.0877281
0002d0 85 7c 52 3f cd 3c 46 bf 6e 72 46 3e 52 78 d6 be
       0.8222125 -0.77436525 0.19379589 -0.41888672
0002e0 f0 8d ca 3f 56 fa cd bf 0f 13 1b 3f 91 b4 28 bf
       1.5824566 -1.6092021 0.60575956 -0.6590052
0002f0 23 33 a6 3f 13 93 b9 bf 57 bc 4c 3f 3f 0b 00 be
       1.2984356 -1.4498008 0.79974884 -0.1250429
000300 af 5a 51 bf 4e 05 06 be 4d bf 86 3e 6b 11 1e 3d
       -0.81779 -0.13087961 0.26317826 0.03859083
000310 b3 5c bf 3d ab 87 93 bf 70 46 ef 3e 9d 87 c3 3f
       0.09343853 -1.1525778 0.46733427 1.5275761
000320 d6 af f1 3d 6d aa df bd cf 82 93 bf f1 2b 46 be
       0.11801116 -0.10921178 -1.1524295 -0.193527
000330 10 c6 5e be 8e c4 10 bf 42 68 d6 3e da 37 f4 bd
       -0.21755242 -0.5654992 0.41876417 -0.11924715
000340 70 a4 51 3f fd c3 da 3f aa be af be 63 7a b3 3f
       0.81891537 1.7091061 -0.34325153 1.4021724
000350 fe bd 04 c0 01 77 6a be 2d 25 cd 3f b5 22 41 c0
       -2.0740962 -0.22896959 1.602697 -3.0177433
000360 22 33 02 c0 98 57 9a bf 29 c0 ba bf 90 63 0c bf
       -2.034371 -1.2057981 -1.4589893 -0.5483942
000370 24 6e b4 bf 88 2a 5e 3e f7 bd fa bc 61 6e d2 3e
       -1.4096112 0.21695912 -0.03060816 0.41099837
000380 47 7e 39 3e 7a 26 97 be 74 0a 1d bf fb 9f 72 3e
       0.18114577 -0.29521543 -0.61344075 0.2369384
000390 5e 34 c7 bf d3 69 d6 3f ae 88 ba be 5d 16 b1 3f
       -1.5562856 1.6751045 -0.36432403 1.383495
0003a0 0c e7 24 c0 77 7b f0 bf b7 16 b8 3e e1 81 a4 3d
       -2.576602 -1.8787678 0.3595483 0.08032585
0003b0 73 27 3b 3f 90 30 67 3f be 7d 03 be 5b 8f a9 3f
       0.7310707 0.90308475 -0.12840936 1.3246874
0003c0 5b b7 24 bf d9 6a 54 3f 8a 9c 81 be 62 c3 87 3e
       -0.6434228 0.82975537 -0.25314742 0.26516253
0003d0 8b 7f 7f 3e 01 68 08 40 5d 46 8b bf ec 1a a1 bf
       0.24950998 2.131348 -1.0880848 -1.2586341
0003e0 de 3f 41 3e 4e 9f 8b 3f 90 98 c4 bf 44 73 bb 3e
       0.1887202 1.0907991 -1.5359058 0.36611378
0003f0 2e 7f f8 bf 84 1e 7f 3f e6 0e e6 bf d9 de fe 3f
       -1.9413812 0.9965594 -1.7973297 1.9911758

bias f4 [10]
000000 9e a0 c0 bd 3e 2b 07 3f c1 24 e8 3e ad 96 de 3d
       -0.09405635 0.5280036 0.4534054 0.10868583
000010 6e 3e a1 be a4 64 13 bf a1 d3 5b be 99 d9 1e 3f
       -0.31492943 -0.5757544 -0.21467449 0.6205078
000020 85 f9 ad bf d8 af 6c c0
       -1.3591772 -3.6982327
