models/zesty-salad-125_e512_f3_b128.pt (torch, 330527 bytes, 86 tensors)

conv1.weight f4 [8, 2, 5, 5]
00000000: b421 b83e f7be dc3c 23ac a33e e5b6 5bbe
00000010: 9dd2 9dbe ee1f 81bc ef05 f83e 09a4 243e
00000020: ae95 783d 606d 38bd c5de 903e 5e62 053f
00000030: bf61 6f3e a624 1a3f 5cf8 1f3f ce0b 51be
00000040: 6bda f9bd 3250 17be 2d47 a5be 83a0 0c3d
00000050: d307 9abe 7de2 f6be 28be e4be 6b43 b3be
00000060: 2f47 03be 4a8b 62bd b68c 153f e85f 5abe
00000070: e7b9 65be 1c1c 8a3e 40f5 a5be cc73 6e3e
00000080: 77e1 503e 0fc0 91be 160c 4cbe cc84 06bd
00000090: fadb ab3d f60f 513f c218 573f db75 7e3e
000000a0: fc2a 1c3d 7257 a53e c742 5d3e 3d1a 86be
000000b0: 4927 18be e20a c9be 7326 f9bc 10c0 4bbe
000000c0: 7d99 f4bd c5a5 69be 27e4 9fbe a386 29bf
000000d0: 0ac7 1bbf f5f0 83bc cdd6 bfbd 0322 783e
000000e0: 1a11 acbd 4f9c 0a3e 60b0 b93d 9f0f 6fbe
000000f0: 5cf9 0e3e 9f9f 52be 66bd b8bc 729e 103e
00000100: 8655 8a3e 4a5a 7b3f c7ce 013e d884 fd3e
00000110: f0a1 d73e 8199 023f 9f34 6e3e f667 a5be
00000120: 2376 ad3e 3b87 fe3e a6a4 903c 60ce 9dbe
00000130: a9f9 e7be 9e1b 1abf 0eea febd dd89 e0be
00000140: 1318 f5bd 0846 8f3e 06ed adbd 9acf cabe
00000150: 419b 90bd 155b 0e3e 5da2 1c3e c89c 593e
00000160: 38e6 62be e1c5 6dbe da89 893e f1d8 663e
00000170: 12a8 933e b757 143e f431 5d3e dc76 5d3d
00000180: 85ac 87be 7316 513e ab33 84be 7866 91bd
00000190: 3d3d 8abe 1115 90be 3bd5 a4bd 78ae b63e
000001a0: 20ce 693e 77b7 d9be f43f 08bf 7e55 633e
000001b0: dda1 dbbc fdbd 6f3e 54c7 dfbe 056f c23d
000001c0: cdfd e7bd e0b0 543e a5b0 d23d 31a3 35be
000001d0: c834 2b3e efef 69bd 3404 a5bd 4656 4c3e
000001e0: 216d 04bf 0b09 06bf 7b1b 87bd 0bdb b63c
000001f0: d1d5 673e 5c6c d3be 7eaf a53d 02bc de3e
00000200: 5873 343f a834 a63b 9600 1fbf 266a 453e
00000210: 34f6 413e 2885 523f c387 073f 3258 5e3d
00000220: 843b 503e 7dde bf3e a999 ae3e b0b5 dc3e
00000230: c981 c9be 4f36 61be 522a 013c 5252 913c
00000240: 9b97 443e 0d4a 06bf 925c 06bf 3081 90bd
00000250: 8c77 c73e 932e 723e 48be 903e e32e 07bf
00000260: fb10 453f 5dc9 cc3c b0c6 e2bb 593f c63c
00000270: 2171 84be 5686 ba3d 4ff9 e63b ec14 333e
00000280: 01af 453f a2d2 4ebe 3186 9d3e 5abb e5be
00000290: 1ea3 eb3d 8b88 373f 4730 64be 6699 aebe
000002a0: ba70 a2bd 9769 2bbe c368 fa3e 2d6a 1f3e
000002b0: e0ca b33e 7fb7 9a3e ae59 403e a21f 6dbb
000002c0: 81b0 01bf 0e43 93bd a15d 533e 83e5 523e
000002d0: 96bb a53e 5389 b7bd 42c7 3ebd c8f3 4abd
000002e0: 358e 2fbe de02 163e 710e 00bf cb6a ec3d
000002f0: bd58 463d 8cc2 24be b2af 0e3e e443 20bd
00000300: bb8a 06bc 88bd 16be d8b7 87be 9bda 3f3c
00000310: ccfe c23d 77ef 89be 48ca 7c3d 041c 3f3e
00000320: aae6 553e b429 303f e88c a73e 90a6 633e
00000330: d0ae 923e 60df ab3d 848d db3e 45ff 87be
00000340: 9ddb 99bd e281 a7be 709d be3d 2747 ffbc
00000350: 41f6 fabe 13c7 17bf ebf4 98be 636b db3d
00000360: 170c 9bbc ab10 523e 51d4 0a3a 935c abbe
00000370: 1a26 febc df5d 0dbf 8a06 d7be e2e1 8ebe
00000380: 5cb0 38bd ff79 733f c0a0 6d3f f50c 533f
00000390: d81a dd3e 58d7 e83c 496c b93e e3a8 c2bb
000003a0: d92f a1bc 6402 a5be 0781 d23d d947 583d
000003b0: 0190 5fbe 29db 92be 3291 37be 9fab 48bb
000003c0: 88e4 d33d dd8f a5be 9e28 d93c a2c5 253d
000003d0: 90e8 063d 1a91 a43c 6eb9 1fbf b79f 86bd
000003e0: 2fb1 bd3d 7a69 bd3d 10e7 313e 0ccc d63e
000003f0: bc7a 893e ad77 213f 68ba 64bd a60a 2ebe
0.35963213 0.026946528 0.31967267 -0.21456487 -0.30824748 -0.015762296 0.48442027 0.160782
0.06068962 -0.045026183 0.2829496 0.5210322 0.23377131 0.6021217 0.6248834 -0.2041466
-0.12199863 -0.14776686 -0.32280865 0.034332763 -0.30084094 -0.48219672 -0.44676328 -0.35012373
-0.12820123 -0.055308618 0.5841783 -0.21325648 -0.22434197 0.2697457 -0.32413673 0.2328636
0.20398508 -0.28466842 -0.19926485 -0.03284149 0.083915666 0.8166498 0.8402215 0.24849646
0.03812693 0.32293278 0.21607505 -0.26191893 -0.14858736 -0.39266115 -0.030413842 -0.19897485
-0.11943338 -0.22817142 -0.31228754 -0.66221064 -0.60850585 -0.016106108 -0.09367142 0.24231724
-0.08401699 0.1353619 0.09066844 -0.23345803 0.1396231 -0.20568703 -0.02255125 0.14122942
0.27018374 0.98184645 0.12676536 0.49515414 0.42115736 0.5101548 0.23262261 -0.32305878
0.33879194 0.49712548 0.017656635 -0.30821514 -0.45307663 -0.6019839 -0.12446986 -0.4385518
-0.119674824 0.27983117 -0.08492474 -0.39611512 -0.07060862 0.13901933 0.15296312 0.21251214
-0.22158134 -0.23220016 0.26862985 0.22543694 0.28839165 0.14486586 0.21601087 0.05406843
-0.2649881 0.2041872 -0.2582067 -0.070996225 -0.26999846 -0.28141072 -0.08048483 0.35679984
0.22832537 -0.42522785 -0.53222585 0.22200581 -0.02681058 0.23412319 -0.43706763 0.094938315
-0.113277055 0.20770597 0.102875985 -0.17738034 0.16719353 -0.057113584 -0.08057442 0.19954786
-0.5172902 -0.5235755 -0.06597038 0.022321245 0.22640158 -0.4129361 0.08090113 0.43502814
0.704885 0.005072195 -0.6211027 0.19278774 0.18941575 0.8223443 0.5294153 0.05428333
0.20335203 0.37474433 0.34101608 0.43107367 -0.3935683 -0.21993373 0.007883625 0.017739449
0.19198458 -0.5245674 -0.52485 -0.070558906 0.38958395 0.23650579 0.28270173 -0.5280592
0.76979035 0.024998361 -0.006920658 0.024200128 -0.2586756 0.09107654 0.007048763 0.1748845
0.7722016 -0.20197538 0.30766442 -0.448695 0.115057215 0.71692723 -0.22284041 -0.3410141
-0.07931657 -0.16739498 0.48908052 0.15567847 0.3511572 0.3021812 0.1878421 -0.0036182185
-0.5065995 -0.07190524 0.20641185 0.20595364 0.3236968 -0.089617394 -0.046576746 -0.049548894
-0.17144091 0.14649531 -0.50022036 0.11543807 0.04842447 -0.16089839 0.1393421 -0.039127246
-0.008211787 -0.14720738 -0.2650745 0.011709834 0.09521255 -0.2694051 0.061716348 0.18663031
0.20888773 0.68813634 0.3272469 0.22231507 0.28648996 0.08392215 0.42881405 -0.26561943
-0.07512591 -0.3271628 0.093073726 -0.031161858 -0.49016002 -0.5928814 -0.29874358 0.10713842
-0.018926663 0.20514171 0.000529592 -0.33469066 -0.031024028 -0.5522136 -0.41997176 -0.2790671
-0.045090064 0.95108026 0.9282341 0.82441646 0.43184543 0.028422996 0.36215428 -0.005940543
-0.019676136 -0.32228386 0.10278516 0.052802894 -0.21832277 -0.2868283 -0.17926481 -0.0030619872
0.10346323 -0.3233632 0.026508626 0.04047168 0.032936633 0.020088721 -0.6239232 -0.06573432
0.09262311 0.09248634 0.173733 0.4195255 0.2685145 0.63073236 -0.055841833 -0.1699625

conv1.bias f4 [8]
00000000: 3914 00bf 1c05 b6be e357 203d 9d5c 3ebf
00000010: 2a97 9cbf 5e03 9cbf 054e 1fbd 8621 91bf
-0.5003086 -0.35550773 0.039146315 -0.74360067 -1.2233632 -1.2188528 -0.038892765 -1.1338356

bn1.weight f4 [8]
00000000: bbe6 cf3f 7b86 d23f e022 c33f 76ef 933f
00000010: 3c3a fc3f 2eeb a23f dac5 323f 56f3 bc3f
1.6242288 1.644729 1.5245018 1.1557453 1.9705272 1.2728021 0.6983315 1.476176

bn1.bias f4 [8]
00000000: 46a8 80be f237 1abe 2c71 84be 96b9 05bf
00000010: bb93 cabe e50b e6be 9e31 79be b4f3 2dbf
-0.25128382 -0.15060404 -0.25867593 -0.52236307 -0.39565834 -0.4493095 -0.24335334 -0.67949986

bn1.running_mean f4 [8]
00000000: 22ae 113f b5ea 913e edfc cf3e fcd9 eb3e
00000010: ae7a 973e 01e2 fd3e 2b0d bd3f 07a8 153e
0.5690633 0.2849938 0.40622655 0.46064746 0.29585785 0.4958649 1.4769644 0.14614879

bn1.running_var f4 [8]
00000000: 3a38 1d40 ebf3 b03f 4447 1f40 58ed bd3f
00000010: 988a 913f 9c98 f13f 9008 aa3f d4c3 113f
2.4565568 1.3824438 2.4887247 1.4838057 1.137042 1.8874698 1.3283863 0.56939435

conv2.weight f4 [16, 8, 3, 3]
00000000: 0a16 d0be da58 b1bd 93e6 5abe 58bb 143d
00000010: af1e a23e 45f7 523e 1063 d3bd fd5e 023f
00000020: 5f29 213e 15dd d6bd 1c94 03be cf55 163e
00000030: 11a4 b4bb 044a 113d 4e22 3cbe 8fdf 3abd
00000040: 5255 d0be c4b6 7abe ace6 0abf 19c2 93be
00000050: 548d 40be f137 07bd 9d8f 1a3e c478 33be
00000060: 938f 02be af7b 9bbc 8767 b7bd 3c16 863e
00000070: f2c9 9b3e 88db c93e 84a0 933e 1ddb 6d3e
00000080: c699 7c3e 50a5 bb3d df80 18be 7830 433e
00000090: d054 e1be adc6 58be bd33 81be a1c5 c9bf
000000a0: 551b d1be 8d82 05be 7cfd 0cbf b183 f33e
000000b0: ab02 3f3e 3b49 933d ff4a 9b3e aa29 41bd
000000c0: 44e8 dd3e 720f ba3e 5bd6 673e 773f 913e
000000d0: f726 243d 4a55 893e bb6c c93d ba52 dfbd
000000e0: 57d6 bb3d 5df3 4cbd 7aba 1fbd f588 b6bc
000000f0: b411 81be 0d08 efbe 986f 53bd 6596 bdbe
00000100: 666b 13bb ce66 c93e 33ec 44bf 3bea e9bc
00000110: cc06 0d3e 3dba 1bbf f064 483e a83e 4cbe
00000120: 1eec 693a 1833 83bd 1eab 89be 7056 99bd
00000130: b94c a13e bd13 883d f5bd 2e3d af4d 2d3e
00000140: 49fe a63c 1e96 cebc f341 823e 4ec1 d0bd
00000150: 27a0 883d a343 ce3e 33b9 a2bd 4a9f 183f
00000160: e15a 163f aac8 883e a7c6 67be 5a8e 50bb
00000170: 6065 f4be b8ee ef3e 6641 85be b490 2dbf
00000180: 3af3 bf3e e9a0 923e bbf5 79bf 1155 213d
00000190: c263 203c 028d e03c 791a 1f3c 8dae 94bc
000001a0: c9ad acbd 843b dd3e a1d8 463e 7b99 a43e
000001b0: 1c96 233c 21f8 15bf a6e5 08bf e846 97be
000001c0: df00 a0be f478 b5be 3e7c 5dbe 0efa 243f
000001d0: 16b1 283f 2ec9 88be 1f95 97bc 9d17 ce3e
000001e0: 6ded bdbd f5f9 853e 1b60 5e3e 1e16 e43e
000001f0: 3932 903e 6fbb 69bd 04c5 90bf 734e 6dbf
00000200: 0c02 01bf 24b8 a23e 4c10 673e 7d58 4d3e
00000210: fbbb 0bbf fbe7 18be a263 b4be 6310 3ebf
00000220: 37dd f43d 04c0 1dbe 1a4a 54bf 0f3a fb3e
00000230: 4b14 bcbc cc63 32be 2f12 d63e 536c 183f
00000240: 6a07 b1bd b067 aebc 374f 453e 0623 c83b
00000250: 2684 353b 570c b0be 838f 383d e3cc 2abe
00000260: a102 0b3e f501 16be 3352 70bd 33a9 9d3d
00000270: 13c8 983e 3693 e2bc 76ae 2dbe 8c81 d83d
00000280: b5a1 423c 2650 c23d 0034 77bd d8b4 243e
00000290: 8fa6 0cbf 09f5 aabd eb33 99bc 7445 3ebe
000002a0: ee97 583e 6363 293d 6145 e9be 5848 233f
000002b0: e2bb 723e 7cde 083e a4c5 21be 478e 723c
000002c0: 25b1 f43d bcc5 393d f22d e33c 977b cdbd
000002d0: 9ae9 dc3e cb77 d5be 6b03 90be ec65 e4bd
000002e0: 7d5f 043f 866c d53d f43d d43c d095 1a3d
000002f0: ce14 763c 656f 8e3e 494c ae3e 589c aa3e
00000300: 9f8a 71be d7ae 573e d49b 353e 4971 dbbd
00000310: 9f35 a03d b58d 13bd 11c3 c83e 81c8 f53c
00000320: 8604 67be 2741 0c3f a44e d33e 3a06 2ebf
00000330: 6c66 c43e d202 ab3d 7a01 90bd 92ff a9bd
00000340: c0c5 ff3d 70bf 643e 6a5c 9dbd 79d4 4c3d
00000350: ecba b73b 7837 9cbe eed1 b23e 8c15 00be
00000360: 66df adbd a78b 9a3e 54ed b63e d968 943d
00000370: 9bf6 da3e 57e9 db3e 981c 41bf bbe9 40bf
00000380: 296b 4abe fe98 7abe 7baa a63d e864 31be
00000390: 9a41 283e daf5 afbd 7d4c d5bd dfc5 1b3e
000003a0: 6dd6 97be 8466 11bf 6e05 b43b 8b2b 27be
000003b0: bbb6 1e3f 8d93 c63d cf56 be3d 9b28 a33e
000003c0: 417e 35be a07b ad3a cf1a 483f e76f ba3d
000003d0: 24c4 a6be 489f 843e 1bf6 47bf 7899 00bf
000003e0: 6c01 8dbd a111 013f 2e54 da3e 339b f3bd
000003f0: 51f3 de3d 883f d8be 75ec 1dbf 59fd 00be
-0.40641814 -0.08659525 -0.2137702 0.036311477 0.31664035 0.20602138 -0.10321629 0.5092619
0.15738438 -0.10491387 -0.12849468 0.14681171 -0.0055127223 0.035470977 -0.18372461 -0.04562336
-0.40690094 -0.24483782 -0.5425823 -0.28859022 -0.18803912 -0.033012334 0.15093847 -0.17526537
-0.12750082 -0.018979875 -0.08955293 0.26188838 0.3042751 0.39425302 0.288334 0.23228116
0.24668035 0.0916239 -0.1489291 0.19061458 -0.4401002 -0.21169539 -0.25234786 -1.5763437
-0.40841165 -0.13038082 -0.55074286 0.4756141 0.18653361 0.07191702 0.30330655 -0.047158875
0.43341267 0.3633991 0.22640364 0.28368732 0.040076222 0.26822883 0.09835192 -0.10904451
0.091717415 -0.050036777 -0.038996197 -0.022282103 -0.2520882 -0.4668583 -0.051620096 -0.37028804
-0.0022494434 0.39336246 -0.7692291 -0.028554073 0.13772124 -0.6083105 0.19569755 -0.19945776
0.0008923429 -0.0640623 -0.26888365 -0.0748719 0.31503847 0.0664439 0.042661626 0.16924165
0.020384924 -0.025218066 0.2544094 -0.1019312 0.06671172 0.40285978 -0.0794548 0.59618056
0.5873242 0.26715595 -0.22634374 -0.003182313 -0.47733593 0.46861815 -0.26026458 -0.67798924
0.37490255 0.2863839 -0.9764058 0.039387766 0.009789409 0.027410988 0.009710901 -0.018149639
-0.084315844 0.4320947 0.19418575 0.32148346 0.009984519 -0.5858174 -0.53475416 -0.29546285
-0.31250665 -0.35443842 -0.21629426 0.64444053 0.6589521 -0.26715988 -0.018503724 0.4025239
-0.09273801 0.26167265 0.21716349 0.44548124 0.28163317 -0.057063516 -1.1310124 -0.9269783
-0.5039375 0.31781113 0.2256481 0.20053287 -0.5458371 -0.14932244 -0.35232264 -0.74243754
0.11956256 -0.1540528 -0.8292557 0.49067733 -0.022958895 -0.17420882 0.41810748 0.5954029
-0.08643992 -0.021289676 0.192685 0.0061076907 0.0027697175 -0.34384415 0.04505874 -0.1667972
0.13575222 -0.14649184 -0.05867214 0.07698288 0.29840145 -0.027658086 -0.16961083 0.10571584
0.011879374 0.09487943 -0.060352325 0.16084611 -0.5494165 -0.08347518 -0.018701514 -0.18581182
0.21151707 0.04135455 -0.45560744 0.6378226 0.23704484 0.13366121 -0.1579805 0.014804429
0.1194785 0.04535459 0.02773187 -0.100333385 0.43146974 -0.41692957 -0.28127608 -0.111522526
0.51708204 0.1042109 0.025908448 0.03774053 0.015019609 0.27819362 0.34042576 0.33322406
-0.23588036 0.2106279 0.17735225 -0.10714967 0.078227274 -0.036023814 0.39211324 0.030002834
-0.2256032 0.54786915 0.41270936 -0.6797825 0.38359392 0.08350147 -0.07031532 -0.08300699
0.1248889 0.22338653 -0.07683642 0.050007317 0.0056069996 -0.3051107 0.3492579 -0.1250822
-0.084898755 0.3018467 0.35727942 0.072465606 0.4276627 0.42951462 -0.75434256 -0.75356644
-0.19767441 -0.24472424 0.08137985 -0.17323649 0.16431275 -0.08591814 -0.104149796 0.152122
-0.2965578 -0.5679705 0.0054938113 -0.16325204 0.61997575 0.09696112 0.09293901 0.31866917
-0.17723943 0.0013235696 0.78165907 0.09103375 -0.32571518 0.25902772 -0.781099 -0.50234175
-0.06885037 0.50417525 0.4264235 -0.11894836 0.10886253 -0.4223597 -0.6168893 -0.12596644

conv2.bias f4 [16]
00000000: 5f08 603e fa2d 45be 2f97 ddbf bcbd 20bf
00000010: dbe9 843e c654 51be 295d 91be 8b98 b5be
00000020: 61ac a53b 99c9 b6be 302a d3be 56cd 07bf
00000030: 3135 cfbe 1e17 5fbe 74fd f6bd 6513 30be
0.21878193 -0.1925582 -1.7311763 -0.6278951 0.25959668 -0.20442495 -0.28391388 -0.35467944
0.0050559496 -0.35700682 -0.41243124 -0.5304769 -0.4047027 -0.21786162 -0.12060061 -0.17194898

bn2.weight f4 [16]
00000000: 5021 d43f 80c0 d63f fb80 953f a3f4 a73f
00000010: a122 a53f e12b d03f aa03 9b3f c505 a13f
00000020: dcab b73f b195 a93f 4f0f a13f bf50 cb3f
00000030: ef19 ae3f 1248 df3f 8a59 963f a956 e43f
1.6572666 1.6777496 1.1679987 1.3121532 1.2901193 1.6263391 1.2110493 1.2579886
1.4349322 1.3248807 1.2582797 1.5884017 1.3601664 1.7443869 1.1746075 1.7838947

bn2.bias f4 [16]
00000000: 2321 133d a8aa 06bf 7017 4abf 456b 93bc
00000010: ca30 2b3f ce0c e4be d142 8bbe 3de4 e6bd
00000020: 5ee3 d7bd de62 4ebe 598d e6be 84ef a2be
00000030: 8aec e4be 5d88 28bf 5af6 82be 6a55 abbe
0.035920274 -0.5260415 -0.7894201 -0.017995486 0.6687132 -0.4454102 -0.27199414 -0.11274002
-0.10541414 -0.20154902 -0.45029715 -0.3182336 -0.44711715 -0.65833074 -0.25578576 -0.33463603

bn2.running_mean f4 [16]
00000000: c246 fb3f b133 c63f 2e54 843e 52dd 8e3e
00000010: 950e 9740 53a4 0940 5cc5 303f 2d2f 623f
00000020: 60bb 1240 89a1 553e e23b 203f 2871 973e
00000030: ba90 803f 831b 3e3f a319 063f 86ad 7f3f
1.9630969 1.5484525 0.25845474 0.2790323 4.72053 2.1506546 0.69051147 0.88353235
2.2926865 0.20862402 0.62591374 0.2957852 1.0044167 0.7426073 0.5238287 0.9987415

bn2.running_var f4 [16]
00000000: 4f93 8a40 8455 6241 a2fb 853f 4021 4240
00000010: dc2c a940 bde3 b441 aef6 8140 3f66 c740
00000020: 7747 0741 bc96 2e40 45c6 a740 3dd1 0e40
00000030: 02f0 8140 9bb7 de40 da5d a740 6b60 6840
4.330482 14.145878 1.0467417 3.0332794 5.286726 22.6112 4.0613623 6.231231
8.454947 2.72795 5.242953 2.231521 4.060548 6.959913 5.2302065 3.630885

conv3.weight f4 [32, 16, 3, 3]
00000000: 5fe1 bbbe 5583 b4bd 4b5c 81be 176f 99be
00000010: 549f 47be 90aa 92be d6c8 a0bc 6ca4 febd
00000020: ae12 a1be ad7f 92be 63c6 fa3c 44ea 4b3e
00000030: 19ce 303e 223b 8c3e 1b2b 33bd f05d d5be
00000040: f5a6 a1be 0f66 c63d 5113 813b d1a5 b83d
00000050: 75b9 463e 8176 8e3e ddfb f13e a0ad 1d3d
00000060: 7cfd 3d3d 3d22 2d3e 46b5 8a3d a40a edbc
00000070: 6036 cb3d 771a 64bd 895d 0b3e 5b8d 90be
00000080: ac4d 0bbf 11cb 643e 190f e0bd bbca babe
00000090: c416 df3e 3fea a93e a3cc 19bf 403c b83d
000000a0: 0428 d4bc 605c 1bbf 7e66 31bc 8176 41be
000000b0: 57a8 4ebf 5ee9 863e d3ff e83d 6430 6dbe
000000c0: 1251 fb3d ad3f e63e 026a 7dbe c56a e63d
000000d0: 54f1 8dbd 2ec6 f0b8 62a3 973e ceba cabd
000000e0: e231 8dbd 6c5d 993e fcd3 c3bd 0cca 023d
000000f0: 483d 9dbc a1ce 32bd 58dd edbe 114e d1bc
00000100: a5e1 4cbe 55c1 2bbf a528 5a3e c8a9 55be
00000110: 6013 7dbf e3b0 4d3e 3eec 5bbe 39f2 42bf
00000120: 67e9 4dbd c31c 59be 6264 9fbe b1e0 cf3e
00000130: 2bae 2a3f 8d25 3c3f aa4e 993e 155b 8b3d
00000140: 03fb 8a3c d78d 023e b24c ae3d e7ea b8bd
00000150: e187 d13e 48ae 823e 4e72 2dbe f950 063e
00000160: 2454 49bd ed9c 85be 51ca 5a3e 7e54 8d3e
00000170: 9071 2dbe 0d1f 783e 1e66 043e 03b7 2dbe
00000180: 336f 56bd ea97 2bbe 9c67 d2bc 0f34 d53d
00000190: 5097 39be 582d 2b3d 4cbf 543d 5b9e 21be
000001a0: 2166 ec3d 81a8 46be 532b 09be 1272 cebd
000001b0: cb6d 963e 8220 6f3d c33b 9bbf c967 d13e
000001c0: f72e fabe 8348 04bf 1c9e 7d3e 895e 803e
000001d0: 377e 01bf 0a2b 7d3e 0172 043e 5401 003e
000001e0: 2580 33bd ac64 f03d 760a 1d3d a5f1 893e
000001f0: ee5b 823c e4cb 6c3e eec1 ea3e 9622 343e
00000200: e01d 0d3d f1a0 0f3f 7332 7a3e d34b 8c3e
00000210: 2efb 03bf 5c74 b4be 68ec dd3e bb39 83bd
00000220: bf95 123c e30d c13e 963b c83d 5466 263c
00000230: da92 333a e7f7 0bbf 4bd2 c0be ca45 a03e
00000240: e1dd 28bf d75d dd3c 20ba 31bf 9226 50bf
00000250: b93c 0d3d 3d1b 75be 7850 743e bb80 e4bb
00000260: 9067 44bd 9f81 1abf 4a84 77be 2e4e cabe
00000270: 86e8 83bd 3926 e63d 6263 a13e 1514 2d3f
00000280: d4b6 343f b364 893e 53dd aebe 9201 c5be
00000290: f480 1bbf 139c b6be 7634 98bd 926c f3bd
000002a0: 4ef0 ac3e 87d5 543d abae 263e 54d5 13bf
000002b0: 408a 11bf 3c48 07bf f877 2c3c 3a7b 9a3e
000002c0: 122f 193f 6d4d 03bf 9877 1ebe 259a 6ebe
000002d0: 6f9f a53d 6f6a c5bd 16e5 8ebe 9b1a da3d
000002e0: 8eaf 47be 2289 eb3c 72db 413e 185c 0d3f
000002f0: dabf fe3d acd3 00be 3318 2d3d 32a2 70bd
00000300: 1ae5 bdbe c977 abbe 1f3a 1cbe 9b4b 2b3f
00000310: 080f 983e 6947 0c3e a501 0f3e 0bc6 50be
00000320: b69a 7dbe 518e ab3e 2cdd 3dbd 6425 443e
00000330: 0f0d 953e f668 3fbd cbfe 38be 71e9 45be
00000340: c0a1 cebe 72fd 57be 1592 91be 46f3 1a3e
00000350: 0fe7 0d3f d39e e33d dadc 403d 2473 ffbc
00000360: 8152 b8be 0064 043e 075b e9be 981f 45be
00000370: 9dad 873c 5c99 8d3d a2d0 91bc 2214 5fbe
00000380: 04aa a3bc 372c 31bf 59a1 3bbe a0cb e6bd
00000390: accc 78be db3f 08be b8f8 a83e addc 7e3d
000003a0: 7640 533e 832f 10bd c2b1 c53d 3a1a 73be
000003b0: d0fb 0ebf dc0b 13bf f922 4c3c f1da 00be
000003c0: 957b 0f3e fe22 1d3e 7684 e23d 2e02 c4be
000003d0: 968b eabd f642 a13b 1011 2e3f e28c a93e
000003e0: 2eb7 b53e 4ab4 373f 200c 833e 28a2 1abe
000003f0: ec38 05bf 753b 9abd be30 543d ceac 4d3d
-0.36695382 -0.08814112 -0.25265726 -0.29967567 -0.19494373 -0.28645754 -0.019627016 -0.12433705
-0.31459564 -0.28613034 0.030612176 0.19913584 0.1726612 0.27388865 -0.04374228 -0.4167323
-0.3157269 0.09687435 0.0039390703 0.09016002 0.19406684 0.27824786 0.4726247 0.03849566
0.04638432 0.16907592 0.067728564 -0.028935738 0.099224806 -0.0556893 0.136099 -0.28232846
-0.5441539 0.22343089 -0.1094038 -0.36482796 0.43572056 0.33186528 -0.60077876 0.08995867
-0.025897987 -0.6068783 -0.010827659 -0.18892862 -0.80725616 0.2634992 0.113769196 -0.23162991
0.12271322 0.44970456 -0.2474747 0.112508334 -0.06930795 -0.00011481006 0.2961684 -0.098989114
-0.0689428 0.29954088 -0.09561917 0.03193097 -0.01919426 -0.043654088 -0.46457934 -0.02554992
-0.20007952 -0.67091876 0.21304567 -0.20865548 -0.9885769 0.20087008 -0.21476838 -0.7615085
-0.050271418 -0.21202378 -0.31131274 0.40601113 0.6667201 0.734948 0.29942828 0.06804482
0.016965395 0.1274942 0.08510722 -0.09029179 0.4092398 0.2552359 -0.16938135 0.13116826
-0.04915251 -0.26096287 0.2136624 0.27603525 -0.16937852 0.24230595 0.1292958 -0.16964345
-0.05235214 -0.1675717 -0.02568417 0.1041032 -0.18124127 0.04179129 0.051940247 -0.15783064
0.11542917 -0.19400217 -0.13395433 -0.10080351 0.2938064 0.05838061 -1.2127613 0.40899494
-0.48863956 -0.51673144 0.24767345 0.25072125 -0.50583214 0.2472345 0.12934114 0.12500507
-0.04382338 0.11737952 0.038340054 0.26942173 0.015912976 0.23124653 0.45851082 0.17591318
0.03445232 0.5610495 0.24433307 0.274016 -0.51555145 -0.35245025 0.43344426 -0.064074956
0.008946835 0.37705907 0.0977699 0.010156233 0.00068501907 -0.54675144 -0.3766044 0.31303245
-0.6596356 0.027022285 -0.6942463 -0.81308854 0.034481738 -0.23936172 0.23858821 -0.0069733537
-0.047950327 -0.60354036 -0.24171558 -0.3951277 -0.06440835 0.11237759 0.31521136 0.6760877
0.70591474 0.2683464 -0.34153232 -0.3847776 -0.6074364 -0.3566595 -0.07431881 -0.118859425
0.33777088 0.051961448 0.16277568 -0.5774739 -0.5685158 -0.52844596 0.01052665 0.3017214
0.5983745 -0.5129002 -0.15475309 -0.23300989 0.0808705 -0.09639441 -0.27909154 0.10649606
-0.19500563 0.028751913 0.18931368 0.5521865 0.124389365 -0.12580746 0.042259406 -0.05874843
-0.37088853 -0.33489826 -0.15256546 0.6691224 0.29698968 0.13699116 0.13965471 -0.20388047
-0.24766049 0.33507016 -0.046353504 0.19154888 0.29111525 -0.046730958 -0.18065946 -0.19327332
-0.4035778 -0.21092775 -0.28431764 0.15131864 0.5543069 0.11114278 0.04708562 -0.031182833
-0.36000445 0.12928772 -0.4557726 -0.19250333 0.016562277 0.069140166 -0.01779968 -0.21785024
-0.01997853 -0.6920809 -0.18323268 -0.11269307 -0.24296826 -0.13305609 0.33002257 0.06222217
0.20630059 -0.03520156 0.09653045 -0.23740473 -0.55852985 -0.5743997 0.01245951 -0.1258352
0.14011987 0.1534538 0.11060421 -0.38282913 -0.11452405 0.0049213124 0.67994785 0.33115298
0.35491318 0.71759474 0.25595188 -0.1510092 -0.5203998 -0.07530872 0.051804297 0.050213628

conv3.bias f4 [32]
00000000: 517f 8ebf eb03 29bc 5c34 eabd 0937 2cbf
00000010: 3fa8 92bf a3b9 13be 76a1 cbbe 39f3 98be
00000020: 96a8 8fbd 4128 90be b66a 0e3e 3451 853e
00000030: ddf7 03be 4b5d d53e b24a 9dbe 99a5 3abf
00000040: 6af5 90be c6f6 17be 78e1 0ebf 896e 7dbe
00000050: 6e24 e4be 9a05 00bf 8d95 46bf eea8 f6be
00000060: d72a aebe a3fa b4bc d434 d9be 4072 86be
00000070: 9b11 273e e4c6 84bd 73ad 38bf f7a2 34bf
-1.1132604 -0.0103158755 -0.11435768 -0.67271477 -1.1457595 -0.14426284 -0.39771622 -0.29873064
-0.07014577 -0.2815571 0.13907894 0.26038516 -0.12887521 0.4167274 -0.3072105 -0.7290893
-0.28312236 -0.1484023 -0.5581279 -0.24749197 -0.44559044 -0.5000855 -0.77571946 -0.48175758
-0.3401706 -0.02209217 -0.42423117 -0.2625904 0.1631531 -0.06483248 -0.7213966 -0.70561165

bn3.weight f4 [32]
00000000: d921 a23f e571 b43f 07cd 803f 6feb c43f
00000010: 1bc7 ae3f c5da b63f 1287 9e3f 6711 953f
00000020: c050 b03f b7a5 bc3f ad45 903f 9540 b53f
00000030: 76bf b93f 73c6 a13f 3c1d c63f 653b 803f
00000040: 50fd b23f 642e ca3f 275f ba3f e4e1 ad3f
00000050: 8307 b23f ce4b ce3f 9d15 bf3f c021 c63f
00000060: 9d14 b83f 0b88 8e3f e83c cb3f e903 ce3f
00000070: 2df9 b73f f417 d43f 89be ad3f a772 9b3f
1.266658 1.4097258 1.0062569 1.5384349 1.3654512 1.4285513 1.238497 1.1645936
1.3774643 1.4738072 1.1271263 1.4160334 1.4511554 1.2638687 1.5477672 1.0018126
1.3983555 1.5795407 1.4560288 1.3584561 1.3908542 1.6116884 1.4928471 1.547905
1.4381291 1.1135267 1.5877962 1.6094943 1.4372917 1.656981 1.3573772 1.2144364

bn3.bias f4 [32]
00000000: e6ae dfbd 9ae7 e23e 2523 c23b 17cf 283e
00000010: 88bf 7dbc f623 443e b277 21bf a96c 773e
00000020: 7710 ab3e 8c29 50be ddfc 9b3c e21f d43d
00000030: e935 3e3e c920 f73e 3693 033f 7da4 673e
00000040: 7b37 40be db14 07bf 9597 90bd 005a 4d3e
00000050: 04e2 043f 815d b2be e725 d63d 3625 12bf
00000060: 24df e5ba 3a44 c7be 7601 af3e ef6e 94be
00000070: 7a58 cf3d 5790 8d3d 0d6f bcbd ef9c ce3d
-0.10922031 0.44317323 0.0059245997 0.16485249 -0.015487559 0.19154343 -0.63073266 0.24162544
0.33411 -0.20328349 0.019041473 0.10357644 0.18575253 0.482672 0.513965 0.22621341
-0.18771164 -0.527662 -0.07060162 0.20053864 0.5190737 -0.34836963 0.10456448 -0.5708803
-0.0017537815 -0.3891924 0.34180802 -0.28990886 0.101242974 0.06912296 -0.09200869 0.100885265

bn3.running_mean f4 [32]
00000000: 09ed 623f 111d 2340 8a68 2e3f ca4b 873f
00000010: ad38 5f3f 2876 b83f 2487 e63f bce7 c83e
00000020: 259d 873f 1f45 6c3f d3a3 f140 bc30 4b40
00000030: d840 f33f 23a9 df40 6ee7 a63f e7be e53e
00000040: 263c 983f d12e 8b3f 1530 df3e bbd5 3040
00000050: 4c3c ab3f 3d48 473f 5acd 0d3f ef74 b53f
00000060: 4e44 453f 6e69 bc3f 23c7 773f 34b7 8840
00000070: 4517 ee3f b46c 2640 0161 183f 4c82 4b3f
0.88642937 2.548649 0.68128264 1.0570004 0.87195855 1.4411058 1.8009992 0.392393
1.0594832 0.9229297 7.551248 3.1748495 1.9004164 6.9893966 1.3039377 0.4487221
1.1893356 1.0873662 0.4359137 2.763045 1.3377776 0.778446 0.55391467 1.417631
0.7705735 1.4719675 0.96788234 4.2723637 1.8600851 2.6003847 0.59523016 0.7949569

bn3.running_var f4 [32]
00000000: d64d 4141 4914 7b41 eb99 b540 67ae 3a41
00000010: b18a 3041 645a e140 ddfc be40 d2d5 3b40
00000020: 9add 1a41 5895 8540 d212 9841 7953 a441
00000030: 6d3d 9d41 e76c 9841 57c5 3541 0885 3c40
00000040: 0e7c bf41 8792 e740 b291 9f40 5af8 9541
00000050: 1f1c 5041 230b ed40 32f3 bc40 bee4 8d41
00000060: 3090 bb40 0a75 a741 d4fe 6641 f663 f840
00000070: bd4a 4941 b828 d941 3d2e 8a40 4891 0641
12.081503 15.692452 5.675039 11.667579 11.03386 7.042284 5.968367 2.9349256
9.679102 4.1744804 19.00919 20.540758 19.654993 19.053175 11.360679 2.9456196
23.935574 7.2366366 4.986535 18.746265 13.0068655 7.4076095 5.904687 17.73669
5.861351 20.932148 14.437214 7.7622023 12.580747 27.144882 4.3181443 8.410469

conv4.weight f4 [64, 32, 3, 3]
00000000: 2f22 cabd a4a8 0e3e 00ee 2dbb 4739 303e
00000010: ab3e 083e c803 953b efe7 bbbe b731 0abf
00000020: 8806 78be 699b 913e da3c db3d 42f4 d83e
00000030: 496b 4fbf 7c79 39be e292 f0bd 3eab 6dbe
00000040: 71bf 6bbd 32a7 1bbf 1bf0 f43b 2902 94bd
00000050: a1b2 2abe 4182 49bf ae50 dcbd 6b24 043e
00000060: bc02 08bf 7f82 81be 5598 3bbc fc48 05be
00000070: f489 963d ed7e 813d 82dc 8dbd f1ba 5f3e
00000080: ec5d 3bbe 55df b5bd fdaa 573e 6c4b cc3d
00000090: 95bc 043e 7a47 a8bc 893f 503d 0e85 d23d
000000a0: 071b 4cbe a7dc 3d3e 7637 afbe 01d2 3c3e
000000b0: 4073 9bbc 1b0e 143c 7349 26be bf6a d5bd
000000c0: 40d8 fc3e bce9 c0bc f1fc d83d b8d5 28bd
000000d0: 8c1e 24bc 3251 c8be e0e1 ebbe 53fb 813e
000000e0: 6953 2fbf 5fa8 42be 6166 c4bd a865 903e
000000f0: 9485 cfbd 2d14 2e3e 0716 8d3e e12b 84be
00000100: 8604 b6be e699 79be 4fea 35bd 356b fcbb
00000110: 3d58 bcbe f3d4 babe 8974 2f3d 1178 d0bd
00000120: b72c bc3d e8b1 b03d 5571 9d3e 9df8 a8bd
00000130: 2f7a bf3d da28 a83d d15c 173d e24a 103d
00000140: ea4b 2c3d 9e20 363e 3e33 44be 5d3d 94b9
00000150: 21ee 973e 9b5a e63e dd56 42bd e3a1 81bd
00000160: 6f3b bc3e e3d5 07be 2a74 e1be 45c3 14be
00000170: 3c4c da3c 56c1 3d3d 4555 f4bb db87 91bc
00000180: ee43 3bbe d28a b8be 9c2a 013d a316 12be
00000190: f689 3bbe fd37 df3d ad35 84bd b45d 053d
000001a0: fa78 75be 6181 933c 619b a9bd e8af 663d
000001b0: 0b18 85be 13cb 3bbe 4c4b e8ba 4f06 af3c
000001c0: a1c8 973e 4cd1 ab3d c123 aa3d d3da 473d
000001d0: 2652 8a3e 721e ddbb e540 60be 19ff 173e
000001e0: 63bd 77be f847 fc3d d217 cc3d 2923 8ebe
000001f0: c269 cebd 4fd2 c1bb 0b36 653b 2276 923e
00000200: 1f5c 3cbe 50b3 7b3d a7d0 e43d 5946 d43e
00000210: 7f88 18bf 4d5b 20bf 82ea f4be 356e 693d
00000220: f8bc 85be 7776 2f3a fba2 c9bc 62ed 2abd
00000230: c1d0 763d 580d b2be 305f 533b 284f 8d3d
00000240: 6164 99bf 61a3 36bf 5383 48bf f1ad 853e
00000250: ad80 d2bd 5a20 633d c58a e9be 0dae 313d
00000260: 7778 79be eef3 a03d 62c5 d33d ff4c 333e
00000270: cf36 89be 3515 693e 06ac 5ebd fdd5 4bbe
00000280: 2200 afbe 2d8f d4be 3fc7 043e f011 4dbe
00000290: a73f 31be c453 813e 6ffb 93be 55c1 ef3c
000002a0: 1506 903d 7418 123e 80db 023f 56d5 02be
000002b0: f33e f0be e5e5 31be efc3 a1be 8b78 b7be
000002c0: faee d1bc d6dc a83d 4477 0b3e f6d9 b8bd
000002d0: 95be 753e 3030 913e 4611 6f3e 6893 21be
000002e0: 3cb2 0fbe ba42 983e 133c 36be 1055 e1be
000002f0: cb39 0f3d 9509 acbe f8e0 133f f57e a43d
00000300: 6486 47be 20e5 693e 675f 883e f53e 82bd
00000310: d2e1 24bd 2280 c33d 4d4e 6cbd 79e4 20be
00000320: f6bc 1c3d 14cf abbd 41a2 993d fbaa 1cbd
00000330: 9bf2 b4be a334 e93c 4b58 aabe 2458 043c
00000340: 977b 473d a789 153f 7dd6 81bc 0e17 0fbd
00000350: 3a6c 23be 1f86 7fbf c285 e1be 535b e43e
00000360: ad16 81bd 9488 91be 5a88 a6be 4185 893e
00000370: 2d18 ef3d 0692 75be 8ed9 d5be 6787 d43d
00000380: cc1d c53e 282f 453f d4ca 4ebf be36 493e
00000390: f60f b63e 2923 833e 4104 cb3e 94ac 9c3e
000003a0: bb4e c83d 6618 bbbe a6e6 0f3e d7e4 083e
000003b0: 3a7e 42be 942f 96be 2d3b b8be 2659 5ebe
000003c0: 5ec2 36bd fd96 80be 1e17 a6bf ebe2 8c3d
000003d0: 6109 9fbd 9df3 93bd e19e 3f39 53e1 d03c
000003e0: b79c 0d3f 3e55 b6bc e64e 433e d127 503e
000003f0: 743d 6cbd 7d45 db3d 5424 7dbd a359 ae3d
-0.09869801 0.13931519 -0.0026539564 0.1720935 0.13305156 0.00454757 -0.3670039 -0.5398211
-0.24221241 0.2843888 0.10704966 0.42373854 -0.8102308 -0.18112749 -0.11746766 -0.23209855
-0.05755562 -0.60801995 0.007474912 -0.072269745 -0.16669704 -0.78714377 -0.10757576 0.12904517
-0.5312917 -0.25294873 -0.011449893 -0.13016123 0.07350531 0.06323037 -0.06926824 0.21848656
-0.18297547 -0.08880488 0.2106132 0.09975323 0.12962563 -0.020541895 0.05084184 0.102792844
-0.19932185 0.18541203 -0.34222 0.18439485 -0.018975854 0.009036566 -0.16238956 -0.10420751
0.49383736 -0.023548953 0.1059512 -0.041219443 -0.010017049 -0.39124447 -0.46070766 0.25387058
-0.6848665 -0.19009541 -0.0958984 0.28202558 -0.101329 0.16999884 0.27555868 -0.25814727
-0.35550326 -0.24375114 -0.044412907 -0.0077032098 -0.3678607 -0.36490592 0.042835746 -0.10179151
0.09188216 0.08627683 0.30750528 -0.08250544 0.093494765 0.08210917 0.03695375 0.035227664
0.042064585 0.1778588 -0.19160172 -0.0002827448 0.29673865 0.44991 -0.04744612 -0.063297056
0.36764094 -0.13265185 -0.4403394 -0.14527614 0.02664768 0.046326958 -0.007456454 -0.017764976
-0.18287632 -0.36043411 0.031534776 -0.14266448 -0.18314347 0.10899351 -0.0645555 0.032560065
-0.2397193 0.018006029 -0.08281589 0.0563201 -0.25994906 -0.18339185 -0.0017722636 0.021365313
0.29645255 0.083895296 0.08307601 0.04879267 0.270158 -0.006748014 -0.21899755 0.14843406
-0.24193339 0.123184144 0.09965481 -0.277612 -0.100787655 -0.0059149633 0.003497484 0.28605753
-0.18394516 0.061450303 0.1117261 0.4145992 -0.59583277 -0.62639314 -0.47835165 0.056989867
-0.26120734 0.0006693373 -0.024613848 -0.041730292 0.060257677 -0.34775805 0.003225278 0.068998635
-1.1983758 -0.71343046 -0.78325385 0.2610927 -0.10278449 0.055450775 -0.45613685 0.04337888
-0.2436236 0.07859026 0.10340382 0.1750984 -0.26799628 0.22761996 -0.054363273 -0.19905849
-0.3417979 -0.41515484 0.12966631 -0.20026374 -0.17309438 0.2525922 -0.28902766 0.029266993
0.0703241 0.1426714 0.5111618 -0.12776694 -0.46923026 -0.17372854 -0.31594798 -0.35834154
-0.025626648 0.08245246 0.13619715 -0.09025948 0.23998483 0.28357077 0.23346433 -0.15778887
-0.14032835 0.29738408 -0.17796354 -0.4401021 0.034967225 -0.3360106 0.5776515 0.08032028
-0.1948486 0.2284131 0.26635286 -0.06359664 -0.04025442 0.09545924 -0.05769186 -0.15712155
0.038266145 -0.083891064 0.075016506 -0.038248997 -0.35341343 0.028467482 -0.33270487 0.008077655
0.04870185 0.58413166 -0.015849346 -0.034934096 -0.15959254 -0.9981403 -0.44047362 0.44600925
-0.06303153 -0.28424513 -0.32525903 0.26859477 0.11674533 -0.23981485 -0.41767544 0.103773884
0.38499296 0.7702508 -0.8077824 0.19649789 0.35559052 0.25612763 0.39651683 0.30600417
0.09780642 -0.36542052 0.14052829 0.13368545 -0.18993464 -0.29333174 -0.35982648 -0.21713695
-0.044618957 -0.25115195 -1.2975805 0.06879219 -0.07765461 -0.072242 0.00018274366 0.025498068
0.5531725 -0.022257444 0.19073066 0.20327689 -0.057675794 0.10706613 -0.061802223 0.085131906

conv4.bias f4 [64]
00000000: 2cd4 0dbe 87ee d43d ab21 f1bc 78bf 2cbe
00000010: ad97 983c 4231 0dbf c2f2 0a3d 5f47 cdbd
00000020: 98b3 f2be 843d 0bbe 6026 eabd 78bf 233e
00000030: 522f 6d3e 8e09 e4be a64a 3f3e e31b 5fbe
00000040: 0177 afbe 9bc7 0fbe 32a5 81be 72ab 5fbf
00000050: 65d9 28be bbcd ccbe 82f7 19be b659 fabe
00000060: b3aa 1c3d e0a9 bd3d b676 5a3d d3c7 b8bd
00000070: a4f6 353e 5bec 89bd 773a a6be 5039 5bbe
00000080: 972f 73be 153e e3be 3a04 fabd 52bb 81bc
00000090: d7f9 03bf 69ae df3e 949b edbd 7644 e1bd
000000a0: 7bc2 0cbf 0a15 23be 4c32 9b3d b797 7abe
000000b0: c53b 023e b48f 11bf 1ef3 80be d3bd 03bd
000000c0: 49ef efbe 7943 fabe bf1b 06bf 438f 503e
000000d0: 5fef fabe 2142 23be dc01 c1be 418f fabc
000000e0: 120b 78be 9601 423e 12b0 d63c d184 38bd
000000f0: 7422 73bf 66ae a1be 1bcd 86be 1664 76bd
-0.13850468 0.10397058 -0.029435 -0.16869915 0.018627012 -0.55153286 0.03392292 -0.100233786
-0.47402644 -0.13597685 -0.11433101 0.15991008 0.23162583 -0.4453854 0.1868082 -0.21787982
-0.3427048 -0.14040987 -0.25321347 -0.8737098 -0.1648918 -0.4000071 -0.15035823 -0.4889657
0.03824873 0.09260917 0.053335868 -0.090224884 0.17769867 -0.06734534 -0.3246648 -0.21408582
-0.23748623 -0.44383302 -0.122078374 -0.015836392 -0.515531 0.43687752 -0.1160194 -0.10999386
-0.54984254 -0.15925995 0.07577953 -0.24471937 0.12718113 -0.568599 -0.25185484 -0.032163452
-0.46862248 -0.48879603 -0.5238609 0.2036715 -0.4901075 -0.15943195 -0.3769673 -0.030585887
-0.24222973 0.18945917 0.026207004 -0.04504854 -0.94974446 -0.31578368 -0.26328358 -0.060154043

bn4.weight f4 [64]
00000000: 2097 bb3f fbe0 1740 df7d d23f 6fb5 e93f
00000010: 08a0 e13f ad2a 1040 0644 0b40 e769 f73f
00000020: 22a3 cd3f 0304 a73f 371e a83f d818 ce3f
00000030: 6c22 f23f da7a cb3f a2aa 1540 3714 0740
00000040: 0500 ba3f 9488 0140 da09 ea3f 7c67 0f40
00000050: 8d46 1640 55fb ae3f 5b9c e93f 6eed b93f
00000060: e738 df3f 8604 c43f bc35 dd3f b0c7 0340
00000070: 449a 0040 5b47 f13f 5b8e f73f b7ef ce3f
00000080: e290 0740 7229 be3f 702f ca3f e14a b03f
00000090: 2780 dd3f 2430 cd3f 9624 c73f 5570 dd3f
000000a0: c94d e53f 55f5 1240 379d c43f e968 fd3f
000000b0: ed5c 0040 99b9 2240 4ddd f93f 73cd ef3f
000000c0: 44ad 1a40 a590 0940 8822 d83f dbdb c03f
000000d0: 6ca1 0840 b6fe fd3f af65 1240 250d d13f
000000e0: ccbe 0140 293b 1340 988d 0f40 4707 d53f
000000f0: 9c6a 0c40 ea59 df3f 79e4 f13f b6e0 cb3f
1.4655495 2.3731067 1.6444663 1.8258494 1.7626963 2.2526047 2.1760268 1.9329194
1.6065409 1.3048099 1.3134221 1.6101332 1.8916755 1.5896866 2.3385396 2.1106088
1.4531256 2.023961 1.8284256 2.2406912 2.348056 1.367045 1.8250841 1.4525583
1.743924 1.531388 1.7282023 2.059063 2.0094156 1.8849901 1.9340318 1.6166905
2.118218 1.4856398 1.5795727 1.3772851 1.7304734 1.6030316 1.555804 1.7299906
1.7914363 2.2962239 1.5360478 1.9797641 2.0056717 2.542578 1.9520661 1.8734573
2.4168253 2.1494534 1.6885538 1.5067095 2.1348524 1.9843357 2.2874563 1.6332136
2.0272703 2.3004858 2.2430172 1.6642846 2.194007 1.7449315 1.8897849 1.5927951

bn4.bias f4 [64]
00000000: ed6e 0ebe 014e 6fbe 37ab 14bc f500 cebd
00000010: 9be1 c1ba 1a3c 91be 6819 5abe ca85 9a3d
00000020: d258 35bc 94ce 41be b570 59be 1966 03be
00000030: a55e ddbd f868 e2be 30ad 0cbe 34f3 23be
00000040: 5740 a9bd 1cb9 43be afb4 8abc cf22 a2be
00000050: 0c7f e9bd 2795 34be c791 9b3d e575 98be
00000060: ace0 78bc 3ff2 82be 5ce1 50be 5966 41be
00000070: 7d03 8cbe 505e 7abe 5c0a 56be 0ef9 afbe
00000080: 47dc 65bd b674 22be c44c 3ebe c66f d03c
00000090: 9ad6 7dbe 00f9 62be 0b48 573e 7254 e7be
000000a0: ef9b ccbc 8541 42be bc48 2bbe cbab d3be
000000b0: e49f 7ebe 4aae 3abe 4e54 91be 7f30 30be
000000c0: e7c1 7c3c 0906 37be d508 f2bc f13a 17bf
000000d0: 341c 23be 7ad4 76be 37d8 98be 1390 5e3d
000000e0: 580f d6be ea31 62be 4b93 3dbe 21d9 67be
000000f0: 155b 23be cedc 1f3d 96a4 663d 2e85 f33d
-0.13909502 -0.233696 -0.009074024 -0.10058776 -0.0014791967 -0.28366166 -0.21298754 0.075450495
-0.01106854 -0.1892646 -0.212344 -0.12831916 -0.10809068 -0.4422071 -0.13737941 -0.16010743
-0.08264225 -0.19113582 -0.01693186 -0.31667182 -0.114011854 -0.17635022 0.07596164 -0.29777446
-0.015190285 -0.25575444 -0.20398468 -0.18886699 -0.2734641 -0.2445004 -0.2090239 -0.343697
-0.056118276 -0.15864834 -0.18583971 0.025443923 -0.24788895 -0.22165298 0.21023576 -0.45181614
-0.024976699 -0.18970306 -0.16726965 -0.41342005 -0.24865681 -0.18230549 -0.28384632 -0.17206
0.015427089 -0.17873396 -0.029545227 -0.5907431 -0.15928727 -0.24104491 -0.2985246 0.05433662
-0.4180858 -0.22089353 -0.18513219 -0.22641422 -0.15952714 0.039028935 0.056309305 0.118906364

bn4.running_mean f4 [64]
00000000: 7c1e 513f f722 283e de7e f53e 338f e53e
00000010: 3c0f ca3e e503 6e3e bd63 0740 6374 123f
00000020: 2711 9a3e fad6 eb3f 45b5 3d40 2a14 eb3e
00000030: 2f52 823f 6739 893f 3ed8 7b3f 2642 7c3e
00000040: 1766 b03f aee6 6b3f a5c9 f53f 8bc9 ed3d
00000050: 1e0b 5f3d 90f1 1b3f ca74 9e3e 4715 c63f
00000060: 4728 4a40 b41c 5c40 3427 a03e 5ebb 243e
00000070: f792 d03f a61d 4440 d485 653f 3ff1 d83f
00000080: ff55 863f 381a 7240 5130 3140 a79d 1c40
00000090: 0b5d a93d eda4 8e40 548b c73f c5f0 883f
000000a0: 48c4 0d3f 7cd3 d33e 912d ef3f e214 1740
000000b0: 0238 cd3e 5e7c 193e 4447 573f 6a22 4f3f
000000c0: a0ea 2c3f 431d 733e af5a 663e 6b7e 2540
000000d0: efcb e93e 7759 fa3d 06db c63e 33ef e93f
000000e0: c96e 863e f699 513f ca75 ee3f 5b35 f63e
000000f0: becf 3f3e f865 483f 177e bc3e 5395 bd3f
0.8168714 0.16419588 0.47948354 0.44835815 0.39464748 0.23243673 2.1154625 0.5720884
0.3009121 1.8424981 2.9641888 0.4591382 1.018133 1.0720643 0.98376834 0.24634609
1.3781155 0.92148864 1.9202162 0.11610707 0.05445396 0.6091547 0.30948478 1.5475243
3.1587083 3.439252 0.3127991 0.160871 1.629485 3.0643096 0.8965733 1.6948622
1.0494994 3.7828503 2.768574 2.4471223 0.082697 4.4576325 1.5589395 1.0698477
0.55377626 0.41372287 1.8685781 2.3606496 0.40081793 0.14988849 0.8409312 0.80911887
0.6754551 0.23741631 0.2249553 2.585841 0.456634 0.12224095 0.38838977 1.8276123
0.26256397 0.8187555 1.8629696 0.48087582 0.18731591 0.7828059 0.3681495 1.4811195

bn4.running_var f4 [64]
00000000: 93db 8240 8ecb d73f 2d13 4440 6827 ac40
00000010: 864c 1c40 dc9e 0640 7cab 6041 1188 fa3f
00000020: 8788 3540 32bd e941 6ae0 d840 3b38 1340
00000030: 00d6 8741 7126 5240 dd03 0b41 f01b d33f
00000040: db02 a240 35b8 0141 3893 7241 267a dd3f
00000050: 6b53 9c3e 730e ef3f e6d4 2140 fdb9 f240
00000060: be12 9841 c07b 3d41 96e0 4e40 7a54 9f3f
00000070: 0885 a241 b2f2 7a41 4dae 8140 ba97 c940
00000080: 06f4 af40 f607 8541 dba9 f140 1aa8 ef40
00000090: 5463 133f 0178 6941 4fd4 2341 8e0d b940
000000a0: 3837 a440 75ef 7340 5872 5b40 c099 1f41
000000b0: 9414 7040 32f9 b03f abdd d240 9bb1 0740
000000c0: 102d 0341 fd18 2340 c87a f73f b3ff b241
000000d0: bf9e c340 dd03 8f3f 389f 9440 aae6 0c41
000000e0: cbb4 1b40 7c7f 0341 81d2 1541 bd88 a440
000000f0: 2e94 d83f 802b 3a41 b565 1840 1b88 d940
4.0893035 1.6858995 3.0636704 5.3798103 2.4421706 2.103446 14.041866 1.9572774
2.836458 29.21738 6.7773943 2.300307 16.979492 3.2835963 8.688443 1.6492901
5.0628486 8.107472 15.160942 1.7302902 0.30532393 1.8676285 2.5286193 7.5852036
19.009151 11.842712 3.2324576 1.2447655 20.314957 15.684252 4.052527 6.2997713
5.498538 16.628887 7.5519843 7.48927 0.5757344 14.591798 10.239333 5.7829046
5.1317406 3.8114903 3.428854 9.975037 3.751256 1.3826048 6.589559 2.1202152
8.198502 2.5484002 1.9334345 22.374853 6.113128 1.1173054 4.644436 8.806314
2.4329097 8.218624 9.363893 5.1416917 1.6920221 11.63562 2.3812077 6.7978644

lin.weight f4 [10, 64]
00000000: ce6c e93d be8d ccbf a3f5 46be 71b2 f1be
00000010: d949 9f3e 2f91 c3be acea 243f 1d86 203f
00000020: b5b4 cc3d 7234 f43e 75a6 fb3e c7a8 2abf
00000030: fa56 723f 69c6 d03e f5a5 a63e 9565 c6be
00000040: 5fa9 29bf 8963 2cbf 5627 e13e b8ba 963f
00000050: 5473 89bf a59f 2fbf d7e6 f9be b7ef e43d
00000060: c55f ebbe b06d 9f3d 57ca b83e 70f3 26bf
00000070: a150 61be bec5 a43e 5eeb 9c3e 97e0 bb3e
00000080: f6ca edba 0580 38bf a74e 3c3f 5506 84be
00000090: aea4 9dbd ebd4 bb3e 7953 2bbd 26c0 6bbf
000000a0: 1b23 6abe 44d9 a0bf 527b d73d 2fbe 493f
000000b0: c832 293d 51b5 09bf 2d87 72bf 2481 5a3f
000000c0: 7f13 a5bf 6151 373e 2f1c ccbd 144a 913d
000000d0: 7be4 2e3f fdb5 e23e fca2 a9bf eb80 a13e
000000e0: 3067 1bbe 4e19 8f3e 3941 68be 16fd a6be
000000f0: a5d5 463f 70c6 3b3f 34de 74bd 0a77 4dbe
00000100: 5698 7e3e 7326 17bf b50d 85be f0e0 483e
00000110: 710e 70bf a0a0 2dbf 53c7 eb3e b606 8abd
00000120: 81ad 983e 5245 bc3c f092 1cbe 7875 40be
00000130: 8a5a dbbe 5391 bbbe 927a e9be e577 853d
00000140: de15 d1be 67a5 293f b586 1f3f 0cb3 5abf
00000150: 1a30 d3bd 5b6e d5be 1426 5b3f 98e2 ac3d
00000160: 7ac9 8c3e 0db9 f53d ac2b c63e b521 0bbf
00000170: ef77 0ebe 986b 0fbf 1d3a e4be 3304 86be
00000180: 6b24 353d 8292 1d3f 4e2f bdbc 3db6 653e
00000190: a0af 1dbf 70c7 ffbe 453d 623e f28f 00bf
000001a0: 4459 ec3e 02e2 1dbf 299c b43d 1b62 03bf
000001b0: 2eb8 a73e 29ca bcbe 8c15 a1be 9d8e 983e
000001c0: 5c5a 9f3f c0fd cfbe 6297 fabe 0229 bebd
000001d0: 1672 633f 676d 8ebf 0a0a ac3e 4c10 ccbe
000001e0: 784a 2bbf 666d ac3e f24a 41bd b114 653d
000001f0: bc83 cf3e 5f03 f53d 2da3 523f cad6 a63e
00000200: ba86 54bf 7a5e 2fbf f6d5 dbbd 1991 7a3e
00000210: b2de 523d def7 943e e0e1 1cbf e60d 48bf
00000220: 505f 0d3f 76f2 0ebd b358 0d3e 06f4 b6bd
00000230: ce92 36bf a80b 813d 6623 87bf 9a80 ae3e
00000240: fa64 6c3e b5bf eabd e3a8 02be 1749 333e
00000250: 119e d6be a264 1c3e c3fa b1bd 3d6e 833e
00000260: 1eeb 603e 1d20 3bbf 250b eebe 4223 3cbe
00000270: 80b2 11bf 775a 2abf 420b 1ebe a2b8 bf3e
00000280: 5ef9 363f 1f96 b4be eefc ca3e 3814 333e
00000290: af37 3e3f 9493 91be 773e 69bd 4c19 083e
000002a0: be6f e03e 2b12 453e 2908 173e 0c1b f03b
000002b0: 9c2e 96bf 261d bb3f bb1c 823e f6c2 20bf
000002c0: 6438 22bf 5ca4 9b3d 4feb 393f 20c6 4dbe
000002d0: 1fe9 b03e faf9 603d f107 263f c649 0e3f
000002e0: da60 c83e 4f8c 87bf 6e49 883f 2b8d 8a3e
000002f0: b2db 2d3f 228d ec3b b0d3 86bc 2c29 cfbd
00000300: b1c0 c23e 8d08 203f 7420 263f 0ead 433f
00000310: 9887 433d e035 2dbf 30d1 e63d 4762 313e
00000320: c457 c53e 1804 413d 9f4d afbd 6ee6 163f
00000330: a0a8 a53d eb3c 96be a364 8b3d abf0 1c3e
00000340: f974 c9be 765b 7a3e 76f8 b83d 19df f4bd
00000350: e064 54bf d9f6 febd a0bf f7be c889 ecbe
00000360: 4c43 223d b856 ca3e b40d c73e c9db 743f
00000370: 48d5 e23e 915b 4e3e f690 71bf ed6e 063f
00000380: d0f9 663e 1a46 e13d f472 d9be ccd4 723e
00000390: 7d7b cbbe bf22 323f a2f1 b63e aaa4 36bd
000003a0: a142 573f 7b3b 993e 2aea dc3e 4030 9ebe
000003b0: c8b9 023e 6a4c 91bd 6030 a23e 2108 0bbe
000003c0: c39c c83e 2989 29bf 709b 53bf 09a5 87be
000003d0: 2e14 8bbe f2ae 31bf 6b81 13bf 9f90 dbbe
000003e0: c634 56bf fc04 9abe 32e4 133e 68a5 01bf
000003f0: c395 61bf be09 d03d 31c5 71bf 2cf1 4f3f
0.11397706 -1.5980756 -0.1942964 -0.47206452 0.3111103 -0.38196704 0.6442058 0.6270464
0.09995405 0.47696263 0.49150434 -0.66663784 0.94663966 0.40776375 0.3254849 -0.38749376
-0.66274065 -0.6733938 0.43975323 1.1775732 -1.073832 -0.68602973 -0.4880893 0.111785345
-0.45971504 0.07784593 0.36091873 -0.65215206 -0.22003414 0.32182115 0.3064832 0.36694786
-0.0018142152 -0.7207034 0.73557514 -0.2578608 -0.07697426 0.3668588 -0.041827653 -0.9209007
-0.22864954 -1.2566304 0.10521568 0.7880582 0.041308194 -0.5379229 -0.9473751 0.853533
-1.2896575 0.17902137 -0.09966313 0.070942074 0.68317384 0.4427947 -1.3252864 0.3154367
-0.15176082 0.27948993 -0.2268113 -0.32614964 0.77669746 0.73349667 -0.059782222 -0.20064941
0.24862799 -0.59043044 -0.2598702 0.19617057 -0.93772036 -0.6782322 0.4605051 -0.06739561
0.29819873 0.022982273 -0.15290427 -0.18794811 -0.42842513 -0.3663431 -0.45601326 0.06517009
-0.40836996 0.6626801 0.6231492 -0.85429454 -0.10311909 -0.41685757 0.8560498 0.08441657
0.27497464 0.11998186 0.38705194 -0.5434831 -0.13912939 -0.5602355 -0.44575587 -0.2617508
0.044224184 0.6155168 -0.023093846 0.224328 -0.6159611 -0.49956846 0.22093685 -0.50219643
0.46161854 -0.61672986 0.08818848 -0.5132157 0.32757705 -0.36872986 -0.3146175 0.29796305
1.244945 -0.40623283 -0.4894362 -0.09285165 0.88845956 -1.1127137 0.3360141 -0.39856184
-0.66910505 0.33677214 -0.047190614 0.055927936 0.40530193 0.119635336 0.82280236 0.32585746
-0.83018076 -0.68503535 -0.10734169 0.24469413 0.05148191 0.29095358 -0.6128216 -0.7814621
0.5522356 -0.034899198 0.13803367 -0.089332625 -0.71317756 0.063010514 -1.0557678 0.3408249
0.23085395 -0.114623465 -0.12759738 0.1750835 -0.4191747 0.15272763 -0.08690407 0.25670043
0.2196469 -0.73095876 -0.46492878 -0.18372825 -0.56912994 -0.6654429 -0.15433982 0.3744555
0.71474254 -0.35270783 0.39646095 0.17488182 0.74303716 -0.28432906 -0.056944337 0.132909
0.43835253 0.19245212 0.14749207 0.007327443 -1.1732974 1.461827 0.25412545 -0.62797487
-0.63367295 0.075997084 0.7262468 -0.2009511 0.34552857 0.054925896 0.6485587 0.5558132
0.39136392 -1.0589694 1.0647409 0.27060828 0.67913353 0.007218973 -0.016458362 -0.10115275
0.38037637 0.6251305 0.6489327 0.76435935 0.047736734 -0.6766033 0.11270368 0.17322646
0.38543522 0.047123045 -0.08559727 0.5894536 0.08088803 -0.29343352 0.06806304 0.15326183
-0.39347056 0.24448952 0.09031765 -0.11956615 -0.82966423 -0.12449426 -0.48388386 -0.4619887
0.03961496 0.39519286 0.38877642 0.95647866 0.44303346 0.20152117 -0.9436182 0.5251301
0.22556233 0.10999699 -0.42470515 0.23713988 -0.39742652 0.6958427 0.35731226 -0.04459063
0.8408604 0.29928192 0.43147403 -0.30896187 0.12766182 -0.07094653 0.31677532 -0.1357732
0.391821 -0.66224915 -0.82659054 -0.264931 -0.27163833 -0.6940757 -0.5761935 -0.42883775
-0.83674276 -0.30081928 0.14442518 -0.50643015 -0.88119143 0.10158108 -0.94441515 0.81227374

lin.bias f4 [10]
00000000: 64cc 7cbd d50f 9c3e d212 103d f402 9cbd
00000010: afa4 e4bd 9eb5 13be 3bab d03d 36e8 a53e
00000020: d3b7 01be b451 e4be
-0.06171836 0.3048083 0.0351742 -0.07617751 -0.111642234 -0.1442475 0.101889096 0.32403725
-0.1266778 -0.44593585
